results/MoveToGoal/MoveToGoal/checkpoint.pt (torch, 439199 bytes, 36 tensors)

network_body._body_endoder.seq_layers.0.weight f4 [128, 6]
00000000: 8dcb 123d 262d 743c bbd8 a0be 5d4e 833e
00000010: 686f a33e c218 573e dc7e 05be b538 38bf
00000020: 99c2 e63d bcc9 dd3d 2347 193f f156 ecbc
00000030: 7e13 2a3f 979a 71bf 72a2 74be bcb2 1f3f
00000040: 783f a23d 54e6 443f bbc3 09bf fa9e 1b3e
00000050: 962f 0d3f 6946 623e f5f7 38bf 6326 4b3e
00000060: 2349 253f a745 253f 38de 00be 39a7 9cbe
00000070: 9da9 acbe 234e 8f3c 63a9 81be f08e 03be
00000080: 30e3 afbf a834 7e3c 4efd 203f c3f5 4e3e
00000090: 0833 8cbe cc1a 0cbf 85ab 593f 995b 9d3d
000000a0: 15ec 2e3e 52a9 b93e 8c06 6bbe 7888 77be
000000b0: f324 bbbe 180d 323f 5d52 d4be bee0 bcbd
000000c0: 671d 8e3e 0d59 233e 3798 df3e edef c2be
000000d0: c4bb 063f fccf 2fbe 5c19 ab3e 1637 38bc
000000e0: 9b49 8fbe 310d b33e 3df1 4fbf 9f97 073e
000000f0: bbfe 323e 2863 763e abc0 ca3e 3a2f 883e
00000100: 9c5c 2dbd e4f3 6fbe 0c9d 963d 08d9 983e
00000110: ede2 4cbf 40ac b6be b144 303c 6eff b53e
00000120: b2ae 3fbe 6c64 b63e f34a 183f 6e0a 51bc
00000130: a325 3abd 07c6 e4be 8529 66bc ba71 3dbd
00000140: eef1 513e ddc2 e23e 4a33 0f3f 402b fdbd
00000150: 5f09 dd3e 18c4 95be 3adc 273f c752 f13c
00000160: 1453 00bf 4908 5b3d d890 4abf 10d8 42be
00000170: d849 86bd d439 9c3d 8d40 e8be 4453 a4bc
00000180: 3f47 5f3e 9fa6 12bf a237 a3be 523c bfbc
00000190: bbd0 493e 8906 b93e a395 e7bc 8b87 26be
000001a0: 1c2b a53e 05bb 1cbd dead 813e 231f c5be
000001b0: 2b71 9abe 5826 a3bd 9b6a 84be 9f0e 24bf
000001c0: b024 0dbf f700 b4bd 4172 86bd e39b 3e3c
000001d0: b0ba b5bc 4d1d a23e 182a d9be c0ed 953e
000001e0: acfc abbe b33d 3f3d 9cda 893f 706e 2abe
000001f0: 644b 893e 6d37 693e 9499 94be 9e0c 033f
00000200: c786 7ebd 1b6f 33bf 7da1 d43d 2e92 96be
00000210: 7e03 9dbe 6301 193d 9f4f 093f d866 d5bd
00000220: 2f8c 2a3f d322 cbbc 79e6 93be 9664 4f3e
00000230: 5a57 4fbe 4f01 b33e 6430 493a 74b6 403e
00000240: fc51 3b3e 40f4 26bd dd75 d1be e9fa 2cbe
00000250: a8e0 d73d ceef 693e e3ed a0be 1508 de3d
00000260: f4d7 5a3e 3451 6a3e 5f37 3fbe bf5a 9fbd
00000270: 2f83 3d3f b055 043f 5330 03bf 9173 76be
00000280: 0b33 d4be d073 eebe 28c7 e03e 8bcf 663c
00000290: 392c df3e 6aed e33d 6e61 fc3d deee 2a3e
000002a0: e233 d23e 86a5 fe3e 32d8 b2bd 99ec e8be
000002b0: eb4e a73d fcc8 c33e 133d c8be af49 cebe
000002c0: 6fa1 223f 3b13 29bd a12f 4abf e7bf dd3e
000002d0: 5a41 383e 7d5d 6bbe 11d6 9ebe b0f5 9f3d
000002e0: 9161 13bc dd40 0a3e 5fac 223f 3c6c c83e
000002f0: 73f4 db3e 8870 373e 6c45 763e b1df 6dbe
00000300: b99e 32be 63b0 4e3d d967 0b3d ef9e 31bf
00000310: a52f 6fbf c0d1 693e dec9 d8bd 169b 01bf
00000320: e4bb f23e a673 2e3c aaed 793e c0ad aabe
00000330: f5ca 6ebe fd0f 193e d0f4 4b3e 001f 49be
00000340: eb10 913e 606a 0c3d 29f8 043f 4691 d8be
00000350: 5cea 003f c3b8 00be 3a89 5abf 51a2 5bbd
00000360: 6232 d2be 2baf a6bd 3af8 0b3f 96de cc3d
00000370: eb0c 5bbd d77a 973d 8282 d1be d4b1 ef3e
00000380: b9dd cabe a584 983e 7592 353e 3a10 d63e
00000390: fed0 853d 04fe 00bd 5d84 ffbe 1020 c43e
000003a0: 6ea7 353e 59ee 79bf c73e c2bd bc34 013f
000003b0: 716a 3d3e bf88 a53e ae41 2a3e f683 58bc
000003c0: 6c87 51bf 8256 b63e 22d8 f9be a081 5abc
000003d0: 66b8 cabe 4657 e1bd e093 83be 53d2 1f3f
000003e0: 53b8 c9be 41e9 3a3d 0c29 1abe 31df 80bf
000003f0: f218 07bf 3a10 ebbe 363d 13be 3457 923e
0.035838652 0.014903342 -0.31415352 0.25645724 0.31920934 0.21005538 -0.13036674 -0.7196153
0.11267585 0.108294934 0.5987417 -0.02885005 0.6643599 -0.9437651 -0.23890093 0.623821
0.07922262 0.7691395 -0.53814286 0.15197363 0.55150735 0.22097172 -0.7225335 0.19838862
0.6456472 0.64559406 -0.1258477 -0.3059633 -0.33723155 0.017493313 -0.25324544 -0.12847495
-1.3741207 0.015515484 0.6288651 0.20210938 -0.27382684 -0.5472839 0.85027343 0.076834865
0.17082246 0.36261994 -0.22951716 -0.24173152 -0.36551628 0.6955123 -0.41469088 -0.09222554
0.27756807 0.15951939 0.43670818 -0.38073674 0.5263026 -0.17169183 0.33417785 -0.011243602
-0.27985844 0.34971002 -0.81227475 0.13241433 0.17479984 0.24061263 0.3960012 0.2659853
-0.042324647 -0.2343288 0.07354173 0.29853082 -0.8003376 -0.3567829 0.010758565 0.3554644
-0.18718985 0.3562349 0.59489363 -0.012758834 -0.04544605 -0.44682333 -0.014047985 -0.046251036
0.20502445 0.44289294 0.55937636 -0.12361765 0.43171212 -0.2925117 0.65570414 0.029458417
-0.5012677 0.0534747 -0.79127264 -0.19027734 -0.06557053 0.07628217 -0.45361748 -0.020059235
0.21804522 -0.57285494 -0.31878382 -0.023344193 0.1970853 0.36137798 -0.028269595 -0.16262643
0.32259452 -0.038264293 0.25327963 -0.38500318 -0.30164465 -0.07966298 -0.25862584 -0.6408481
-0.55134106 -0.087892465 -0.06564761 0.011633846 -0.022183746 0.3166298 -0.42414927 0.2928295
-0.3359121 0.0466897 1.0769839 -0.16643691 0.2681533 0.2277505 -0.2902342 0.5119113
-0.062140252 -0.7009141 0.10382364 -0.294084 -0.30666727 0.037354838 0.5363712 -0.104200065
0.66620153 -0.024796879 -0.28886774 0.20253214 -0.20248166 0.34961936 0.0007674752 0.188196
0.18292993 -0.04076028 -0.40910235 -0.1689259 0.10540897 0.22845384 -0.31431493 0.10841385
0.21371442 0.22882539 -0.18673466 -0.0778098 0.74028295 0.5169325 -0.5124561 -0.24067523
-0.41445193 -0.46572733 0.43901944 0.014087568 0.43588427 0.111292675 0.12323271 0.16692683
0.41055208 0.4973566 -0.08732642 -0.4549301 0.08169349 0.38239276 -0.39109096 -0.4029059
0.6352758 -0.041278105 -0.78978926 0.43310472 0.1799368 -0.22984882 -0.31022695 0.07810533
-0.00899543 0.13501306 0.6354427 0.39145076 0.42959937 0.17914021 0.2404992 -0.23229863
-0.1744336 0.050461184 0.034034584 -0.6938314 -0.93432075 0.2283392 -0.10585378 -0.5062727
0.47408974 0.01064769 0.24407068 -0.33335686 -0.2331961 0.14947505 0.19917607 -0.19640732
0.2833322 0.034281135 0.5194116 -0.42298335 0.50357604 -0.12570481 -0.8536564 -0.053621594
-0.41054064 -0.081388794 0.5467564 0.100033924 -0.053479116 0.07396477 -0.40919882 0.4681536
-0.39622286 0.297887 0.1773165 0.41809255 0.06534003 -0.03149225 -0.49905673 0.38305712
0.1773965 -0.97629315 -0.0948463 0.5047109 0.18497635 0.3233089 0.16626617 -0.013215056
-0.8184726 0.35612875 -0.4879771 -0.013336569 -0.3959381 -0.11002974 -0.25698757 0.62430304
-0.3939844 0.045632605 -0.1505472 -1.0068113 -0.5277244 -0.45910817 -0.14378819 0.28582156

network_body._body_endoder.seq_layers.0.bias f4 [128]
00000000: 4626 c5bd 4705 4cbe a4ec a8bd 4784 35be
00000010: 1ee1 fc3c b22a a1bd ba65 5abe 8956 9dbe
00000020: e95f 853d f76c 5fbe 4184 30bd 028f 333d
00000030: c190 28bd 90db 6fbe 73b3 393d 7e69 25be
00000040: a4a0 1cbd c40d ebbd 7f19 6cbd d01f 3ebe
00000050: 8b3d 82bd 0334 dd3c f3b7 22be 8734 13be
00000060: f24f 3f3d ce17 dfbd a18c 0cbd c4f0 46bd
00000070: efea 633d 6a36 f4bd d648 3dbe 87e0 9bbd
00000080: f6b0 a03c 0378 c33a 85ac 33be cdbf 69bd
00000090: 35bf 2dbe 986f 7cbd 56c1 d8bd 44f6 02be
000000a0: 090a 8ebd 8703 78be 3ef2 2ebe 86e6 9fbd
000000b0: 9b01 533d ccf2 efba b61b 063c c338 55bd
000000c0: 4691 32bc 0d82 99bd cb7b 903d db14 d9bd
000000d0: 51c6 3ebe 87d5 873d 03b8 84bd 5da1 93bd
000000e0: 325e 32bd 0828 afbd 8d63 bbbd 3aa4 243d
000000f0: 53fb 6d3d ca91 35be 7b43 033c 4554 f5bd
00000100: 1c13 e73c 4e5c d33d e6bb 27bb a27f c3bd
00000110: 2cfc 11be c667 d9bd 1d82 47be 45ad bcbd
00000120: d593 653d 81d5 a7bd e1be 50be 698f 46bd
00000130: 35b0 723d 06dc e3bd 3612 3e3d 0dd7 013d
00000140: 2ba1 0dbd 4660 49be 23b8 1bbe 991f 0abe
00000150: c5d8 9abd 8589 68be dd58 8ebe 1736 d63c
00000160: d551 bf3d f2dc f1bd baad 9cbd a89d 02be
00000170: f943 57bd c43e ef3d ca6e a53c e89b 96bd
00000180: cfa3 44bb 4df0 77be 3142 03bd 1419 dcbd
00000190: 46cb 2bbd c4ee a8bd 4b76 20bd 521f 33be
000001a0: 5066 a53c 997a 87bd 8980 53be 232a 33be
000001b0: 9bcb 6cbd e196 0abe b51f 363e 9a6a e5bc
000001c0: 31d9 62bd 3ffa 933d 8b30 8c3d 1512 bf3c
000001d0: c787 02be 9246 01be 4df8 32be feb6 24bd
000001e0: a5cd 91bd e751 313c a554 b2be 8612 e2bb
000001f0: b62a 0c38 a259 5dbe 3404 55bd b0bc 5cbe
-0.09626441 -0.19923888 -0.082482606 -0.17726241 0.030869063 -0.078694716 -0.21327868 -0.30730084
0.06512434 -0.2181891 -0.043094877 0.043837555 -0.041153673 -0.234236 0.04533715 -0.16153523
-0.038239136 -0.11477235 -0.057641502 -0.18566823 -0.06359395 0.02700234 -0.15890484 -0.14375506
0.0467071 -0.10893212 -0.0343138 -0.048569456 0.055643972 -0.11924441 -0.18484816 -0.076111846
0.019615632 0.0014913086 -0.1754628 -0.05706768 -0.16967471 -0.06162986 -0.10583751 -0.12789255
-0.06935508 -0.24220096 -0.17084596 -0.07807641 0.051515203 -0.0018306612 0.008185318 -0.052056085
-0.010898894 -0.07495508 0.07054862 -0.10599681 -0.18630339 0.06632524 -0.0648041 -0.07208512
-0.043546863 -0.08552557 -0.09149847 0.04019568 0.05810101 -0.17731395 0.008011694 -0.11978964
0.028207354 0.1032034 -0.0025594174 -0.095458284 -0.14256352 -0.10615496 -0.19483228 -0.09212736
0.056049187 -0.081950195 -0.20385315 -0.04847661 0.059250075 -0.111259505 0.046404086 0.03169923
-0.03457753 -0.19665632 -0.15206961 -0.13488616 -0.07560877 -0.2270871 -0.27802172 0.026148839
0.0934178 -0.1180972 -0.07650323 -0.12755454 -0.05255506 0.116818935 0.02019443 -0.073539555
-0.0030004864 -0.24212761 -0.032045547 -0.10746971 -0.041941904 -0.08248666 -0.039175313 -0.17492417
0.020190388 -0.066151805 -0.20654501 -0.17496543 -0.05781136 -0.13534118 0.17785533 -0.028004933
-0.05538291 0.07225465 0.06845196 0.023324052 -0.12747107 -0.12624577 -0.17477532 -0.040213577
-0.07119302 0.01082275 -0.34830204 -0.006899181 3.341838e-05 -0.21616223 -0.05200596 -0.21556354

network_body._body_endoder.seq_layers.2.weight f4 [128, 128]
00000000: 474b 58bd 87d2 4ebd d176 0a3e a61f 09bd
00000010: ce3b a7ba 9823 573d ed42 0cbd a3dc c33a
00000020: a488 47bb c6f8 fc3c 0ea9 3cbd 408a d73d
00000030: c82b ffbd f7a6 a83b 6276 7b3c e64d a3bd
00000040: a12d b63d da9b 653d 72a8 003d bff2 19bd
00000050: 2fe7 cd3d 8652 0a3c b1ed e3bd 2158 d03d
00000060: 35c2 d43c 8ae0 babd 72a1 f0bb 73cf 9b3a
00000070: 7068 023c de3c 1c3d bd0d 35bd af35 47be
00000080: 08c8 793e f80f 00be 1fc9 09bd 7730 98bc
00000090: dbcc 17be 145b f43d ac3c b0bc c251 10bd
000000a0: d430 ee3c ebf2 673c 8fd0 e33d 64ee 9c3d
000000b0: d9a4 0fbe a91a a4be 658c 53be e685 8e3d
000000c0: b72e 9c3d c3f8 133e 3560 c83c 3fde fb3d
000000d0: e21f ba3d e54f 7abb 8277 9ebd 4f69 77bd
000000e0: c4f3 62bd 5aad 293d 7bec 38be 18fe 1bbe
000000f0: f498 dcbd cbb1 3b3d 2de3 e3bb d145 6cbd
00000100: 81f4 b1be bdd8 0d3e 64b5 72bd 4644 c4bc
00000110: d97c c03d f2fb da39 968d 823e 5a54 b7bd
00000120: 482a 8dbd 3e24 a3bc 61e6 d5bc 3a9c c3bd
00000130: cfbe 65be af5b 8f3d 03d3 b63c c2f7 f23d
00000140: 8c4b a7bd 4cc2 1a3d f9b2 af3d d6f9 da3d
00000150: 64ea 493d 90a0 b83d 70e5 e13c f9e0 bebc
00000160: 0b03 76be 738d fbbd d68f 7bbd 9f67 7abd
00000170: d36c a83d 7b8e 84be b958 2cbd 264c 073e
00000180: a376 3d3e a051 a2bc d174 5a3b 6bf2 263d
00000190: b96b 25bd a69c 333d 8593 713d 9bdd 00be
000001a0: 7222 f4bd f4fe 72bc b8db 953d ee1b b73d
000001b0: 61d4 7e3e 6430 953d a04b 13be 6418 09bc
000001c0: 3f56 ccbc 2bf7 87bd 141a 1bbe c56d a9bd
000001d0: 5be4 e33b 41c1 113e c824 273e 0ede 983d
000001e0: 99b6 ab3d 5cef f3bc 87df b8bd 049c 6bbd
000001f0: f5c9 963c a608 41bc 7d3d 3cbe c2e5 69bc
00000200: 3c69 d43d 07f8 9c3d e364 2cbb db7b 05be
00000210: b566 14be 60dc 99bd 3fcc 5f3e 48f1 0cbe
00000220: 8c47 bebd 99b9 15bd ea21 dcbd 99e0 623c
00000230: 8f04 85be 1a52 acbd 6f8d 67be 3538 9bbd
00000240: d938 4d3e 90ef 0d3c d89f 6c3d 6871 e1bd
00000250: 0ea0 9d3d 256c 033d 5b51 25bd 0796 24be
00000260: f5d8 99bb db8c e53b de47 233e dfdd 25bc
00000270: 05f8 91bd 3359 dbbd aed8 e03c 19f3 e5bd
00000280: 6abd 19be 6993 f2bd 6568 5abd 125e 8dbe
00000290: 93cf cabd c426 09be 0e79 763d c615 94bd
000002a0: 7a39 e2bc 62cb 443d 134f 4b3d a47f 8dbd
000002b0: 70d8 80bd 451c 56be 874f 82be dc93 94bd
000002c0: 2b5a f6bd be2a 54bd fb02 013d d612 efbd
000002d0: be5f 803c b3b9 e13d c605 cbbd 1f2e ebbc
000002e0: 522e c0bd a4a6 923d bd96 f5bd 4010 04be
000002f0: 2bb2 86bc a3b5 af3d 1f5c 013d c93c b53c
00000300: 4b53 61be e0e4 f33d 512c b73d 4070 06bd
00000310: 5a04 dc3d 5522 52be 79af eabd 71ba 0bbe
00000320: d454 bdbd ea12 2c3e 94fd f4bc f5c4 0ebd
00000330: 1645 87bd 69a2 993d 8e9b 69ba a6e1 14be
00000340: 17e2 b63c 94d4 70be 7b6b 35bd 1a9c d43c
00000350: 0b7b 8dbc 3321 123d 0ea5 24be 6ea8 043e
00000360: 1038 61bd e487 5e3d 776d ce3c 04ee b3bc
00000370: b100 48bd 7bff 9f3d 545e 36be a033 dc3a
00000380: 5744 3b3d 751f c8bd c3ef 5cbe 2422 ff3c
00000390: 92af 143e 0f91 333d a2e0 1cbd 5a7e 34be
000003a0: 6613 8bbe d692 14be 2295 f6bd 4abd 7b3d
000003b0: b77f c3bd dd36 6fbd c4f8 a7bd 7c08 c43d
000003c0: e59a 193e e4ae 34bd e162 05bd 6e15 56be
000003d0: 2acb 5dbc 0509 083e 537f b53d c480 abbd
000003e0: 321e 003e c7dc 23be 0f54 e2bd ab6e 56bc
000003f0: 00aa babd e768 7fbb 1309 84be e963 e1bc
-0.052806165 -0.050493743 0.13521887 -0.033477448 -0.0012758912 0.05252418 -0.034243513 0.0014943074
-0.0030446434 0.030880343 -0.04605966 0.10524416 -0.124595225 0.005146857 0.015348049 -0.07973842
0.08895422 0.056056835 0.031410642 -0.037585016 0.100538604 0.008442527 -0.111293204 0.10173059
0.025971511 -0.09124859 -0.0073434645 0.0011887386 0.00795947 0.038143985 -0.044202555 -0.19454072
0.24392712 -0.12506092 -0.03363907 -0.018577797 -0.1482424 0.11931434 -0.021513306 -0.03523422
0.029076017 0.014157037 0.11123764 0.07662657 -0.14027728 -0.3205159 -0.20659025 0.06959133
0.07626098 0.14450364 0.024459938 0.122982495 0.090881124 -0.0038194594 -0.07737638 -0.060403164
-0.055408254 0.041425087 -0.1805896 -0.15233648 -0.10771361 0.045823853 -0.0069545717 -0.05768377
-0.34756854 0.1385221 -0.05925502 -0.023958337 0.09398813 0.00041767914 0.25498646 -0.08951636
-0.0689283 -0.019914743 -0.02611083 -0.09551282 -0.22436069 0.06999909 0.022317415 0.11863662
-0.08168706 0.037782952 0.08579058 0.10692184 0.049295798 0.09015 0.027575225 -0.023300635
-0.24024598 -0.12282839 -0.06141647 -0.061133977 0.082238816 -0.25889954 -0.0420768 0.13212642
0.18502288 -0.019814312 0.0033333788 0.04075853 -0.040385935 0.043850563 0.058978576 -0.12584536
-0.119206324 -0.014831293 0.07317299 0.08940874 0.24885704 0.072846204 -0.14384317 -0.008367632
-0.02494347 -0.066389404 -0.15146667 -0.0827289 0.0069547123 0.14233877 0.16322625 0.074642286
0.08384437 -0.029777221 -0.090270095 -0.057521835 0.018406847 -0.011781847 -0.18382831 -0.01427597
0.10371634 0.07664495 -0.002630525 -0.13035528 -0.14492305 -0.07512736 0.21855257 -0.13763916
-0.0929099 -0.036553953 -0.10748656 0.013847494 -0.2598004 -0.08414097 -0.22612546 -0.0757908
0.20041217 0.008663073 0.057769626 -0.11007959 0.07696544 0.032085557 -0.04036079 -0.16072856
-0.0046950527 0.0070053167 0.15945384 -0.010123699 -0.07127384 -0.10710373 0.02744707 -0.11228008
-0.15013662 -0.118445225 -0.053322215 -0.27610832 -0.09902873 -0.13393694 0.06017404 -0.072307155
-0.027615298 0.048045523 0.049635958 -0.06909111 -0.06291282 -0.20909221 -0.254513 -0.072547644
-0.12028917 -0.051798575 0.031496983 -0.116735145 0.015670653 0.110217474 -0.099132106 -0.028708516
-0.09383835 0.071606904 -0.11991642 -0.12896824 -0.016442379 0.08579566 0.031581994 0.022123711
-0.2200443 0.11908889 0.089439996 -0.032821894 0.107430175 -0.20520909 -0.1145925 -0.1364534
-0.09244695 0.1680409 -0.029906072 -0.0348558 -0.06604974 0.075016804 -0.0008911424 -0.14539203
0.022324605 -0.23518592 -0.044291954 0.025953341 -0.017270586 0.035676192 -0.16078588 0.12954876
-0.054985106 0.054328814 0.025198681 -0.02196408 -0.048828784 0.07812401 -0.17809421 0.0016800053
0.04571947 -0.09771625 -0.21575837 0.03114421 0.145201 0.04383951 -0.038300164 -0.17626324
-0.27163237 -0.14509138 -0.120401636 0.061459817 -0.09545844 -0.05840193 -0.08201745 0.09571931
0.15000494 -0.0441121 -0.032565 -0.20906612 -0.013537208 0.1328469 0.08862176 -0.083741695
0.12511519 -0.16002189 -0.11051189 -0.013087909 -0.09114456 -0.0038972439 -0.25788173 -0.027513461

network_body._body_endoder.seq_layers.2.bias f4 [128]
00000000: e8fc 0b3c c7e1 64bd f6a7 e73c 78d8 85bd
00000010: 83e5 8bbd 4c67 36bc fefb 0e3e e5d0 173e
00000020: 0b77 0dbc 5953 113d 16d0 373d b8a7 803d
00000030: 07e9 18bd 8209 f13d 9a37 9bbd f144 fdbc
00000040: 4ebe 61bd 5671 083e c549 61bc 9886 d1bd
00000050: 4535 5ebd 5376 f9bc b237 473b d575 e13c
00000060: 98ae b93d e021 2c3c 70ee 91bc 58ea 08bd
00000070: 2188 8fbc 225a e53b 716f b2bc 57f1 29be
00000080: 93b8 d6bc 4c8b 00bc 923d afbb 932f 64bd
00000090: 77e9 4e3d a29a 9dbc f823 393d 5e93 85bc
000000a0: bab0 223d 7d0c 00be f9d8 a8bd b3fa cebd
000000b0: fb82 3f3d e4a3 7dbd 600e cdbd 52b5 8cbd
000000c0: 4382 e73c ee29 12be bf96 03bd 649a 4e3d
000000d0: f7aa 1dbd e0e4 a53d dc6a cebd b6fd 91bd
000000e0: c42b 833d a350 4d3d 4a99 793c ca7a aabd
000000f0: e67f 3fbd c5b9 97bd 5ed7 b5bd 3803 2b3e
00000100: 5ed5 e9bd 069d 96bd 868e 8e3c 97d9 a7bd
00000110: 1e29 863d a6f1 563d 3654 9f3d fb25 a03d
00000120: 989c 88bd 993d a5bd 647d 12be 4e81 0cbd
00000130: 1205 a83d fd46 babb 3511 77bc 30a5 8cbd
00000140: 81a8 b03d 9d02 763d 11cf 303c f238 c83d
00000150: 33bc a43a aae6 91bd 424d e53c 0360 9b3d
00000160: 2d0b d7bd 9a9a 9dbd fc5e 343e 7b7f 87bd
00000170: e288 83bd 1f7c 3c39 77e3 babd 8399 2a3d
00000180: eea2 b6bd b648 afbc 2d36 9abd 44c7 2abc
00000190: 42ac 423e 3650 1b3d 1ec7 76bd ed11 82bd
000001a0: 6d05 12be 29be b23d 70d5 513d f35e 893d
000001b0: 5bf2 49bd 06c8 c0bd 655a df3d 551a 443e
000001c0: e0d4 5bbd 9873 18bd e677 5ebd 2b01 54bc
000001d0: 004e c13c 79d7 a43d eeeb 9e3c ffa9 c13d
000001e0: 14d1 8ebd dbbb 563c 3fe3 1ebe 5050 44bd
000001f0: 5b2b 41bd 7a45 543c 257d e2bc eacb f1bc
0.008544184 -0.05587938 0.028278332 -0.06535429 -0.06830885 -0.011133026 0.13963315 0.1482578
-0.008634339 0.035479877 0.04487618 0.0628199 -0.037331607 0.117693916 -0.075789645 -0.030916663
-0.05511313 0.13324484 -0.013750498 -0.1023075 -0.05425002 -0.03045193 0.0030398187 0.027522007
0.09066504 0.010506123 -0.017813891 -0.033426613 -0.017520966 0.00699927 -0.021781655 -0.1659597
-0.026211059 -0.007845711 -0.005347916 -0.055709433 0.05051562 -0.019238774 0.045200318 -0.016305622
0.03971932 -0.12504764 -0.08244509 -0.10106411 0.046755772 -0.061923876 -0.100125074 -0.068705216
0.028260356 -0.14273807 -0.032126185 0.050440207 -0.038493123 0.08100295 -0.100789756 -0.0712847
0.06404832 0.05012573 0.015234301 -0.083242014 -0.046752833 -0.074084796 -0.08878969 0.16700447
-0.1141765 -0.073541686 0.017401945 -0.08195799 0.06550811 0.052476548 0.07779734 0.07819744
-0.06670493 -0.080683894 -0.14305645 -0.034303002 0.08204092 -0.005684732 -0.015079786 -0.068674445
0.086258896 0.060061086 0.010791556 0.097764865 0.0012568295 -0.07124074 0.027990941 0.07586672
-0.105001785 -0.076955035 0.17614359 -0.06616112 -0.06422593 0.00017975316 -0.09125417 0.041650306
-0.08917795 -0.021396976 -0.075298645 -0.010423485 0.19011024 0.037918292 -0.060248487 -0.06351075
-0.14259882 0.087276764 0.05122894 0.06707563 -0.049303394 -0.094131514 0.10905913 0.1915067
-0.05366981 -0.037219614 -0.054313563 -0.012939732 0.023596764 0.08048911 0.01939961 0.09456252
-0.06973472 0.013106312 -0.15516375 -0.047928154 -0.047160488 0.012956018 -0.027647564 -0.02951618

action_model._continuous_distribution.log_sigma f4 [1, 2]
00000000: 3a83 80be 51ab 64be
-0.25100118 -0.22330977

action_model._continuous_distribution.mu.weight f4 [2, 128]
00000000: dce1 a43c a427 71bc 65d2 aebc 82cd 693d
00000010: e96e b53c a64c 863d dcf8 28be 4aa8 91bd
00000020: 4075 363d f202 dd3c 3725 cd3d b989 c03d
00000030: 8aaa 8b3c b0e7 60bd 2b8a 3b3c 8876 833d
00000040: d661 80bc a94c 57bd fc84 f83c e411 543d
00000050: f38c 093d 0b01 ad3c eaa4 c7bd 3172 fc3b
00000060: 5190 003e c7dc 453d 938b ab3c 7621 f03b
00000070: 9e78 13ba 88fa b23d a9ea 063d 6a1d c93d
00000080: f279 4c3d 50bf 9c3d 5105 b03d 51f5 8e3d
00000090: 3f98 12bd b70f 0b3d 5ede 4cbd ea7f d53c
000000a0: c4c7 8ebd 69cb 723d aeb1 113d e57c c33c
000000b0: 7995 3cbc 6d4c 123d d33e 663d 7c4a 153d
000000c0: c082 423d 9981 553d 2398 043d 5ee9 1d3d
000000d0: 3513 3ebd 3ad4 c83d 619c 5e3d 1edd bc3c
000000e0: 623d 383d 37b5 a8bc 7650 773b ce64 d2bb
000000f0: f39e a93d 4eb1 223d e336 0f3d 4244 0bbd
00000100: ba0c ce3c e4a4 143d 5fc8 4abd a7c8 d03c
00000110: 1637 89bd 441f 393d 53b2 16bd 2a75 37ba
00000120: 8c25 173d c61a 7a3a c77b ae3c 35ad 343d
00000130: b8be 2fbd f0c5 a43b 8317 013d 7e26 963c
00000140: 3d07 5f3b 208c 8c3c d38d 0b3c 1afb db3d
00000150: 4552 563d 759b dd3c b7d6 4f3d ad9f a03d
00000160: 8863 1f3d 4783 fd3c 64de 94bd a0bf e73c
00000170: fa98 1b3d 816b 03bd 9923 4c3d 8a72 b33d
00000180: 463b a03c b3ec 893d f146 d13c 2791 8f3d
00000190: 102d a1bd b185 d3bc 4453 ed3c 1af1 2d3d
000001a0: 10e6 253d f5ab 52ba 96c5 b9bc 2336 82bd
000001b0: fba5 2a3d 2c54 d13c af34 ee3d e654 dabd
000001c0: 81ae 293d 29d5 9d3c 364b b83c 9d62 49bd
000001d0: 0281 f73c 3d34 a83d f0f3 013d f4ae b2bd
000001e0: 2215 8239 f0fd 083d de04 a53d b87d 483d
000001f0: 8c81 df3d 8e51 0c3d 551a 043d 7184 913d
00000200: 5a91 ad3d e6bc 093d 2a5b 51bd 6c7d be3c
00000210: bbc7 333b 4d1b 74bb b080 34bd 5c79 dfbd
00000220: ded1 e83b 7dd5 88bd 9015 0a3d 63c1 41bd
00000230: da50 c33d 8a21 19bd c1eb 78bb b224 1e3d
00000240: 9673 28bc dd16 a2bd b24b 81bd fdae fb3c
00000250: 8298 36bd 0709 53bd 023e 033c 455c 83bd
00000260: faa2 a9bd 8836 ff3c d3ad bb3c 798c 683c
00000270: 1360 413d d194 a03d 17d8 d8bc bd10 8b3d
00000280: 21de 1e3d b1a5 bbbd 9157 05bd 4bb6 be3c
00000290: 407d 9a3c cfb7 483d c451 18bc 4901 27bc
000002a0: 0347 12bd f680 183b ccbc 253c 5fe9 d43b
000002b0: 03e5 aebb 394a 7fbc 04b6 4d3c 61c2 ffbc
000002c0: ea4e 493d 3901 e23c dc33 a9bc 5d16 243d
000002d0: 05d0 993c 4987 b43c b5a6 9bbc 4bf4 e43c
000002e0: f4e0 fbbc d627 f03d 02bb 5e3d 4e84 913c
000002f0: fc5f 3dbc 4e4b 333b dd59 0d3d 6c16 053c
00000300: b038 85bc de65 4c3c d9a0 a3bd dc7d 1fbc
00000310: e8c1 0cbd f39f 0abd 760b 0c3d 2ee9 0c3e
00000320: a73d 9fbc ac9c c33d 9416 f33b 4397 97bc
00000330: 96a3 7fbd 82a7 88bc b76c fcbb 9874 013d
00000340: c9cd e83d e1e9 dbbd 2423 babd dcc3 10bd
00000350: a72d 103d 9a3a e83c a612 223d 85f7 373d
00000360: 5c85 1a3d 7009 71bc fb8e 083d dbc0 81bb
00000370: 3a8d b03c bc6f c73c c187 5bbb 1c4d 363d
00000380: 176c 133c 6960 103d 7e01 f2bc bb66 fabc
00000390: 6ef8 563c d64e 34bd f952 7d3c c9d4 183c
000003a0: 8330 033d 91c3 bfbd 4417 923d 51f1 813d
000003b0: 7ab0 523c b08d 52bc 8254 afbc 7daa f43c
000003c0: 8155 c13c 96eb 273c 2b6f 213d 8c8f 8d3d
000003d0: 06f4 9cbd ca90 a33d 00b4 52bd 032b 27bd
000003e0: dc9b e13c deb8 04bc 990f 043b b949 f9bc
000003f0: f057 df3a a60b 403d 47c9 853b d03b 89bc
0.02012723 -0.014718924 -0.021340558 0.057080753 0.022147613 0.06557588 -0.16501182 -0.07112177
0.044545412 0.026978943 0.10016864 0.094012685 0.017049093 -0.054908454 0.011446516 0.064190924
-0.015671652 -0.052563343 0.03033685 0.051774874 0.033581685 0.021118661 -0.09748252 0.0077040424
0.12555052 0.048306253 0.020940578 0.0073282076 -0.00056255783 0.08739191 0.032938633 0.098200634
0.049920984 0.076536775 0.08594764 0.06980384 -0.035789724 0.033950534 -0.050016753 0.02606197
-0.06971696 0.05927602 0.03556984 0.023863265 -0.011510246 0.035717417 0.056212258 0.036447987
0.047487974 0.052125547 0.03237165 0.038552634 -0.046405036 0.09806104 0.054348353 0.023054656
0.044980414 -0.020594222 0.0037737167 -0.0064207083 0.0828227 0.039719872 0.034964453 -0.034000643
0.025152553 0.036290064 -0.049507495 0.025486303 -0.0669996 0.045195833 -0.036791157 -0.0006998355
0.036901042 0.0009540733 0.021299256 0.044110496 -0.042906493 0.005028479 0.031516563 0.018328901
0.0034031414 0.01715666 0.0085177 0.10741253 0.052324552 0.027051667 0.050741877 0.07842956
0.03891328 0.030946387 -0.0726898 0.028289616 0.037987687 -0.032084946 0.049838636 0.08762081
0.019559514 0.067346 0.025546523 0.070101075 -0.07869923 -0.025820585 0.028970368 0.04246626
0.040502608 -0.0008036488 -0.022677224 -0.06357982 0.041662198 0.025552832 0.11631142 -0.10660724
0.041426186 0.019266682 0.0224968 -0.04916631 0.030212883 0.08213089 0.031726778 -0.08724776
0.00024811277 0.0334453 0.08057569 0.04894802 0.10913381 0.034257464 0.032251675 0.07105339
0.08474989 0.033627413 -0.05111233 0.023253165 0.002743228 -0.0037247718 -0.04406804 -0.10911819
0.0071050962 -0.06681345 0.03371197 -0.04730357 0.095369056 -0.0373855 -0.0037982317 0.038609214
-0.010281464 -0.07914517 -0.06313266 0.03072309 -0.044579037 -0.05152228 0.008010389 -0.064140834
-0.082830384 0.031153932 0.022910034 0.014193648 0.047210764 0.078408845 -0.026470227 0.06790302
0.038786057 -0.091624625 -0.032554213 0.023280283 0.018858552 0.04900342 -0.009296838 -0.0101931775
-0.035712253 0.0023270226 0.010115813 0.0064975466 -0.005337359 -0.015581661 0.012555603 -0.031220617
0.049147524 0.027588474 -0.020654611 0.04006039 0.01877595 0.022037165 -0.01900039 0.02794852
-0.030746914 0.11726348 0.054377563 0.017763283 -0.011558529 0.0027358118 0.03450953 0.008123022
-0.016262382 0.012475459 -0.07989664 -0.009734597 -0.03436461 -0.033843946 0.034190618 0.13760826
-0.019438578 0.09551367 0.007418463 -0.018504744 -0.062411867 -0.016681436 -0.0077033895 0.031605333
0.113673754 -0.10737968 -0.09088734 -0.035343036 0.035199787 0.028348256 0.039568566 0.044913787
0.037724838 -0.014711723 0.03333948 -0.0039597577 0.021551717 0.024345271 -0.0033497664 0.04450713
0.008997939 0.035248194 -0.029541727 -0.030566564 0.013120754 -0.044020496 0.015461677 0.009328076
0.032028686 -0.09363473 0.07133344 0.063448556 0.012859458 -0.012851164 -0.021402601 0.029866451
0.023600342 0.010249039 0.03941266 0.06912145 -0.07663731 0.07986601 -0.051441193 -0.040812504
0.02754014 -0.008100716 0.0020150898 -0.030430662 0.0017039757 0.04688611 0.004082832 -0.016752154

action_model._continuous_distribution.mu.bias f4 [2]
00000000: b758 c6bd c898 d1bc
-0.0968489 -0.025585547

exp_avg f4 [128, 6]
00000000: 5a33 0bbb 4a0a 0bb0 6515 9fba e675 7dba
00000010: 0000 0000 2857 c5bb 1210 e63a b520 46ae
00000020: 2fed af3a 83a6 f5ba 0000 0000 633f d23a
00000030: 4963 3bbb 1c56 48af 0375 15bb f59d babb
00000040: 0000 0000 6acc b83a cce9 203a 4ce1 3daf
00000050: b2f9 403b 7a43 cc3a 0000 0000 c7c1 97ba
00000060: ba5e 2bbc 03af eeaf 3587 06bc 65a5 65bc
00000070: 0000 0000 8035 953b 4623 51b9 7894 bcaf
00000080: 5aa0 3b3b 3297 933b 0000 0000 8f63 80bb
00000090: b366 f83b d746 082f d62c 5ab9 cc85 0f3c
000000a0: 0000 0000 7cc1 063b 2d09 833a 19ad 182f
000000b0: 308e 013b ae6e e23a 0000 0000 11fb 113a
000000c0: ec92 2c3c 02ae 88af dbd6 1ebc e915 6e3c
000000d0: 0000 0000 2bac 95bc 8926 80ba 50b7 e8ae
000000e0: ab61 83b9 b9bd 82ba 0000 0000 a512 94ba
000000f0: 537b e63b 8424 0830 1221 1d3b f2aa 343c
00000100: 0000 0000 0dde 023b 3020 a8bb 7af0 d12f
00000110: 9f73 2439 2931 81bc 0000 0000 46c0 0e3c
00000120: 944d 843c 59f8 902e f563 10bb 4b86 b93c
00000130: 0000 0000 afc7 62bb 4fd7 333b c865 662f
00000140: bd62 3138 4265 4b3b 0000 0000 16e1 8138
00000150: 4ea6 393b 1079 97ad 40e4 15ba 31c7 1c3c
00000160: 0000 0000 9c04 7338 d669 20bc e0fc a6af
00000170: 2009 353c 1507 b8bb 0000 0000 7c4b bbb9
00000180: c833 b1bb bd5c 67af 010c 87ba bb6b 18bc
00000190: 0000 0000 1827 833b a69e 0b3c 4977 252f
000001a0: 8384 183a f574 4e3c 0000 0000 5802 1a3b
000001b0: 2a32 9ebb 5cd5 542f 3c94 263b 8697 f4ba
000001c0: 0000 0000 c330 8f3b 3ec7 89ba 59da 43af
000001d0: 026d 6a3a f4bc 23bb 0000 0000 ec71 0dba
000001e0: 5ea7 673a 217f 7d2f f8e6 a83b 630c 553b
000001f0: 0000 0000 f55e 4d3b f6d1 4b3b ce19 ce2e
00000200: 3c18 c5bb f989 fb3b 0000 0000 d1af bf39
00000210: dcdf c63b edcc 8caf 86f3 09bb fcc4 2b3c
00000220: 0000 0000 eb99 4bbb c30f 87bb 9561 2db0
00000230: 5c94 7b3b 4bcf e1ba 0000 0000 b99b 0abc
00000240: 06c6 a0bb 37fc 612e 8e1b 50bb be0f 87bc
00000250: 0000 0000 8187 313b 52f4 feba 8822 6e2e
00000260: 4821 903b bc9b 4dbb 0000 0000 d5fe 033b
00000270: 6e51 dd39 9177 31af 385d 1eba 1029 203b
00000280: 0000 0000 01e7 4e3a 76e1 4e3b bd7d a62d
00000290: fd73 8f3a ea53 df3b 0000 0000 df53 c3ba
000002a0: 2ad1 953b 977b bb2f 0d6a 04bc 92a2 fdbb
000002b0: 0000 0000 1431 9a3b c311 19bc 2772 13ae
000002c0: f53c 193c fb2d 1dbc 0000 0000 64cf ed3a
000002d0: 43c5 b339 5055 36af 6b1d b439 323a 063a
000002e0: 0000 0000 3a4b bbba bbe5 783b 28d2 d02f
000002f0: 5443 cf3a f39b a83a 0000 0000 d2e4 663a
00000300: 15fe 923b 74f2 8e2e 90d3 ddbb 7fd1 bf3b
00000310: 0000 0000 53e9 883a e7c8 8e3c 7ee7 bdae
00000320: d2a9 3cbb bd24 b73c 0000 0000 725b eb3a
00000330: 3263 debb 6c8b 002f 4aec a43b 98db e3bb
00000340: 0000 0000 0905 5b3b b070 02bb 2e9e 18af
00000350: 6a6b 31bb 91f1 0e3b 0000 0000 285a 15bb
00000360: 0165 bd3b 9bfc 10af 5064 29b9 2ec3 a43b
00000370: 0000 0000 5c59 8d3a 63a8 b1bc 45c9 92af
00000380: e0a9 233c 3ea5 c9bc 0000 0000 518c 2a3c
00000390: d2f9 053c d0ab 412d 67b5 273b 55a4 2d3c
000003a0: 0000 0000 2f36 e63b 4c8b bd3b 8c87 47ae
000003b0: 12b6 2739 7531 c33a 0000 0000 2fc6 993a
000003c0: 4fa2 3cbc d660 a0af fe98 303c 4124 8ebc
000003d0: 0000 0000 2c20 643c 95bd df3a 113e 0daf
000003e0: e07d 0dba a8e9 843b 0000 0000 232e 353b
000003f0: 4ca3 f13b 5f5d adaf ce92 d1ba 682b e23a
-0.0021240325 -5.0582527e-10 -0.0012137113 -0.00096687523 0.0 -0.0060223527 0.0017552397 -4.5049037e-11
0.0013422127 -0.0018741641 0.0 0.0016040619 -0.0028593114 -1.8220486e-10 -0.002280534 -0.0056950995
0.0 0.0014099006 0.0006138354 -1.7269491e-10 0.0029445705 0.0015584074 0.0 -0.0011578136
-0.010459596 -4.34163e-10 -0.008210947 -0.014016484 0.0 0.004553497 -0.00019944934 -3.4302494e-10
0.0028629513 0.004504108 0.0 -0.0039181183 0.007580602 1.2394295e-10 -0.00020806803 0.008759927
0.0 0.0020562103 0.0009997241 1.3885816e-10 0.0019768588 0.0017275417 0.0 0.0005568723
0.010533076 -2.4861896e-10 -0.00969478 0.014531591 0.0 -0.018270573 -0.0009777109 -1.05827014e-10
-0.00025059035 -0.0009974755 0.0 -0.001129706 0.0070337444 4.9528404e-10 0.002397601 0.011027085
0.0 0.0019968778 -0.00513079 3.8187747e-10 0.00015683331 -0.015770512 0.0 0.008712834
0.016150273 6.592477e-11 -0.0022032235 0.022647044 0.0 -0.0034603884 0.0027441566 2.0954538e-10
4.2292046e-05 0.0031035696 0.0 6.193125e-05 0.0028327885 -1.7220475e-11 -0.0005717911 0.009568975
0.0 5.7940008e-05 -0.009790858 -3.0374903e-10 0.011049539 -0.0056160786 0.0 -0.0003572366
-0.005407784 -2.1042275e-10 -0.001030326 -0.009303029 0.0 0.004002463 0.008521711 1.5049041e-10
0.00058180856 0.012601127 0.0 0.0023499932 -0.0048277574 1.9357088e-10 0.0025417944 -0.001866088
0.0 0.0043698265 -0.0010511649 -1.781272e-10 0.0008942635 -0.002498445 0.0 -0.0005395699
0.00088368903 2.3055381e-10 0.0051544867 0.0032508604 0.0 0.0031337116 0.0031100488 9.372379e-11
-0.006014852 0.0076763597 0.0 0.00036561352 0.0060691666 -2.561146e-10 -0.0021049692 0.010483976
0.0 -0.0031067084 -0.004121752 -6.3075706e-10 0.003838799 -0.0017227916 0.0 -0.008459979
-0.0049064187 5.138309e-11 -0.0031754705 -0.016486999 0.0 0.0027088823 -0.0019451475 5.4145605e-11
0.0043984987 -0.0031373342 0.0 0.0020140905 0.00042213075 -1.6140535e-10 -0.00060411124 0.0024438538
0.0 0.00078926986 0.003156749 1.8927854e-11 0.0010944601 0.0068154233 0.0 -0.0014902315
0.0045720534 3.4102918e-10 -0.008081925 -0.007740327 0.0 0.0047055576 -0.009342614 -3.3525318e-11
0.009352912 -0.009593482 0.0 0.0018143472 0.00034288512 -1.6583113e-10 0.00034354193 0.0005120366
0.0 -0.0014289387 0.0037978727 3.7984305e-10 0.0015812912 0.0012863859 0.0 0.00088079006
0.0044858553 6.500481e-11 -0.006769605 0.0058538313 0.0 0.0010445513 0.017429782 -8.635846e-11
-0.0028787744 0.022356385 0.0 0.001795633 -0.0067867273 1.1691065e-10 0.0050330507 -0.006953668
0.0 0.003341975 -0.0019903593 -1.3880516e-10 -0.002707208 0.0021811465 0.0 -0.0022789333
0.005779863 -1.3186467e-10 -0.00016154465 0.00502815 0.0 0.0010784077 -0.021686738 -2.6700256e-10
0.009989232 -0.024614926 0.0 0.010409431 0.008177238 1.100893e-11 0.0025590302 0.010598262
0.0 0.007025502 0.0057844277 -4.536775e-11 0.00015994188 0.0014892059 0.0 0.0011732037
-0.011513307 -2.9172637e-10 0.010778664 -0.017351272 0.0 0.013923686 0.001707005 -1.2845926e-10
-0.000539748 0.0040561743 0.0 0.0027645908 0.007374203 -3.153486e-10 -0.0015989186 0.0017255368

exp_avg_sq f4 [128, 6]
00000000: 54f8 c63a fae7 c422 333d de39 433a 523b
00000010: 0000 0000 483f 703a b72b aa39 2a8d bb21
00000020: 6f82 9e38 3b03 fb39 0000 0000 d747 1139
00000030: 519d 9939 66c3 2022 dd21 2939 c1b5 4d3a
00000040: 0000 0000 b57c c139 5a99 0c3a 8ba6 2422
00000050: 176a 4339 d2fc 3e3a 0000 0000 1e41 e839
00000060: 596c d93b 5944 a723 dcae c23a cd7a 333c
00000070: 0000 0000 5b0c 313b cef0 863b e838 8023
00000080: 6ac2 8e3a 3304 b73b 0000 0000 e8e8 013b
00000090: 2a3b c439 a50d e221 57ee 2e39 163f 333a
000000a0: 0000 0000 8c6c a039 83bf 0b3b 4596 ff22
000000b0: 9fca ce39 e3e0 7e3b 0000 0000 9d0c 393a
000000c0: dd39 123b 05b7 3823 0e7b 333a a78c 2a3b
000000d0: 0000 0000 ae9f b23a 2bb2 d439 ba77 bb21
000000e0: eebe f138 5c6d 533a 0000 0000 3da1 5b39
000000f0: cdf0 113b a8fd 1923 b6ae 513a 5c9d 963b
00000100: 0000 0000 a026 be3a 3dbc d23b f38e b023
00000110: b877 a63a 31b2 fb3b 0000 0000 9ba0 163b
00000120: 08cd ab3b a6a8 a423 3eb9 853a f090 ba3b
00000130: 0000 0000 27d5 f23a c72f 903a 8767 9122
00000140: be67 b039 326a 063b 0000 0000 1cbd 263a
00000150: 9b7f 253a de25 3722 124f 4939 666f 7f3a
00000160: 0000 0000 7116 b839 99f6 2b3b bd7d ec22
00000170: 51ca ec39 49a5 3a3b 0000 0000 0b16 593a
00000180: c6fe 963a 4237 8a22 ef73 c639 9035 0b3b
00000190: 0000 0000 757d 2e3a f0c3 223b 61ff 2023
000001a0: 827e 143a 474c 573b 0000 0000 79f5 893a
000001b0: 519b 8e39 0b5c ba21 a95c 7138 fe63 af39
000001c0: 0000 0000 712a 0c39 9a6e 883a 1a7b 8c22
000001d0: 58d9 8039 cf0e f63a 0000 0000 0457 0e3a
000001e0: 531a 603a d37f 6e22 64a9 b339 a1a6 933a
000001f0: 0000 0000 830a 263a 4c9e 763a 7ed0 8a22
00000200: fc43 8239 c824 9a3a 0000 0000 1bee 113a
00000210: 1020 593a 83cd 2a22 ab32 1539 84e0 753a
00000220: 0000 0000 93fb 8939 09ee 943b e8d5 8c23
00000230: 9a2f 873a bd59 023c 0000 0000 9d67 023b
00000240: 374b 643b 1565 7823 e103 873a e1d7 a53b
00000250: 0000 0000 3640 f33a cd51 a03a 25ad 9022
00000260: def2 9339 2734 da3a 0000 0000 6e5f 083a
00000270: 9e4a 393a cdcc 1c22 3b1c d038 18cc a53a
00000280: 0000 0000 71b8 2e39 85d9 de39 b791 0222
00000290: c253 5f39 15d0 803a 0000 0000 123d d639
000002a0: 9fd9 083b b1f2 3923 614d 5f3a 3f32 2d3b
000002b0: 0000 0000 b293 ec3a 59b2 023b 9ec3 f422
000002c0: 979b fd39 a2f7 0f3b 0000 0000 4bc3 933a
000002d0: f6b4 1439 6a25 6121 2818 8a38 d4a1 9539
000002e0: 0000 0000 d53b 0439 b1f3 f339 d60f 5222
000002f0: 4e9c 6a39 5f4e 913a 0000 0000 a966 013a
00000300: bee5 313a 4f4b 5e22 7d19 4b39 ca8b 603a
00000310: 0000 0000 0e05 d139 b93f 633b d44a 6823
00000320: 2b54 403a 4563 883b 0000 0000 d22b ba3a
00000330: 38fe d239 30b1 9a21 8d95 9638 35d1 d139
00000340: 0000 0000 531a 0939 ef9d 043b d4b7 0323
00000350: 71b4 223a c8a4 703b 0000 0000 8fe9 a53a
00000360: 88d8 9939 6d37 ba21 931c d638 48aa ed39
00000370: 0000 0000 9f6c 4539 12d7 f63b 0f9b f323
00000380: 0b0f d03a b89b 0f3c 0000 0000 a571 513b
00000390: 8bdf ef3a caf8 e722 1d26 e539 0ddd 803b
000003a0: 0000 0000 3761 873a d784 c23a 8c4f b722
000003b0: b0a0 cb39 d5af 4f3b 0000 0000 990c 4c3a
000003c0: ed83 933b fe17 6d23 f702 4e3a 2f84 903b
000003d0: 0000 0000 d6ea cd3a 381b 7b39 cf5c 7c21
000003e0: 5b60 9738 da0f bf39 0000 0000 cfcf 0d39
000003f0: 8605 d73a 72c6 af22 b55b b939 ed89 0b3b
0.0015180209 5.337152e-18 0.00042388737 0.0032078184 0.0 0.0009164703 0.00032457497 1.2708979e-18
7.558322e-05 0.00047876858 0.0 0.0001385504 0.00029299644 2.1787487e-18 0.00016129711 0.0007847213
0.0 0.00036904743 0.00053634273 2.2314312e-18 0.0001863617 0.0007285598 0.0 0.00044299004
0.0066352305 1.8135123e-17 0.0014853138 0.010954571 0.0 0.002701542 0.0041180616 1.3901889e-17
0.001089168 0.0055852174 0.0 0.001982266 0.00037428114 1.5317967e-18 0.00016682722 0.00068377086
0.0 0.00030598452 0.0021323867 6.9276993e-18 0.00039442346 0.0038891367 0.0 0.00070590695
0.0022312321 1.0013416e-17 0.00068466447 0.0026023777 0.0 0.001362791 0.00040568536 1.2703304e-18
0.00011527339 0.0008065307 0.0 0.00020945533 0.0022268773 8.3478604e-18 0.0007998751 0.0045963954
0.0 0.0014507361 0.006431131 1.91425e-17 0.0012700474 0.007681154 0.0 0.0022983912
0.0052429475 1.7852341e-17 0.0010202301 0.0056935474 0.0 0.0018526659 0.0011000567 3.9411943e-18
0.0003364663 0.0020510075 0.0 0.0006360577 0.0006313265 2.4821171e-18 0.0001919831 0.00097440777
0.0 0.00035111935 0.0026239513 6.410106e-18 0.00045164165 0.0028479865 0.0 0.0008281178
0.001152002 3.746348e-18 0.0003785188 0.0021241643 0.0 0.0006656268 0.0024836026 8.727696e-18
0.0005664603 0.0032851861 0.0 0.0010525427 0.0002720007 1.2628214e-18 5.7545174e-05 0.000334531
0.0 0.00013367251 0.0010408938 3.8077415e-18 0.00024575996 0.0018772724 0.0 0.00054298365
0.00085488445 3.2322684e-18 0.00034267746 0.0011264869 0.0 0.0006333964 0.00094077433 3.7625725e-18
0.00024846185 0.0011760229 0.0 0.00055667915 0.0008282671 2.3148093e-18 0.00014228623 0.0009379464
0.0 0.00026318114 0.0045449776 1.5269423e-17 0.0010313869 0.007955966 0.0 0.0019898184
0.003483487 1.3465512e-17 0.0010300839 0.005061135 0.0 0.0018558565 0.001223141 3.9214602e-18
0.00028218975 0.0016647623 0.0 0.00052022084 0.0007068309 2.1250363e-18 9.923471e-05 0.0012649326
0.0 0.00016662643 0.00042505204 1.7695426e-18 0.0002129814 0.0009827638 0.0 0.00040862762
0.0020881665 1.0080262e-17 0.0008518305 0.0026427654 0.0 0.0018049388 0.001994273 6.634345e-18
0.00048371844 0.002196767 0.0 0.0011273412 0.00014181793 7.628248e-19 6.584852e-05 0.00028540066
0.0 0.0001261079 0.00046530136 2.846869e-18 0.00022374207 0.0011085978 0.0 0.0004936257
0.00067862484 3.0126478e-18 0.00019369084 0.0008565752 0.0 0.00039867352 0.0034675433 1.2592591e-17
0.0007336761 0.0041622245 0.0 0.0014203733 0.0004024373 1.0482347e-18 7.1804134e-05 0.00040019458
0.0 0.00013075145 0.0020235737 7.140451e-18 0.00062066974 0.003671931 0.0 0.0012658107
0.00029343762 1.2618521e-18 0.000102096375 0.00045331032 0.0 0.00018827849 0.0075329626 2.6411783e-17
0.0015873624 0.008765154 0.0 0.0031958607 0.0018300874 6.287609e-18 0.0004370668 0.0039326013
0.0 0.0010328655 0.0014840615 4.9686473e-18 0.000388389 0.0031690497 0.0 0.00077838596
0.0045018108 1.2852876e-17 0.0007858718 0.0044102888 0.0 0.0015710245 0.00023947365 8.550375e-19
7.218189e-05 0.0003644217 0.0 0.00013524223 0.0016404844 4.7643957e-18 0.00035354277 0.0021291927

exp_avg f4 [128]
00000000: 7e4f 5cbb 6e0a 3eb9 8144 96ba f535 b4b9
00000010: 866d 22bb baf0 2cbb afb6 423a bba8 373a
00000020: bfe8 47bb 9506 53ba 426e 683b 4168 243b
00000030: da25 4a38 2b53 a43a fb17 96b6 f747 1eba
00000040: c444 b5ba 5f46 7f3a 7a44 a93a dc01 65ba
00000050: 182f 083b 9d10 02b9 0728 e5ba 944d 5fbb
00000060: 0df3 b039 7522 833a facf 13ba 3901 3f39
00000070: f4f9 a73a b774 993a 2015 aeba 6f2c 1f3b
00000080: e6b4 9038 578f 0eba de2b ac3a 2c23 5cba
00000090: 1429 1cba 072e 23b9 58a8 fc39 c396 57b8
000000a0: cc2a 0eb8 c53c 83ba 9dd7 04bb 3ab5 17bb
000000b0: b23c 973a 628f 223b a17b 513b 638a 14bb
000000c0: c45c ba38 49c2 dbb9 653c 1bbb 580c 373a
000000d0: 7010 28bb a4ba 7a3a 4d00 2fb9 89c0 f1ba
000000e0: fce2 3439 3359 153a 1677 0aba 4d06 c7ba
000000f0: 2659 763a 0972 9d38 5ef1 9aba 4bf0 18bb
00000100: eef8 4a3b a25e cd3a f229 5fbb 741a 0eb9
00000110: 4f9b 2eba d0ce 843a 9fdf 2aba 20e1 bfba
00000120: 0aa0 8cba 8272 473a 8cfb 6eb9 37d9 003b
00000130: 4266 2cba 18e7 fdba 7437 ce3a 0c29 c8ba
00000140: 481d f3b9 a82a 103b 5382 143a 2ded d5ba
00000150: 57e9 3bb9 d102 a539 85b0 8f3a 5fd7 99b6
00000160: c121 6cbb c73e 33ba 44c9 723a 4cdd 0e3b
00000170: d78e 2fba 3c2c 033b 9125 3339 a978 75bb
00000180: f742 cb3a 238f 23ba 1452 4cbb f1a3 9eba
00000190: 5eaf 043b e489 6b3b 76b4 95b8 3fad ea39
000001a0: 8ca2 fc38 f850 e739 863a 4f39 e2d7 42bb
000001b0: c46d 2838 e2c3 9c39 a10e c9ba 776d 11bb
000001c0: bb17 e9b9 55b4 a2ba 4509 f7b7 bb00 12ba
000001d0: 507b 6639 489c b2b9 9551 3bb9 3d0e 653b
000001e0: e93a 2e3b a0a1 6bba a00e 19ba 010b afba
000001f0: e3b9 bdb9 bb16 c1ba 1dd6 3bba 3e8e 8c3a
-0.0033616717 -0.00018123697 -0.0011464508 -0.00034372477 -0.002478452 -0.0026388601 0.00074277347 0.0007006039
-0.0030503718 -0.0008049992 0.003546611 0.0025086554 4.8195805e-05 0.0012536993 -4.47314e-06 -0.0006037945
-0.0013829698 0.0009737964 0.0012914084 -0.0008735934 0.0020780023 -0.00012403955 -0.0017483243 -0.003407334
0.00033750423 0.0010004776 -0.0005638596 0.00018215635 0.0012815581 0.0011707757 -0.0013281442 0.002428796
6.90015e-05 -0.00054382294 0.0013135632 -0.0008397575 -0.0005957049 -0.00015562038 0.0004819061 -5.1400402e-05
-3.3895296e-05 -0.0010012618 -0.0020270117 -0.002314879 0.0011538474 0.00248047 0.0031964558 -0.0022665493
8.88645e-05 -0.0004191569 -0.002368712 0.00069827354 -0.0025644563 0.0009564555 -0.00016689413 -0.0018444221
0.00017250696 0.00056971906 -0.00052820274 -0.0015184373 0.00093974394 7.507584e-05 -0.0011821201 -0.0023336585
0.0030971128 0.0015668462 -0.00340521 -0.0001355203 -0.0006660716 0.0010132436 -0.00065183075 -0.0014639236
-0.0010728848 0.00076083106 -0.00022791157 0.001966072 -0.0006576517 -0.001937124 0.0015733079 -0.0015271022
-0.00046370388 0.0021998081 0.0005665172 -0.0016321294 -0.00017920636 0.0003147335 0.0010962641 -4.584828e-06
-0.003603086 -0.00068376627 0.00092615583 0.0021799384 -0.0006697005 0.002001538 0.00017084765 -0.0037455952
0.0015507628 -0.00062392856 -0.0031176852 -0.0012103302 0.0020246129 0.0035940344 -7.138487e-05 0.00044761036
0.00012046573 0.0004412008 0.0001976286 -0.0029730727 4.015655e-05 0.00029900583 -0.0015339443 -0.002219049
-0.00044458904 -0.0012413362 -2.9449011e-05 -0.0005569567 0.00021980447 -0.00034067244 -0.00017864101 0.0034951114
0.0026585406 -0.00089886226 -0.0005838666 -0.001335472 -0.00036187386 -0.0014731506 -0.0007165389 0.0010723544

exp_avg_sq f4 [128]
00000000: 8471 4439 8708 2738 af66 9538 3bc2 8938
00000010: 1fe5 263a cf8a d239 83cb 3e38 bfc5 7039
00000020: 42a1 8f39 a2e0 3938 9cf9 9839 f882 0b3a
00000030: fc84 f539 9eed 0e39 e21f b238 536b 3139
00000040: 2520 0a39 2b52 7e39 dbd9 0d38 7c4c 0739
00000050: 7d40 c638 8edb da38 a552 6938 41ad 043a
00000060: e66c de39 82e1 f838 d579 a438 5887 8238
00000070: 6184 9b39 d421 3a39 1229 c837 9504 cb38
00000080: 1223 ad38 1cc2 b239 372d e237 73fc 7f39
00000090: 0b55 1638 e9ff 3b3a d5a8 6539 4e2f 3439
000000a0: 8547 af39 d275 d437 9fc0 1439 ff97 163a
000000b0: e384 a339 dc00 8d39 9bd8 bf39 b720 0139
000000c0: 17a4 4439 26eb 8f39 7dbe bf39 649c 6a39
000000d0: 5ad3 1939 7a3f 1d39 a8d9 cc38 8f14 6739
000000e0: 5048 9a38 e890 4638 ba92 da38 9d9d 6f39
000000f0: 5efe 3a39 9b63 0038 de94 dc38 3c6a a039
00000100: c5a8 f639 f731 0a3a 435b b239 21a7 6738
00000110: 29d2 9038 67d7 023a 46d4 9a37 10b8 9c38
00000120: a246 9639 aa1e 5d38 b6be 4738 bbd0 bf38
00000130: f016 a039 8546 8538 2d62 1e3a 0b0f 0439
00000140: f4a7 7139 da6c 4d39 473b 7737 005a db37
00000150: 6655 4e38 b331 ab37 8ece 2238 98f6 3d38
00000160: 6738 3a3a 783b 7b37 e106 6538 1f0e 0039
00000170: 81e3 b138 102a 173a b3fe be39 9abb 2439
00000180: fb14 023a 2dd4 b738 609a fc39 3c86 f238
00000190: 9613 9a39 e174 a939 aa08 6239 c797 7c37
000001a0: 9a34 8739 d819 3a39 ad1d ae38 8881 1e39
000001b0: 7cbe 4d38 e51d b638 6439 773a b7e4 7639
000001c0: 34c6 de38 a36a ae39 b295 8239 f79f 1c3a
000001d0: 7ded fb37 60c5 5539 79e8 2c38 bb92 8239
000001e0: eb02 c338 15fb bf38 af4b 4938 fc3c bc38
000001f0: 99df d838 cb36 ee37 1210 1739 5119 8d38
0.00018734304 3.9823844e-05 7.124e-05 6.568847e-05 0.0006366539 0.00040157742 4.5489065e-05 0.0002296185
0.00027395232 4.4316643e-05 0.00029177673 0.0005321945 0.00046829123 0.00013630695 8.49364e-05 0.00016920017
0.0001317268 0.00024253938 3.3819913e-05 0.00012903096 9.4533876e-05 0.00010435945 5.5628498e-05 0.0005061217
0.00042424275 0.000118675656 7.8428224e-05 6.224093e-05 0.00029662534 0.00017750944 2.3860983e-05 9.680648e-05
8.255815e-05 0.00034095428 2.6962354e-05 0.0002441274 3.584199e-05 0.00071716175 0.00021902037 0.0001718376
0.00033431887 2.5327234e-05 0.00014186137 0.0005744695 0.0003118879 0.00026894256 0.00036591743 0.00012314586
0.00018753145 0.00027450285 0.00036572284 0.00022374239 0.00014669952 0.00014996334 9.76802e-05 0.00022037535
7.3567615e-05 4.7341833e-05 0.0001042238 0.00022851532 0.00017833101 3.0610343e-05 0.00010518146 0.0003059673
0.0004704652 0.00052717276 0.000340188 5.5230343e-05 6.9056005e-05 0.0004991204 1.8457078e-05 7.472944e-05
0.00028662855 5.2719064e-05 4.762291e-05 9.146469e-05 0.00030534668 6.3550695e-05 0.0006041851 0.00012594105
0.00023046118 0.00019590874 1.4736149e-05 2.6148744e-05 4.919376e-05 2.0407932e-05 3.881618e-05 4.529077e-05
0.00071037415 1.4974612e-05 5.460426e-05 0.00012212292 8.4823936e-05 0.00057664607 0.0003642939 0.00015710146
0.0004962233 8.765641e-05 0.00048180204 0.00011564462 0.00029387762 0.00032321273 0.00021556267 1.5055709e-05
0.00025788398 0.0001774797 8.302494e-05 0.00015116308 4.905321e-05 8.6840046e-05 0.0009430854 0.00023545591
0.00010622703 0.00033267317 0.00024907064 0.00059747644 3.003212e-05 0.00020386791 4.1224503e-05 0.00024904855
9.298868e-05 9.1543574e-05 4.799262e-05 8.975898e-05 0.00010341331 2.8397326e-05 0.00014406469 6.7281195e-05
