results/MoveToGoal/MoveToGoal/MoveToGoal-500180.onnx (onnx, 72639 bytes, 7 tensors)

action_model._continuous_distribution.log_sigma f4 [1, 2]
0	0xbe80833a	-0.25100118
1	0xbe64ab51	-0.22330977

action_model._continuous_distribution.mu.bias f4 [2]
0	0xbdc658b7	-0.0968489
1	0xbcd198c8	-0.025585547

action_model._continuous_distribution.mu.weight f4 [2, 128]
0	0x3ca4e1dc	0.02012723
1	0xbc7127a4	-0.014718924
2	0xbcaed265	-0.021340558
3	0x3d69cd82	0.057080753
4	0x3cb56ee9	0.022147613
5	0x3d864ca6	0.06557588
6	0xbe28f8dc	-0.16501182
7	0xbd91a84a	-0.07112177
8	0x3d367540	0.044545412
9	0x3cdd02f2	0.026978943
10	0x3dcd2537	0.10016864
11	0x3dc089b9	0.094012685
12	0x3c8baa8a	0.017049093
13	0xbd60e7b0	-0.054908454
14	0x3c3b8a2b	0.011446516
15	0x3d837688	0.064190924
16	0xbc8061d6	-0.015671652
17	0xbd574ca9	-0.052563343
18	0x3cf884fc	0.03033685
19	0x3d5411e4	0.051774874
20	0x3d098cf3	0.033581685
21	0x3cad010b	0.021118661
22	0xbdc7a4ea	-0.09748252
23	0x3bfc7231	0.0077040424
24	0x3e009051	0.12555052
25	0x3d45dcc7	0.048306253
26	0x3cab8b93	0.020940578
27	0x3bf02176	0.0073282076
28	0xba13789e	-0.00056255783
29	0x3db2fa88	0.08739191
30	0x3d06eaa9	0.032938633
31	0x3dc91d6a	0.098200634
32	0x3d4c79f2	0.049920984
33	0x3d9cbf50	0.076536775
34	0x3db00551	0.08594764
35	0x3d8ef551	0.06980384
36	0xbd12983f	-0.035789724
37	0x3d0b0fb7	0.033950534
38	0xbd4cde5e	-0.050016753
39	0x3cd57fea	0.02606197
40	0xbd8ec7c4	-0.06971696
41	0x3d72cb69	0.05927602
42	0x3d11b1ae	0.03556984
43	0x3cc37ce5	0.023863265
44	0xbc3c9579	-0.011510246
45	0x3d124c6d	0.035717417
46	0x3d663ed3	0.056212258
47	0x3d154a7c	0.036447987
48	0x3d4282c0	0.047487974
49	0x3d558199	0.052125547
50	0x3d049823	0.03237165
51	0x3d1de95e	0.038552634
52	0xbd3e1335	-0.046405036
53	0x3dc8d43a	0.09806104
54	0x3d5e9c61	0.054348353
55	0x3cbcdd1e	0.023054656
56	0x3d383d62	0.044980414
57	0xbca8b537	-0.020594222
58	0x3b775076	0.0037737167
59	0xbbd264ce	-0.0064207083
60	0x3da99ef3	0.0828227
61	0x3d22b14e	0.039719872
62	0x3d0f36e3	0.034964453
63	0xbd0b4442	-0.034000643
64	0x3cce0cba	0.025152553
65	0x3d14a4e4	0.036290064
66	0xbd4ac85f	-0.049507495
67	0x3cd0c8a7	0.025486303
68	0xbd893716	-0.0669996
69	0x3d391f44	0.045195833
70	0xbd16b253	-0.036791157
71	0xba37752a	-0.0006998355
72	0x3d17258c	0.036901042
73	0x3a7a1ac6	0.0009540733
74	0x3cae7bc7	0.021299256
75	0x3d34ad35	0.044110496
76	0xbd2fbeb8	-0.042906493
77	0x3ba4c5f0	0.005028479
78	0x3d011783	0.031516563
79	0x3c96267e	0.018328901
80	0x3b5f073d	0.0034031414
81	0x3c8c8c20	0.01715666
82	0x3c0b8dd3	0.0085177
83	0x3ddbfb1a	0.10741253
84	0x3d565245	0.052324552
85	0x3cdd9b75	0.027051667
86	0x3d4fd6b7	0.050741877
87	0x3da09fad	0.07842956
88	0x3d1f6388	0.03891328
89	0x3cfd8347	0.030946387
90	0xbd94de64	-0.0726898
91	0x3ce7bfa0	0.028289616
92	0x3d1b98fa	0.037987687
93	0xbd036b81	-0.032084946
94	0x3d4c2399	0.049838636
95	0x3db3728a	0.08762081
96	0x3ca03b46	0.019559514
97	0x3d89ecb3	0.067346
98	0x3cd146f1	0.025546523
99	0x3d8f9127	0.070101075
100	0xbda12d10	-0.07869923
101	0xbcd385b1	-0.025820585
102	0x3ced5344	0.028970368
103	0x3d2df11a	0.04246626
104	0x3d25e610	0.040502608
105	0xba52abf5	-0.0008036488
106	0xbcb9c596	-0.022677224
107	0xbd823623	-0.06357982
108	0x3d2aa5fb	0.041662198
109	0x3cd1542c	0.025552832
110	0x3dee34af	0.11631142
111	0xbdda54e6	-0.10660724
112	0x3d29ae81	0.041426186
113	0x3c9dd529	0.019266682
114	0x3cb84b36	0.0224968
115	0xbd49629d	-0.04916631
116	0x3cf78102	0.030212883
117	0x3da8343d	0.08213089
118	0x3d01f3f0	0.031726778
119	0xbdb2aef4	-0.08724776
120	0x39821522	0.00024811277
121	0x3d08fdf0	0.0334453
122	0x3da504de	0.08057569
123	0x3d487db8	0.04894802
124	0x3ddf818c	0.10913381
125	0x3d0c518e	0.034257464
126	0x3d041a55	0.032251675
127	0x3d918471	0.07105339
128	0x3dad915a	0.08474989
129	0x3d09bce6	0.033627413
130	0xbd515b2a	-0.05111233
131	0x3cbe7d6c	0.023253165
132	0x3b33c7bb	0.002743228
133	0xbb741b4d	-0.0037247718
134	0xbd3480b0	-0.04406804
135	0xbddf795c	-0.10911819
136	0x3be8d1de	0.0071050962
137	0xbd88d57d	-0.06681345
138	0x3d0a1590	0.03371197
139	0xbd41c163	-0.04730357
140	0x3dc350da	0.095369056
141	0xbd19218a	-0.0373855
142	0xbb78ebc1	-0.0037982317
143	0x3d1e24b2	0.038609214
144	0xbc287396	-0.010281464
145	0xbda216dd	-0.07914517
146	0xbd814bb2	-0.06313266
147	0x3cfbaefd	0.03072309
148	0xbd369882	-0.044579037
149	0xbd530907	-0.05152228
150	0x3c033e02	0.008010389
151	0xbd835c45	-0.064140834
152	0xbda9a2fa	-0.082830384
153	0x3cff3688	0.031153932
154	0x3cbbadd3	0.022910034
155	0x3c688c79	0.014193648
156	0x3d416013	0.047210764
157	0x3da094d1	0.078408845
158	0xbcd8d817	-0.026470227
159	0x3d8b10bd	0.06790302
160	0x3d1ede21	0.038786057
161	0xbdbba5b1	-0.091624625
162	0xbd055791	-0.032554213
163	0x3cbeb64b	0.023280283
164	0x3c9a7d40	0.018858552
165	0x3d48b7cf	0.04900342
166	0xbc1851c4	-0.009296838
167	0xbc270149	-0.0101931775
168	0xbd124703	-0.035712253
169	0x3b1880f6	0.0023270226
170	0x3c25bccc	0.010115813
171	0x3bd4e95f	0.0064975466
172	0xbbaee503	-0.005337359
173	0xbc7f4a39	-0.015581661
174	0x3c4db604	0.012555603
175	0xbcffc261	-0.031220617
176	0x3d494eea	0.049147524
177	0x3ce20139	0.027588474
178	0xbca933dc	-0.020654611
179	0x3d24165d	0.04006039
180	0x3c99d005	0.01877595
181	0x3cb48749	0.022037165
182	0xbc9ba6b5	-0.01900039
183	0x3ce4f44b	0.02794852
184	0xbcfbe0f4	-0.030746914
185	0x3df027d6	0.11726348
186	0x3d5ebb02	0.054377563
187	0x3c91844e	0.017763283
188	0xbc3d5ffc	-0.011558529
189	0x3b334b4e	0.0027358118
190	0x3d0d59dd	0.03450953
191	0x3c05166c	0.008123022
192	0xbc8538b0	-0.016262382
193	0x3c4c65de	0.012475459
194	0xbda3a0d9	-0.07989664
195	0xbc1f7ddc	-0.009734597
196	0xbd0cc1e8	-0.03436461
197	0xbd0a9ff3	-0.033843946
198	0x3d0c0b76	0.034190618
199	0x3e0ce92e	0.13760826
200	0xbc9f3da7	-0.019438578
201	0x3dc39cac	0.09551367
202	0x3bf31694	0.007418463
203	0xbc979743	-0.018504744
204	0xbd7fa396	-0.062411867
205	0xbc88a782	-0.016681436
206	0xbbfc6cb7	-0.0077033895
207	0x3d017498	0.031605333
208	0x3de8cdc9	0.113673754
209	0xbddbe9e1	-0.10737968
210	0xbdba2324	-0.09088734
211	0xbd10c3dc	-0.035343036
212	0x3d102da7	0.035199787
213	0x3ce83a9a	0.028348256
214	0x3d2212a6	0.039568566
215	0x3d37f785	0.044913787
216	0x3d1a855c	0.037724838
217	0xbc710970	-0.014711723
218	0x3d088efb	0.03333948
219	0xbb81c0db	-0.0039597577
220	0x3cb08d3a	0.021551717
221	0x3cc76fbc	0.024345271
222	0xbb5b87c1	-0.0033497664
223	0x3d364d1c	0.04450713
224	0x3c136c17	0.008997939
225	0x3d106069	0.035248194
226	0xbcf2017e	-0.029541727
227	0xbcfa66bb	-0.030566564
228	0x3c56f86e	0.013120754
229	0xbd344ed6	-0.044020496
230	0x3c7d52f9	0.015461677
231	0x3c18d4c9	0.009328076
232	0x3d033083	0.032028686
233	0xbdbfc391	-0.09363473
234	0x3d921744	0.07133344
235	0x3d81f151	0.063448556
236	0x3c52b07a	0.012859458
237	0xbc528db0	-0.012851164
238	0xbcaf5482	-0.021402601
239	0x3cf4aa7d	0.029866451
240	0x3cc15581	0.023600342
241	0x3c27eb96	0.010249039
242	0x3d216f2b	0.03941266
243	0x3d8d8f8c	0.06912145
244	0xbd9cf406	-0.07663731
245	0x3da390ca	0.07986601
246	0xbd52b400	-0.051441193
247	0xbd272b03	-0.040812504
248	0x3ce19bdc	0.02754014
249	0xbc04b8de	-0.008100716
250	0x3b040f99	0.0020150898
251	0xbcf949b9	-0.030430662
252	0x3adf57f0	0.0017039757
253	0x3d400ba6	0.04688611
254	0x3b85c947	0.004082832
255	0xbc893bd0	-0.016752154

network_body._body_endoder.seq_layers.0.bias f4 [128]
0	0xbdc52646	-0.09626441
1	0xbe4c0547	-0.19923888
2	0xbda8eca4	-0.082482606
3	0xbe358447	-0.17726241
4	0x3cfce11e	0.030869063
5	0xbda12ab2	-0.078694716
6	0xbe5a65ba	-0.21327868
7	0xbe9d5689	-0.30730084
8	0x3d855fe9	0.06512434
9	0xbe5f6cf7	-0.2181891
10	0xbd308441	-0.043094877
11	0x3d338f02	0.043837555
12	0xbd2890c1	-0.041153673
13	0xbe6fdb90	-0.234236
14	0x3d39b373	0.04533715
15	0xbe25697e	-0.16153523
16	0xbd1ca0a4	-0.038239136
17	0xbdeb0dc4	-0.11477235
18	0xbd6c197f	-0.057641502
19	0xbe3e1fd0	-0.18566823
20	0xbd823d8b	-0.06359395
21	0x3cdd3403	0.02700234
22	0xbe22b7f3	-0.15890484
23	0xbe133487	-0.14375506
24	0x3d3f4ff2	0.0467071
25	0xbddf17ce	-0.10893212
26	0xbd0c8ca1	-0.0343138
27	0xbd46f0c4	-0.048569456
28	0x3d63eaef	0.055643972
29	0xbdf4366a	-0.11924441
30	0xbe3d48d6	-0.18484816
31	0xbd9be087	-0.076111846
32	0x3ca0b0f6	0.019615632
33	0x3ac37803	0.0014913086
34	0xbe33ac85	-0.1754628
35	0xbd69bfcd	-0.05706768
36	0xbe2dbf35	-0.16967471
37	0xbd7c6f98	-0.06162986
38	0xbdd8c156	-0.10583751
39	0xbe02f644	-0.12789255
40	0xbd8e0a09	-0.06935508
41	0xbe780387	-0.24220096
42	0xbe2ef23e	-0.17084596
43	0xbd9fe686	-0.07807641
44	0x3d53019b	0.051515203
45	0xbaeff2cc	-0.0018306612
46	0x3c061bb6	0.008185318
47	0xbd5538c3	-0.052056085
48	0xbc329146	-0.010898894
49	0xbd99820d	-0.07495508
50	0x3d907bcb	0.07054862
51	0xbdd914db	-0.10599681
52	0xbe3ec651	-0.18630339
53	0x3d87d587	0.06632524
54	0xbd84b803	-0.0648041
55	0xbd93a15d	-0.07208512
56	0xbd325e32	-0.043546863
57	0xbdaf2808	-0.08552557
58	0xbdbb638d	-0.09149847
59	0x3d24a43a	0.04019568
60	0x3d6dfb53	0.05810101
61	0xbe3591ca	-0.17731395
62	0x3c03437b	0.008011694
63	0xbdf55445	-0.11978964
64	0x3ce7131c	0.028207354
65	0x3dd35c4e	0.1032034
66	0xbb27bbe6	-0.0025594174
67	0xbdc37fa2	-0.095458284
68	0xbe11fc2c	-0.14256352
69	0xbdd967c6	-0.10615496
70	0xbe47821d	-0.19483228
71	0xbdbcad45	-0.09212736
72	0x3d6593d5	0.056049187
73	0xbda7d581	-0.081950195
74	0xbe50bee1	-0.20385315
75	0xbd468f69	-0.04847661
76	0x3d72b035	0.059250075
77	0xbde3dc06	-0.111259505
78	0x3d3e1236	0.046404086
79	0x3d01d70d	0.03169923
80	0xbd0da12b	-0.03457753
81	0xbe496046	-0.19665632
82	0xbe1bb823	-0.15206961
83	0xbe0a1f99	-0.13488616
84	0xbd9ad8c5	-0.07560877
85	0xbe688985	-0.2270871
86	0xbe8e58dd	-0.27802172
87	0x3cd63617	0.026148839
88	0x3dbf51d5	0.0934178
89	0xbdf1dcf2	-0.1180972
90	0xbd9cadba	-0.07650323
91	0xbe029da8	-0.12755454
92	0xbd5743f9	-0.05255506
93	0x3def3ec4	0.116818935
94	0x3ca56eca	0.02019443
95	0xbd969be8	-0.073539555
96	0xbb44a3cf	-0.0030004864
97	0xbe77f04d	-0.24212761
98	0xbd034231	-0.032045547
99	0xbddc1914	-0.10746971
100	0xbd2bcb46	-0.041941904
101	0xbda8eec4	-0.08248666
102	0xbd20764b	-0.039175313
103	0xbe331f52	-0.17492417
104	0x3ca56650	0.020190388
105	0xbd877a99	-0.066151805
106	0xbe538089	-0.20654501
107	0xbe332a23	-0.17496543
108	0xbd6ccb9b	-0.05781136
109	0xbe0a96e1	-0.13534118
110	0x3e361fb5	0.17785533
111	0xbce56a9a	-0.028004933
112	0xbd62d931	-0.05538291
113	0x3d93fa3f	0.07225465
114	0x3d8c308b	0.06845196
115	0x3cbf1215	0.023324052
116	0xbe0287c7	-0.12747107
117	0xbe014692	-0.12624577
118	0xbe32f84d	-0.17477532
119	0xbd24b6fe	-0.040213577
120	0xbd91cda5	-0.07119302
121	0x3c3151e7	0.01082275
122	0xbeb254a5	-0.34830204
123	0xbbe21286	-0.006899181
124	0x380c2ab6	3.341838e-05
125	0xbe5d59a2	-0.21616223
126	0xbd550434	-0.05200596
127	0xbe5cbcb0	-0.21556354

network_body._body_endoder.seq_layers.0.weight f4 [128, 6]
0	0x3d12cb8d	0.035838652
1	0x3c742d26	0.014903342
2	0xbea0d8bb	-0.31415352
3	0x3e834e5d	0.25645724
4	0x3ea36f68	0.31920934
5	0x3e5718c2	0.21005538
6	0xbe057edc	-0.13036674
7	0xbf3838b5	-0.7196153
8	0x3de6c299	0.11267585
9	0x3dddc9bc	0.108294934
10	0x3f194723	0.5987417
11	0xbcec56f1	-0.02885005
12	0x3f2a137e	0.6643599
13	0xbf719a97	-0.9437651
14	0xbe74a272	-0.23890093
15	0x3f1fb2bc	0.623821
16	0x3da23f78	0.07922262
17	0x3f44e654	0.7691395
18	0xbf09c3bb	-0.53814286
19	0x3e1b9efa	0.15197363
20	0x3f0d2f96	0.55150735
21	0x3e624669	0.22097172
22	0xbf38f7f5	-0.7225335
23	0x3e4b2663	0.19838862
24	0x3f254923	0.6456472
25	0x3f2545a7	0.64559406
26	0xbe00de38	-0.1258477
27	0xbe9ca739	-0.3059633
28	0xbeaca99d	-0.33723155
29	0x3c8f4e23	0.017493313
30	0xbe81a963	-0.25324544
31	0xbe038ef0	-0.12847495
32	0xbfafe330	-1.3741207
33	0x3c7e34a8	0.015515484
34	0x3f20fd4e	0.6288651
35	0x3e4ef5c3	0.20210938
36	0xbe8c3308	-0.27382684
37	0xbf0c1acc	-0.5472839
38	0x3f59ab85	0.85027343
39	0x3d9d5b99	0.076834865
40	0x3e2eec15	0.17082246
41	0x3eb9a952	0.36261994
42	0xbe6b068c	-0.22951716
43	0xbe778878	-0.24173152
44	0xbebb24f3	-0.36551628
45	0x3f320d18	0.6955123
46	0xbed4525d	-0.41469088
47	0xbdbce0be	-0.09222554
48	0x3e8e1d67	0.27756807
49	0x3e23590d	0.15951939
50	0x3edf9837	0.43670818
51	0xbec2efed	-0.38073674
52	0x3f06bbc4	0.5263026
53	0xbe2fcffc	-0.17169183
54	0x3eab195c	0.33417785
55	0xbc383716	-0.011243602
56	0xbe8f499b	-0.27985844
57	0x3eb30d31	0.34971002
58	0xbf4ff13d	-0.81227475
59	0x3e07979f	0.13241433
60	0x3e32febb	0.17479984
61	0x3e766328	0.24061263
62	0x3ecac0ab	0.3960012
63	0x3e882f3a	0.2659853
64	0xbd2d5c9c	-0.042324647
65	0xbe6ff3e4	-0.2343288
66	0x3d969d0c	0.07354173
67	0x3e98d908	0.29853082
68	0xbf4ce2ed	-0.8003376
69	0xbeb6ac40	-0.3567829
70	0x3c3044b1	0.010758565
71	0x3eb5ff6e	0.3554644
72	0xbe3faeb2	-0.18718985
73	0x3eb6646c	0.3562349
74	0x3f184af3	0.59489363
75	0xbc510a6e	-0.012758834
76	0xbd3a25a3	-0.04544605
77	0xbee4c607	-0.44682333
78	0xbc662985	-0.014047985
79	0xbd3d71ba	-0.046251036
80	0x3e51f1ee	0.20502445
81	0x3ee2c2dd	0.44289294
82	0x3f0f334a	0.55937636
83	0xbdfd2b40	-0.12361765
84	0x3edd095f	0.43171212
85	0xbe95c418	-0.2925117
86	0x3f27dc3a	0.65570414
87	0x3cf152c7	0.029458417
88	0xbf005314	-0.5012677
89	0x3d5b0849	0.0534747
90	0xbf4a90d8	-0.79127264
91	0xbe42d810	-0.19027734
92	0xbd8649d8	-0.06557053
93	0x3d9c39d4	0.07628217
94	0xbee8408d	-0.45361748
95	0xbca45344	-0.020059235
96	0x3e5f473f	0.21804522
97	0xbf12a69f	-0.57285494
98	0xbea337a2	-0.31878382
99	0xbcbf3c52	-0.023344193
100	0x3e49d0bb	0.1970853
101	0x3eb90689	0.36137798
102	0xbce795a3	-0.028269595
103	0xbe26878b	-0.16262643
104	0x3ea52b1c	0.32259452
105	0xbd1cbb05	-0.038264293
106	0x3e81adde	0.25327963
107	0xbec51f23	-0.38500318
108	0xbe9a712b	-0.30164465
109	0xbda32658	-0.07966298
110	0xbe846a9b	-0.25862584
111	0xbf240e9f	-0.6408481
112	0xbf0d24b0	-0.55134106
113	0xbdb400f7	-0.087892465
114	0xbd867241	-0.06564761
115	0x3c3e9be3	0.011633846
116	0xbcb5bab0	-0.022183746
117	0x3ea21d4d	0.3166298
118	0xbed92a18	-0.42414927
119	0x3e95edc0	0.2928295
120	0xbeabfcac	-0.3359121
121	0x3d3f3db3	0.0466897
122	0x3f89da9c	1.0769839
123	0xbe2a6e70	-0.16643691
124	0x3e894b64	0.2681533
125	0x3e69376d	0.2277505
126	0xbe949994	-0.2902342
127	0x3f030c9e	0.5119113
128	0xbd7e86c7	-0.062140252
129	0xbf336f1b	-0.7009141
130	0x3dd4a17d	0.10382364
131	0xbe96922e	-0.294084
132	0xbe9d037e	-0.30666727
133	0x3d190163	0.037354838
134	0x3f094f9f	0.5363712
135	0xbdd566d8	-0.104200065
136	0x3f2a8c2f	0.66620153
137	0xbccb22d3	-0.024796879
138	0xbe93e679	-0.28886774
139	0x3e4f6496	0.20253214
140	0xbe4f575a	-0.20248166
141	0x3eb3014f	0.34961936
142	0x3a493064	0.0007674752
143	0x3e40b674	0.188196
144	0x3e3b51fc	0.18292993
145	0xbd26f440	-0.04076028
146	0xbed175dd	-0.40910235
147	0xbe2cfae9	-0.1689259
148	0x3dd7e0a8	0.10540897
149	0x3e69efce	0.22845384
150	0xbea0ede3	-0.31431493
151	0x3dde0815	0.10841385
152	0x3e5ad7f4	0.21371442
153	0x3e6a5134	0.22882539
154	0xbe3f375f	-0.18673466
155	0xbd9f5abf	-0.0778098
156	0x3f3d832f	0.74028295
157	0x3f0455b0	0.5169325
158	0xbf033053	-0.5124561
159	0xbe767391	-0.24067523
160	0xbed4330b	-0.41445193
161	0xbeee73d0	-0.46572733
162	0x3ee0c728	0.43901944
163	0x3c66cf8b	0.014087568
164	0x3edf2c39	0.43588427
165	0x3de3ed6a	0.111292675
166	0x3dfc616e	0.12323271
167	0x3e2aeede	0.16692683
168	0x3ed233e2	0.41055208
169	0x3efea586	0.4973566
170	0xbdb2d832	-0.08732642
171	0xbee8ec99	-0.4549301
172	0x3da74eeb	0.08169349
173	0x3ec3c8fc	0.38239276
174	0xbec83d13	-0.39109096
175	0xbece49af	-0.4029059
176	0x3f22a16f	0.6352758
177	0xbd29133b	-0.041278105
178	0xbf4a2fa1	-0.78978926
179	0x3eddbfe7	0.43310472
180	0x3e38415a	0.1799368
181	0xbe6b5d7d	-0.22984882
182	0xbe9ed611	-0.31022695
183	0x3d9ff5b0	0.07810533
184	0xbc136191	-0.00899543
185	0x3e0a40dd	0.13501306
186	0x3f22ac5f	0.6354427
187	0x3ec86c3c	0.39145076
188	0x3edbf473	0.42959937
189	0x3e377088	0.17914021
190	0x3e76456c	0.2404992
191	0xbe6ddfb1	-0.23229863
192	0xbe329eb9	-0.1744336
193	0x3d4eb063	0.050461184
194	0x3d0b67d9	0.034034584
195	0xbf319eef	-0.6938314
196	0xbf6f2fa5	-0.93432075
197	0x3e69d1c0	0.2283392
198	0xbdd8c9de	-0.10585378
199	0xbf019b16	-0.5062727
200	0x3ef2bbe4	0.47408974
201	0x3c2e73a6	0.01064769
202	0x3e79edaa	0.24407068
203	0xbeaaadc0	-0.33335686
204	0xbe6ecaf5	-0.2331961
205	0x3e190ffd	0.14947505
206	0x3e4bf4d0	0.19917607
207	0xbe491f00	-0.19640732
208	0x3e9110eb	0.2833322
209	0x3d0c6a60	0.034281135
210	0x3f04f829	0.5194116
211	0xbed89146	-0.42298335
212	0x3f00ea5c	0.50357604
213	0xbe00b8c3	-0.12570481
214	0xbf5a893a	-0.8536564
215	0xbd5ba251	-0.053621594
216	0xbed23262	-0.41054064
217	0xbda6af2b	-0.081388794
218	0x3f0bf83a	0.5467564
219	0x3dccde96	0.100033924
220	0xbd5b0ceb	-0.053479116
221	0x3d977ad7	0.07396477
222	0xbed18282	-0.40919882
223	0x3eefb1d4	0.4681536
224	0xbecaddb9	-0.39622286
225	0x3e9884a5	0.297887
226	0x3e359275	0.1773165
227	0x3ed6103a	0.41809255
228	0x3d85d0fe	0.06534003
229	0xbd00fe04	-0.03149225
230	0xbeff845d	-0.49905673
231	0x3ec42010	0.38305712
232	0x3e35a76e	0.1773965
233	0xbf79ee59	-0.97629315
234	0xbdc23ec7	-0.0948463
235	0x3f0134bc	0.5047109
236	0x3e3d6a71	0.18497635
237	0x3ea588bf	0.3233089
238	0x3e2a41ae	0.16626617
239	0xbc5883f6	-0.013215056
240	0xbf51876c	-0.8184726
241	0x3eb65682	0.35612875
242	0xbef9d822	-0.4879771
243	0xbc5a81a0	-0.013336569
244	0xbecab866	-0.3959381
245	0xbde15746	-0.11002974
246	0xbe8393e0	-0.25698757
247	0x3f1fd253	0.62430304
248	0xbec9b853	-0.3939844
249	0x3d3ae941	0.045632605
250	0xbe1a290c	-0.1505472
251	0xbf80df31	-1.0068113
252	0xbf0718f2	-0.5277244
253	0xbeeb103a	-0.45910817
254	0xbe133d36	-0.14378819
255	0x3e925734	0.28582156

network_body._body_endoder.seq_layers.2.bias f4 [128]
0	0x3c0bfce8	0.008544184
1	0xbd64e1c7	-0.05587938
2	0x3ce7a7f6	0.028278332
3	0xbd85d878	-0.06535429
4	0xbd8be583	-0.06830885
5	0xbc36674c	-0.011133026
6	0x3e0efbfe	0.13963315
7	0x3e17d0e5	0.1482578
8	0xbc0d770b	-0.008634339
9	0x3d115359	0.035479877
10	0x3d37d016	0.04487618
11	0x3d80a7b8	0.0628199
12	0xbd18e907	-0.037331607
13	0x3df10982	0.117693916
14	0xbd9b379a	-0.075789645
15	0xbcfd44f1	-0.030916663
16	0xbd61be4e	-0.05511313
17	0x3e087156	0.13324484
18	0xbc6149c5	-0.013750498
19	0xbdd18698	-0.1023075
20	0xbd5e3545	-0.05425002
21	0xbcf97653	-0.03045193
22	0x3b4737b2	0.0030398187
23	0x3ce175d5	0.027522007
24	0x3db9ae98	0.09066504
25	0x3c2c21e0	0.010506123
26	0xbc91ee70	-0.017813891
27	0xbd08ea58	-0.033426613
28	0xbc8f8821	-0.017520966
29	0x3be55a22	0.00699927
30	0xbcb26f71	-0.021781655
31	0xbe29f157	-0.1659597
32	0xbcd6b893	-0.026211059
33	0xbc008b4c	-0.007845711
34	0xbbaf3d92	-0.005347916
35	0xbd642f93	-0.055709433
36	0x3d4ee977	0.05051562
37	0xbc9d9aa2	-0.019238774
38	0x3d3923f8	0.045200318
39	0xbc85935e	-0.016305622
40	0x3d22b0ba	0.03971932
41	0xbe000c7d	-0.12504764
42	0xbda8d8f9	-0.08244509
43	0xbdcefab3	-0.10106411
44	0x3d3f82fb	0.046755772
45	0xbd7da3e4	-0.061923876
46	0xbdcd0e60	-0.100125074
47	0xbd8cb552	-0.068705216
48	0x3ce78243	0.028260356
49	0xbe1229ee	-0.14273807
50	0xbd0396bf	-0.032126185
51	0x3d4e9a64	0.050440207
52	0xbd1daaf7	-0.038493123
53	0x3da5e4e0	0.08100295
54	0xbdce6adc	-0.100789756
55	0xbd91fdb6	-0.0712847
56	0x3d832bc4	0.06404832
57	0x3d4d50a3	0.05012573
58	0x3c79994a	0.015234301
59	0xbdaa7aca	-0.083242014
60	0xbd3f7fe6	-0.046752833
61	0xbd97b9c5	-0.074084796
62	0xbdb5d75e	-0.08878969
63	0x3e2b0338	0.16700447
64	0xbde9d55e	-0.1141765
65	0xbd969d06	-0.073541686
66	0x3c8e8e86	0.017401945
67	0xbda7d997	-0.08195799
68	0x3d86291e	0.06550811
69	0x3d56f1a6	0.052476548
70	0x3d9f5436	0.07779734
71	0x3da025fb	0.07819744
72	0xbd889c98	-0.06670493
73	0xbda53d99	-0.080683894
74	0xbe127d64	-0.14305645
75	0xbd0c814e	-0.034303002
76	0x3da80512	0.08204092
77	0xbbba46fd	-0.005684732
78	0xbc771135	-0.015079786
79	0xbd8ca530	-0.068674445
80	0x3db0a881	0.086258896
81	0x3d76029d	0.060061086
82	0x3c30cf11	0.010791556
83	0x3dc838f2	0.097764865
84	0x3aa4bc33	0.0012568295
85	0xbd91e6aa	-0.07124074
86	0x3ce54d42	0.027990941
87	0x3d9b6003	0.07586672
88	0xbdd70b2d	-0.105001785
89	0xbd9d9a9a	-0.076955035
90	0x3e345efc	0.17614359
91	0xbd877f7b	-0.06616112
92	0xbd8388e2	-0.06422593
93	0x393c7c1f	0.00017975316
94	0xbdbae377	-0.09125417
95	0x3d2a9983	0.041650306
96	0xbdb6a2ee	-0.08917795
97	0xbcaf48b6	-0.021396976
98	0xbd9a362d	-0.075298645
99	0xbc2ac744	-0.010423485
100	0x3e42ac42	0.19011024
101	0x3d1b5036	0.037918292
102	0xbd76c71e	-0.060248487
103	0xbd8211ed	-0.06351075
104	0xbe12056d	-0.14259882
105	0x3db2be29	0.087276764
106	0x3d51d570	0.05122894
107	0x3d895ef3	0.06707563
108	0xbd49f25b	-0.049303394
109	0xbdc0c806	-0.094131514
110	0x3ddf5a65	0.10905913
111	0x3e441a55	0.1915067
112	0xbd5bd4e0	-0.05366981
113	0xbd187398	-0.037219614
114	0xbd5e77e6	-0.054313563
115	0xbc54012b	-0.012939732
116	0x3cc14e00	0.023596764
117	0x3da4d779	0.08048911
118	0x3c9eebee	0.01939961
119	0x3dc1a9ff	0.09456252
120	0xbd8ed114	-0.06973472
121	0x3c56bbdb	0.013106312
122	0xbe1ee33f	-0.15516375
123	0xbd445050	-0.047928154
124	0xbd412b5b	-0.047160488
125	0x3c54457a	0.012956018
126	0xbce27d25	-0.027647564
127	0xbcf1cbea	-0.02951618

network_body._body_endoder.seq_layers.2.weight f4 [128, 128]
0	0xbd584b47	-0.052806165
1	0xbd4ed287	-0.050493743
2	0x3e0a76d1	0.13521887
3	0xbd091fa6	-0.033477448
4	0xbaa73bce	-0.0012758912
5	0x3d572398	0.05252418
6	0xbd0c42ed	-0.034243513
7	0x3ac3dca3	0.0014943074
8	0xbb4788a4	-0.0030446434
9	0x3cfcf8c6	0.030880343
10	0xbd3ca90e	-0.04605966
11	0x3dd78a40	0.10524416
12	0xbdff2bc8	-0.124595225
13	0x3ba8a6f7	0.005146857
14	0x3c7b7662	0.015348049
15	0xbda34de6	-0.07973842
16	0x3db62da1	0.08895422
17	0x3d659bda	0.056056835
18	0x3d00a872	0.031410642
19	0xbd19f2bf	-0.037585016
20	0x3dcde72f	0.100538604
21	0x3c0a5286	0.008442527
22	0xbde3edb1	-0.111293204
23	0x3dd05821	0.10173059
24	0x3cd4c235	0.025971511
25	0xbdbae08a	-0.09124859
26	0xbbf0a172	-0.0073434645
27	0x3a9bcf73	0.0011887386
28	0x3c026870	0.00795947
29	0x3d1c3cde	0.038143985
30	0xbd350dbd	-0.044202555
31	0xbe4735af	-0.19454072
32	0x3e79c808	0.24392712
33	0xbe000ff8	-0.12506092
34	0xbd09c91f	-0.03363907
35	0xbc983077	-0.018577797
36	0xbe17ccdb	-0.1482424
37	0x3df45b14	0.11931434
38	0xbcb03cac	-0.021513306
39	0xbd1051c2	-0.03523422
40	0x3cee30d4	0.029076017
41	0x3c67f2eb	0.014157037
42	0x3de3d08f	0.11123764
43	0x3d9cee64	0.07662657
44	0xbe0fa4d9	-0.14027728
45	0xbea41aa9	-0.3205159
46	0xbe538c65	-0.20659025
47	0x3d8e85e6	0.06959133
48	0x3d9c2eb7	0.07626098
49	0x3e13f8c3	0.14450364
50	0x3cc86035	0.024459938
51	0x3dfbde3f	0.122982495
52	0x3dba1fe2	0.090881124
53	0xbb7a4fe5	-0.0038194594
54	0xbd9e7782	-0.07737638
55	0xbd77694f	-0.060403164
56	0xbd62f3c4	-0.055408254
57	0x3d29ad5a	0.041425087
58	0xbe38ec7b	-0.1805896
59	0xbe1bfe18	-0.15233648
60	0xbddc98f4	-0.10771361
61	0x3d3bb1cb	0.045823853
62	0xbbe3e32d	-0.0069545717
63	0xbd6c45d1	-0.05768377
64	0xbeb1f481	-0.34756854
65	0x3e0dd8bd	0.1385221
66	0xbd72b564	-0.05925502
67	0xbcc44446	-0.023958337
68	0x3dc07cd9	0.09398813
69	0x39dafbf2	0.00041767914
70	0x3e828d96	0.25498646
71	0xbdb7545a	-0.08951636
72	0xbd8d2a48	-0.0689283
73	0xbca3243e	-0.019914743
74	0xbcd5e661	-0.02611083
75	0xbdc39c3a	-0.09551282
76	0xbe65becf	-0.22436069
77	0x3d8f5baf	0.06999909
78	0x3cb6d303	0.022317415
79	0x3df2f7c2	0.11863662
80	0xbda74b8c	-0.08168706
81	0x3d1ac24c	0.037782952
82	0x3dafb2f9	0.08579058
83	0x3ddaf9d6	0.10692184
84	0x3d49ea64	0.049295798
85	0x3db8a090	0.09015
86	0x3ce1e570	0.027575225
87	0xbcbee0f9	-0.023300635
88	0xbe76030b	-0.24024598
89	0xbdfb8d73	-0.12282839
90	0xbd7b8fd6	-0.06141647
91	0xbd7a679f	-0.061133977
92	0x3da86cd3	0.082238816
93	0xbe848e7b	-0.25889954
94	0xbd2c58b9	-0.0420768
95	0x3e074c26	0.13212642
96	0x3e3d76a3	0.18502288
97	0xbca251a0	-0.019814312
98	0x3b5a74d1	0.0033333788
99	0x3d26f26b	0.04075853
100	0xbd256bb9	-0.040385935
101	0x3d339ca6	0.043850563
102	0x3d719385	0.058978576
103	0xbe00dd9b	-0.12584536
104	0xbdf42272	-0.119206324
105	0xbc72fef4	-0.014831293
106	0x3d95dbb8	0.07317299
107	0x3db71bee	0.08940874
108	0x3e7ed461	0.24885704
109	0x3d953064	0.072846204
110	0xbe134ba0	-0.14384317
111	0xbc091864	-0.008367632
112	0xbccc563f	-0.02494347
113	0xbd87f72b	-0.066389404
114	0xbe1b1a14	-0.15146667
115	0xbda96dc5	-0.0827289
116	0x3be3e45b	0.0069547123
117	0x3e11c141	0.14233877
118	0x3e2724c8	0.16322625
119	0x3d98de0e	0.074642286
120	0x3dabb699	0.08384437
121	0xbcf3ef5c	-0.029777221
122	0xbdb8df87	-0.090270095
123	0xbd6b9c04	-0.057521835
124	0x3c96c9f5	0.018406847
125	0xbc4108a6	-0.011781847
126	0xbe3c3d7d	-0.18382831
127	0xbc69e5c2	-0.01427597
128	0x3dd4693c	0.10371634
129	0x3d9cf807	0.07664495
130	0xbb2c64e3	-0.002630525
131	0xbe057bdb	-0.13035528
132	0xbe1466b5	-0.14492305
133	0xbd99dc60	-0.07512736
134	0x3e5fcc3f	0.21855257
135	0xbe0cf148	-0.13763916
136	0xbdbe478c	-0.0929099
137	0xbd15b999	-0.036553953
138	0xbddc21ea	-0.10748656
139	0x3c62e099	0.013847494
140	0xbe85048f	-0.2598004
141	0xbdac521a	-0.08414097
142	0xbe678d6f	-0.22612546
143	0xbd9b3835	-0.0757908
144	0x3e4d38d9	0.20041217
145	0x3c0def90	0.008663073
146	0x3d6c9fd8	0.057769626
147	0xbde17168	-0.11007959
148	0x3d9da00e	0.07696544
149	0x3d036c25	0.032085557
150	0xbd25515b	-0.04036079
151	0xbe249607	-0.16072856
152	0xbb99d8f5	-0.0046950527
153	0x3be58cdb	0.0070053167
154	0x3e2347de	0.15945384
155	0xbc25dddf	-0.010123699
156	0xbd91f805	-0.07127384
157	0xbddb5933	-0.10710373
158	0x3ce0d8ae	0.02744707
159	0xbde5f319	-0.11228008
160	0xbe19bd6a	-0.15013662
161	0xbdf29369	-0.118445225
162	0xbd5a6865	-0.053322215
163	0xbe8d5e12	-0.27610832
164	0xbdcacf93	-0.09902873
165	0xbe0926c4	-0.13393694
166	0x3d76790e	0.06017404
167	0xbd9415c6	-0.072307155
168	0xbce2397a	-0.027615298
169	0x3d44cb62	0.048045523
170	0x3d4b4f13	0.049635958
171	0xbd8d7fa4	-0.06909111
172	0xbd80d870	-0.06291282
173	0xbe561c45	-0.20909221
174	0xbe824f87	-0.254513
175	0xbd9493dc	-0.072547644
176	0xbdf65a2b	-0.12028917
177	0xbd542abe	-0.051798575
178	0x3d0102fb	0.031496983
179	0xbdef12d6	-0.116735145
180	0x3c805fbe	0.015670653
181	0x3de1b9b3	0.110217474
182	0xbdcb05c6	-0.099132106
183	0xbceb2e1f	-0.028708516
184	0xbdc02e52	-0.09383835
185	0x3d92a6a4	0.071606904
186	0xbdf596bd	-0.11991642
187	0xbe041040	-0.12896824
188	0xbc86b22b	-0.016442379
189	0x3dafb5a3	0.08579566
190	0x3d015c1f	0.031581994
191	0x3cb53cc9	0.022123711
192	0xbe61534b	-0.2200443
193	0x3df3e4e0	0.11908889
194	0x3db72c51	0.089439996
195	0xbd067040	-0.032821894
196	0x3ddc045a	0.107430175
197	0xbe522255	-0.20520909
198	0xbdeaaf79	-0.1145925
199	0xbe0bba71	-0.1364534
200	0xbdbd54d4	-0.09244695
201	0x3e2c12ea	0.1680409
202	0xbcf4fd94	-0.029906072
203	0xbd0ec4f5	-0.0348558
204	0xbd874516	-0.06604974
205	0x3d99a269	0.075016804
206	0xba699b8e	-0.0008911424
207	0xbe14e1a6	-0.14539203
208	0x3cb6e217	0.022324605
209	0xbe70d494	-0.23518592
210	0xbd356b7b	-0.044291954
211	0x3cd49c1a	0.025953341
212	0xbc8d7b0b	-0.017270586
213	0x3d122133	0.035676192
214	0xbe24a50e	-0.16078588
215	0x3e04a86e	0.12954876
216	0xbd613810	-0.054985106
217	0x3d5e87e4	0.054328814
218	0x3cce6d77	0.025198681
219	0xbcb3ee04	-0.02196408
220	0xbd4800b1	-0.048828784
221	0x3d9fff7b	0.07812401
222	0xbe365e54	-0.17809421
223	0x3adc33a0	0.0016800053
224	0x3d3b4457	0.04571947
225	0xbdc81f75	-0.09771625
226	0xbe5cefc3	-0.21575837
227	0x3cff2224	0.03114421
228	0x3e14af92	0.145201
229	0x3d33910f	0.04383951
230	0xbd1ce0a2	-0.038300164
231	0xbe347e5a	-0.17626324
232	0xbe8b1366	-0.27163237
233	0xbe1492d6	-0.14509138
234	0xbdf69522	-0.120401636
235	0x3d7bbd4a	0.061459817
236	0xbdc37fb7	-0.09545844
237	0xbd6f36dd	-0.05840193
238	0xbda7f8c4	-0.08201745
239	0x3dc4087c	0.09571931
240	0x3e199ae5	0.15000494
241	0xbd34aee4	-0.0441121
242	0xbd0562e1	-0.032565
243	0xbe56156e	-0.20906612
244	0xbc5dcb2a	-0.013537208
245	0x3e080905	0.1328469
246	0x3db57f53	0.08862176
247	0xbdab80c4	-0.083741695
248	0x3e001e32	0.12511519
249	0xbe23dcc7	-0.16002189
250	0xbde2540f	-0.11051189
251	0xbc566eab	-0.013087909
252	0xbdbaaa00	-0.09114456
253	0xbb7f68e7	-0.0038972439
254	0xbe840913	-0.25788173
255	0xbce163e9	-0.027513461
