results/MoveToGoal2/MoveToGoal/checkpoint.pt (torch, 439199 bytes, 36 tensors)

network_body._body_endoder.seq_layers.0.weight f4 [128, 6]
0	0xbb7f1fea	-0.0038928934
1	0x3e353ed3	0.17699747
2	0x3ef6f3ed	0.48232976
3	0xbf946eae	-1.1596277
4	0x3ed360f1	0.41284898
5	0xbeae2c45	-0.3401815
6	0xbeac3e30	-0.33641195
7	0x3eb7585b	0.35809597
8	0xbec9c3e5	-0.39407268
9	0x3ee17d61	0.4404097
10	0xbf538c57	-0.82636017
11	0x3e9e2f90	0.30895662
12	0xbd4e976a	-0.05043737
13	0x3f0ae26c	0.5425174
14	0xbe9aede7	-0.3025963
15	0xbc4446e5	-0.011979793
16	0x3e2fa972	0.17154482
17	0x3d0a5c77	0.033779588
18	0x3dc8bd65	0.09801749
19	0xbed2a1f2	-0.4113918
20	0x3ea46903	0.32111368
21	0xbf48e3e2	-0.7847272
22	0xbe89b3a8	-0.2689488
23	0xbf83693b	-1.0266489
24	0x3f0b9749	0.5452772
25	0x3f027851	0.5096484
26	0x3f415682	0.75522625
27	0xbf0425cc	-0.51620173
28	0x3ee220c9	0.44165638
29	0xbedc574c	-0.43035352
30	0xbeeed191	-0.4664426
31	0x3e0aa2a0	0.13538599
32	0x3e1adaf6	0.1512259
33	0x3f518531	0.8184386
34	0x3e2a781f	0.16647385
35	0xbe417b9f	-0.18894814
36	0x3f6ad4dd	0.91731054
37	0xbee344a0	-0.44388294
38	0x3df3036b	0.11865886
39	0xbe2d1236	-0.16901478
40	0xbdac8130	-0.08423078
41	0xbda6c412	-0.08142866
42	0xbef57035	-0.4793717
43	0x3e5d173e	0.21590897
44	0x3f22696d	0.63442117
45	0x3d6385c9	0.05554751
46	0x3d43e329	0.04782406
47	0x3e357bd8	0.17723024
48	0xbe18fca7	-0.14940129
49	0x3e185c69	0.14879002
50	0x3f4685b8	0.7754779
51	0x3dad74f1	0.084695704
52	0xbeda3883	-0.4262124
53	0x3ef1d41c	0.4723214
54	0xbe410740	-0.18850422
55	0x3efaf3bd	0.49014083
56	0x3e94dda1	0.2907534
57	0x3f429ed5	0.7602361
58	0xbc6ee3f6	-0.014580717
59	0xbef6fd2f	-0.4824004
60	0x3e845ef5	0.25853696
61	0x3ebaafa2	0.36462122
62	0x3e86ffdb	0.26367077
63	0xbf0b05c7	-0.5430569
64	0xbf005370	-0.50127316
65	0x3e40a4bd	0.18812843
66	0x3e9bfa86	0.30464572
67	0x3f0b6b78	0.5446086
68	0x3e3210e6	0.17389259
69	0xbf217e6a	-0.6308352
70	0x3d518552	0.051152535
71	0x3e2546a7	0.16140233
72	0xbecf6795	-0.40508714
73	0xbee978e9	-0.4560006
74	0xbe88c53d	-0.2671298
75	0x3f3a9a51	0.7289172
76	0x3da4caba	0.080464795
77	0xbe1b9cd7	-0.15196548
78	0xbf205b68	-0.62639475
79	0x3f3999ea	0.7250048
80	0xbe75d405	-0.2400666
81	0x3ece2d95	0.4026915
82	0xbddf38a0	-0.10899472
83	0x3ed345f7	0.41264316
84	0xbd903028	-0.07040435
85	0xbd49eeef	-0.04930013
86	0x3eb7f48b	0.3592876
87	0xbf2ebf81	-0.6826096
88	0xbf02f9ef	-0.5116262
89	0x3f0a8e72	0.54123604
90	0xbe913599	-0.28361204
91	0x3e110e51	0.14165618
92	0x3e4bb1bc	0.19892019
93	0x3e8dd600	0.27702332
94	0x3d9e24e0	0.07721877
95	0x3ed4ade4	0.41538918
96	0x3edd096e	0.43171257
97	0x3d562ad2	0.05228693
98	0x3dad03cb	0.08447989
99	0xbe9d10e6	-0.30676955
100	0x3ec158d3	0.3776308
101	0x3f8b3490	1.0875416
102	0xbdd62f2f	-0.10458218
103	0x3de30181	0.11084271
104	0xbf089969	-0.53359085
105	0x3d722afb	0.05912302
106	0xbf207279	-0.6267467
107	0x3eb5c52e	0.35502
108	0xbdd910c1	-0.10598899
109	0xbe0b5c11	-0.1360934
110	0x3e99839c	0.29983222
111	0xbcdaafbd	-0.026695127
112	0xbd1ad798	-0.037803262
113	0x3eb3ccb0	0.35117102
114	0x3e27d9f9	0.16391744
115	0x3f4ed94b	0.8080031
116	0x3eee1c5d	0.46506014
117	0x3f240cdd	0.6408213
118	0x3e63ddfa	0.22252646
119	0xbef51870	-0.47870207
120	0x3f034c65	0.51288444
121	0x3e9c79f7	0.30561802
122	0x3c11bcd0	0.008895114
123	0x3eccb4a8	0.3998158
124	0xbe7b0323	-0.24512915
125	0x3e0584e6	0.13038978
126	0x3f39f86c	0.72644687
127	0xbeff889f	-0.4990892
128	0x3eff12ae	0.4981894
129	0x3f472ebd	0.7780569
130	0xb9546c2c	-0.00020258193
131	0xbe4cd9c6	-0.20004949
132	0xbec6140e	-0.38687176
133	0x3e94266a	0.28935558
134	0xbccdf6c7	-0.025142087
135	0xbce89e97	-0.028395934
136	0xbd8d81ea	-0.06909545
137	0xbf16f9c0	-0.5897484
138	0x3d3b8949	0.045785222
139	0xbf29d80b	-0.6634528
140	0x3f14623b	0.5796239
141	0x3f1c1c6f	0.60980886
142	0x3d46f5d5	0.048574287
143	0x3ea8e4ff	0.3298721
144	0xbf54c4e3	-0.83112925
145	0x3ed64f51	0.4185739
146	0xbebbf478	-0.36709952
147	0x3ea92893	0.33038768
148	0xbee5312e	-0.44764084
149	0x3e8983aa	0.26858264
150	0x3b15b311	0.0022842328
151	0x3cd5e68d	0.026110912
152	0x3ef812c4	0.48451817
153	0xbde62193	-0.112368725
154	0x3e2ee05e	0.17077777
155	0xbe1446eb	-0.14480178
156	0xbf56649b	-0.8374726
157	0x3cf0e48c	0.029405855
158	0xbf32a921	-0.6978932
159	0x3e935ab8	0.2878015
160	0x3f36f54d	0.7146805
161	0x3e05e2d1	0.13074805
162	0xbf342f51	-0.703847
163	0x3f2c1907	0.6722569
164	0xbea4e2f9	-0.32204416
165	0x3d6e771f	0.05821907
166	0xbe76f1c4	-0.24115664
167	0xbc310e8d	-0.010806692
168	0x3f281154	0.6565144
169	0xbe46763c	-0.1938104
170	0x3e120eb5	0.14263423
171	0x39edbb9b	0.0004534394
172	0x3efb11c7	0.49037
173	0x3e55c03a	0.2087411
174	0xbeed25f0	-0.46318007
175	0x3f315d2a	0.6928278
176	0xbf2b9052	-0.6701709
177	0x3f338ba2	0.7013494
178	0x3ee64c56	0.44980115
179	0x3ec8d9c7	0.3922865
180	0x3dd696da	0.104779914
181	0x3e519c48	0.20469773
182	0xbeda46ba	-0.42632085
183	0xbf2a9748	-0.66637087
184	0xbebb00d4	-0.3652407
185	0xbf613d48	-0.8798413
186	0x3c695b69	0.014242985
187	0x3ea581ff	0.32325742
188	0x3e123f2f	0.14281915
189	0xbf009a4d	-0.50235444
190	0xbe02ceb4	-0.12774163
191	0xbeb9e8e9	-0.3631051
192	0xbe67ad87	-0.22624789
193	0x3c5e9890	0.013586178
194	0xbd687ebd	-0.056761492
195	0x3ec68cb2	0.38779217
196	0xbf39c4df	-0.72566026
197	0x3d130083	0.03588916
198	0x3e1e9486	0.15486345
199	0xbe22f0fd	-0.15912242
200	0x3e3f85c4	0.18703371
201	0xbeed570a	-0.46355468
202	0x3e160155	0.14648946
203	0xbf039fce	-0.5141572
204	0x3cb3de26	0.021956515
205	0xbcf11900	-0.029430866
206	0x3e8ffbef	0.28121898
207	0xbdef8b89	-0.11696536
208	0xbe2b09ae	-0.16702911
209	0x3e96e078	0.2946813
210	0x3dd5d98e	0.10441886
211	0xbcfc7412	-0.030817065
212	0x3e221679	0.15828885
213	0x3c4ad742	0.012380423
214	0xbdf84ae9	-0.12123663
215	0x3d82ebba	0.063926175
216	0x3eb0d795	0.34539476
217	0x3de4f510	0.111795545
218	0x3f2091a3	0.62722224
219	0xbf282ff7	-0.6569819
220	0x3f27e1b9	0.655788
221	0x3f2b552e	0.6692685
222	0x3ccc88f2	0.024967644
223	0xbe97c43e	-0.29641908
224	0xbe82bd66	-0.25535125
225	0xbf2894b4	-0.658519
226	0x3e5e52ca	0.21711269
227	0x3d475a33	0.048670005
228	0xbe266038	-0.16247642
229	0xbddafcd6	-0.10692756
230	0xbea13055	-0.31482187
231	0x3e927d94	0.28611434
232	0xbd2cdb94	-0.042201594
233	0xbebb542d	-0.3658766
234	0x3eb5620c	0.35426366
235	0x3ea06248	0.31324983
236	0xbf77909b	-0.96705025
237	0x3e51f7cd	0.20504685
238	0xbe711524	-0.23543221
239	0xbe944d2d	-0.2896513
240	0xbf09cc5c	-0.5382745
241	0xbdde6c54	-0.10860506
242	0xbc4b8c08	-0.012423523
243	0xbea121d5	-0.31471124
244	0x3eb9db80	0.36300278
245	0xbe98bc5a	-0.298312
246	0x3ea8d5f7	0.32975742
247	0xbe52af53	-0.20574693
248	0x3eabfece	0.33592838
249	0xbc54ff16	-0.01300027
250	0x3e870775	0.26372877
251	0xbe812b03	-0.25228128
252	0x3ead8532	0.33890682
253	0x3e87c143	0.26514634
254	0xbf3ddf27	-0.7416863
255	0xbf599100	-0.8498688

network_body._body_endoder.seq_layers.0.bias f4 [128]
0	0x3d8adca1	0.06780363
1	0x3c72b0aa	0.014812628
2	0xbbd9069b	-0.006623102
3	0xbae8b9b4	-0.0017755539
4	0x3db898d2	0.09013523
5	0xbdc80692	-0.09766878
6	0x3d45da19	0.048303697
7	0x3d41e34c	0.047335908
8	0x3d968bc3	0.07350876
9	0xbcdeaf01	-0.027183058
10	0xbca05740	-0.019572854
11	0xbdc1b5ad	-0.0945848
12	0xbe256968	-0.1615349
13	0x3de2f3d7	0.11081665
14	0xbd633c9e	-0.05547773
15	0xbce4c7f4	-0.027927376
16	0xbcff2e7a	-0.031150091
17	0x3e363bad	0.17796202
18	0x3d2d70bc	0.04234384
19	0x3c95da8f	0.018292693
20	0x3e092347	0.13392363
21	0x3e0e6991	0.13907458
22	0xbd14b43a	-0.03630469
23	0xbd5a16ea	-0.05324451
24	0x3d94c982	0.07264997
25	0x3b7ce990	0.0038591363
26	0x3dea33fc	0.114356965
27	0x3dd72176	0.10504429
28	0x3dd89b96	0.10576551
29	0x3ddf4995	0.109027065
30	0xbdb987ac	-0.090590805
31	0xbe632167	-0.2218071
32	0xbe23bfd8	-0.15991151
33	0xbdb75632	-0.08951987
34	0xb9e82b8f	-0.00044282942
35	0xbddbf304	-0.10739711
36	0xbdd00372	-0.10156907
37	0xbdc9770a	-0.09837158
38	0xbbb1afa9	-0.0054225517
39	0x3e732bf7	0.2374724
40	0xbd11a717	-0.03555974
41	0x3cb10a6f	0.02161142
42	0x3d2bca2e	0.04194086
43	0x3cd10cf7	0.025518877
44	0x3e36f220	0.17865801
45	0x3d2ab2bb	0.041674357
46	0xbc20e8d1	-0.009821133
47	0xbb2767a0	-0.0025543943
48	0x3ca9cde7	0.020728065
49	0x3d0675b2	0.032827087
50	0x3da4a323	0.08038928
51	0x3dd2c74e	0.102919206
52	0xbd9e3573	-0.077250384
53	0xbdaa014b	-0.08301028
54	0x3ba27246	0.00495747
55	0xbe2c413d	-0.16821761
56	0xbe00d36c	-0.12580651
57	0xbdbc57b9	-0.09196419
58	0xbdba66cf	-0.091016404
59	0x3c4b1bc5	0.0123967575
60	0x3d88bd9c	0.0667679
61	0xbe12ff5d	-0.14355226
62	0x3cfe59aa	0.031048615
63	0x3e152dab	0.14568202
64	0xbbe37c89	-0.006942336
65	0x3da6921b	0.08133336
66	0xbce23623	-0.027613705
67	0xbe4b3b5e	-0.19846866
68	0xbd3e6f1c	-0.04649268
69	0x3ddc44dc	0.107553214
70	0xbbdcf669	-0.0067432416
71	0x3d5dc540	0.05414319
72	0xbb930bbe	-0.0044874838
73	0xbe18d275	-0.14924033
74	0xbd48bfeb	-0.049011152
75	0x3cac224a	0.021012444
76	0xbd889e0d	-0.06670771
77	0x3d9339cd	0.07188759
78	0xbd41cb06	-0.04731276
79	0x3db70307	0.08936124
80	0x3d46e4de	0.04855811
81	0x3c84ac2c	0.01619538
82	0x3e07b525	0.13252695
83	0xbdc4d5c0	-0.09611082
84	0x3d98bba9	0.07457668
85	0x3daeef9a	0.08541794
86	0xbca13149	-0.019676821
87	0x3cad3e72	0.02114794
88	0x3e09d7c7	0.13461219
89	0x3cf66b2c	0.0300804
90	0x3db6ae39	0.08919949
91	0x3db099bb	0.08623072
92	0x3d2ba368	0.041903883
93	0x3c6c810d	0.014435065
94	0xbc968627	-0.018374516
95	0xbd8a855f	-0.0676372
96	0x3dfc6af9	0.12325091
97	0x3e137ed4	0.1440385
98	0x3dbac004	0.09118655
99	0x3d5e1740	0.05422139
100	0xbe0cce87	-0.13750659
101	0x3d177c0a	0.036983527
102	0xbe2b8510	-0.16749978
103	0x3d9d80a9	0.076905556
104	0x3d615639	0.05501387
105	0xbc85df8c	-0.016341947
106	0xbc052097	-0.008125446
107	0x3dd252f9	0.10269732
108	0x3d48c66c	0.049017355
109	0xbd2ffa99	-0.042963598
110	0xbd150d7d	-0.036389817
111	0x3cdae874	0.02672217
112	0xbe148f72	-0.14507845
113	0x3e35ab8d	0.17741223
114	0x3b5f6bec	0.0034091426
115	0x3cc3ea4d	0.023915434
116	0x3dc1e060	0.09466624
117	0x3b7f1c1e	0.0038926671
118	0xbd822fce	-0.06356774
119	0xbcebc63f	-0.028781055
120	0xbdd3911c	-0.10330412
121	0xbbb06ba6	-0.0053839264
122	0xbe5982cd	-0.21241303
123	0xbd8267c7	-0.0636745
124	0xbdf4d693	-0.11954989
125	0xbdaf92c8	-0.08572918
126	0xbb4cf97f	-0.003127664
127	0x3c463604	0.012097839

network_body._body_endoder.seq_layers.2.weight f4 [128, 128]
0	0x3e400276	0.18750939
1	0xbd768b2f	-0.06019133
2	0xbceaa514	-0.028643169
3	0xbdb692b3	-0.089146994
4	0x3ca71ecd	0.02040043
5	0xbe3689c3	-0.1782599
6	0xbc9538ce	-0.018215563
7	0x3e18e107	0.14929591
8	0x3b684533	0.0035441637
9	0xbca6fe57	-0.02038495
10	0xbd242a4a	-0.040079392
11	0xbdb891ff	-0.090122215
12	0xbdd2d593	-0.10294642
13	0xbe9296d2	-0.28630692
14	0xbd9197b9	-0.07109017
15	0xbd90eec9	-0.07076795
16	0x3c9b208d	0.01893642
17	0xbdd02cf6	-0.101648256
18	0xbda75123	-0.081697725
19	0x3dbe949f	0.09305691
20	0x3de1729d	0.11008189
21	0x3d95408a	0.072877005
22	0xbdcf7734	-0.10130158
23	0x3ca1eed3	0.0197672
24	0xbcd8e97b	-0.02647852
25	0x3d8738c6	0.066026255
26	0xbc94527b	-0.018105736
27	0xbdd462e9	-0.10370428
28	0x3d3d8d40	0.046277285
29	0xbe995dfd	-0.2995452
30	0x3d8964cb	0.06708678
31	0xbdb6897b	-0.08912941
32	0xbdede1fd	-0.116153695
33	0x3e090e23	0.13384299
34	0xbd395e27	-0.045255806
35	0xbd6420a6	-0.0556952
36	0x3dfef36c	0.12448773
37	0xbd63593a	-0.055505015
38	0xbd91f538	-0.0712685
39	0x3da8d053	0.0824286
40	0xbcab5f9d	-0.020919615
41	0x3e38b79f	0.18038796
42	0xbc9d62d1	-0.019212158
43	0x3aef8970	0.0018275212
44	0xbe6e9627	-0.23299466
45	0xbbc7b12f	-0.00609412
46	0x3e6964ae	0.22792313
47	0xbe48c994	-0.19608146
48	0xbd5604f9	-0.052250836
49	0xbd1f9aee	-0.03896611
50	0x3c91b7c4	0.017787822
51	0xbe304aed	-0.17216082
52	0x3e5f6604	0.2181626
53	0xbda74e18	-0.08169192
54	0x3b0c8b74	0.0021445425
55	0x3d3496cc	0.044089124
56	0x3dfea4e9	0.12433798
57	0xbc65dac9	-0.014029213
58	0x3d4d31cb	0.050096314
59	0xbd10c5c6	-0.03534486
60	0x3c673e0f	0.014113917
61	0x3dc2dfc6	0.09515338
62	0xbdaacb1f	-0.083395235
63	0xbd7d6430	-0.061863124
64	0xbd50567e	-0.050863735
65	0xbccefab9	-0.025266038
66	0x3cf32a42	0.029683236
67	0xbd858efd	-0.065214135
68	0x3e033704	0.12813956
69	0x3e02608f	0.12732147
70	0x3d2d03a6	0.042239808
71	0x3d3b6fa4	0.045760766
72	0xbc048a53	-0.00808962
73	0x3d96fc4e	0.07372342
74	0x3e097ff3	0.13427715
75	0xbe5c55e6	-0.21517143
76	0xbdaacefb	-0.0834026
77	0xbd15bf09	-0.03655914
78	0x3d21ec2d	0.039531875
79	0xbd874470	-0.0660485
80	0x3df96fef	0.12179553
81	0xbcfa3820	-0.03054434
82	0xbe562cab	-0.20915477
83	0x3cd40bfa	0.025884617
84	0xbc9382e7	-0.018006755
85	0x3cb1514e	0.021645214
86	0x3dcd31e6	0.10019283
87	0xbda26ab7	-0.079305105
88	0xbe01b74f	-0.12667583
89	0xbd156b2d	-0.036479164
90	0xbe88fc46	-0.2675497
91	0xbda1a676	-0.07893078
92	0x3d8de28e	0.069279775
93	0xbc3eb7a4	-0.011640463
94	0x3d8c1b33	0.06841125
95	0xbdc79877	-0.09745877
96	0xbe2464a2	-0.16054013
97	0x3dcacfb6	0.09902899
98	0x3cf44e13	0.029822385
99	0x3dc829cc	0.09773597
100	0x3d5e73a7	0.054309513
101	0x3d3efadb	0.046625953
102	0x3d3440d6	0.044007145
103	0xbd9d4881	-0.07679845
104	0x3ad34f31	0.0016121623
105	0x3cfb25f1	0.03065774
106	0x3d664486	0.056217693
107	0xbe05b1ab	-0.13056056
108	0xbda1ca3e	-0.07899903
109	0x3da35178	0.07974523
110	0x3a8df876	0.0010831493
111	0xbdd8ecea	-0.10592063
112	0xbcf4c630	-0.02987966
113	0x3ac20e02	0.00148052
114	0x3d8d8fd6	0.069122
115	0xbda03720	-0.07823014
116	0x3d3aee86	0.04563763
117	0x3b8d9613	0.0043208688
118	0x3d869f00	0.065732956
119	0x3da0d4f9	0.07853121
120	0xbe03c793	-0.128691
121	0xbe31da22	-0.17368367
122	0xbd98cece	-0.0746132
123	0xbe62a65a	-0.2213377
124	0x3d9dc2b8	0.07703155
125	0xbd5bd7f1	-0.053672735
126	0xbbf298ab	-0.0074034533
127	0x3dc7a013	0.097473286
128	0xbd6b258b	-0.05740885
129	0xbebd01e8	-0.36915517
130	0xbd993f69	-0.07482798
131	0x3d8ed5a2	0.06974341
132	0x3dfd7f84	0.12377837
133	0xbdd29da1	-0.102839716
134	0x3da3cb2d	0.07997737
135	0x3db80680	0.08985615
136	0xbcece7b3	-0.028919077
137	0x3e34bb92	0.17649677
138	0xbd97ea27	-0.07417708
139	0xbdff6433	-0.12470283
140	0xbdc0839f	-0.09400105
141	0xbdfb36e6	-0.122663304
142	0xbe081a38	-0.13291252
143	0xbe017dc9	-0.1264564
144	0xbc9ed8c6	-0.019390475
145	0xbdcbd84f	-0.09953367
146	0x3e2c2320	0.16810274
147	0x3d856e2d	0.06515155
148	0x3d5bb4d4	0.053639248
149	0x3c12eda6	0.008967793
150	0x3b696161	0.003561102
151	0x3d8cbd14	0.06872001
152	0xbe421b41	-0.18955709
153	0xbddfd477	-0.10929196
154	0xbdee43d0	-0.11634028
155	0xbda7c426	-0.08191709
156	0xbcbf5bfd	-0.023359293
157	0xbe1f9dcc	-0.15587538
158	0xbc6e0e45	-0.014529769
159	0xbb9d015a	-0.004791421
160	0xbe521830	-0.2051704
161	0xbdcfdbef	-0.10149371
162	0x3e4ed3a3	0.2019792
163	0xbd801b77	-0.062552385
164	0xbc4d5be9	-0.01253412
165	0xbe4ea700	-0.20180893
166	0x3d3a4af6	0.045481645
167	0x3c3c3ea6	0.011489546
168	0xbc880d70	-0.01660797
169	0x3d9e588d	0.077317335
170	0x3d8f56dc	0.06998989
171	0x3d9402c7	0.07227092
172	0xbe576baf	-0.21037172
173	0x3e0e0cd0	0.13872075
174	0xbe519db4	-0.20470315
175	0x3d3befdd	0.04588305
176	0xbdce7859	-0.10081548
177	0x3d5f6522	0.054539807
178	0xbd05acc7	-0.032635476
179	0x3cb8545d	0.022501165
180	0xbd57dde9	-0.052701864
181	0xbd034cb1	-0.03205556
182	0xbd408e68	-0.04701081
183	0xbd9b24cd	-0.075753786
184	0xbe2a81a9	-0.16651024
185	0xbda3cbc5	-0.0799785
186	0x3dd0dfb4	0.10198918
187	0xbd3890af	-0.045059856
188	0xbde14791	-0.10999978
189	0xbd97cd5e	-0.074122176
190	0x3d2a4bee	0.04157632
191	0xbdb1e6bd	-0.08686588
192	0x3cf8ea97	0.030385299
193	0x3d1a8c97	0.037731733
194	0xbdffdf2f	-0.12493741
195	0xbe5a6f75	-0.2133158
196	0x3c92ad48	0.017904893
197	0x3d8fcc5a	0.07021399
198	0xbc675233	-0.014118719
199	0xbd1cec18	-0.038311094
200	0x3c80e5db	0.015734604
201	0x3d30f148	0.043198854
202	0x3caa5a1b	0.020794919
203	0xbe5faba7	-0.21842824
204	0xbc9cd205	-0.019143114
205	0x3d86e107	0.06585889
206	0x3dc4b5ff	0.096050255
207	0xbe0fe3e6	-0.1405178
208	0xbcd384b9	-0.025820123
209	0x3dd44f15	0.10366646
210	0xbc17ff02	-0.009277107
211	0x3da19dab	0.07891401
212	0x3d6d074a	0.05786828
213	0xbe086e2c	-0.13323277
214	0x3ca8d65c	0.020610027
215	0xbdde86de	-0.108655676
216	0x3e014296	0.12623057
217	0xbc5d701c	-0.0135154985
218	0x3e4aa106	0.19787988
219	0xbd916517	-0.070993595
220	0xbd6d87d0	-0.05799085
221	0xbd964d2d	-0.07338939
222	0xbe010861	-0.12600853
223	0xbe8b7cfb	-0.2724379
224	0xbd7ddf57	-0.06198057
225	0x3e12a7b4	0.14321786
226	0x3cdc4d6f	0.026892392
227	0xbc9c452d	-0.019075954
228	0xbe12d74f	-0.14339946
229	0xbde826d6	-0.11335532
230	0xbda7e8ef	-0.081987254
231	0x3d098d79	0.033582184
232	0xbcf5ba45	-0.029996047
233	0xbea8d080	-0.32971573
234	0x3df7c8af	0.12098824
235	0xbcf36d65	-0.02971525
236	0x3be1f9cb	0.0068962327
237	0x3d091786	0.0334697
238	0xbc7ac5ca	-0.015305946
239	0xbdd430c9	-0.103608675
240	0xbd52e724	-0.051489964
241	0xbd679ed7	-0.056547966
242	0xbd8185be	-0.063243374
243	0x3cbfad67	0.023398114
244	0xbd1d376f	-0.038382944
245	0xb9863fd1	-0.0002560602
246	0xbe01d9a3	-0.12680678
247	0x3ce80b01	0.02832556
248	0xbdf78d44	-0.12087491
249	0xbdb9634d	-0.09052143
250	0xbcb39de4	-0.021925874
251	0xbe0b7aaa	-0.13621011
252	0x3ba10676	0.0049141003
253	0xbdb67316	-0.0890867
254	0xbcaceda9	-0.021109419
255	0x3de7199b	0.11284181

network_body._body_endoder.seq_layers.2.bias f4 [128]
0	0x3d038510	0.03210932
1	0x3e0661b6	0.13123211
2	0x3d76fe4f	0.06030112
3	0xbd47d1a4	-0.048783913
4	0x3e387f32	0.18017271
5	0x3d1ca535	0.03824349
6	0x3d8fae9c	0.07015726
7	0xbcbff233	-0.02343092
8	0x3ccc9208	0.024971977
9	0x3df4aa11	0.119465
10	0x3e2daf2d	0.16961356
11	0x3d12cc01	0.035839085
12	0x3e005328	0.12531722
13	0xbd1af6a6	-0.03783288
14	0xbc598703	-0.013276818
15	0x3da010f5	0.07815734
16	0x3e0998f7	0.13437258
17	0xbc3eeb35	-0.011652757
18	0x3c69e372	0.014275419
19	0xbdc4c9d2	-0.09608807
20	0x3e5307d3	0.20608453
21	0x3d4f79ba	0.050653197
22	0x3d43a190	0.0477615
23	0x3e5e00fe	0.21680066
24	0x3dba82ec	0.091070026
25	0x3d471282	0.048601635
26	0xbc6f0f4c	-0.014591049
27	0x3dd89409	0.105751105
28	0x3c8c38dc	0.017116956
29	0xbd603f5b	-0.05474792
30	0x3e092a0a	0.13394943
31	0x3da5d23b	0.08096739
32	0x3d8d4d14	0.06899467
33	0x3e3ec090	0.18628144
34	0x3e09b18e	0.13446638
35	0x3daefe0f	0.085445516
36	0x3deeb27f	0.11655139
37	0x3a7eef93	0.00097250304
38	0xbcb8da79	-0.022565113
39	0xbd68912c	-0.05677907
40	0xbcb0f9b9	-0.021603452
41	0x3d492dd2	0.049115963
42	0x3db02cec	0.08602318
43	0xbd4cfa61	-0.050043467
44	0x3e0e3327	0.138867
45	0x3db68cf0	0.089136004
46	0x3dbcb211	0.09213651
47	0xbd13220c	-0.03592114
48	0x3d649bec	0.05581276
49	0x3da3b4bc	0.07993457
50	0xbc5c5b18	-0.013449453
51	0x3d315bf4	0.043300584
52	0x3d182426	0.03714385
53	0x3d91ad62	0.07113148
54	0xbd4d9329	-0.05018917
55	0xbd8b5233	-0.06802788
56	0xbd35f8d5	-0.044426758
57	0x3dc8ac9e	0.09798549
58	0x3e2238b1	0.15841939
59	0x3e19b046	0.15008649
60	0x3c5598de	0.013036935
61	0x3df85bff	0.12126922
62	0x3c6fae8e	0.014629019
63	0x3cf49101	0.0298543
64	0x3d09aae2	0.033610232
65	0x3ca06084	0.019577272
66	0x3e6a6a90	0.22892213
67	0xbcdda843	-0.027057773
68	0x3d733657	0.059377994
69	0xbc5dd1ec	-0.013538819
70	0x3e019afd	0.1265678
71	0xbcf50a0d	-0.02991202
72	0x3d288cc1	0.04114986
73	0xbb560987	-0.0032659487
74	0x3e022b1e	0.1271176
75	0x3db38bc0	0.087668896
76	0x3c0157c1	0.007894457
77	0x3dac19ee	0.08403383
78	0x3d5c27db	0.053748947
79	0xbbc8d6bf	-0.0061291154
80	0x3df409e1	0.11915947
81	0x3daf20e4	0.08551195
82	0x3d4529e2	0.048135646
83	0x3d1fe7ed	0.03903954
84	0x3cc3546c	0.023843966
85	0x3dd3e6f2	0.10346784
86	0x3bf349dd	0.0074245767
87	0x3e260482	0.16212657
88	0x3d2c5066	0.04206886
89	0x3de00e24	0.10940197
90	0x3d23679b	0.039893728
91	0x3d459cfa	0.048245408
92	0x3dbdf90b	0.09276017
93	0x3d1f489d	0.03888761
94	0x3c848d1e	0.016180571
95	0x3dd773c5	0.10520128
96	0xbd06afcf	-0.032882508
97	0xbd2ae708	-0.041724235
98	0x3e7dbf1e	0.24779937
99	0x3d07d4b4	0.033161834
100	0x3dacd39b	0.08438798
101	0x3e4f55bf	0.20247553
102	0x3e0691e3	0.13141589
103	0x3d091196	0.033464037
104	0x3dd74055	0.10510317
105	0x3db393c3	0.08768418
106	0x3d4c1c47	0.049831655
107	0xbd1ecafa	-0.038767792
108	0x3d27bdc3	0.040952455
109	0x3dc3c2a7	0.09558611
110	0x3d3d4e41	0.046217207
111	0x3d34ccb9	0.04414055
112	0xbd8a49c8	-0.06752354
113	0x3dabb24e	0.08383618
114	0x3cd2f47d	0.025751347
115	0xbc32a264	-0.010902975
116	0x3dd2a4b9	0.102853246
117	0x3d59afd1	0.053146187
118	0x3e4c5674	0.19954854
119	0xbcad34e2	-0.02114338
120	0x3da5c24c	0.080937
121	0x3e20ee4b	0.15715902
122	0x3c568efe	0.013095615
123	0x3db8b7dc	0.090194434
124	0x3e4869dc	0.19571632
125	0xbc8a0908	-0.01685001
126	0x3dbee924	0.09321812
127	0x3dd349f5	0.103168406

action_model._continuous_distribution.log_sigma f4 [1, 2]
0	0x3da5cc3b	0.080955945
1	0x3d202144	0.039094225

action_model._continuous_distribution.mu.weight f4 [2, 128]
0	0xbd8c0916	-0.068376705
1	0xbe4cd6eb	-0.2000386
2	0xbdf785a8	-0.1208604
3	0x3d8c9af0	0.068654895
4	0xbe259082	-0.16168407
5	0xbdff56b0	-0.12467706
6	0xbddf6dba	-0.109096006
7	0xbd0b5452	-0.03401596
8	0xbd670be0	-0.05640781
9	0x3d65fdb9	0.056150172
10	0xbe33c5fb	-0.17555992
11	0xbbc4c2cc	-0.006004667
12	0x3d909347	0.07059341
13	0x3ca4441a	0.020052005
14	0xbcbf5f02	-0.023360733
15	0xbdc5d590	-0.096598744
16	0x3e44d696	0.19222483
17	0x3d007e23	0.031370293
18	0x3d87a1a6	0.06622629
19	0x3c802121	0.015640797
20	0x3bcbc930	0.006219052
21	0x3cc9068a	0.02453925
22	0x3c5add73	0.013358462
23	0x3dfddec2	0.12396003
24	0x3c1efc3f	0.009703695
25	0x3d8070a9	0.06271488
26	0x3c4f6c05	0.012660031
27	0x3e21d140	0.15802479
28	0xbdcdbbe6	-0.100456044
29	0xbc927dd6	-0.017882269
30	0xbd6bfce1	-0.05761421
31	0xbb7e982e	-0.003884803
32	0x3d34c2d4	0.044131115
33	0xbd20390e	-0.03911691
34	0x3d7ada96	0.061243616
35	0xbc6bd426	-0.014393842
36	0xbccd0fc8	-0.02503194
37	0x3d74f869	0.059807215
38	0x3d631e39	0.055448744
39	0x3c840c63	0.016119188
40	0xbcb3a7ee	-0.021930661
41	0xbabe051d	-0.0014497373
42	0x3db3804f	0.08764707
43	0xbbea095f	-0.0071422304
44	0xbd8bf147	-0.068331294
45	0xbc92979f	-0.017894564
46	0xbe3aba3d	-0.18235107
47	0x3d158817	0.03650674
48	0x3da92e62	0.082608
49	0xbdeb04ff	-0.11475562
50	0x3ce32720	0.027728617
51	0x3d11e541	0.035619024
52	0x3d18e778	0.03733012
53	0xbdf05541	-0.11735011
54	0xbcb4e153	-0.0220801
55	0x380d9360	3.3754273e-05
56	0xbd003222	-0.03129781
57	0x3d92872d	0.07154689
58	0xbd9c9250	-0.076450944
59	0x3db0a9eb	0.08626159
60	0xbcd2e7a8	-0.025745228
61	0xbe10ba26	-0.1413351
62	0xbd1e60a8	-0.038666397
63	0xbdce704b	-0.10080012
64	0xbd08aa35	-0.033365447
65	0xbd4ff1f6	-0.05076786
66	0xbea3c994	-0.3198973
67	0xbd820669	-0.06348879
68	0xbda52363	-0.0806339
69	0xbc7dd6d2	-0.015493112
70	0x3c12babd	0.008955655
71	0xbc783dc9	-0.0151514495
72	0x3dfc406e	0.123169765
73	0x3ce4cd52	0.027929936
74	0xbda5009a	-0.08056755
75	0x3d0ceb81	0.03440428
76	0x3c6eb2c0	0.0145689845
77	0xbe05c134	-0.13061982
78	0xbba36a41	-0.0049870317
79	0x3cf55e23	0.029952114
80	0xbdf83656	-0.12119739
81	0x3c93fb2c	0.018064104
82	0xbbc93d81	-0.006141365
83	0xbdad47ca	-0.08460958
84	0xbdda484e	-0.10658322
85	0xbe2dea98	-0.16984022
86	0x3d559f92	0.05215413
87	0xbd6d70fb	-0.057969075
88	0x3e03eaca	0.12882534
89	0xbdb8809a	-0.09008904
90	0x3d9ebea2	0.07751204
91	0xbe14ef82	-0.1454449
92	0x3e035e51	0.12828948
93	0xbe1c9577	-0.15291391
94	0x3d775be3	0.060390364
95	0x3c2fe166	0.0107348915
96	0x3c4bff9f	0.012451082
97	0x3d0a9463	0.03383292
98	0x3e84ff4e	0.25976032
99	0xbde49cc5	-0.11162714
100	0x3d940b67	0.07228737
101	0x3e606336	0.21912846
102	0xbe104cf1	-0.14091851
103	0x3d904f26	0.07046346
104	0xbdaec308	-0.08533293
105	0x3e080307	0.13282405
106	0xbd86e268	-0.06586152
107	0x3d90b67f	0.07066058
108	0x3b59785d	0.0033183314
109	0x3df75c5b	0.12078162
110	0xbbef64db	-0.007305724
111	0x3caf3488	0.021387354
112	0xbd8093e8	-0.06278211
113	0xbd6af069	-0.05735818
114	0x3d2c0c95	0.042004187
115	0xbd063913	-0.032769274
116	0xbe119953	-0.14218645
117	0x3d62f2ed	0.055407453
118	0xbe917705	-0.28411117
119	0xbc746de1	-0.014918775
120	0x3ccb04ab	0.0247825
121	0x3db05787	0.086104445
122	0xbd51974d	-0.051169682
123	0x3d488916	0.04895886
124	0x3e51cc9f	0.20488213
125	0xbafd2723	-0.0019314032
126	0x3d65cc55	0.05610307
127	0xbdbb8e8d	-0.09158049
128	0xbd37ee90	-0.044905245
129	0xbd55eb3e	-0.052226298
130	0x3c07d2f6	0.008290043
131	0xbd1eb7a0	-0.038749337
132	0x3dadc40b	0.08484658
133	0x3c2803c9	0.010254809
134	0xbcef34de	-0.029200014
135	0xbd371b53	-0.044703793
136	0xbdf0c932	-0.11757125
137	0x3dcc5aca	0.09978254
138	0x3d441371	0.047870103
139	0x3dac672b	0.08418115
140	0x3e1e1768	0.15438616
141	0xbcffc1d4	-0.031220354
142	0x3d30afba	0.043136336
143	0xbcfd494b	-0.030918738
144	0xbd8962b7	-0.067082815
145	0xbde7fef0	-0.11327922
146	0x3d19ff33	0.037596893
147	0xbe095994	-0.13413078
148	0x3e2b6bec	0.16740388
149	0x3d29a019	0.041412447
150	0x3d1650d1	0.036698166
151	0x3dc7092d	0.09718547
152	0x3e02aa3d	0.12760253
153	0xbd01a104	-0.031647697
154	0x3c9e7dac	0.019347034
155	0xbd7a6031	-0.06112689
156	0xbd9ce739	-0.0766129
157	0xbd0258cc	-0.031822965
158	0x3e17f320	0.14838839
159	0x3d936f2a	0.07198937
160	0xbcb46263	-0.02201957
161	0x3e0a67a6	0.13516101
162	0x3dd423f8	0.10358423
163	0xbe324884	-0.17410475
164	0x3d8e2bbb	0.06941935
165	0xbd8d6d76	-0.06905644
166	0xbd31fe45	-0.04345538
167	0xbd30a9ce	-0.04313069
168	0xbdb31be7	-0.08745556
169	0x3d1346e6	0.035956286
170	0xbe0ca895	-0.13736184
171	0xbcce741d	-0.025201852
172	0x3dd144af	0.102181785
173	0x3dce8e12	0.100856915
174	0xbd4ec157	-0.050477352
175	0xbda26067	-0.079285435
176	0xbe1f9075	-0.1558245
177	0x3d01313a	0.031541087
178	0xbb935041	-0.004495651
179	0xbe111bca	-0.14170757
180	0xbdd9ac8d	-0.106286146
181	0xbcdb7e83	-0.026793724
182	0x3c0127dc	0.007883038
183	0xbd7bf861	-0.06151617
184	0xbcfe6e0c	-0.031058334
185	0x3d1dd7bd	0.038535822
186	0x3e156319	0.14588584
187	0x3dc995c4	0.09843019
188	0x3cc2d192	0.023781572
189	0x3dedc079	0.11608977
190	0xbde3beb3	-0.11120357
191	0xbd236efd	-0.03990077
192	0x3d876acf	0.06612169
193	0x3a0ed3da	0.00054484385
194	0x3d961982	0.07329084
195	0x3b55a5a6	0.0032599955
196	0xbb8d517b	-0.0043126917
197	0xbd70c803	-0.058784496
198	0x3dd8cb76	0.10585682
199	0xbd2af193	-0.04173429
200	0xbd8ecdb8	-0.069728315
201	0xba91fdbe	-0.0011138243
202	0x3e25a798	0.16177213
203	0x3dbb4153	0.09143319
204	0xbdd9146d	-0.10599599
205	0x3d5d3422	0.054004796
206	0xbe01d339	-0.12678231
207	0xbdaf25ea	-0.085521534
208	0x3d655196	0.05598601
209	0x3d9795ca	0.07401617
210	0xbe1bf06e	-0.15228435
211	0xbccdc14f	-0.02511659
212	0xbd4fad92	-0.05070264
213	0x3cbc80e3	0.023010677
214	0xbdb8c298	-0.09021491
215	0x3e09b454	0.13447696
216	0xbc994019	-0.018707322
217	0xbd8128b7	-0.06306594
218	0x3c9a7ebc	0.01885926
219	0x3c833139	0.016014682
220	0x3d144b67	0.03620472
221	0xbd14c747	-0.03632286
222	0xbd153379	-0.03642604
223	0x3dacd545	0.084391154
224	0xbd020fa5	-0.0317532
225	0xbda11876	-0.07865994
226	0x3cee50e8	0.029091313
227	0xbda4ae55	-0.08041064
228	0xbcc8837f	-0.024476765
229	0x3d5e3fcf	0.05426007
230	0x3da57fec	0.0808104
231	0xbc80d346	-0.015725743
232	0x3d1df22c	0.03856103
233	0xbdcf87d3	-0.10133328
234	0x3c94c6da	0.018161226
235	0xbd476ba2	-0.04868663
236	0x3d34bc81	0.044125084
237	0x3ce01ec6	0.027358424
238	0x3d74af76	0.059737645
239	0xbdf29ed3	-0.118466996
240	0xbc6978c0	-0.01424998
241	0x3d900a35	0.07033197
242	0xba7f9ae5	-0.0009750559
243	0xbd9df531	-0.07712782
244	0x3d95e581	0.07319165
245	0xbca3cf0e	-0.019996192
246	0xbce2d296	-0.027688306
247	0xbd8dfbd8	-0.06932801
248	0x3ca6adda	0.02034657
249	0x3e0d6746	0.13808927
250	0xbccc83e7	-0.02496524
251	0x3d5e6bb3	0.05430193
252	0x3c8114d4	0.015757002
253	0xbd101f0a	-0.03518585
254	0x3d93f2e0	0.07224059
255	0x3c44228e	0.011971129

action_model._continuous_distribution.mu.bias f4 [2]
0	0x3c9add84	0.018904455
1	0x3d6c9862	0.05776251

exp_avg f4 [128, 6]
0	0x3a4b7982	0.00077619415
1	0xaea6fb7f	-7.593481e-11
2	0xb90d0b23	-0.00013450957
3	0x3abd82b3	0.0014458507
4	0x00000000	0.0
5	0x38a9c6da	8.095587e-05
6	0xba85e46a	-0.0010215167
7	0xae0d8cd2	-3.2184762e-11
8	0xba5dbd99	-0.0008458733
9	0xbad0cf7e	-0.0015930978
10	0x00000000	0.0
11	0xba824a6c	-0.0009940392
12	0xb93f8a6b	-0.00018266744
13	0x2f9b775d	2.8279148e-10
14	0xba0cdbad	-0.00053733104
15	0xbb1f044c	-0.0024264036
16	0x00000000	0.0
17	0xb9894e94	-0.00026189222
18	0x3b2179d7	0.0024639273
19	0xaf8e6864	-2.5903824e-10
20	0xb88ee925	-6.814514e-05
21	0x3ba16459	0.0049252925
22	0x00000000	0.0
23	0x3af70ed6	0.0018849026
24	0x3b92751c	0.004469527
25	0xb067de03	-8.435281e-10
26	0xbae9d77f	-0.0017840712
27	0x3c745d66	0.014914846
28	0x00000000	0.0
29	0xb9ad50b4	-0.0003305726
30	0xbb1cf58b	-0.0023950066
31	0xafb274d5	-3.2461026e-10
32	0xba6907e4	-0.00088894204
33	0xbbb69993	-0.0055725067
34	0x00000000	0.0
35	0xbb279045	-0.002556817
36	0xba2d408d	-0.0006609045
37	0x2e0abe26	3.1546453e-11
38	0xb882b8a2	-6.2332736e-05
39	0x3ac500ca	0.0015030142
40	0x00000000	0.0
41	0x39df2879	0.0004256403
42	0xba574fd2	-0.0008213493
43	0xaf05aee4	-1.2158413e-10
44	0xba2ce2ff	-0.00065951044
45	0xba3cb9b3	-0.0007199302
46	0x00000000	0.0
47	0xba2af5a2	-0.00065215875
48	0xb97b75e2	-0.0002398114
49	0xaf161376	-1.3649334e-10
50	0xba93a21a	-0.001126352
51	0x3af2c784	0.0018522595
52	0x00000000	0.0
53	0xb981f088	-0.00024784007
54	0xba94e0d9	-0.0011358514
55	0xafced02b	-3.7619094e-10
56	0x3987d063	0.00025904467
57	0xbbc983bc	-0.006149737
58	0x00000000	0.0
59	0x3a0861ae	0.00052025437
60	0x3ae5033f	0.0017472281
61	0xade42d5d	-2.5940744e-11
62	0xba23120c	-0.0006220646
63	0x3a96758d	0.0011479125
64	0x00000000	0.0
65	0xba835f37	-0.0010022883
66	0x3ad129bb	0.0015957871
67	0x2ebb1426	8.5073545e-11
68	0x39b85748	0.00035160244
69	0xba978ff7	-0.0011563291
70	0x00000000	0.0
71	0xb9afb822	-0.0003351579
72	0xba9b307c	-0.0011840011
73	0xaf494ec3	-1.8308825e-10
74	0xb9d01400	-0.00039687753
75	0xbb74bba3	-0.0037343286
76	0x00000000	0.0
77	0xbaa32184	-0.0012445902
78	0xbb851fbc	-0.004062621
79	0xae198d96	-3.4913926e-11
80	0x3a416542	0.00073774543
81	0xbbc98fcb	-0.0061511747
82	0x00000000	0.0
83	0x392c0203	0.00016403948
84	0x39ac40bb	0.00032854624
85	0xad175a97	-8.603471e-12
86	0xb93aafcd	-0.00017803833
87	0xb92ca135	-0.00016463253
88	0x00000000	0.0
89	0x398ac65f	0.0002646921
90	0xba220027	-0.0006179832
91	0xacededf6	-6.762364e-12
92	0x38a28e4f	7.751269e-05
93	0xba8abeb2	-0.0010585396
94	0x00000000	0.0
95	0x390c87a4	0.0001340197
96	0x3b0c2142	0.0021382128
97	0x2fa9ff05	3.0922123e-10
98	0x39fc249e	0.00048092467
99	0x3a1ee318	0.0006061061
100	0x00000000	0.0
101	0x3b0a3a0c	0.0021091728
102	0xba606ce6	-0.0008561149
103	0x3095ebd8	1.0908208e-09
104	0xbad12447	-0.0015956246
105	0xbb65af1d	-0.0035047003
106	0x00000000	0.0
107	0x3b165a8c	0.0022942154
108	0xba58b692	-0.0008266951
109	0xae559393	-4.8561665e-11
110	0xb9953480	-0.0002845861
111	0xba316fb9	-0.0006768662
112	0x00000000	0.0
113	0xb8a6cd01	-7.953682e-05
114	0xba855584	-0.001017258
115	0xafb5c40a	-3.3063002e-10
116	0xb980f98f	-0.00024599998
117	0xbb9ca225	-0.0047800713
118	0x00000000	0.0
119	0x3a693304	0.00088958465
120	0xb98f9d45	-0.0002739226
121	0x2e90544f	6.563338e-11
122	0xb8a42484	-7.826931e-05
123	0x3959dceb	0.00020777031
124	0x00000000	0.0
125	0x3a58db2d	0.0008272406
126	0xba1db77d	-0.00060164166
127	0xab2bb2a3	-6.099931e-13
128	0xb926eb90	-0.00015918748
129	0x39d8d29e	0.00041355653
130	0x00000000	0.0
131	0x3a1591e1	0.00057056366
132	0x3a3baeb5	0.0007159517
133	0xaf3c56e7	-1.7129374e-10
134	0x3a05456d	0.00050838926
135	0x3abf8a00	0.0014613271
136	0x00000000	0.0
137	0x3addc57b	0.0016919816
138	0xb97ecfb1	-0.00024300699
139	0xad1af54e	-8.808355e-12
140	0xb97625fe	-0.00023474541
141	0xb9ada247	-0.00033118037
142	0x00000000	0.0
143	0xb9ecffce	-0.00045204017
144	0xbb8e6d20	-0.004346505
145	0x2f4119d6	1.7562427e-10
146	0x3a19ac65	0.00058621756
147	0xbbacd25c	-0.0052741
148	0x00000000	0.0
149	0x3685eff1	3.9916417e-06
150	0x3a893e1c	0.001047078
151	0xafe1f9ce	-4.1104758e-10
152	0xbaba4729	-0.0014211881
153	0x3be765ef	0.007061712
154	0x00000000	0.0
155	0xba3a1654	-0.0007098664
156	0xbb80d690	-0.003931828
157	0x2fbdb67b	3.450856e-10
158	0xb8d15612	-9.9819285e-05
159	0xbbbb34f4	-0.0057130996
160	0x00000000	0.0
161	0xb9bb89c4	-0.00035770063
162	0xbb44cd68	-0.0030029658
163	0x2ed31eae	9.600619e-11
164	0x39500ddb	0.00019841587
165	0xbb832d33	-0.004003191
166	0x00000000	0.0
167	0x39adc875	0.00033146483
168	0x3a33e371	0.00068621995
169	0x2f7decd5	2.3094356e-10
170	0x3a17cb99	0.0005790531
171	0xb99665e4	-0.00028686144
172	0x00000000	0.0
173	0x3a912c05	0.0011075741
174	0xb71e7bc3	-9.446349e-06
175	0xae3444c6	-4.0988345e-11
176	0xba658029	-0.0008754754
177	0xba4eb5e9	-0.0007885383
178	0x00000000	0.0
179	0xba350976	-0.0006906012
180	0x3aa964c2	0.0012923705
181	0xaf681d8a	-2.1110771e-10
182	0x3a70ff0f	0.000919328
183	0x3b3d47bf	0.0028881875
184	0x00000000	0.0
185	0x3b2d2543	0.0026419915
186	0x3b070447	0.0020601915
187	0xaf0e6b95	-1.2953046e-10
188	0x3a0ca6d8	0.0005365438
189	0x3b35d3b2	0.0027744588
190	0x00000000	0.0
191	0x3a4022eb	0.0007329422
192	0xbaa16374	-0.0012312965
193	0xaefe86e6	-1.15745455e-10
194	0xb95397d5	-0.0002017909
195	0xbb30a5bd	-0.0026954256
196	0x00000000	0.0
197	0xba88377b	-0.0010392511
198	0x3b424185	0.0029641103
199	0xaf8843e4	-2.4786495e-10
200	0x3959dfa9	0.00020778053
201	0x3bb24814	0.0054407213
202	0x00000000	0.0
203	0x3a9ed8b6	0.0012119028
204	0x383e76fc	4.5410343e-05
205	0x2d82b3bf	1.4859112e-11
206	0x3867c969	5.526227e-05
207	0x39f815d7	0.00047318518
208	0x00000000	0.0
209	0x3a2f0ac1	0.00066773227
210	0x38d50c86	0.00010158964
211	0xae88a422	-6.21372e-11
212	0xb90becd1	-0.00013344294
213	0x3a5ca85e	0.00084174227
214	0x00000000	0.0
215	0xb9f349fe	-0.000464037
216	0x3a83b19f	0.0010047442
217	0x2d3426ac	1.0240402e-11
218	0xb97ade2c	-0.00023924623
219	0x3ac01fb4	0.0014657886
220	0x00000000	0.0
221	0x37ca4904	2.4114277e-05
222	0x39afada7	0.00033507982
223	0x2eb8c9ec	8.40322e-11
224	0x39e5e77b	0.0004385075
225	0xbacbf625	-0.0015561028
226	0x00000000	0.0
227	0x3a3434db	0.0006874331
228	0x389aba5d	7.378005e-05
229	0xaed623a5	-9.737925e-11
230	0x398fa145	0.0002739524
231	0xba259059	-0.000631576
232	0x00000000	0.0
233	0x3a9e9eab	0.001210173
234	0x39893dda	0.0002617676
235	0x2f551445	1.9379438e-10
236	0xba7200ba	-0.00092316756
237	0x3786fc7c	1.6091617e-05
238	0x00000000	0.0
239	0x3a6b61e6	0.00089791266
240	0x3a52c687	0.0008040447
241	0xaf08ac6e	-1.2430387e-10
242	0x38f4a059	0.00011664694
243	0x3acdf194	0.0015712255
244	0x00000000	0.0
245	0x3a63407f	0.00086689735
246	0xbac45801	-0.001497984
247	0xaf97d941	-2.7621108e-10
248	0xba0134e5	-0.00049288414
249	0x3b0459ec	0.00201952
250	0x00000000	0.0
251	0x39b377c4	0.00034230773
252	0x3a9ef242	0.0012126642
253	0x2faedc6d	3.1807038e-10
254	0xba3def07	-0.00072453957
255	0xbb7c6ad3	-0.003851582

exp_avg_sq f4 [128, 6]
0	0x36536549	3.1500406e-06
1	0x1ed359de	2.2377662e-20
2	0x35e7094c	1.7213547e-06
3	0x36b9e72e	5.5403425e-06
4	0x00000000	0.0
5	0x36698af6	3.4800591e-06
6	0x390869b4	0.00013009348
7	0x20f8a249	4.2120225e-19
8	0x38385d47	4.395589e-05
9	0x396f50f1	0.00022822969
10	0x00000000	0.0
11	0x38bfb026	9.1404e-05
12	0x37f0c508	2.870198e-05
13	0x2029072d	1.4317231e-19
14	0x378b2e1e	1.6591566e-05
15	0x38757bd0	5.852786e-05
16	0x00000000	0.0
17	0x3808caa4	3.261365e-05
18	0x3838317f	4.3915115e-05
19	0x208b6cd8	2.3619543e-19
20	0x37c42bd4	2.338543e-05
21	0x38bed267	9.0990965e-05
22	0x00000000	0.0
23	0x386330af	5.4166358e-05
24	0x3942f250	0.0001859155
25	0x21842902	8.955523e-19
26	0x38be9e60	9.089406e-05
27	0x39c6d5ce	0.000379248
28	0x00000000	0.0
29	0x394c7031	0.0001949675
30	0x3944f7c5	0.00018784318
31	0x211f2db4	5.3931783e-19
32	0x3837e1d1	4.3840908e-05
33	0x399f6d10	0.000304081
34	0x00000000	0.0
35	0x38ce4d2e	9.837221e-05
36	0x3800c902	3.070478e-05
37	0x200322ea	1.1107684e-19
38	0x37126c4e	8.727495e-06
39	0x384bd738	4.859941e-05
40	0x00000000	0.0
41	0x37a5b613	1.9754318e-05
42	0x376088f0	1.3383324e-05
43	0x1fa8a7b6	7.142822e-20
44	0x36fdc799	7.563224e-06
45	0x37dc7b0a	2.6283338e-05
46	0x00000000	0.0
47	0x3780be2a	1.5347341e-05
48	0x370b6933	8.309539e-06
49	0x1f7ffc7f	5.420721e-20
50	0x36a809e7	5.007943e-06
51	0x379f299d	1.8973655e-05
52	0x00000000	0.0
53	0x3722ec58	9.7109805e-06
54	0x38e8713f	0.00011083716
55	0x21000448	4.3373753e-19
56	0x38391a4d	4.413193e-05
57	0x395ef6b4	0.00021263474
58	0x00000000	0.0
59	0x38c93dde	9.5959505e-05
60	0x37f78135	2.9504861e-05
61	0x20196248	1.2992123e-19
62	0x372d34e8	1.0323922e-05
63	0x38768993	5.8779096e-05
64	0x00000000	0.0
65	0x37c74e3e	2.3759083e-05
66	0x37bd562c	2.2570683e-05
67	0x1fb510d1	7.66843e-20
68	0x36cf2b20	6.174101e-06
69	0x381adee8	3.692406e-05
70	0x00000000	0.0
71	0x37651512	1.36543695e-05
72	0x388e4bb8	6.785191e-05
73	0x2069bd65	1.9798533e-19
74	0x37806cd8	1.5309473e-05
75	0x38ed25a6	0.00011308053
76	0x00000000	0.0
77	0x381b0c0b	3.6966096e-05
78	0x38da9ae4	0.00010423901
79	0x20f4dcd3	4.1481337e-19
80	0x381eee90	3.7892314e-05
81	0x3938a54d	0.00017609187
82	0x00000000	0.0
83	0x38aeedb6	8.341244e-05
84	0x363539ec	2.7004817e-06
85	0x1eac3c31	1.8236103e-20
86	0x358fe804	1.0721856e-06
87	0x36de083b	6.6170737e-06
88	0x00000000	0.0
89	0x363f930c	2.854681e-06
90	0x37517bb6	1.24861745e-05
91	0x1f56c139	4.5476093e-20
92	0x369c9040	4.665955e-06
93	0x37b24387	2.1250698e-05
94	0x00000000	0.0
95	0x372780fa	9.984005e-06
96	0x387a3285	5.9651695e-05
97	0x20b42d35	3.0523102e-19
98	0x38100778	3.433923e-05
99	0x38fdd63d	0.00012103885
100	0x00000000	0.0
101	0x38951999	7.1096416e-05
102	0x39bbce01	0.00035820904
103	0x2208f269	1.8559768e-18
104	0x395da1f3	0.00021136533
105	0x3a3e4ac3	0.0007259065
106	0x00000000	0.0
107	0x39e0fe4f	0.00042914084
108	0x36aab385	5.0872936e-06
109	0x1f0990bb	2.9130597e-20
110	0x35ee18ea	1.7739633e-06
111	0x370cae6d	8.385262e-06
112	0x00000000	0.0
113	0x369e7a9e	4.7230415e-06
114	0x389bb30f	7.424328e-05
115	0x20cd28ab	3.4755263e-19
116	0x3817d15c	3.6196187e-05
117	0x392455db	0.00015672242
118	0x00000000	0.0
119	0x38a93e43	8.070145e-05
120	0x37841347	1.5744603e-05
121	0x1fb811fe	7.7956797e-20
122	0x368961f6	4.0943223e-06
123	0x37b192de	2.1168435e-05
124	0x00000000	0.0
125	0x371ad083	9.227663e-06
126	0x36dd7d03	6.6008665e-06
127	0x1f293181	3.582809e-20
128	0x36122097	2.1774665e-06
129	0x371b4eb4	9.257044e-06
130	0x00000000	0.0
131	0x36a5ab6d	4.93734e-06
132	0x3768e9ef	1.38827445e-05
133	0x1faf1159	7.414408e-20
134	0x36dbdd14	6.5524455e-06
135	0x37e1a67d	2.6899617e-05
136	0x00000000	0.0
137	0x37856971	1.5903935e-05
138	0x3729a817	1.0112321e-05
139	0x1f6e6c85	5.0488226e-20
140	0x367ed976	3.7975528e-06
141	0x37bdee5b	2.2641549e-05
142	0x00000000	0.0
143	0x37260afb	9.896928e-06
144	0x38d9dfca	0.0001038905
145	0x20ed0aa0	4.0156393e-19
146	0x38107f4d	3.4450833e-05
147	0x3930cab0	0.00016860175
148	0x00000000	0.0
149	0x38a05e53	7.646964e-05
150	0x388886bb	6.510081e-05
151	0x20c2ec9c	3.3021453e-19
152	0x3826f926	3.980952e-05
153	0x390f3e6c	0.00013660797
154	0x00000000	0.0
155	0x38ae5a8c	8.313832e-05
156	0x38e59e3f	0.000109490466
157	0x21130477	4.9811446e-19
158	0x3851420f	4.9891005e-05
159	0x3944e9d1	0.0001877912
160	0x00000000	0.0
161	0x38e1436b	0.000107413936
162	0x3898edee	7.292243e-05
163	0x20bde7d2	3.217125e-19
164	0x37bea288	2.272545e-05
165	0x38f5e3d8	0.000117249496
166	0x00000000	0.0
167	0x38543116	5.0590454e-05
168	0x382cfaae	4.124146e-05
169	0x203b31a0	1.5855936e-19
170	0x3757dbe1	1.2866193e-05
171	0x3890b0b1	6.8993664e-05
172	0x00000000	0.0
173	0x37f689ab	2.9389592e-05
174	0x3907cc9f	0.0001295083
175	0x2103d00f	4.465989e-19
176	0x3844bb25	4.6904333e-05
177	0x3978a83e	0.00023713798
178	0x00000000	0.0
179	0x38cf5561	9.886432e-05
180	0x383b7f8a	4.4703054e-05
181	0x2085dfd3	2.267919e-19
182	0x37b48e5e	2.1523967e-05
183	0x38be5723	9.0761365e-05
184	0x00000000	0.0
185	0x384a6f7c	4.826438e-05
186	0x37c96216	2.4006742e-05
187	0x1fc1d20f	8.208619e-20
188	0x3700be93	7.673766e-06
189	0x381af67a	3.694601e-05
190	0x00000000	0.0
191	0x3788afca	1.6294322e-05
192	0x383d2783	4.509791e-05
193	0x2006bffa	1.1413761e-19
194	0x3725b492	9.876809e-06
195	0x38956e96	7.125472e-05
196	0x00000000	0.0
197	0x37ba9ebd	2.2246846e-05
198	0x38156d1f	3.5625995e-05
199	0x202779e5	1.4185782e-19
200	0x376bfb3a	1.4065585e-05
201	0x3884c447	6.33081e-05
202	0x00000000	0.0
203	0x37ffd30b	3.0496643e-05
204	0x3605d42b	1.9942042e-06
205	0x1e95cd5e	1.5860927e-20
206	0x35d77950	1.6054055e-06
207	0x36b9e846	5.54047e-06
208	0x00000000	0.0
209	0x36854c60	3.9726e-06
210	0x36bbf600	5.6016725e-06
211	0x1f0a587a	2.9295823e-20
212	0x361e467a	2.3584857e-06
213	0x37261bd5	9.900851e-06
214	0x00000000	0.0
215	0x36b059cf	5.255664e-06
216	0x371bcb7c	9.286097e-06
217	0x1f72438b	5.1301364e-20
218	0x3690ff24	4.3212367e-06
219	0x3790f175	1.7278575e-05
220	0x00000000	0.0
221	0x371b26a1	9.247714e-06
222	0x3640034c	2.8612149e-06
223	0x1ebe0c53	2.012213e-20
224	0x35981ca7	1.1333221e-06
225	0x36b2d2c3	5.3293493e-06
226	0x00000000	0.0
227	0x361f76ee	2.3762072e-06
228	0x371dea06	9.412417e-06
229	0x1f520c14	4.447922e-20
230	0x36700de3	3.577087e-06
231	0x3799c97b	1.8332843e-05
232	0x00000000	0.0
233	0x3726a0e1	9.931829e-06
234	0x382dd331	4.14431e-05
235	0x205c746a	1.8673243e-19
236	0x37b32617	2.13562e-05
237	0x38a96e7a	8.079126e-05
238	0x00000000	0.0
239	0x3829ffda	4.053102e-05
240	0x370286ee	7.78002e-06
241	0x1f42c65e	4.1245183e-20
242	0x367949cb	3.7146845e-06
243	0x378082ef	1.531976e-05
244	0x00000000	0.0
245	0x370b6006	8.307403e-06
246	0x38dccff7	0.00010529154
247	0x20e6e5aa	3.9115495e-19
248	0x3827f64a	4.0045277e-05
249	0x3944c1b8	0.00018764182
250	0x00000000	0.0
251	0x38b78fd5	8.752911e-05
252	0x388577c2	6.364241e-05
253	0x20acd2b6	2.927737e-19
254	0x37e0201a	2.671783e-05
255	0x39022096	0.00012409905

exp_avg f4 [128]
0	0xb9d2ab0f	-0.0004018177
1	0xb937f3c8	-0.00017543056
2	0x3ab00c85	0.0013431465
3	0xbaa677da	-0.0012700513
4	0xbb8a2693	-0.004216024
5	0xbae221a6	-0.001725246
6	0x38f9ccc8	0.00011911389
7	0xba49953e	-0.00076897803
8	0xba52b9c6	-0.00080385467
9	0xbb048167	-0.0020218731
10	0xb9084dd8	-0.0001299897
11	0x3a041243	0.00050381216
12	0xba81985a	-0.0009887323
13	0xb8defa72	-0.00010632434
14	0xb9030704	-0.00012495747
15	0x37917705	1.734077e-05
16	0x3acfd6d1	0.0015856867
17	0x3bad9927	0.005297798
18	0xb9b351de	-0.00034202536
19	0xbaf0d15c	-0.0018372941
20	0x39c8fd57	0.00038335726
21	0x3766057c	1.3710345e-05
22	0xba77f2da	-0.000945849
23	0x37d6a962	2.5589663e-05
24	0x3a4d1eec	0.0007824737
25	0xbb0fc56b	-0.0021937739
26	0x3aaccf6e	0.0013184377
27	0x396080f8	0.0002141035
28	0x3aa29c48	0.0012406195
29	0xb99c4af4	-0.00029810483
30	0xba5a82f7	-0.00083355553
31	0xba05346b	-0.0005081358
32	0xba16326d	-0.000572956
33	0xba8df972	-0.0010831787
34	0x38692e87	5.559486e-05
35	0xb9a331ba	-0.00031126832
36	0xb80372fa	-3.1339914e-05
37	0x39e3e6ec	0.00043468864
38	0xba02d8d5	-0.0004991417
39	0x3a8703a6	0.001030077
40	0xba3b16c4	-0.0007136876
41	0xbab5fc92	-0.0013884476
42	0x3ad7c59d	0.0016462092
43	0x3a1853ec	0.0005810845
44	0x3bab4ab2	0.0052274102
45	0xba2363bb	-0.00062328175
46	0x3a9619fc	0.0011451836
47	0xb8a0e721	-7.672446e-05
48	0x3a070f8a	0.0005152157
49	0xbab5d044	-0.0013871272
50	0xba9d3873	-0.0011994973
51	0x3a6f8193	0.00091364345
52	0xbb2dd857	-0.0026526654
53	0xb9b75638	-0.00034968718
54	0x3ac1140e	0.0014730708
55	0xba2d2761	-0.0006605294
56	0x393e6ff1	0.00018161513
57	0x38bd2e0a	9.020798e-05
58	0xba0cdaa9	-0.0005373159
59	0xba64e78a	-0.0008732012
60	0x3b2490e1	0.0025110769
61	0xb9ef3215	-0.00045622946
62	0x3ab319b9	0.0013664282
63	0xbadf1108	-0.0017018626
64	0x399b9f7d	0.00029682732
65	0x3ac927b0	0.0015346911
66	0x3954f4e7	0.00020309129
67	0xba57cb1b	-0.0008231864
68	0xbabf470d	-0.0014593318
69	0x3b41b8a6	0.0029559522
70	0x3a0f33f6	0.000546276
71	0xb9f639ba	-0.00046963786
72	0xbab92e6b	-0.0014128214
73	0xba0f24a9	-0.000546048
74	0xba856965	-0.0010178505
75	0x36b5c02f	5.4165935e-06
76	0xba2c8812	-0.00065815554
77	0x39b11d20	0.0003378177
78	0xb9896114	-0.00026203005
79	0x3955340d	0.00020332653
80	0x3a075866	0.00051630137
81	0xba7d22ea	-0.00096563867
82	0x3b8111bb	0.003938881
83	0xba9a3f57	-0.0011768144
84	0x3aafa857	0.001340161
85	0x38ea72a2	0.000111793415
86	0xbb105fec	-0.002202983
87	0xba39f34e	-0.0007093445
88	0x397a4c07	0.0002387018
89	0x3a8cde1d	0.0010747347
90	0x39277ef5	0.00015973656
91	0x3ab89358	0.0014081998
92	0xba489c5b	-0.00076526933
93	0xbb0d244a	-0.0021536523
94	0xbac7fe79	-0.0015258334
95	0x3a6e5363	0.0009091405
96	0x3b2906c1	0.002579138
97	0x395ccb86	0.00021056653
98	0x3ad601cf	0.0016327443
99	0x377a2f40	1.4912162e-05
100	0xba1858f3	-0.00058115943
101	0x3aa025bd	0.0012218278
102	0xb84fe2c2	-4.956383e-05
103	0xb842acd1	-4.6414152e-05
104	0x3b500db0	0.003174644
105	0x390e292f	0.00013557517
106	0xbb127efd	-0.0022353523
107	0x3b221f78	0.0024737995
108	0x3abd9d93	0.0014466516
109	0xba916611	-0.001109304
110	0xb99705e7	-0.00028805362
111	0xba53724f	-0.00080660445
112	0x39c91f81	0.0003836118
113	0x3abe62e2	0.0014525319
114	0xba297023	-0.0006463548
115	0x3aad26f7	0.0013210465
116	0xb979ae4b	-0.0002381142
117	0xba968584	-0.0011483883
118	0x39ffa1c0	0.00048757903
119	0xbaad4728	-0.0013220059
120	0x38038558	3.135702e-05
121	0xba465430	-0.00075656455
122	0xb9b1906f	-0.00033867682
123	0xba317239	-0.00067690347
124	0x39021088	0.00012403924
125	0xba8a9afa	-0.0010574751
126	0xb98f4fa4	-0.00027334422
127	0xba03eb69	-0.0005032332

exp_avg_sq f4 [128]
0	0x3522ea85	6.0690974e-07
1	0x3749d838	1.2030876e-05
2	0x367eef66	3.7988298e-06
3	0x36d3e9d5	6.3155117e-06
4	0x37c51de0	2.3498142e-05
5	0x37804768	1.529204e-05
6	0x36565e2d	3.1943302e-06
7	0x35fb1ed0	1.8709925e-06
8	0x35c2612b	1.4482406e-06
9	0x374a2330	1.2048331e-05
10	0x36627da9	3.3749768e-06
11	0x3603c68c	1.963609e-06
12	0x36bedd38	5.6881945e-06
13	0x37369a8d	1.08840295e-05
14	0x34ff383b	4.7538364e-07
15	0x35a93a2b	1.260841e-06
16	0x37059e53	7.9642805e-06
17	0x384e1bd5	4.9140148e-05
18	0x3549901b	7.5088036e-07
19	0x371f7422	9.504178e-06
20	0x361089cc	2.153788e-06
21	0x3589651f	1.0236726e-06
22	0x36023ac1	1.9405709e-06
23	0x35b7bb43	1.3689063e-06
24	0x372b59ef	1.0213334e-05
25	0x371034a2	8.595323e-06
26	0x375a2186	1.3001618e-05
27	0x37097e9f	8.195318e-06
28	0x3692ba05	4.3727946e-06
29	0x375563ca	1.2719023e-05
30	0x36ce2ece	6.144727e-06
31	0x360d924f	2.10958e-06
32	0x365dc1ad	3.30443e-06
33	0x367c09f7	3.7556727e-06
34	0x34ecf22b	4.4134626e-07
35	0x35571e9c	8.0138284e-07
36	0x35b0ef75	1.3182713e-06
37	0x3513b5a6	5.50261e-07
38	0x35a2b820	1.2123528e-06
39	0x36ad7c83	5.170297e-06
40	0x358b3e6e	1.0374476e-06
41	0x373a5e4f	1.1108422e-05
42	0x37002234	7.637358e-06
43	0x3699c387	4.5825177e-06
44	0x381718e1	3.6024376e-05
45	0x3650b8a5	3.1101893e-06
46	0x36c1f3dc	5.780237e-06
47	0x3685868e	3.979373e-06
48	0x36cee3c3	6.1657934e-06
49	0x36f36166	7.253303e-06
50	0x367c36f1	3.7582906e-06
51	0x36fcb91d	7.5317353e-06
52	0x3725c1c1	9.879878e-06
53	0x35853c9b	9.926911e-07
54	0x36f89690	7.4085037e-06
55	0x3668d276	3.4693198e-06
56	0x35123f5b	5.448143e-07
57	0x355752f9	8.021448e-07
58	0x355a1fb7	8.125748e-07
59	0x36de2828	6.6207904e-06
60	0x371b19cd	9.244727e-06
61	0x35acf192	1.2885305e-06
62	0x364a9a31	3.0190097e-06
63	0x380d943c	3.3755074e-05
64	0x35b36510	1.3365952e-06
65	0x37217862	9.624377e-06
66	0x34af839b	3.2692046e-07
67	0x36affed7	5.2450737e-06
68	0x3690e413	4.3180858e-06
69	0x37879469	1.6162363e-05
70	0x354fc594	7.7401023e-07
71	0x358cae0d	1.0481468e-06
72	0x3618c62d	2.2765119e-06
73	0x3660a0dc	3.3472234e-06
74	0x364b455e	3.0289734e-06
75	0x371fd6d6	9.527159e-06
76	0x36137505	2.1972821e-06
77	0x35c78263	1.4864603e-06
78	0x358afb2f	1.0354905e-06
79	0x37a8bf49	2.0116235e-05
80	0x359c7728	1.1657585e-06
81	0x36d81a29	6.440347e-06
82	0x37c76e96	2.3774144e-05
83	0x36cb0bf8	6.051265e-06
84	0x369c8273	4.6643486e-06
85	0x36bd0328	5.6330064e-06
86	0x37a8877b	2.0090249e-05
87	0x36b9a4e0	5.5326236e-06
88	0x367a2425	3.7273942e-06
89	0x36104e88	2.1503383e-06
90	0x35585aa1	8.0598153e-07
91	0x3723c9a8	9.762509e-06
92	0x361a0897	2.2952788e-06
93	0x3703f19b	7.864462e-06
94	0x3682db9c	3.899868e-06
95	0x3676f15d	3.6797348e-06
96	0x3757059f	1.2816307e-05
97	0x360b39da	2.0746288e-06
98	0x36aa1e1e	5.069901e-06
99	0x35343e94	6.714629e-07
100	0x3688a3eb	4.0721984e-06
101	0x3661d98f	3.3654248e-06
102	0x3543da48	7.29608e-07
103	0x3494c6d2	2.771181e-07
104	0x373b254f	1.1154755e-05
105	0x37034f41	7.826661e-06
106	0x37419acb	1.1539737e-05
107	0x3749677f	1.2004631e-05
108	0x36a97a7d	5.050852e-06
109	0x36eb2919	7.00833e-06
110	0x35e0787e	1.6724368e-06
111	0x363c2497	2.803548e-06
112	0x35342f3f	6.712398e-07
113	0x36bb7533	5.586678e-06
114	0x35f68a3f	1.8368663e-06
115	0x36b14ccb	5.283951e-06
116	0x3504218a	4.922264e-07
117	0x368df307	4.2304196e-06
118	0x367eb919	3.795669e-06
119	0x36eed9d0	7.1183094e-06
120	0x35122271	5.443936e-07
121	0x365b5c54	3.2687285e-06
122	0x35ddd303	1.6527196e-06
123	0x37176911	9.024764e-06
124	0x35746b0d	9.105286e-07
125	0x360cf4b3	2.100406e-06
126	0x370391b7	7.842135e-06
127	0x356f1934	8.9071114e-07
