results/MoveToGoal2/MoveToGoal/MoveToGoal-3499970.onnx (onnx, 72639 bytes, 7 tensors)

action_model._continuous_distribution.log_sigma f4 [1, 2]
000000 c7 72 86 3d 23 ae 26 3d
       0.06564861 0.040693413

action_model._continuous_distribution.mu.bias f4 [2]
000000 ab 5b 4b 3c 5c f4 63 3d
       0.012411992 0.05565296

action_model._continuous_distribution.mu.weight f4 [2, 128]
000000 b5 8c 83 bd 6f 7b 47 be 20 3f f1 bd 27 2f 89 3d
       -0.06423322 -0.1948068 -0.11779618 0.06698447
000010 51 9b 24 be 9d 1a ea bd 5a 09 db bd 4b 7a 05 bd
       -0.16074874 -0.11430857 -0.10695143 -0.03258733
000020 85 39 5e bd 97 b8 5b 3d c2 f9 1d be 6c 8b dc bb
       -0.054254074 0.053642835 -0.15427306 -0.0067304876
000030 96 60 89 3d 7e f9 95 3c 23 ab bb bc 28 7a c0 bd
       0.067078754 0.018307444 -0.022908753 -0.093982995
000040 f7 36 3b 3e 73 9e f2 3c 3a b7 80 3d ce e9 39 3c
       0.18282686 0.02961657 0.06284948 0.011347247
000050 31 60 55 3b 7d cd ba 3c 68 c6 61 3c e9 f8 ec 3d
       0.0032558555 0.022803063 0.013780214 0.11570913
000060 5a b9 ef 3b 9e 5f 83 3d 34 40 50 3c 47 d9 17 3e
       0.007315797 0.06414722 0.01271062 0.14828978
000070 a5 66 c8 bd 42 2d 8d bc d9 54 70 bd c6 af a3 bb
       -0.09785203 -0.017233495 -0.058674667 -0.004995319
000080 0d 18 26 3d 59 fe 17 bd c7 ac 63 3d d9 e5 4f bc
       0.04055028 -0.0371078 0.055584695 -0.012689077
000090 a7 84 c1 bc e9 be 66 3d 68 8e 52 3d af b4 81 3c
       -0.023622824 0.05633441 0.05140534 0.015833227
0000a0 de 21 ab bc 82 e7 7c ba 8f 6a ae 3d 30 d1 fd bb
       -0.020890173 -0.00096475345 0.08516418 -0.0077458844
0000b0 5a a6 7a bd 2c 2f 97 bc c8 be 37 be 3a 1f 0f 3d
       -0.0611938 -0.01845511 -0.17943871 0.03494189
0000c0 ad c4 a1 3d cd 8e e4 bd 2d 90 d6 3c ce ef 0a 3d
       0.07898841 -0.111600496 0.026191795 0.0339201
0000d0 21 ab 19 3d 99 9b e7 bd a4 12 b3 bc 8e 2c f8 b9
       0.037516717 -0.11308975 -0.021859474 -0.00047335442
0000e0 98 b8 ec bc 4b 6c 89 3d 54 04 a5 bd db 90 9e 3d
       -0.028896615 0.06710108 -0.08057466 0.07742473
0000f0 ca 2c d5 bc 35 e0 0e be e8 e9 17 bd c3 22 c9 bd
       -0.026022334 -0.13952716 -0.037088305 -0.098210834
000100 34 e0 0d bd 24 eb 42 bd 50 10 99 be 1e 12 77 bd
       -0.034637645 -0.04758753 -0.29895258 -0.060320012
000110 ed 03 a0 bd db 9a 65 bc 4e 82 bd 3b 8c cd 5e bc
       -0.07813249 -0.014013971 0.005783356 -0.013598811
000120 07 61 f4 3d 23 eb d2 3c a0 2a a7 bd c2 da 02 3d
       0.11932569 0.025746888 -0.08162427 0.031946905
000130 92 65 68 3c 06 e7 02 be 50 f3 d8 3a b8 af dd 3c
       0.0141843725 -0.12783441 0.0016552005 0.027061328
000140 df 4f f3 bd a1 37 8b 3c ab 29 bf bb 03 28 a5 bd
       -0.118804686 0.0169943 -0.0058338246 -0.08064272
000150 45 3b d5 bd f9 3c 21 be 03 fe 4f 3d d1 63 63 bd
       -0.104116954 -0.15745915 0.050779354 -0.055515114
000160 a4 5f 02 3e 52 03 b3 bd fb 5a 96 3d b0 ab 11 be
       0.12731797 -0.08740868 0.07341572 -0.1422565
000170 6b 69 00 3e c3 2d 11 be df 0b 67 3d a8 31 07 3c
       0.12540214 -0.14177613 0.056407806 0.008251585
000180 c4 a3 3f 3c ca e1 06 3d 37 30 74 3e c3 1f dd bd
       0.01169676 0.032930173 0.23846518 -0.10797074
000190 76 56 87 3d 85 d2 49 3e ab f4 0d be c1 2f 88 3d
       0.06608288 0.19709213 -0.13862865 0.06649733
0001a0 c6 0e a3 bd 62 23 00 3e 7c 01 82 bd 9b 6b 8b 3d
       -0.07961802 0.12513497 -0.06347939 0.068076335
0001b0 ee b4 08 3b f3 68 ec 3d 39 3a 00 bc 89 1e cb 3c
       0.0020859796 0.11543455 -0.007826381 0.024794834
0001c0 51 2c 77 bd 32 d8 59 bd 06 75 28 3d 8b 33 d6 bc
       -0.060344998 -0.053184696 0.041127227 -0.026147624
0001d0 41 f9 0d be 9f f1 57 3d 49 71 85 be ab db 6a bc
       -0.13864614 0.052720662 -0.26062992 -0.0143345995
0001e0 5e 73 b3 3c e5 14 a0 3d eb 15 45 bd 5f 0b 3d 3d
       0.021905597 0.07816485 -0.048116606 0.046153422
0001f0 a3 7a 40 3e b8 e4 f6 ba 3a a9 5a 3d 65 cf b0 bd
       0.18796782 -0.0018836474 0.053384043 -0.08633307
000200 53 ae 0d bd c9 ae 38 bd 32 70 0f 3c dd a1 16 bd
       -0.034590077 -0.045088563 0.008754777 -0.03677546
000210 2b 09 aa 3d 39 92 0d 3c e4 3e be bc 7f 0a 1d bd
       0.0830253 0.008640819 -0.023223348 -0.038340088
000220 82 1f dd bd f3 3b c3 3d ed b4 41 3d 91 cf a1 3d
       -0.10797025 0.09532919 0.047291685 0.07900918
000230 52 79 19 3e 5c a1 e2 bc 4d df 1b 3d 05 f0 e4 bc
       0.14987686 -0.027664833 0.038054753 -0.027946481
000240 0f 81 6b bd 58 f5 dc bd e0 4f 12 3d 10 c1 ff bd
       -0.057496127 -0.10788983 0.035720706 -0.124879956
000250 93 d4 0b 3e fe 80 23 3d 16 f3 0a 3d 9c d4 b3 3d
       0.1365531 0.03991794 0.03392323 0.087807864
000260 34 01 fb 3d 1f 01 f9 bc 45 28 9a 3c 3a 76 60 bd
       0.12256089 -0.030396042 0.01881803 -0.05480025
000270 1d d1 90 bd 3c 93 e7 bc ad 10 0f 3e 38 5b 89 3d
       -0.07071135 -0.028268449 0.13971205 0.06706852
000280 20 c1 8e bc db 5d f7 3d bb 58 c7 3d 98 37 21 be
       -0.017426074 0.120784484 0.09733721 -0.15743864
000290 8b 6f 85 3d ea 44 8b bd cc 84 28 bd 29 d0 23 bd
       0.06515416 -0.06800254 -0.04114227 -0.03999344
0002a0 6e 82 a3 bd c7 f8 0d 3d 76 d8 06 be ed b7 b5 bc
       -0.07983862 0.03466108 -0.13168511 -0.02218243
0002b0 f0 de a6 3d 5e 1b c2 3d 5f 39 3f bd 24 3b 9a bd
       0.08147991 0.09477876 -0.046685573 -0.075308114
0002c0 fe d7 19 be 09 d7 02 3d 30 63 69 bb e8 81 0a be
       -0.150238 0.031943355 -0.00356121 -0.13526118
0002d0 a3 9c d3 bd 81 af c3 bc 56 95 cb 3b 6b 02 67 bd
       -0.103326105 -0.023887398 0.0062128706 -0.05639879
0002e0 de bb ec bc ac 27 15 3d b4 f8 0a 3e 53 38 b6 3d
       -0.028898176 0.036414787 0.13571435 0.08897462
0002f0 4d b8 c2 3c 0b b4 e6 3d b6 db d0 bd 06 04 1a bd
       0.023769522 0.11264809 -0.101981565 -0.037601493
000300 30 b1 82 3d ff e3 3b 3b 41 cf 8c 3d bf cf a0 3a
       0.06381452 0.0028669832 0.06875468 0.0012268944
000310 16 5c e0 ba 1a c1 5e bd 21 6a c0 3d 59 77 1c bd
       -0.0017117287 -0.054383375 0.093952425 -0.038199756
000320 1f 39 88 bd 8c 72 3d 3a b3 82 20 3e f0 45 b2 3d
       -0.0665152 0.00072268466 0.15674858 0.08704746
000330 18 d7 ca bd b1 f2 58 3d 39 08 e4 bd dc 72 a4 bd
       -0.09904307 0.052965824 -0.11134381 -0.0802972
000340 5c 9a 63 3d 22 29 92 3d ee 47 12 be 33 a9 af bc
       0.05556713 0.07136752 -0.14285251 -0.021442985
000350 72 27 3e bd 58 69 c3 3c fa ee ae bd bc a5 f7 3d
       -0.046424337 0.023853943 -0.08541675 0.12092158
000360 f3 4d 92 bc 51 9b 5f bd 1d 9f 98 3c e1 5b 84 3c
       -0.017859435 -0.05459148 0.018630559 0.016157093
000370 5d 69 12 3d 27 2a 03 bd 7f ef 0f bd 40 4c a6 3d
       0.035745014 -0.03202262 -0.03514051 0.08120012
000380 f2 61 e6 bc f9 32 99 bd c6 4f be 3c 31 e4 98 bd
       -0.028122876 -0.074804254 0.023231398 -0.07465399
000390 ad 6b c0 bc 58 f2 37 3d f7 29 a2 3d 46 ce 7b bc
       -0.023488844 0.04490885 0.079181604 -0.015369004
0003a0 68 6e 28 3d f5 ce cc bd 60 26 93 3c 48 1e 43 bd
       0.041120917 -0.100004114 0.017962635 -0.0476363
0003b0 e0 58 26 3d 50 85 d2 3c b9 24 60 3d 10 4a e3 bd
       0.0406121 0.025698334 0.05472252 -0.11098111
0003c0 50 1e 60 bc 5e 24 81 3d 76 11 60 ba 4c c3 82 bd
       -0.013679102 0.063057646 -0.0008547524 -0.06384906
0003d0 c4 74 97 3d b1 2c 97 bc b5 4e 9f bc 14 6c 82 bd
       0.07395318 -0.018453928 -0.01944671 -0.063682705
0003e0 43 07 96 3c 4d ee 00 3e d3 bd b0 bc 4c 65 52 3d
       0.01831401 0.12590905 -0.02157489 0.051366135
0003f0 94 16 3c 3c fc 8a 01 bd e6 b0 8c 3d 38 3b 62 3c
       0.011479992 -0.031626686 0.06869678 0.013808064

network_body._body_endoder.seq_layers.0.bias f4 [128]
000000 2d 22 59 3d ce 14 32 3c 96 8e e7 bb cd 15 c4 3b
       0.05301111 0.010869218 -0.007066558 0.005984044
000010 27 95 b5 3d 0b 25 c0 bd 6c 32 5f 3d dd 92 33 3d
       0.08866339 -0.093820654 0.054491445 0.04384123
000020 0e 39 93 3d 85 97 d7 bc 27 08 80 bc 23 a7 b9 bd
       0.07188617 -0.026317367 -0.015628887 -0.09065082
000030 6e a2 24 be 47 7b d4 3d dd e2 31 bd 86 1f dd bc
       -0.16077587 0.10375076 -0.043429244 -0.02699257
000040 bf 26 ae bc 1c a3 2f 3e c6 30 2a 3d 58 72 93 3c
       -0.02125871 0.17152065 0.04155042 0.01799886
000050 ee 3b 0e 3e 8d 16 0a 3e 6c 59 02 bd 61 ef 55 bd
       0.13890049 0.13485165 -0.03182356 -0.052230243
000060 a6 90 8e 3d 74 08 36 3b c1 50 db 3d fd df c8 3d
       0.06961183 0.0027776035 0.10708762 0.098083474
000070 9c 5f df 3d 1e 45 d8 3d c6 0e a6 bd 5c 12 59 be
       0.10906908 0.10560058 -0.081082866 -0.2119841
000080 77 64 21 be f5 98 a9 bd 6f 8f e0 3b 05 0c c2 bd
       -0.1576098 -0.08281127 0.006853036 -0.09474949
000090 0d 48 bb bd 9d 2f cd bd 03 7d a9 bb 5f af 6b 3e
       -0.09144602 -0.10018847 -0.0051723733 0.23016118
0000a0 5e 23 11 bd 51 56 d8 3c 5b 76 30 3d 87 ea a9 3c
       -0.03543412 0.026408346 0.043081623 0.020741714
0000b0 73 55 30 3e 92 c6 32 3d 7e 11 aa bb cb 3e e7 ba
       0.17220096 0.043646403 -0.0051900735 -0.0017642615
0000c0 18 0b b9 3c b9 2c f8 3c 7b d8 a5 3d 10 80 d3 3d
       0.022588298 0.030294763 0.08097931 0.1032716
0000d0 15 bd 9a bd ec f8 93 bd ec 73 2b 3c 5d 76 27 be
       -0.07555596 -0.072252125 0.01046465 -0.16353746
0000e0 13 ab e0 bd 03 20 9f bd f8 c5 b6 bd a5 39 58 3c
       -0.1097013 -0.077697776 -0.08924478 0.013197337
0000f0 fe cb 81 3d 90 85 05 be b9 d8 f7 3c 74 9f 0b 3e
       0.063377365 -0.13039231 0.030254709 0.13635045
000100 c1 a3 4f bb 7a 1c b2 3d a9 d5 fe bc 52 a7 46 be
       -0.0031683298 0.08696838 -0.03110774 -0.19399765
000110 7a ad 3b bd 05 77 dc 3d 01 c2 0c bb b6 8b 4d 3d
       -0.045819737 0.10764889 -0.002147794 0.050182067
000120 a8 1c 49 bb f6 dc 14 be 27 bb 3d bd 19 f3 a1 3c
       -0.0030687246 -0.14537415 -0.04632106 0.019769238
000130 5e 43 88 bd db 9d 94 3d fb c3 36 bd 6d 92 a6 3d
       -0.06653474 0.07256671 -0.044620495 0.08133397
000140 18 c6 46 3d 92 3c 9a 3c 75 a4 02 3e 93 7f bc bd
       0.04852876 0.01882771 0.12758048 -0.0920402
000150 fd 0b a3 3d 4b fd a1 3d 75 74 9d bc 67 81 8f 3c
       0.07961271 0.0790964 -0.01922057 0.017517759
000160 67 ed 0b 3e cf ee 01 3d 6e 6f b9 3d 64 03 ac 3d
       0.1366478 0.031721886 0.09054457 0.08399084
000170 2a fe 35 3d 9d 56 3b 3c c5 bb 43 bc 0b 00 84 bd
       0.044431843 0.011434224 -0.011946623 -0.06445321
000180 77 86 f9 3d 6a 9b 15 3e 9e 8b c6 3d 8c 36 64 3d
       0.1218385 0.14610067 0.096945986 0.055716082
000190 2c ed 08 be cd 9d 28 3d 37 c2 23 be be 29 94 3d
       -0.13371724 0.041166116 -0.15992056 0.07234524
0001a0 ae 21 60 3d 4d 39 9b bc db e2 80 bb d5 b2 ca 3d
       0.05471962 -0.018948222 -0.0039332933 0.09897391
0001b0 f6 a7 5a 3d 75 f9 1d bd 86 ae ff bc 1e ac e9 3c
       0.053382836 -0.03856798 -0.031211149 0.028524455
0001c0 04 13 04 be 01 89 36 3e b4 d8 42 bb eb 79 de 3c
       -0.12897879 0.178257 -0.0029731216 0.027157744
0001d0 7a 80 aa 3d 5e cb 2a 3c 69 ca 72 bd c4 d3 c6 bc
       0.08325286 0.010424463 -0.059275065 -0.0242709
0001e0 77 71 b3 bd 11 24 f5 3a b1 f4 51 be fd 13 8b bd
       -0.08761876 0.0018702765 -0.20503499 -0.06790922
0001f0 9d 8a e3 bd 8b 03 a4 bd b1 e4 89 bb 1d d3 88 3c
       -0.11110423 -0.08008488 -0.0042081703 0.01670223

network_body._body_endoder.seq_layers.0.weight f4 [128, 6]
000000 3f c9 ad bb 37 08 35 3e 6e 90 f6 3e 06 7c 93 bf
       -0.0053035314 0.17678915 0.48157066 -1.1522224
000010 f1 60 d3 3e ec 8a af be e9 6a aa be a3 34 b7 3e
       0.41284898 -0.34285676 -0.3328469 0.35782346
000020 45 b2 c8 be c1 f4 e0 3e 57 8c 53 bf 91 3a 9f 3e
       -0.3919851 0.43936732 -0.82636017 0.3109937
000030 13 34 52 bd 52 e5 0a 3f 47 14 98 be 59 7f 50 bc
       -0.051319193 0.54256165 -0.2970297 -0.012725675
000040 72 a9 2f 3e dc 2e 11 3d f0 87 c2 3d fa 89 d2 be
       0.17154482 0.03544508 0.09498584 -0.41120893
000050 11 4f a5 3e 92 27 49 bf a8 b3 89 be 6f 99 82 bf
       0.32286885 -0.78576005 -0.2689488 -1.0203074
000060 fb 4e 0b 3f 8a 68 02 3f 04 be 41 3f 5a f2 03 bf
       0.5441739 0.50940764 0.75680566 -0.51541674
000070 c9 20 e2 3e f9 ab d9 be 19 e1 ec be 0c bc 0a 3e
       0.44165638 -0.42514017 -0.46265486 0.13548297
000080 fd 70 16 3e 64 63 51 3f 1f 78 2a 3e c5 5c 42 be
       0.14691539 0.81792283 0.16647385 -0.18980701
000090 29 b4 6a 3f c6 24 e3 be 53 47 f5 3d d9 fd 2c be
       0.9168115 -0.44363993 0.11976495 -0.1689371
0000a0 30 81 ac bd ae fe a3 bd e3 bd f3 be 4d fc 5c 3e
       -0.08423078 -0.08007561 -0.4760581 0.2158062
0000b0 90 ee 21 3f c1 b1 70 3d 29 e3 43 3d 4b b9 34 3e
       0.6325464 0.05876327 0.04782406 0.17648809
0000c0 d2 81 1a be c2 56 18 3e 08 31 45 3f a3 f9 a9 3d
       -0.15088585 0.14876845 0.7702794 0.082995676
0000d0 83 38 da be 9c da ee 3e 31 66 40 be f5 ee fa 3e
       -0.4262124 0.4665116 -0.18788983 0.49010435
0000e0 38 ee 93 3e ae 27 42 3f f6 e3 6e bc cb 96 f5 be
       0.28892684 0.75841796 -0.014580717 -0.47966608
0000f0 3e 2f 84 3e 05 b7 ba 3e 24 d5 88 3e f4 a0 0a bf
       0.25817293 0.36467758 0.26725113 -0.54151845
000100 70 53 00 bf 69 77 43 3e f8 55 9a 3e 46 71 0b 3f
       -0.50127316 0.1908852 0.30143714 0.54469717
000110 e3 c9 38 3e 03 8a 20 bf 52 85 51 3d c2 df 24 3e
       0.18045764 -0.6271059 0.051152535 0.16100982
000120 5b 3e cd be 24 80 e9 be ea 27 8b be b6 1f 3a 3f
       -0.40086636 -0.45605576 -0.2717889 0.7270464
000130 ba ca a4 3d 5d 04 1d be d2 a1 1f bf b3 81 39 3f
       0.080464795 -0.15333696 -0.62356293 0.7246353
000140 d8 80 73 be 74 5f cd 3e a0 38 df bd dc 54 d4 3e
       -0.23779619 0.40111887 -0.10899472 0.41470993
000150 cd b5 91 bd c2 66 49 bd 05 d2 b8 3e d1 dd 2e bf
       -0.07114754 -0.049170263 0.36097732 -0.68307215
000160 ef f9 02 bf e2 45 0a 3f 9d 4d 90 be f3 11 11 3e
       -0.5116262 0.5401288 -0.28184214 0.14167003
000170 eb ba 4e 3e b5 32 8d 3e e0 24 9e 3d 2c ad d5 3e
       0.20188491 0.2757775 0.07721877 0.41733682
000180 2b 31 dc 3e 86 11 58 3d c2 3f b7 3d 23 8b 9c be
       0.43006262 0.052751087 0.08947708 -0.30574903
000190 d3 58 c1 3e 5c 79 8b 3f b7 4e d8 bd 15 2a e2 3d
       0.3776308 1.0896411 -0.10561889 0.11043183
0001a0 5e 86 07 bf 22 06 72 3d 79 72 20 bf fa 0d b6 3e
       -0.52939403 0.05908788 -0.6267467 0.35557538
0001b0 17 d9 d1 bd ff 5c 0b be fc 17 99 3e d3 b6 d5 bc
       -0.10246485 -0.13609694 0.2990111 -0.026088154
0001c0 98 d7 1a bd 0a a7 b2 3e da 92 25 3e 03 d6 4e 3f
       -0.037803262 0.34893066 0.161693 0.80795306
0001d0 df 00 ee 3e b6 85 23 3f fa dd 63 3e 3b f2 f2 be
       0.4648504 0.638759 0.22252646 -0.47450432
0001e0 29 b8 02 3f d0 94 9c 3e 26 0b 65 3c 67 c6 c8 3e
       0.51062256 0.30582285 0.013979709 0.3921387
0001f0 23 03 7b be aa 22 09 3e 0e 4e 38 3f 0e 8a ff be
       -0.24512915 0.1339213 0.719941 -0.49910015
000200 fd 43 fe 3e b4 fe 44 3f 2c 6c 54 b9 88 a8 4c be
       0.49661246 0.76951146 -0.00020258193 -0.19986165
000210 ff 2c c5 be d8 2b 94 3e 4b 40 d8 bc 90 3f e1 bc
       -0.38510892 0.289397 -0.026397845 -0.02749613
000220 ea 81 8d bd 3e 23 16 bf 63 7f 40 3d 85 d6 29 bf
       -0.06909545 -0.58647525 0.046996485 -0.66342956
000230 fe 0c 14 3f d2 1b 1b 3f d5 f5 46 3d a8 ee a7 3e
       0.57832325 0.60589325 0.048574287 0.32799268
000240 f7 d2 54 bf 06 47 d6 3e 69 54 bb be b2 6b a7 3e
       -0.83134407 0.41851062 -0.36587837 0.32699353
000250 2e 31 e5 be d2 45 89 3e 24 f0 0f 3a 81 e6 d4 3c
       -0.44764084 0.2681108 0.0005490801 0.02598882
000260 26 fa f7 3e 01 9d e6 bd 5e e0 2e 3e a0 a3 10 be
       0.48433036 -0.11260415 0.17077777 -0.14124918
000270 4f 33 56 bf 24 e3 ee 3c 8f 96 31 bf d2 0b 92 3e
       -0.8367204 0.029161043 -0.6937036 0.28524643
000280 4d f5 36 3f b5 b4 06 3e a4 93 33 bf 82 08 2c 3f
       0.7146805 0.13154872 -0.70147157 0.6720048
000290 27 28 a4 be 35 1a 6f 3d c4 f1 76 be 1b 9d 21 bc
       -0.32061884 0.058374602 -0.24115664 -0.009864117
0002a0 d0 18 28 3f b2 4a 46 be 83 8b 16 3e a2 8c 4b b9
       0.6566286 -0.19364432 0.14701657 -0.00019411978
0002b0 c7 11 fb 3e 87 d2 55 3e 07 53 eb be e0 4d 31 3f
       0.49037 0.20881091 -0.45961782 0.6925945
0002c0 4f 47 2b bf c2 2b 33 3f 56 4c e6 3e de 0c c9 3e
       -0.66905683 0.69988644 0.44980115 0.3926763
0002d0 02 ce d6 3d a0 e8 51 3e 98 42 db be 8e c9 29 bf
       0.104885116 0.20498896 -0.42824244 -0.66323173
0002e0 d4 00 bb be bc 8c 60 bf f7 17 27 3c 5c 9a a5 3e
       -0.3652407 -0.87714744 0.010198585 0.3234433
0002f0 16 24 16 3e 9a cf ff be b4 ce 02 be 00 df b7 be
       0.14662203 -0.49963075 -0.12774163 -0.35912323
000300 7f cf 62 be be 4a 5e 3c dd 35 75 bd 73 d5 c6 3e
       -0.22149466 0.013567625 -0.05986582 0.38834724
000310 df c4 39 bf 50 2e 11 3d a8 8c 1e 3e 34 d3 22 be
       -0.72566026 0.035444558 0.15483344 -0.1590088
000320 66 4b 40 3e 2a 87 eb be 55 01 16 3e 6b 9b 02 bf
       0.18778762 -0.4600156 0.14648946 -0.510184
000330 3d 20 8c 3c e0 33 f0 bc 53 eb 8e 3e f0 c5 ef bd
       0.017105216 -0.02932161 0.27913913 -0.117076755
000340 ae 09 2b be 58 14 94 3e f7 90 ce 3d 5a 14 fb bc
       -0.16702911 0.2892177 0.100862436 -0.030649353
000350 c1 67 21 3e a6 20 46 3c e9 4a f8 bd 1f 26 84 3d
       0.15762235 0.012092745 -0.12123663 0.064525835
000360 90 e5 af 3e f0 5a e5 3d c9 7f 21 3f 72 e5 27 bf
       0.3435483 0.111989856 0.6308561 -0.6558448
000370 b9 e1 27 3f cc 7f 2b 3f 09 32 ae 3c 61 c8 97 be
       0.655788 0.6699188 0.021264093 -0.29645064
000380 24 94 82 be 30 83 25 bf ca 52 5e 3e 90 d5 3a 3d
       -0.25503647 -0.646533 0.21711269 0.045613825
000390 db 87 28 be da 01 db bd 17 4e a0 be 9a 56 90 3e
       -0.16458075 -0.106937125 -0.31309578 0.28191072
0003a0 94 db 2c bd fd a2 b8 be 29 6a b3 3e cb 4c a0 3e
       -0.042201594 -0.3606185 0.3504193 0.31308588
0003b0 df 65 76 bf 0c 68 4c 3e 24 15 71 be 6c 07 93 be
       -0.9624919 0.19961566 -0.23543221 -0.287166
0003c0 75 d4 09 bf 47 8f de bd 25 83 1d bc d7 7e a0 be
       -0.5383981 -0.10867172 -0.009613787 -0.3134677
0003d0 80 db b9 3e 33 7e 96 be dc cc a7 3e 72 5f 52 be
       0.36300278 -0.29393157 0.32773483 -0.20544222
0003e0 03 eb aa 3e 35 64 60 bc 75 07 87 3e 04 89 80 be
       0.33382425 -0.013695766 0.26372877 -0.25104535
0003f0 e6 94 ac 3e 0a cd 87 3e 7e 47 3d bf de 0c 59 bf
       0.3370735 0.2652362 -0.73937213 -0.8478526

network_body._body_endoder.seq_layers.2.bias f4 [128]
000000 f1 ff 04 3d ca a5 07 3e da 93 81 3d 4b af 52 bd
       0.032470647 0.13246837 0.063270286 -0.051436704
000010 7a 73 37 3e de cf 11 3d f1 fb 98 3d 64 40 a7 bc
       0.17915145 0.03559863 0.07469929 -0.020416446
000020 4e ba ee 3c f8 db ef 3d 90 16 25 3e d5 99 14 3d
       0.029141571 0.117118776 0.16121888 0.03627952
000030 4e 0c fa 3d 9f 9c 22 bd 05 40 30 bc 5e 57 a0 3d
       0.12209378 -0.039700147 -0.010757451 0.07829164
000040 a1 35 00 3e 6b fd 31 bc b8 bf 39 3c be 2e a9 bd
       0.12520458 -0.010863642 0.011337213 -0.082608685
000050 e3 93 3e 3e 2c 40 49 3d 03 aa 3d 3d 95 78 4e 3e
       0.18611102 0.049133465 0.046304714 0.20163186
000060 72 3b ba 3d 38 23 35 3d 7f b6 73 bc ec 19 c8 3d
       0.090933695 0.04422304 -0.014875053 0.09770569
000070 ec 19 a4 3c 7f b3 4f bd fd cc 06 3e 36 ba a6 3d
       0.020031892 -0.05070829 0.13164134 0.08140986
000080 0c 3d 80 3d 20 78 31 3e c9 96 ff 3d d2 ef 9a 3d
       0.06261644 0.1733098 0.12479932 0.07565273
000090 8b d1 df 3d 46 32 12 3b a2 bd cb bc 34 13 69 bd
       0.10928639 0.0022307797 -0.024870697 -0.05690308
0000a0 30 05 91 bc 08 ed 3d 3d 8a 2e af 3d e4 cc 41 bd
       -0.017702669 0.04636863 0.085537985 -0.04731454
0000b0 fa b8 00 3e b6 7c b2 3d c4 4c c3 3d 8a 62 15 bd
       0.12570563 0.08715193 0.09536126 -0.036470927
0000c0 da 8d 61 3d 86 7e ab 3d a5 b9 89 bc bf 66 34 3d
       0.05506692 0.08373742 -0.016812155 0.0440433
0000d0 5f f3 17 3d 8f c7 92 3d 16 d3 35 bd 25 d3 82 bd
       0.03709733 0.07166969 -0.04439076 -0.06387929
0000e0 7b c0 27 bd f7 a3 be 3d 1b 1b 18 3e 2f e0 0a 3e
       -0.040955048 0.093086176 0.1485409 0.13562082
0000f0 dd 16 8b 3c 4a bd 00 3e e9 df 4c 3c 29 42 02 3d
       0.016978675 0.12572208 0.012504556 0.031801376
000100 a8 3f 0e 3d 49 bc bf 3c 39 d7 5f 3e 4b 88 96 bc
       0.034728676 0.023405211 0.21859445 -0.018375536
000110 e5 ff 81 3d b0 d2 39 bc 88 5b ea 3d 99 2d dd bc
       0.06347636 -0.011341736 0.114432395 -0.026999282
000120 22 2f 1e 3d ef a6 f4 bb c8 61 04 3e 17 33 af 3d
       0.038619168 -0.007466189 0.12927926 0.085546665
000130 ad 57 09 3c 81 24 b5 3d a0 6d 2d 3d 2f dd da bb
       0.00838272 0.08844853 0.042340875 -0.006679199
000140 6b 6f fe 3d 66 a4 ae 3d 25 51 33 3d df ee 27 3d
       0.12423595 0.0852745 0.043778557 0.04099929
000150 69 70 e7 3c 53 50 d1 3d 9c 79 ab 3b ef ee 1a 3e
       0.028251844 0.10220399 0.005233003 0.15130208
000160 57 71 25 3d fc c5 da 3d b8 b1 14 3d 70 d9 59 3d
       0.040391292 0.10682294 0.0363023 0.05318588
000170 06 7c ad 3d 0d 84 21 3d 58 c9 58 3c cd 0a d1 3d
       0.08470921 0.039432574 0.013231598 0.10207138
000180 11 95 02 bd 96 41 27 bd c3 a5 6e 3e 8a 9e 20 3d
       -0.031880442 -0.040834032 0.2330542 0.039213695
000190 11 8b 9a 3d 68 d7 40 3e 2d 33 0a 3e 1d d2 e6 3c
       0.07546056 0.18832171 0.13496085 0.028176362
0001a0 42 e2 d8 3d c6 a1 ad 3d f3 19 5c 3d 47 23 2b bd
       0.1059003 0.084781215 0.053735685 -0.04178169
0001b0 60 b3 26 3d de 60 b5 3d 34 3c 44 3d b7 30 2d 3d
       0.04069841 0.088563666 0.047908977 0.042282786
0001c0 77 1a 80 bd 98 4c 9f 3d fd 43 a9 3c 6d dd 6f bc
       -0.06255048 0.07778281 0.020662302 -0.014640194
0001d0 41 08 da 3d e8 fa 44 3d 54 95 43 3e da bc a1 bc
       0.106461056 0.048090845 0.19099933 -0.019743372
0001e0 8d 60 9d 3d 35 00 13 3e b3 ba 47 3c 3a 95 b1 3d
       0.07684431 0.14355548 0.012190509 0.08671041
0001f0 4b 3f 3c 3e f9 53 94 bc a7 dd b6 3d 9d 34 d5 3d
       0.1838352 -0.018106448 0.089289956 0.10410426

network_body._body_endoder.seq_layers.2.weight f4 [128, 128]
000000 77 d4 3f 3e 35 30 71 bd 23 40 de bc 04 07 b5 bd
       0.18733393 -0.058883864 -0.027130192 -0.08839229
000010 62 94 a5 3c aa a9 35 be f3 eb af bc a6 e4 14 3e
       0.020212356 -0.17740503 -0.021474814 0.14540347
000020 d5 55 da b8 c9 a7 b7 bc 1c 9e 25 bd be 2e b8 bd
       -0.000104110375 -0.022418873 -0.040433988 -0.0899329
000030 76 01 d6 bd 54 22 91 be 9f df 95 bd 54 ef 95 bd
       -0.104494974 -0.28346503 -0.07318043 -0.07321039
000040 26 e2 93 3c bf 24 c6 bd b8 85 ac bd f9 17 b7 3d
       0.018052172 -0.096749775 -0.08423942 0.08940119
000050 df a0 d9 3d 97 b5 8c 3d f1 9e c4 bd 26 13 94 3c
       0.10626387 0.06870573 -0.09600628 0.018075537
000060 df 7e b9 bc 35 e0 82 3d 14 99 8c bb 03 be cd bd
       -0.022643505 0.0639042 -0.0042907093 -0.100460075
000070 a5 b5 34 3d 59 12 9a be 43 ee 85 3d 97 b6 b4 bd
       0.044118542 -0.30092123 0.065395854 -0.08823889
000080 4b d6 ec bd 85 57 0a 3e 7d d1 41 bd da b1 6d bd
       -0.11564311 0.13509949 -0.047318924 -0.05803094
000090 ce 4a fc 3d da e8 5f bd d0 6b 98 bd ea 6b 9b 3d
       0.12318955 -0.054665424 -0.074424386 0.07588942
0000a0 7d 41 a6 bc 54 e4 34 3e 87 a4 83 bc ca 64 38 bb
       -0.0202949 0.17665225 -0.016069664 -0.0028136247
0000b0 76 20 6a be 5f c0 36 bc 30 c7 68 3e 94 18 4b be
       -0.22863945 -0.011154263 0.22732234 -0.19833595
0000c0 5c 2b 5e bd 9e be 2b bd f2 76 bf 3c 05 de 2d be
       -0.05424057 -0.041929834 0.023372147 -0.16979225
0000d0 0a cf 5d 3e 0c ab ae bd bf b6 e6 3a 0a c9 32 3d
       0.2166101 -0.08528718 0.001760207 0.043648757
0000e0 57 7c f9 3d 60 2c 86 bc cf 80 3c 3d 41 ec e4 bc
       0.12181919 -0.016378582 0.04602128 -0.027944686
0000f0 f6 3f 8e 3c 10 5c c2 3d 56 1d aa bd 1e 1d 43 bd
       0.017364483 0.09490216 -0.08306377 -0.04763519
000100 86 70 5b bd 0b 6d ef bc 83 05 e2 3c 82 d2 7d bd
       -0.053574108 -0.0292268 0.027590519 -0.061968334
000110 32 ba 04 3e 51 3b 00 3e 9c 1a 27 3d 7f be 33 3d
       0.12961653 0.12522627 0.04079686 0.043882843
000120 28 54 2c bc dc fd 92 3d ba a6 06 3e f5 14 5d be
       -0.010518111 0.07177326 0.13149539 -0.21590026
000130 53 56 af bd 0e 56 23 bd 6e b6 14 3d f8 4a 61 bd
       -0.08561387 -0.03987699 0.03630679 -0.055003136
000140 c0 c9 fa 3d c3 b8 02 bd eb 8d 53 be 4a d6 af 3c
       0.12245512 -0.031914484 -0.20659606 0.021464486
000150 65 89 b6 bc ff 4d a4 3c 2b 49 ca 3d 13 34 a5 bd
       -0.022282312 0.020056723 0.09877237 -0.08066573
000160 50 54 04 be 51 50 1f bd b2 a9 86 be 86 8a a5 bd
       -0.12922788 -0.038894955 -0.26301342 -0.08083062
000170 38 ff 88 3d 37 aa 66 bc 2d cc 88 3d b2 50 c8 bd
       0.06689304 -0.014078668 0.066795684 -0.097810164
000180 47 e8 1f be 0d ba c7 3d 56 19 c3 3c 52 b7 c6 3d
       -0.1561595 0.09752283 0.023815792 0.09702934
000190 86 2f 58 3d 73 a4 38 3d 90 32 2b 3d 16 9b a1 bd
       0.052779697 0.045078706 0.041796267 -0.078909084
0001a0 47 38 1c 3b ea f7 ef 3c 39 32 6b 3d 43 c7 01 be
       0.0023837255 0.02929302 0.057420943 -0.12673669
0001b0 f5 75 a1 bd 56 8f a0 3d b8 6b 35 3a 16 19 df bd
       -0.07883827 0.07839839 0.00069206534 -0.10893457
0001c0 17 9c 06 bd 73 de 8c bb 96 b1 8a 3d c5 b8 a4 bd
       -0.032863703 -0.004298979 0.06772153 -0.080430545
0001d0 da a9 23 3d e0 7b 63 3a 0f 1b 88 3d 86 a9 9a 3d
       0.039956905 0.00086778216 0.06645786 0.07551865
0001e0 7b 68 05 be 53 a4 2f be cc 93 9c bd 4f f0 59 be
       -0.13028137 -0.17152528 -0.076453775 -0.21283077
0001f0 dd 78 9c 3d e1 0e 69 bd f6 c8 8b 3a 98 b4 c0 3d
       0.0764024 -0.056898955 0.001066475 0.094094455
000200 cd 11 3c bd 1b 9f bc be fc 73 9b bd 52 19 94 3d
       -0.045915414 -0.36840138 -0.07590482 0.07231392
000210 2a 71 02 3e a8 fd cb bd f3 57 9f 3d bf 23 a0 3d
       0.12738481 -0.099604905 0.07780447 0.07819318
000220 81 3c 09 bd 4a a4 34 3e c2 f7 88 bd 6b 91 ea bd
       -0.033504967 0.17640796 -0.06687881 -0.114535175
000230 a2 03 c0 bd 1c 54 02 be f9 e1 07 be c6 6a 04 be
       -0.09375693 -0.12727398 -0.13269795 -0.12931356
000240 e1 fd a4 bc f8 f6 cc bd b4 98 28 3e 61 a7 82 3d
       -0.02014059 -0.10008043 0.16464502 0.06379581
000250 ed b2 54 3d 71 d3 ec 3b 72 fc 23 3b 2e b7 8b 3d
       0.05192845 0.007227354 0.0025022295 0.06822048
000260 a9 a3 4b be 60 ab df bd 0c 1b f0 bd 5e 80 a6 bd
       -0.1988665 -0.10921359 -0.11723909 -0.08129953
000270 47 ce c8 bc fb 1b 1f be ac f9 84 bc fe 14 1d 3b
       -0.024512423 -0.15538017 -0.016232334 0.002396881
000280 6d c2 50 be 02 81 c8 bd 3b 34 4d 3e 20 96 81 bd
       -0.20386668 -0.09790231 0.20039456 -0.06327462
000290 20 68 33 bc 51 d7 3d be 0e 23 29 3d 7f aa b2 3b
       -0.010950118 -0.18539168 0.041293196 0.0054524536
0002a0 85 c7 25 bc 20 4f 99 3d d3 8e b3 3d e7 d3 87 3d
       -0.01011837 0.07485795 0.08767476 0.06632214
0002b0 72 0e 53 be 15 c6 0a 3e 5b 77 44 be 28 9f 3a 3d
       -0.20610979 0.13552125 -0.19186155 0.04556194
0002c0 72 cc de bd 28 dc 57 3d 8b d6 00 bd 08 99 f8 3c
       -0.108788386 0.05270019 -0.031454604 0.030346408
0002d0 27 3f 53 bd 0c e9 40 bd fc f6 0f bd 1b fe 98 bd
       -0.0515739 -0.04709725 -0.035147652 -0.07470342
0002e0 8f 63 2b be 9b 99 a5 bd 4b e7 c7 3d 5e 0a 32 bd
       -0.16737197 -0.080859385 0.097609125 -0.04346692
0002f0 dc be d8 bd c6 c8 91 bd 9c 8e 5d 3d 83 95 a7 bd
       -0.105832785 -0.071183726 0.05409108 -0.08182814
000300 5a 7f d9 3c 1c f7 0f 3d 4b 5c 02 be 02 5c 57 be
       0.026549984 0.03514777 -0.1273052 -0.21031192
000310 83 1e 9b 3c 54 5b 8c 3d b4 72 63 bc ee be 08 bd
       0.018935448 0.06853357 -0.013882328 -0.03338521
000320 23 ca 56 3c 2e 61 30 3d 27 b7 61 3c ed 1e 60 be
       0.013109717 0.043061428 0.013776577 -0.21886797
000330 89 ec ae bc a9 0a 5d 3d bf 93 c1 3d b2 fd 0d be
       -0.021353023 0.053965244 0.094520085 -0.13866308
000340 42 56 a5 bc 04 b6 d9 3d 80 01 f2 ba 89 00 98 3d
       -0.020182732 0.1063042 -0.0018463582 0.07421977
000350 4a 26 63 3d f2 30 0c be 28 fa a1 3c 9e ed ec bd
       0.055456437 -0.13690546 0.019772604 -0.115687594
000360 ec 80 ff 3d 5b b7 d2 bc bc 7f 4b 3e 07 0d 95 bd
       0.12475762 -0.025722196 0.19872946 -0.072778754
000370 c8 37 73 bd 88 b1 96 bd ed ac f9 bd da 5b 8c be
       -0.05937937 -0.0735808 -0.12191186 -0.27413827
000380 77 88 5e bd 21 ff 11 3e ac 9f b7 3c c3 f5 07 bc
       -0.05432936 0.1425748 0.022415005 -0.00829834
000390 de 11 12 be a4 7f ee bd c9 35 a8 bd 29 e0 00 3d
       -0.14264628 -0.11645439 -0.08213384 0.031463776
0003a0 1d 76 e3 bc 1b 96 aa be bf cf f3 3d c0 7f e8 bc
       -0.027766282 -0.33317646 0.11904859 -0.028381228
0003b0 21 92 08 3c fc ee 0a 3d 8e f4 44 bb 15 39 de bd
       0.008335621 0.03391932 -0.0030052993 -0.10850731
0003c0 f5 a6 5a bd 3e 67 77 bd 20 ff 7a bd 85 90 b3 3c
       -0.05338188 -0.060401194 -0.061278462 0.021919498
0003d0 8e da 2f bd 7a 0b ce ba d4 86 dc bd d4 b4 cf 3c
       -0.04293304 -0.0015719973 -0.10767904 0.02535478
0003e0 c0 76 ee bd 31 28 af bd f8 32 bc bc b7 ba 05 be
       -0.116437435 -0.08552588 -0.022973523 -0.13059507
0003f0 a7 15 af 3b f7 f8 c2 bd 38 96 a3 bc 6a 76 e4 3d
       0.0053431573 -0.095201425 -0.01996909 0.11155398
