results/MoveToGoal2/MoveToGoal/MoveToGoal-4499956.onnx (onnx, 72639 bytes, 7 tensors)

action_model._continuous_distribution.log_sigma f4 [1, 2]
0.08025588 0.039961156
00000000: 325d a43d 4fae 233d

action_model._continuous_distribution.mu.bias f4 [2]
0.018232169 0.0571008
00000000: a15b 953c 87e2 693d

action_model._continuous_distribution.mu.weight f4 [2, 128]
-0.06752445 -0.19935957 -0.12064929 0.06847809 -0.16238254 -0.12382171 -0.108375035 -0.033761855
-0.056161247 0.055034477 -0.17423157 -0.006074106 0.06941363 0.020585582 -0.023354253 -0.09599991
0.19113207 0.03145879 0.06625358 0.01577794 0.00437294 0.024107687 0.01286997 0.12174699
0.008871189 0.06280151 0.0129793 0.15682234 -0.100029886 -0.017778276 -0.05869789 -0.004424766
0.044217173 -0.040509768 0.0595393 -0.013491136 -0.026008364 0.058942605 0.054838922 0.016257923
-0.021695191 -0.0020837765 0.087657675 -0.0069227377 -0.06857257 -0.018415108 -0.18191187 0.036489766
0.082290895 -0.11477869 0.027987622 0.035837736 0.037042808 -0.116836645 -0.022383511 -4.5112527e-05
-0.031129949 0.07064466 -0.07762002 0.084264144 -0.026493968 -0.14156422 -0.037984688 -0.100252256
-0.0339221 -0.05060881 -0.31754002 -0.06347369 -0.080284014 -0.015090603 0.007826397 -0.014985946
0.122954816 0.027838651 -0.081002966 0.033809118 0.014944876 -0.13054201 -0.004520635 0.029654695
-0.12119766 0.017398715 -0.0052720676 -0.084197424 -0.10600319 -0.16968676 0.05215448 -0.058628995
0.12905519 -0.08966624 0.077000365 -0.14528613 0.12776347 -0.15155502 0.05927501 0.009854256
0.012432753 0.03321567 0.25637543 -0.11087897 0.07192446 0.21538596 -0.14114684 0.06982247
-0.08543815 0.13142489 -0.06580527 0.07025797 0.0028917792 0.119723074 -0.0076853726 0.021309996
-0.06276082 -0.05729828 0.04189969 -0.031712133 -0.14232117 0.05494157 -0.2820971 -0.01471853
0.023954503 0.08485805 -0.050431136 0.04823796 0.20255943 -0.0013252336 0.055368688 -0.09122457
-0.043903667 -0.05205771 0.008122442 -0.038681556 0.0843091 0.010255201 -0.029107654 -0.043895088
-0.116421014 0.09946625 0.047546353 0.08353604 0.15375477 -0.03074564 0.042613152 -0.030802442
-0.06630354 -0.11277551 0.03768376 -0.13397853 0.16273773 0.041221086 0.036359813 0.09577449
0.12694235 -0.031031098 0.019755712 -0.059919085 -0.07574094 -0.031405993 0.14715734 0.07135342
-0.021568127 0.13328291 0.101985216 -0.1726075 0.06822532 -0.068808086 -0.043099977 -0.04262706
-0.08658828 0.03574037 -0.13652413 -0.02500133 0.10072724 0.0999961 -0.05012976 -0.07887418
-0.15511444 0.031461976 -0.0043808767 -0.14081796 -0.1049299 -0.02703804 0.0073728194 -0.060928002
-0.030660171 0.038384564 0.14431617 0.09737037 0.023289388 0.1155428 -0.11032428 -0.039825827
0.066378176 0.00057272194 0.071900584 0.0029511414 -0.0041475673 -0.058080524 0.10358157 -0.041154653
-0.0692531 -0.00095306546 0.16106284 0.09104518 -0.10526634 0.053565048 -0.12464014 -0.08496643
0.05571696 0.07392306 -0.15124972 -0.024466157 -0.05024887 0.02333837 -0.089724086 0.13252907
-0.018260814 -0.062356643 0.018931434 0.015792672 0.036053713 -0.036753204 -0.036219638 0.08387805
-0.031277336 -0.07802448 0.028560122 -0.07963725 -0.024449227 0.052173223 0.08032154 -0.015591384
0.038578022 -0.10052316 0.017754665 -0.048984062 0.043613788 0.027150178 0.05893808 -0.11652035
-0.014474765 0.06837785 -0.0009658524 -0.07507092 0.07286115 -0.019629955 -0.027637377 -0.06840725
0.020430222 0.1355413 -0.024822928 0.054161917 0.0163211 -0.034779534 0.071761586 0.012077342
00000000: 424a 8abd ea24 4cbe fa16 f7bd 3e3e 8c3d
00000010: 9c47 26be 3d96 fdbd bbf3 ddbd df49 0abd
00000020: 5609 66bd d56b 613d c369 32be 4b09 c7bb
00000030: bc28 8e3d 18a3 a83c 6b51 bfbc 9a9b c4bd
00000040: 20b8 433e efda 003d f5af 873d bd40 813c
00000050: e14a 8f3b 7c7d c53c 91dc 523c 7c56 f93d
00000060: 7758 113c 149e 803d 21a7 543c 0996 203e
00000070: 78dc ccbd bfa3 91bc 336d 70bd a1fd 90bb
00000080: 111d 353d 92ed 25bd 7bdf 733d ed09 5dbc
00000090: 7e0f d5bc cd6d 713d c79e 603d 562f 853c
000000a0: 1dba b1bc f88f 08bb de85 b33d 22d8 e2bb
000000b0: c76f 8cbd 48db 96bc 1b47 3abe 4b76 153d
000000c0: 2188 a83d 1711 ebbd 4c46 e53c 97ca 123d
000000d0: 33ba 173d 0d48 efbd a05d b7bc 3537 3db8
000000e0: 3c04 ffbc 26ae 903d 3ff7 9ebd ae92 ac3d
000000f0: e109 d9bc 36f6 10be d595 1bbd 0e51 cdbd
00000100: e6f1 0abd 2f4b 4fbd 9b94 a2be 7efe 81bd
00000110: f26b a4bd 943e 77bc 4a3a 003c 9d87 75bc
00000120: bccf fb3d e20d e43c e2e4 a5bd 6e7b 0a3d
00000130: 5adb 743c ceac 05be d621 94bb 67ee f23c
00000140: 7b36 f8bd c087 8e3c 4fc1 acbb b36f acbd
00000150: 3318 d9bd 5ec2 2dbe f09f 553d f524 70bd
00000160: 0b27 043e efa2 b7bd 5eb2 9d3d e3c5 14be
00000170: 6dd4 023e 3d31 1bbe 5aca 723d bf73 213c
00000180: bfb2 4b3c 280d 083d a443 833e 8314 e3bd
00000190: 224d 933d 238e 5c3e cc88 10be 15ff 8e3d
000001a0: 32fa aebd 3f94 063e eac4 86bd 69e3 8f3d
000001b0: 0184 3d3b 5f31 f53d 94d5 fbbb 4d92 ae3c
000001c0: bf88 80bd 9ab1 6abd 029f 2b3d 95e4 01bd
000001d0: a4bc 11be 690a 613d 086f 90be fd25 71bc
000001e0: 3c3c c43c 0fca ad3d e190 4ebd 2b95 453d
000001f0: bd6b 4f3e 76b3 adba 47ca 623d f3d3 babd
00000200: 55d4 33bd 773a 55bd fe13 053c 8d70 1ebd
00000210: 40aa ac3d 6e05 283c 2d73 eebc 56cb 33bd
00000220: 246e eebd f6b4 cb3d f7bf 423d f114 ab3d
00000230: e471 1d3e 48de fbbc 218b 2e3d 6755 fcbc
00000240: 26ca 87bd d9f6 e6bd 495a 1a3d ab31 09be
00000250: b8a4 263e 71d7 283d 07ee 143d 6a25 c43d
00000260: 2dfd 013e ee34 febc bbd6 a13c b76d 75bd
00000270: 111e 9bbd 92a3 00bd 6ab0 163e be21 923d
00000280: a4af b0bc 517b 083e a0dd d03d 05c0 30be
00000290: b7b9 8b3d 41eb 8cbd 9a89 30bd b699 2ebd
000002a0: 3255 b1bd 7f64 123d fbcc 0bbe 97cf ccbc
000002b0: 154a ce3d c1ca cc3d dd54 4dbd c988 a1bd
000002c0: 52d6 1ebe 46de 003d 758d 8fbb 9532 10be
000002d0: 7de5 d6bd e17e ddbc b197 f13b a48f 79bd
000002e0: 0a2b fbbc 2239 1d3d 9ec7 133e 1e6a c73d
000002f0: 63c9 be3c b4a1 ec3d b2f1 e1bd 6820 23bd
00000300: 48f1 873d b822 163a 9d40 933d f067 413b
00000310: 51e8 87bb d8e5 6dbd 9322 d43d c891 28bd
00000320: 92d4 8dbd 24d7 79ba a8ed 243e e575 ba3d
00000330: e195 d7bd 0667 5b3d 5443 ffbd e102 aebd
00000340: 7837 643d f964 973d 35e1 1abe 406d c8bc
00000350: c2d1 4dbd 1c30 bf3c 43c1 b7bd b3b5 073e
00000360: b497 95bc ae69 7fbd 1816 9b3c a25f 813c
00000370: 0fad 133d 878a 16bd 0b5b 14bd 41c8 ab3d
00000380: aa1c 00bd 4ccb 9fbd ebf6 e93c db18 a3bd
00000390: bf49 c8bc 97b3 553d 9f7f a43d 0173 7fbc
000003a0: fd03 1e3d 16df cdbd 3b72 913c 83a3 48bd
000003b0: 5fa4 323d 0d6a de3c 0e69 713d 39a2 eebd
000003c0: 9127 6dbc b009 8c3d 4231 7dba c8be 99bd
000003d0: 3a38 953d 00cf a0bc c867 e2bc 1a19 8cbd
000003e0: 485d a73c 57cb 0a3e 7459 cbbc e3d8 5d3d
000003f0: d4b3 853c fc74 0ebd bdf7 923d 0be0 453c

network_body._body_endoder.seq_layers.0.bias f4 [128]
0.067615904 0.014092473 -0.0071757464 -0.00032676692 0.09087112 -0.09746508 0.049006242 0.04688307
0.074066564 -0.027204407 -0.018600186 -0.0930554 -0.16187072 0.1098011 -0.053868257 -0.027915694
-0.03033608 0.17673133 0.04253828 0.018371416 0.13395558 0.13873197 -0.035773747 -0.052800566
0.07188312 0.0039383373 0.113086656 0.103618644 0.10596567 0.108633704 -0.088564225 -0.21911106
-0.16020098 -0.08782049 0.00055301125 -0.10556953 -0.10056334 -0.09821834 -0.0058333743 0.23660542
-0.035607524 0.022405459 0.041796926 0.024439344 0.17757964 0.042244878 -0.00908367 -0.002477197
0.020718137 0.033103555 0.08069769 0.10345774 -0.07667739 -0.08312296 0.0056397794 -0.16780642
-0.1243618 -0.09098358 -0.090823054 0.0121670645 0.06612529 -0.14139906 0.030416217 0.14467782
-0.00695767 0.08154677 -0.027374329 -0.19811572 -0.045944378 0.1068346 -0.006385757 0.05386746
-0.0037543203 -0.14918183 -0.049009133 0.020691345 -0.06702624 0.071615554 -0.046955075 0.087724686
0.047947656 0.016563322 0.13197774 -0.0957453 0.074500605 0.08410611 -0.019485066 0.020284263
0.13463855 0.029756198 0.08853243 0.0858536 0.042316653 0.0144380415 -0.017515942 -0.06693784
0.12246199 0.1443965 0.090940304 0.053830385 -0.13750525 0.037407182 -0.16698857 0.075171694
0.05481621 -0.017417094 -0.007325204 0.10146116 0.049085036 -0.042873602 -0.035563447 0.027145132
-0.14420222 0.17649475 0.0031285803 0.024496999 0.09342745 0.004855822 -0.062748194 -0.027724542
-0.10167633 -0.0040899245 -0.21148017 -0.06430029 -0.118943654 -0.08569313 -0.0034621358 0.012520473
00000000: 357a 8a3d 1ee4 663c 8622 ebbb ea51 abb9
00000010: a31a ba3d c69b c7bd c5ba 483d 7608 403d
00000020: 36b0 973d c7db debc 6b5f 98bc d493 bebd
00000030: 70c1 25be 66df e03d f6a4 5cbd 74af e4bc
00000040: 5f83 f8bc 0ff9 343e 9f3c 2e3d a77f 963c
00000050: a72b 093e c10f 0e3e 7e87 12bd 6845 58bd
00000060: 7537 933d 2b0d 813b fa99 e73d 0336 d43d
00000070: 8704 d93d 597b de3d 2961 b5bd a65e 60be
00000080: ba0b 24be 3bdb b3bd f5f7 103a d634 d8bd
00000090: 27f4 cdbd b226 c9bd e425 bfbb b148 723e
000000a0: 32d9 11bd a78b b73c 4133 2b3d 0535 c83c
000000b0: 70d7 353e f708 2d3d acd3 14bc 7858 22bb
000000c0: 15b9 a93c 9897 073d d544 a53d a7e1 d33d
000000d0: 0909 9dbd 5f3c aabd e6cd b83b 72d5 2bbe
000000e0: 66b1 febd 9955 babd 7001 babd 5e58 473c
000000f0: b26c 873d eaca 10be 6e2b f93c 6c26 143e
00000100: 2bfd e3bb fe01 a73d 2140 e0bc d9de 4abe
00000110: 2c30 3cbd 19cc da3d 9d3f d1bb 20a4 5c3d
00000120: 0b0b 76bb 1fc3 18be cdbd 48bd e580 a93c
00000130: 0e45 89bd 2dab 923d f753 40bd 00a9 b33d
00000140: c364 443d ceaf 873c 2c25 073e 1d16 c4bd
00000150: c693 983d d33f ac3d 259f 9fbc 2f2b a63c
00000160: b0de 093e 45c3 f33c 7e50 b53d 03d4 af3d
00000170: 3a54 2d3d 898d 6c3c 987d 8fbc b516 89bd
00000180: 5acd fa3d addc 133e e93e ba3d 407d 5c3d
00000190: 2dce 0cbe 4638 193d 0dff 2abe 9ef3 993d
000001a0: f686 603d 4bae 8ebc 4408 f0bb deca cf3d
000001b0: 640d 493d 3b9c 2fbd faaa 11bd 785f de3c
000001c0: bfa9 13be 0abb 343e de08 4d3b eead c83c
000001d0: e456 bf3d 961d 9f3b 2082 80bd 941e e3bc
000001e0: ae3b d0bd c604 86bb 428e 58be dfaf 83bd
000001f0: bb98 f3bd e17f afbd 00e5 62bb ac22 4d3c

network_body._body_endoder.seq_layers.0.weight f4 [128, 6]
-0.0036334689 0.17698202 0.4817405 -1.1591715 0.41284898 -0.3405023 -0.3364177 0.35802084
-0.39235634 0.44050518 -0.82636017 0.30983454 -0.050938405 0.54250413 -0.30164978 -0.012247547
0.17154482 0.033799257 0.09740409 -0.41134816 0.321019 -0.78492475 -0.2689488 -1.0260278
0.5448434 0.5097425 0.7550585 -0.5164306 0.44165638 -0.42985076 -0.4667455 0.1353707
0.15197337 0.818012 0.16647385 -0.18840988 0.91737145 -0.4438438 0.11767692 -0.16905427
-0.08423078 -0.08165776 -0.47751966 0.2158936 0.6342584 0.056793086 0.04782406 0.17695434
-0.14866379 0.14879161 0.77474606 0.08511571 -0.4262124 0.4715071 -0.18871059 0.49015036
0.29089934 0.75972694 -0.014580717 -0.4821285 0.25766718 0.3646561 0.26337087 -0.543455
-0.50127316 0.18797933 0.30373234 0.54465187 0.17431517 -0.6317266 0.051152535 0.16105816
-0.40538302 -0.45603532 -0.26636335 0.72841877 0.080464795 -0.1512935 -0.6256091 0.7249067
-0.23853795 0.40307793 -0.10899472 0.41361052 -0.070458345 -0.04929738 0.35888353 -0.6829472
-0.5116262 0.5407019 -0.2832253 0.14163677 0.19981778 0.27672073 0.07721877 0.41617924
0.43132767 0.05233504 0.08529368 -0.3067255 0.3776308 1.0878698 -0.10449308 0.110714644
-0.5324026 0.05955994 -0.6267467 0.35538054 -0.10452673 -0.13611235 0.2997255 -0.025770532
-0.037803262 0.35087183 0.16372639 0.80802995 0.465119 0.64043254 0.22252646 -0.47869995
0.5131162 0.30563626 0.008402895 0.39988512 -0.24512915 0.13038926 0.72630125 -0.4990803
0.4974601 0.7782122 -0.00020258193 -0.20045885 -0.385981 0.2893598 -0.025236007 -0.02781479
-0.06909545 -0.5895528 0.045684706 -0.66345394 0.5800664 0.60917306 0.048574287 0.3300403
-0.83059347 0.4185171 -0.3660522 0.33050585 -0.44764084 0.26891077 0.0021445572 0.02612598
0.48404506 -0.11263536 0.17077777 -0.14490597 -0.8371564 0.029324718 -0.69679624 0.28779182
0.7146805 0.13103342 -0.7028975 0.67217356 -0.32107562 0.058749128 -0.24115664 -0.010302062
0.6573659 -0.19379197 0.14225066 0.0011020062 0.49037 0.208672 -0.4631441 0.6927689
-0.66873205 0.7013433 0.44980115 0.39300734 0.10417672 0.20477192 -0.42692754 -0.66659105
-0.3652407 -0.87957394 0.0132871615 0.32332596 0.14267787 -0.503059 -0.12774163 -0.36299422
-0.22641106 0.013558657 -0.05596776 0.38763875 -0.72566026 0.036265768 0.1541186 -0.15908213
0.18705657 -0.46395525 0.14648946 -0.51326966 0.021804068 -0.029422343 0.28147846 -0.117406
-0.16702911 0.2946288 0.103808664 -0.030774448 0.15723911 0.01171807 -0.12123663 0.06340568
0.34446636 0.111815035 0.6274302 -0.65729433 0.655788 0.6691043 0.025870224 -0.29641724
-0.2543908 -0.6580534 0.21711269 0.048561174 -0.1630343 -0.106928214 -0.31407824 0.2853403
-0.042201594 -0.36519834 0.3542083 0.3132244 -0.96647644 0.20485182 -0.23543221 -0.28905606
-0.53751546 -0.10862164 -0.012877261 -0.31429237 0.36300278 -0.2984831 0.32950348 -0.2056654
0.33528724 -0.01294549 0.26372877 -0.25263995 0.33801883 0.26515236 -0.74115926 -0.85025585
00000000: 7e1f 6ebb c63a 353e b1a6 f63e bb5f 94bf
00000010: f160 d33e 5156 aebe f13e acbe 824e b73e
00000020: eee2 c8be e589 e13e 578c 53bf a2a2 9e3e
00000030: caa4 50bd 8de1 0a3f d771 9abe efa9 48bc
00000040: 72a9 2f3e 1771 0a3d cc7b c73d 3a9c d2be
00000050: 9a5c a43e d4f0 48bf a8b3 89be e154 83bf
00000060: db7a 0b3f 7c7e 023f 844b 413f cc34 04bf
00000070: c920 e23e 6615 dcbe 44f9 eebe 9e9e 0a3e
00000080: e89e 1b3e 3c69 513f 1f78 2a3e 85ee 40be
00000090: dbd8 6a3f 7f3f e3be 9900 f13d 901c 2dbe
000000a0: 3081 acbd 2f3c a7bd 757d f4be 3613 5d3e
000000b0: c25e 223f de9f 683d 29e3 433d 8533 353e
000000c0: 523b 18be d45c 183e c255 463f 2551 ae3d
000000d0: 8338 dabe 6169 f13e 593d 41be fdf4 fa3e
000000e0: c2f0 943e 777d 423f f6e3 6ebc 8cd9 f6be
000000f0: f4ec 833e 34b4 ba3e 8cd8 863e de1f 0bbf
00000100: 7053 00bf a77d 403e ce82 9b3e 4e6e 0b3f
00000110: ad7f 323e d6b8 21bf 5285 513d 6eec 243e
00000120: 5d8e cfbe 767d e9be c760 88be a779 3a3f
00000130: baca a43d afec 1abe eb27 20bf 7c93 393f
00000140: 4b43 74be 3b60 ce3e a038 dfbd c2c4 d33e
00000150: 774c 90bd 0dec 49bd 95bf b73e a1d5 2ebf
00000160: eff9 02bf 716b 0a3f e802 91be 3b09 113e
00000170: 089d 4c3e 57ae 8d3e e024 9e3d 7215 d53e
00000180: fbd6 dc3e 445d 563d 74ae ae3d 200b 9dbe
00000190: d358 c13e 513f 8b3f 7800 d6bd 5cbe e23d
000001a0: 894b 08bf 20f5 733d 7972 20bf 70f4 b53e
000001b0: 1c12 d6bd 0961 0bbe 9f75 993e b91c d3bc
000001c0: 98d7 1abd 79a5 b33e e4a7 273e 0ddb 4e3f
000001d0: 1424 ee3e 63f3 233f fadd 633e 2918 f5be
000001e0: 955b 033f 5b7c 9c3e 4cac 093c bebd cc3e
000001f0: 2303 7bbe c384 053e e1ee 393f 7487 ffbe
00000200: 17b3 fe3e ea38 473f 2c6c 54b9 1645 4dbe
00000210: 4d9f c5be f826 943e bebb cebc d8db e3bc
00000220: ea81 8dbd efec 16bf e31f 3b3d 1ed8 29bf
00000230: 3b7f 143f c4f2 1b3f d5f5 463d 0bfb a83e
00000240: c6a1 54bf e047 d63e 326b bbbe 1038 a93e
00000250: 2e31 e5be acae 893e b38b 0c3b 2706 d63c
00000260: c1d4 f73e 5ead e6bd 5ee0 2e3e 3b62 14be
00000270: e24f 56bf 643a f03c 3d61 32bf 7359 933e
00000280: 4df5 363f a02d 063e 17f1 33bf 9113 2c3f
00000290: 0664 a4be eda2 703d c4f1 76be fbc9 28bc
000002a0: 2249 283f 6771 46be 28aa 113e 3171 903a
000002b0: c711 fb3e 1dae 553e 3921 edbe 4d59 313f
000002c0: 0632 2bbf 3c8b 333f 564c e63e 4238 c93e
000002d0: 9b5a d53d bbaf 513e 3f96 dabe b6a5 2abf
000002e0: d400 bbbe c22b 61bf 65b2 593c fb8a a53e
000002f0: 261a 123e 7ac8 00bf b4ce 02be 61da b9be
00000300: 4dd8 67be 2125 5e3c 733e 65bd 9678 c63e
00000310: dfc4 39bf 6a8b 143d 44d1 1d3e 6de6 22be
00000320: c28b 3f3e 8b8b edbe 5501 163e a465 03bf
00000330: 729e b23c 2007 f1bc f21d 903e 8f72 f0bd
00000340: ae09 2bbe 96d9 963e a399 d43d b21a fcbc
00000350: 4a03 213e 26fd 3f3c e94a f8bd d6da 813d
00000360: e55d b03e 48ff e43d 449f 203f 7144 28bf
00000370: b9e1 273f 6b4a 2b3f cbed d33c 00c4 97be
00000380: 833f 82be 3076 28bf ca52 5e3e 15e8 463d
00000390: 77f2 26be 2efd dabd ddce a0be 2018 923e
000003a0: 94db 2cbd 47fb babe ca5a b53e f35e a03e
000003b0: 006b 77bf adc4 513e 2415 71be 28ff 93be
000003c0: 9d9a 09bf 0675 debd 26fb 52bc eeea a0be
000003d0: 80db b93e c7d2 98be aeb4 a83e f399 52be
000003e0: c5aa ab3e 5219 54bc 7507 873e 065a 81be
000003f0: ce10 ad3e 0dc2 873e 9dbc 3dbf 5eaa 59bf

network_body._body_endoder.seq_layers.2.bias f4 [128]
0.032320444 0.1310597 0.060834736 -0.04905568 0.18049857 0.037586246 0.070531 -0.022520585
0.025999697 0.11905407 0.16858885 0.035320986 0.12482082 -0.037725225 -0.013505156 0.078451015
0.13394885 -0.011363301 0.013855026 -0.09427083 0.20343345 0.050351005 0.047466557 0.21449341
0.090820886 0.048596438 -0.014785924 0.10495525 0.018079927 -0.053723138 0.13295987 0.08054423
0.06887506 0.18473774 0.13289492 0.0850101 0.11480243 0.0007805422 -0.023238463 -0.05667196
-0.020672252 0.04881264 0.085922785 -0.04897264 0.13749823 0.088657595 0.09294866 -0.03591401
0.05571276 0.08043169 -0.013954377 0.043494236 0.037256658 0.07113809 -0.049301885 -0.06724779
-0.043451913 0.09698172 0.15744424 0.14736357 0.01366044 0.12135481 0.014305431 0.030695014
0.03409939 0.020268796 0.22743744 -0.026857343 0.060117494 -0.012619196 0.12392545 -0.028975677
0.040584687 -0.004078074 0.12659708 0.087248765 0.008198751 0.08445633 0.05269412 -0.0061890655
0.11973637 0.08536499 0.047843587 0.03964781 0.024985543 0.10308218 0.007290169 0.16068901
0.042051 0.109172694 0.039248083 0.048898917 0.09181958 0.03860271 0.0152967265 0.10481736
-0.03258347 -0.041483805 0.24560875 0.034501426 0.08341869 0.2003023 0.13160928 0.032557193
0.104952045 0.08658811 0.05042404 -0.038532596 0.04074304 0.09450428 0.045778595 0.043916274
-0.06674103 0.08214726 0.025101159 -0.011481769 0.10326219 0.052256066 0.1985494 -0.020669973
0.08043277 0.15469605 0.012810821 0.08956912 0.19414611 -0.016876623 0.09245874 0.10329688
00000000: 7162 043d 8434 063e d82d 793d 9cee 48bd
00000010: 9ed4 383e 09f4 193d 8f72 903d 177d b8bc
00000020: 51fd d43c 9fd2 f33d 8ea2 2c3e bdac 103d
00000030: 0fa2 ff3d c485 1abd bb44 5dbc edaa a03d
00000040: e329 093e 242d 3abc 3100 633c 1111 c1bd
00000050: dc50 503e db3c 4e3d 4b6c 423d 29a4 5b3e
00000060: 4d00 ba3d 0f0d 473d a940 72bc c7f2 d63d
00000070: 5b1c 943c cb0c 5cbd a226 083e 60f4 a43d
00000080: 5e0e 8d3d e42b 3d3e 9b15 083e c619 ae3d
00000090: 891d eb3d 4d9d 4c3a 975e bebc db20 68bd
000000a0: db58 a9bc c3ef 473d 49f8 af3d 8997 48bd
000000b0: 56cc 0c3e 1d92 b53d de5b be3d 921a 13bd
000000c0: 1033 643d 5fb9 a43d e6a0 64bc 0327 323d
000000d0: 709a 183d d9b0 913d c6f0 49bd 36b9 89bd
000000e0: a2fa 31bd 5a9e c63d 1039 213e 7ae6 163e
000000f0: 0ad0 5f3c df88 f83d 5461 6a3c 1c74 fb3c
00000100: cdab 0b3d bf0a a63c 5ce5 683e ee03 dcbc
00000110: c33d 763d bfc0 4ebc a0cc fd3d 665e edbc
00000120: 213c 263d 5da1 85bb aaa2 013e 7baf b23d
00000130: 0e54 063c 71f7 ac3d cad5 573d a5cd cabb
00000140: 5838 f53d d7d3 ae3d a3f7 433d be65 223d
00000150: 7bae cc3c c01c d33d 5fe2 ee3b a98b 243e
00000160: ab3d 2c3d ef95 df3d 99c2 203d 3b4a 483d
00000170: e70b bc3d e01d 1e3d 1f9f 7a3c 7caa d63d
00000180: 3f76 05bd ecea 29bd dc80 7b3e 5e51 0d3d
00000190: 6bd7 aa3d 0c1c 4d3e 95c4 063e b15a 053d
000001a0: 19f1 d63d 1b55 b13d 7089 4e3d 5bd4 1dbd
000001b0: 2de2 263d 768b c13d 5682 3b3d 8de1 333d
000001c0: 85af 88bd d33c a83d f2a0 cd3c 081e 3cbc
000001d0: 217b d33d 750a 563d 8950 4b3e 1354 a9bc
000001e0: f0b9 a43d a468 1e3e 7ae4 513c 0470 b73d
000001f0: 3dce 463e d840 8abc 025b bd3d 518d d33d

network_body._body_endoder.seq_layers.2.weight f4 [128, 128]
0.18722132 -0.06045582 -0.02726168 -0.08890969 0.019980706 -0.1789204 -0.018951843 0.14834632
0.0022124664 -0.020942673 -0.04058021 -0.09057958 -0.10335962 -0.28631976 -0.071572036 -0.07209841
0.017906966 -0.099401325 -0.08281355 0.09235047 0.10929662 0.072113104 -0.100701526 0.018973459
-0.025729666 0.06530603 -0.015753329 -0.10314137 0.04552373 -0.3000438 0.06726383 -0.08925393
-0.11683476 0.13391322 -0.046299625 -0.057038195 0.12375605 -0.055645406 -0.07159131 0.082073554
-0.020806633 0.17965613 -0.019161953 0.001817305 -0.2317182 -0.0066585564 0.22764008 -0.19688845
-0.053094823 -0.0398491 0.018394778 -0.17222634 0.21736999 -0.08234581 0.0018575976 0.043257546
0.1235732 -0.014962964 0.048701484 -0.03450658 0.015189862 0.09424619 -0.08329387 -0.060417835
-0.05213888 -0.026004774 0.02922404 -0.0660737 0.1282908 0.12684174 0.0414223 0.04538965
-0.008691782 0.07291323 0.13368604 -0.21578537 -0.08456897 -0.03734363 0.038759634 -0.06441522
0.12209126 -0.031182233 -0.20904712 0.025338668 -0.018755551 0.021651577 0.09970605 -0.07967246
-0.1274234 -0.037113693 -0.26615518 -0.07944561 0.068253554 -0.012851072 0.06798362 -0.0984471
-0.15947527 0.09806129 0.029103728 0.09755866 0.053483795 0.04559374 0.04319782 -0.07754306
0.0013094173 0.030744007 0.05626263 -0.12879333 -0.079824954 0.07896748 0.000828779 -0.10644083
-0.031125767 0.0007951804 0.06844168 -0.07827162 0.045216247 0.0034774155 0.06564501 0.07813635
-0.12911387 -0.17328078 -0.075470254 -0.2213456 0.07616291 -0.054211088 -0.0063916333 0.096677676
-0.057572428 -0.36938882 -0.07332418 0.06974301 0.12305664 -0.10302788 0.07940477 0.08830054
-0.030217627 0.17641929 -0.07485177 -0.12527809 -0.0938858 -0.12459274 -0.13351014 -0.12775794
-0.020465944 -0.09797426 0.16680138 0.06491026 0.053324062 0.008631201 0.0042332993 0.0680816
-0.19071403 -0.10997353 -0.11561752 -0.080912314 -0.023899209 -0.15590023 -0.014739145 -0.004886017
-0.20548868 -0.10179888 0.200798 -0.06347191 -0.013530597 -0.20154862 0.0458108 0.011806383
-0.015060357 0.076643884 0.070351295 0.073035225 -0.20885447 0.13866515 -0.20444515 0.04552888
-0.10302907 0.05362849 -0.032115314 0.02212446 -0.05361445 -0.03344828 -0.046812735 -0.076383494
-0.16685987 -0.08072948 0.10065012 -0.044160582 -0.10873918 -0.075094245 0.042700995 -0.08689012
0.028894803 0.037313532 -0.12517586 -0.21423462 0.017761303 0.06993581 -0.015195244 -0.038632672
0.014864982 0.042652037 0.02039786 -0.21889625 -0.020487089 0.06411583 0.09573832 -0.13984717
-0.02448757 0.10280352 -0.008779862 0.07878793 0.057662096 -0.1327301 0.020307705 -0.10898768
0.1257115 -0.015421205 0.19921856 -0.07129212 -0.059113007 -0.074191265 -0.12623835 -0.2733098
-0.061089724 0.14245652 0.026655821 -0.018336477 -0.14380892 -0.11458574 -0.08238774 0.032571748
-0.030272152 -0.3291289 0.12086356 -0.028033832 0.0060397056 0.032945942 -0.015015852 -0.10384203
-0.052590363 -0.05662087 -0.064228654 0.023296544 -0.038217384 -0.0007211204 -0.12615159 0.027664732
-0.121210866 -0.08958393 -0.022456018 -0.13667428 0.0042230976 -0.08914823 -0.020261943 0.11247236
00000000: f2b6 3f3e 86a0 77bd e353 dfbc 4916 b6bd
00000010: 94ae a33c e936 37be e540 9bbc 19e8 173e
00000020: 07ff 103b f88f abbc 6f37 26bd c981 b9bd
00000030: 35ae d3bd 8198 92be 5c94 92bd 55a8 93bd
00000040: a1b1 923c ec92 cbbd 279a a9bd 3e22 bd3d
00000050: e8d6 df3d 09b0 933d 9a3c cebd 3a6e 9b3c
00000060: 05c7 d2bc 2bbf 853d 200d 81bc c83b d3bd
00000070: 1777 3a3d 579f 99be 9ec1 893d c4ca b6bd
00000080: 1047 efbd 8c20 093e ada4 3dbd e2a0 69bd
00000090: d073 fd3d 70ec 63bd 779e 92bd 2e16 a83d
000000a0: ac72 aabc c7f7 373e 87f9 9cbc a332 ee3a
000000b0: 8947 6dbe 0530 dabb 7b1a 693e 209d 49be
000000c0: f579 59bd cf38 23bd a5b0 963c 1a5c 30be
000000d0: 3d96 5e3e eca4 a8bd a27a f33a d32e 313d
000000e0: f213 fd3d 3827 75bc 357b 473d c656 0dbd
000000f0: e6de 783c 2504 c13d fa95 aabd b178 77bd
00000100: 948f 55bd f707 d5bc 4167 ef3c a651 87bd
00000110: aa5e 033e cde2 013e 6eaa 293d 7fea 393d
00000120: fa67 0ebc 8853 953d fee4 083e d7f6 5cbe
00000130: 7f32 adbd a2f5 18bd 6cc2 1e3d 20ec 83bd
00000140: fc0a fa3d e271 ffbc 7310 56be 0a93 cf3c
00000150: 3ea5 99bc a65e b13c af32 cc3d 512b a3bd
00000160: 487b 02be 8704 18bd 7e45 88be 61b4 a2bd
00000170: 85c8 8b3d 4d8d 52bc ff3a 8b3d a29e c9bd
00000180: 7c4d 23be 5cd4 c83d f16a ee3c d6cc c73d
00000190: d311 5b3d 80c0 3a3d 33f0 303d e5ce 9ebd
000001a0: c1a0 ab3a dbda fb3c a573 663d 66e2 03be
000001b0: 447b a3bd b4b9 a13d 6b42 593a a6fd d9bd
000001c0: 77fb febc a773 503a 272b 8c3d df4c a0bd
000001d0: ac34 393d 5ae5 633b e470 863d f305 a03d
000001e0: 6d36 04be 8470 31be 2690 9abd 6ca8 62be
000001f0: 4dfb 9b3d 720c 5ebd e870 d1bb f2fe c53d
00000200: 11d1 6bbd 8820 bdbe fd2a 96bd 6cd5 8e3d
00000210: 1f05 fc3d 4800 d3bd f89e a23d ead6 b43d
00000220: f58a f7bc 42a7 343e e34b 99bd e648 00be
00000230: 3347 c0bd 7a2a ffbd e2b6 08be fad2 02be
00000240: 32a8 a7bc bba6 c8bd fbcd 2a3e acef 843d
00000250: 556a 5a3d e269 0d3c 7db7 8a3b 5e6e 8b3d
00000260: 8a4a 43be cd39 e1bd e1c8 ecbd 5bb5 a5bd
00000270: 46c8 c3bc 4fa4 1fbe 747c 71bc e21a a0bb
00000280: a06b 52be ee7b d0bd fe9d 4d3e 90fd 81bd
00000290: 70af 5dbc c362 4ebe 1ba4 3b3d 8f6f 413c
000002a0: b7bf 76bc 78f7 9c3d 5714 903d 7e93 953d
000002b0: f2dd 55be 3dfe 0d3e 125a 51be 7e7c 3a3d
000002c0: e800 d3bd 8ca9 5b3d 598b 03bd 5b3e b53c
000002d0: d39a 5bbd 1001 09bd b6be 3fbd f36e 9cbd
000002e0: 50dd 2abe 7f55 a5bd a621 ce3d bae1 34bd
000002f0: a6b2 debd 03cb 99bd 3de7 2e3d 72f3 b1bd
00000300: cbb4 ec3c 13d6 183d 1a2e 00be 5260 5bbe
00000310: 2780 913c 823a 8f3d 79f5 78bc 4b3d 1ebd
00000320: 418c 733c e7b3 2e3d 6a19 a73c 5726 60be
00000330: 8ad4 a7bc 294f 833d 7412 c43d 1934 0fbe
00000340: 289a c8bc a78a d23d 69d9 0fbc 915b a13d
00000350: 172f 6c3d 66ea 07be 585c a63c ef34 dfbd
00000360: 84ba 003e 39a9 7cbc f3ff 4b3e 9a01 92bd
00000370: 7b20 72bd 97f1 97bd a044 01be 43ef 8bbe
00000380: 3839 7abd 1fe0 113e 4f5d da3c 6136 96bc
00000390: a542 13be eeab eabd e7ba a8bd f469 053d
000003a0: 4efd f7bc 9583 a8be 5087 f73d 35a7 e5bc
000003b0: b9e8 c53b 53f2 063d 0c05 76bc 21ab d4bd
000003c0: fe68 57bd 49eb 67bd 508a 83bd 65d8 be3c
000003d0: d589 1cbd 9209 3dba e22d 01be 26a1 e23c
000003e0: 673d f8bd c877 b7bd aff5 b7bc 58f4 0bbe
000003f0: e961 8a3b 5993 b6bd 60fc a5bc e957 e63d
