results/MoveToGoal2/MoveToGoal/MoveToGoal-500013.pt (torch, 439199 bytes, 36 tensors)

network_body._body_endoder.seq_layers.0.weight f4 [128, 6]
0	0xbcd5f9e1	-0.026120128
1	0xbeff06be	-0.4980983
2	0x3dbff60f	0.09373104
3	0xbe347353	-0.17622118
4	0xbdf8fad2	-0.12157215
5	0x3f13f68e	0.5779809
6	0xbf05fe63	-0.5234129
7	0x3ea5c8f8	0.3237989
8	0x3e5d2866	0.21597442
9	0x3e76a5ae	0.2408664
10	0xbdf534dc	-0.11972973
11	0xbef1682d	-0.47149792
12	0x3dca08e2	0.098649755
13	0x3e1612f5	0.14655669
14	0x3ec70474	0.38870585
15	0x3f2ae39a	0.6675354
16	0xbddf0e35	-0.10891382
17	0x3e04a482	0.1295338
18	0x3eda18de	0.42597097
19	0x3e0b02da	0.13575307
20	0x3df4fbd5	0.11962096
21	0x3e8ebd14	0.2787863
22	0xbf04ff21	-0.51951796
23	0xbf544474	-0.8291695
24	0x3ea93f31	0.33056024
25	0x3f5b4905	0.85658294
26	0x3f0d866c	0.55283237
27	0xbe826be3	-0.25472936
28	0x3e2e09f1	0.1699598
29	0x3f05f4c4	0.5232661
30	0xbdd7b08d	-0.10531721
31	0xbf1f36b0	-0.6219282
32	0xbee8ac0a	-0.45443755
33	0x3eebac99	0.4603012
34	0xbe06bd50	-0.13158154
35	0xbbc570ac	-0.0060253944
36	0x3e5936a2	0.21212247
37	0xbe84f613	-0.2596899
38	0x3ea76531	0.3269439
39	0xbebf6458	-0.37381244
40	0xbe24091e	-0.16019103
41	0xbf011eaf	-0.50437444
42	0x3f60890a	0.87709105
43	0xbdbaf132	-0.091280356
44	0x3eb6aaf3	0.356773
45	0xbe85d5e5	-0.2613975
46	0xbf3a9423	-0.7288229
47	0xbe7bebc0	-0.2460165
48	0x3ecdaf18	0.40172648
49	0x3e863617	0.26213142
50	0xbc7a8df8	-0.015292637
51	0x3d9b6d3d	0.07589195
52	0xbede657b	-0.43436798
53	0x3e25ba42	0.16184333
54	0xbe1dadd9	-0.15398349
55	0x3e32410f	0.1740763
56	0xbf662c3e	-0.8991126
57	0x3f568203	0.8379213
58	0xbe7c22e0	-0.24622679
59	0x3e26928b	0.16266839
60	0x3eb5cb7a	0.35506803
61	0x3ecd6bd5	0.40121332
62	0xbdadb38a	-0.0848151
63	0xbe502884	-0.20327955
64	0xbef90fa7	-0.48644754
65	0xbf177696	-0.5916532
66	0x3d6a4343	0.057193052
67	0xbf35a561	-0.70955473
68	0x3d633966	0.05547466
69	0x3f6add2a	0.9174372
70	0x3e8e5bbc	0.27804363
71	0xbf0355be	-0.5130271
72	0xbf105827	-0.5638451
73	0xbe15bc14	-0.14622527
74	0x3e78ffe6	0.24316368
75	0x3ec18fae	0.3780493
76	0x3f2165e0	0.63046074
77	0x3e01b52c	0.12666768
78	0x3e411042	0.18853858
79	0xbea2a659	-0.31767538
80	0xbd2d8eae	-0.042372398
81	0xbdd3e51f	-0.10346436
82	0x3e404a5e	0.18778369
83	0xbe9d1259	-0.3067806
84	0x3eeb5b81	0.4596825
85	0x3f0168df	0.50550646
86	0xbdc84e56	-0.097805664
87	0xbeaac4fd	-0.33353415
88	0x3ebab978	0.36469626
89	0x3ef77757	0.48333237
90	0xbf0f7d8c	-0.56050944
91	0x3efa183a	0.48846608
92	0x3ec754df	0.3893194
93	0x3ef383fb	0.4756163
94	0x3e04aa62	0.12955621
95	0xbcb7ef81	-0.022453072
96	0x3e3264f0	0.17421317
97	0xbe7fc459	-0.24977244
98	0xbda54e4f	-0.08071577
99	0x3da96831	0.08271826
100	0xbf3fa3fe	-0.7485961
101	0x3e5f144d	0.21785088
102	0x3de1e256	0.11029498
103	0xbe5307b3	-0.20608406
104	0xbf5ef81c	-0.87097335
105	0x3efbc245	0.49171653
106	0xbddd3a65	-0.108021535
107	0x3e023346	0.12714872
108	0x3da3287c	0.07966706
109	0xbe02179c	-0.12704319
110	0x3ea76ba6	0.32699317
111	0xbf072a35	-0.5279878
112	0xbc87f4f0	-0.016596287
113	0xbdcbadfe	-0.09945296
114	0x3da0bd69	0.07848627
115	0xbe92c395	-0.28664842
116	0xbdc7b8d4	-0.0975205
117	0xbf41679d	-0.75548726
118	0x3d7b2de7	0.061323073
119	0x3dfdfeef	0.1240214
120	0x3e488723	0.195828
121	0xbe24504b	-0.16046254
122	0x3ea952f6	0.33071107
123	0x3f03174d	0.5120743
124	0xbf282115	-0.6567548
125	0xbea499c4	-0.32148564
126	0x3ec31a21	0.38105872
127	0xbddce2cc	-0.107854456
128	0xbe3d2dbc	-0.18474478
129	0x3eaa32f1	0.3324199
130	0xbe9ef93f	-0.31049535
131	0x3f76d020	0.96411324
132	0x3f53f65a	0.8279778
133	0x3e9418cf	0.28925177
134	0x3ed9b882	0.4252358
135	0x3e9de897	0.30841514
136	0xbe34ebc8	-0.17668068
137	0x3ee93890	0.45550966
138	0x3e7d02f2	0.24708155
139	0x3f2beb40	0.6715584
140	0x3ecb8ccc	0.39755857
141	0xbe39ee8e	-0.18157408
142	0xbf0ce714	-0.550401
143	0xbcae74c1	-0.021295907
144	0xbd14a1c1	-0.036287073
145	0x3e5bde01	0.21471407
146	0x3e7ef8fe	0.2489967
147	0xbea02bca	-0.31283408
148	0xbf71a40e	-0.9439095
149	0x3edda251	0.432879
150	0x3ecaca5a	0.39607507
151	0x3e97f93c	0.29682338
152	0xbf21ad2b	-0.6315486
153	0xbd01fed9	-0.031737182
154	0xbeffa17d	-0.49927893
155	0xbf428b71	-0.7599402
156	0xbdbafcbc	-0.091302365
157	0xbec58c3e	-0.3858356
158	0x3eb32dd6	0.34995908
159	0x3eeaa4a6	0.45828742
160	0x3fac8b45	1.3480002
161	0x3f278795	0.65441257
162	0xbdaf6236	-0.08563654
163	0xbc95a9b6	-0.018269401
164	0xbef725a5	-0.48270908
165	0xbe10d45e	-0.14143512
166	0x3f06b6c6	0.5262264
167	0x3f2d13d0	0.67608356
168	0x3f2b5966	0.66933286
169	0xbecc8917	-0.3994834
170	0xbed096e7	-0.4074013
171	0x3e98f9cd	0.29878083
172	0xbec4d055	-0.38440195
173	0xbef767c5	-0.48321357
174	0xbe412a77	-0.18863855
175	0x3ed8efdd	0.423705
176	0x3da18baf	0.07887971
177	0xbedb3b24	-0.42818558
178	0xbe84cd62	-0.25937945
179	0x3d8ecf11	0.069730885
180	0x3eebe0cf	0.46069953
181	0x3dc2b378	0.09506887
182	0x3d8035de	0.06260274
183	0x3dbd4d4d	0.092432596
184	0x3de5886e	0.112076625
185	0xbf17af1d	-0.59251577
186	0xbf13e782	-0.5777513
187	0x3ea0450d	0.31302682
188	0x3eadd48f	0.33951232
189	0x3ed74196	0.42042226
190	0xbf028153	-0.50978583
191	0xbeea8265	-0.45802608
192	0x3f0be74c	0.54649806
193	0x3d69c7d2	0.05707533
194	0x3e22af92	0.15887287
195	0xbd046d38	-0.03233072
196	0x3ef06db5	0.469587
197	0xbe131947	-0.14365111
198	0x3d5ef10f	0.05442911
199	0xbd35ab9d	-0.044353116
200	0x3f40f487	0.7537312
201	0xbeb240a0	-0.3481493
202	0x3dbb9b28	0.09160453
203	0xbf2e0431	-0.67975146
204	0xbeb314fc	-0.34976947
205	0xbebcbc93	-0.3686262
206	0x3ee97212	0.4559484
207	0xbd7ab532	-0.061207958
208	0xbf1ba5f1	-0.6080008
209	0x3e4b3b55	0.19846852
210	0x3f0ee10f	0.5581216
211	0x3ee9dcc5	0.45676246
212	0x3eeefd1e	0.46677488
213	0x3edf055a	0.4355877
214	0x3dd72557	0.10505169
215	0x3e6844d4	0.22682506
216	0x3e25066d	0.16115732
217	0xbf20a06f	-0.627448
218	0x3d5e02d1	0.054201905
219	0x3f258308	0.6465306
220	0xbf873f74	-1.0566239
221	0x3e747199	0.23871459
222	0xbf017f09	-0.50584465
223	0x3e267b35	0.16257937
224	0x3e61361b	0.21993296
225	0xbdebb266	-0.11508636
226	0xbe1c08f2	-0.15237787
227	0xbf0104fc	-0.5039823
228	0xbecf1ff6	-0.40454072
229	0x3f067378	0.5251994
230	0xbf027ce1	-0.509718
231	0x3c8c236f	0.01710674
232	0x3d5c0b05	0.053721447
233	0x3eb57d1c	0.35447013
234	0xbec6f4df	-0.38858697
235	0xbed43a0f	-0.41450545
236	0xbcbe7508	-0.023249164
237	0x3e8cb689	0.27483013
238	0xbefe9bae	-0.4972815
239	0xbedaac71	-0.42709687
240	0x3ec78e2a	0.3897565
241	0x3f3f40d8	0.7470832
242	0x3f008504	0.50202966
243	0x3c7e29a3	0.015512857
244	0x3ecef4e0	0.404212
245	0xbe36bb05	-0.1784478
246	0x3e8467ca	0.25860435
247	0xbf7d9bd3	-0.99065894
248	0xbdcc7cc7	-0.09984737
249	0x3e934954	0.28766882
250	0x3e7ee3ac	0.24891537
251	0x3f29732b	0.6619136
252	0x3de7de15	0.11321656
253	0xbf24c094	-0.6435635
254	0x3ededea5	0.4352924
255	0xbee3f308	-0.44521356

network_body._body_endoder.seq_layers.0.bias f4 [128]
0	0x3d3ce5b3	0.046117496
1	0x3d227164	0.03965892
2	0xbce2ef57	-0.027702017
3	0x3d1ffb4a	0.039058007
4	0xbc807537	-0.015680892
5	0xbcfea1c0	-0.031082988
6	0xbb616c15	-0.0034396697
7	0xbd167d3f	-0.036740538
8	0xbd1692c3	-0.036761057
9	0x3a1428d5	0.00056518364
10	0x3cd2633b	0.025682082
11	0x3cdd6d71	0.027029725
12	0x3d9e74a7	0.077370934
13	0x3c880569	0.016604142
14	0x3d180349	0.037112508
15	0x3c80831c	0.015687518
16	0xbcb337b5	-0.02187715
17	0x3d88e811	0.06684888
18	0x3d0b14a9	0.03395525
19	0x3c1fce2e	0.009753747
20	0xbb0ce196	-0.0021496764
21	0x3d725cb6	0.059170447
22	0x3d03f90e	0.03221994
23	0xbc09301b	-0.008373286
24	0x3d2629d0	0.04056722
25	0x3c598dec	0.013278466
26	0x3c5eeaab	0.013605754
27	0x3ce12cb7	0.027487142
28	0x3cd36a13	0.025807416
29	0x3d5707ba	0.052497603
30	0x3c1ae4bf	0.009453951
31	0x3d195fa1	0.037444714
32	0xbc5f57c2	-0.013631763
33	0x3cec1ae1	0.02882141
34	0xbc308a23	-0.010775122
35	0x3c173647	0.009229249
36	0xbc9f4268	-0.019440845
37	0x3c8ca482	0.017168287
38	0x3cdc322b	0.02687939
39	0x3c8391f1	0.016060801
40	0xbd25109b	-0.04029904
41	0x3d4f676c	0.05063574
42	0x3d7e18ea	0.06203548
43	0xbd89a099	-0.06720085
44	0xbcf1331e	-0.02944332
45	0xbb8fbc14	-0.0043864343
46	0xbbf02eb9	-0.0073297885
47	0xbd0c5e67	-0.034269717
48	0x3d1081be	0.03527998
49	0xbbcdf7f8	-0.0062856637
50	0x3d18863d	0.037237395
51	0x3d29264a	0.04129628
52	0x3cd9fb41	0.026609065
53	0xbce63af9	-0.028104292
54	0x3cfd07ee	0.03088757
55	0x3d898675	0.06715099
56	0xbc8d1010	-0.017219573
57	0xba1c930f	-0.0005972841
58	0x3c1bf652	0.009519177
59	0xbd023a33	-0.031793784
60	0xbc394b85	-0.011309509
61	0x3d131908	0.035912544
62	0x3c9a4d9c	0.018835835
63	0x3ae85fa3	0.0017728697
64	0xbd51b5d5	-0.0511988
65	0xbd8dadc2	-0.06917907
66	0x3c0bbb39	0.008528524
67	0x3d12a5e1	0.035802726
68	0xbd4ad2fb	-0.049517613
69	0x3ceb3bba	0.028715003
70	0x3c9828a3	0.018574065
71	0x3d78e556	0.060765587
72	0x3c9ea015	0.019363442
73	0x3c5d7e95	0.013518949
74	0x3ba51717	0.005038153
75	0x3d9096fc	0.07060048
76	0xbd8986f5	-0.06715194
77	0x3d9dce6c	0.077053875
78	0x3d06581e	0.03279888
79	0x3cb81b9e	0.022474106
80	0x3d2af922	0.041741498
81	0x3cf74b3d	0.030187244
82	0x3c8417ca	0.016124625
83	0xbb144161	-0.0022621977
84	0xbc810a7d	-0.015752072
85	0xbc287df0	-0.010283932
86	0x3dc0757f	0.093974106
87	0xbc43715f	-0.011928885
88	0x3b2b160b	0.0026105668
89	0xbd35197b	-0.044213753
90	0x3d80d897	0.06291311
91	0x3d49f173	0.04930253
92	0xbbe5ed06	-0.007016781
93	0x3d16452b	0.036687057
94	0x3cbe05f1	0.023196192
95	0x3dc6324d	0.09677563
96	0xbd0f641b	-0.035007577
97	0x3d283d88	0.041074306
98	0x3c0403cf	0.008057549
99	0x3ce131ee	0.027489629
100	0x3d1c419c	0.038148507
101	0xbd4af218	-0.049547285
102	0x3c82edcd	0.015982533
103	0x3cfebb8a	0.031095285
104	0xbd45b0e7	-0.04826441
105	0x3d4445e1	0.047918204
106	0x3cc0fd90	0.023558408
107	0x3cb90879	0.022587048
108	0xbc055210	-0.008137241
109	0xbbb18087	-0.005416933
110	0x3bee1126	0.007265228
111	0x3d53ae66	0.05167999
112	0x3c6a1555	0.0142873125
113	0xbcba998d	-0.022778297
114	0x3d4bc795	0.049750883
115	0xbcee08d3	-0.029056942
116	0x3d2c7111	0.042100016
117	0x3c58fa79	0.013243311
118	0xbd097ccd	-0.033566285
119	0xbbc2f50a	-0.005949621
120	0x3d737707	0.059439685
121	0x3c8d418f	0.017243175
122	0xbbba0265	-0.005676555
123	0x3d5c504f	0.053787526
124	0x3cfff1d1	0.031243237
125	0x39ab2ec0	0.00032650493
126	0xbc8544d5	-0.016268173
127	0xbcb80ef4	-0.022468068

network_body._body_endoder.seq_layers.2.weight f4 [128, 128]
0	0xbe089c85	-0.13340957
1	0xbcbaaa78	-0.022786364
2	0x3d646155	0.055756886
3	0x3d500be6	0.050792597
4	0xbdde4b9a	-0.108542636
5	0x3d4f86a6	0.05066552
6	0xbdf8b979	-0.12144751
7	0xbe6a09e5	-0.22855337
8	0xbdbda648	-0.09260231
9	0x3b8e469c	0.0043419134
10	0xbd872a63	-0.065998815
11	0x3d34fb8b	0.044185203
12	0xbd48a607	-0.04898646
13	0xbe7a1d8b	-0.24425332
14	0xbd705935	-0.058678824
15	0x3c59ef8c	0.013301741
16	0xbe2ba63f	-0.16762637
17	0x3de502fc	0.1118221
18	0xbca1df55	-0.019759813
19	0xbe1e845b	-0.15480177
20	0x3c98846b	0.01861783
21	0x3dc4c686	0.09608178
22	0x3d8ba00a	0.068176344
23	0xbd107aca	-0.03527335
24	0x3de9b02e	0.11410557
25	0xbd92f1f2	-0.07175054
26	0xbd2bce07	-0.04194453
27	0x3d53b0e1	0.051682357
28	0x3b8b6b56	0.004254739
29	0xbdaca096	-0.08429067
30	0xbd896017	-0.06707781
31	0x3a840068	0.0010070922
32	0x3e0cd709	0.13753904
33	0xbe6265b4	-0.22109109
34	0x3ca56230	0.020188421
35	0xbda77425	-0.0817645
36	0xbc1bbf89	-0.009506115
37	0xbdc11927	-0.094286256
38	0xbd3258df	-0.043541785
39	0x3cd810b6	0.026375156
40	0xbd07a7ae	-0.033118896
41	0x3d868d82	0.06569959
42	0xbd7cbbba	-0.061702468
43	0xbd4b22ac	-0.049593613
44	0xbd9086cb	-0.0705696
45	0xbdbf9024	-0.093536645
46	0x3bf76c10	0.007550724
47	0xbdd512bd	-0.10403965
48	0xbd17a63c	-0.037023768
49	0xbd8d1a75	-0.06889812
50	0xbda984e6	-0.082773015
51	0xbe6b13bd	-0.22956748
52	0x3c9eaafb	0.01936864
53	0xbd6b520f	-0.057451304
54	0xbd15eeb1	-0.036604587
55	0xbdd2e8de	-0.10298322
56	0x3dc9c8a4	0.09852722
57	0xbd63d35b	-0.055621486
58	0xbdb2640c	-0.08710489
59	0xbd1da78f	-0.038489874
60	0xbe57d379	-0.21076764
61	0xbc6fc34f	-0.014633968
62	0xbcfb92fc	-0.030709736
63	0x3d14e50a	0.03635124
64	0xbe23b7ac	-0.15988034
65	0x3cb29d1b	0.02180343
66	0xbcb364da	-0.021898676
67	0x3c213d65	0.009841298
68	0x3dbfdb09	0.093679495
69	0xbdaaeaa9	-0.08345539
70	0xbcb297dc	-0.021800928
71	0xbd80523e	-0.062656865
72	0x3d95e39a	0.07318802
73	0xbd13d5ba	-0.036092497
74	0xbdca76bf	-0.0988593
75	0x3d15daa9	0.036585484
76	0xbb23e785	-0.0025009823
77	0xbe5dd7d8	-0.21664369
78	0xbd93a1bc	-0.07208583
79	0x3d3bf5ee	0.045888834
80	0xbe16fb65	-0.14744337
81	0x3d8f54a6	0.06998567
82	0xbdf302ce	-0.11865769
83	0x3e08de49	0.13366045
84	0x3c7bf38a	0.015377888
85	0xbd8abf67	-0.06774788
86	0xbddaee2c	-0.10689959
87	0x3cd504fc	0.026003353
88	0xbd6d063e	-0.05786728
89	0x3da6454c	0.08118686
90	0xbde63ffe	-0.11242674
91	0x3dc557a6	0.09635858
92	0x3d810c89	0.06301219
93	0xbe087097	-0.133242
94	0xbdc0673e	-0.09394692
95	0x3da8f000	0.08248901
96	0xbe59f693	-0.21285467
97	0xbdbd9a44	-0.092579395
98	0x3cd1d15f	0.025612531
99	0xbe1af47d	-0.15132327
100	0xbdef767f	-0.11692523
101	0x3de3a7ed	0.11116014
102	0xbc1fe627	-0.009759462
103	0x3d2aaac8	0.041666776
104	0x3e0d5855	0.13803227
105	0x3da3684c	0.079788774
106	0x3e0deaa4	0.1385904
107	0x3ab48323	0.0013771992
108	0xbc8ac1e4	-0.016938157
109	0x3cc2e9ad	0.023793066
110	0xbc6f83bb	-0.014618809
111	0x3e43b669	0.19112553
112	0x3c9dcd27	0.019262863
113	0x3cfd2217	0.030900044
114	0xbdfce450	-0.12348235
115	0x3e1844fc	0.14870065
116	0xbe469b61	-0.1939521
117	0xbe02f431	-0.12788464
118	0x3d246b7f	0.04014158
119	0xbd818184	-0.06323531
120	0x3d989418	0.07450122
121	0xbcf0c59c	-0.029391102
122	0x3d409b44	0.047023073
123	0x3d7c5ae7	0.06161013
124	0xbb51880f	-0.0031971966
125	0xbe0df2df	-0.13862179
126	0xbe019de5	-0.12657888
127	0x3e43e062	0.19128564
128	0x3cbb20d2	0.022842798
129	0xbd9a7ed3	-0.07543721
130	0x3cd0062c	0.025393568
131	0x38fc79d1	0.000120389865
132	0x3e217a68	0.1576935
133	0x3da6131c	0.081091136
134	0xbcda63fc	-0.026659004
135	0x3e01f411	0.1269076
136	0x3d60758c	0.0547996
137	0xbd1570f4	-0.036484674
138	0x3da0f5e5	0.07859401
139	0xbda9c7ef	-0.082900874
140	0xbc60d19a	-0.013721848
141	0xbcb462e9	-0.02201982
142	0xbcb19d5a	-0.021681476
143	0x3dddec36	0.10836069
144	0x3cd724c6	0.026262652
145	0xbd7a2c33	-0.061077308
146	0x3cc7d8e4	0.024395414
147	0xbc07ba2b	-0.008284132
148	0xbdc84757	-0.09779232
149	0x3b704fdc	0.0036668694
150	0x3cd5d81e	0.02610403
151	0x3e2aa835	0.16665728
152	0x3df11ac0	0.1177268
153	0x3bd12376	0.006382401
154	0x3d772066	0.060333632
155	0x3e27d4f9	0.16389836
156	0xbd2c5894	-0.042076662
157	0x3df6f2ae	0.12058006
158	0xbdea2c9b	-0.11434289
159	0xbd255546	-0.040364526
160	0xbdbbb884	-0.09166053
161	0x3dc36ea4	0.095425874
162	0xbd3afd0d	-0.045651484
163	0x3dd9f354	0.10642114
164	0x3dfe9a4e	0.12431775
165	0xbd2422b0	-0.040072143
166	0x3d336746	0.04379966
167	0x3d0050ec	0.031327173
168	0xbcc8ca1c	-0.024510436
169	0xbc92ac32	-0.017904375
170	0x3d755c39	0.059902404
171	0xbd43925e	-0.04774701
172	0xbd777d1c	-0.060422048
173	0xbd88317d	-0.06650064
174	0x3e588dfd	0.21147914
175	0x3c197873	0.009367096
176	0xbe80a001	-0.25122073
177	0x3cba0ce6	0.022711229
178	0x3b022e24	0.0019863928
179	0x3d4b3452	0.049610443
180	0x3d517c15	0.051143724
181	0xbc071154	-0.008243877
182	0xbd48c9cc	-0.049020573
183	0xbdde4f68	-0.10854989
184	0x3da92141	0.08258296
185	0xbd2cbebb	-0.042174082
186	0x3db8c40d	0.09021769
187	0xbe016986	-0.1263791
188	0x3dbcc3de	0.09217046
189	0x3cfe0637	0.031008823
190	0xbceab330	-0.028649896
191	0xbe1b0447	-0.1513835
192	0xbdfc6dc8	-0.123256266
193	0xbcdeb7d5	-0.027187267
194	0xbc12b1de	-0.00895354
195	0x3da2bbd8	0.079459846
196	0x3dbaec16	0.09127061
197	0xbd3c8cd5	-0.046032745
198	0x3d72ade1	0.059247855
199	0x3d4a89e7	0.04944792
200	0xbc4b4aee	-0.012408001
201	0x3df728db	0.120683394
202	0xbe25e2bc	-0.16199774
203	0xbe01db48	-0.12681305
204	0xbb28d964	-0.002576434
205	0x3cb85104	0.022499569
206	0x3e45e495	0.19325478
207	0xbdfa347a	-0.1221704
208	0x3e84b4db	0.25919232
209	0x3c163569	0.009168007
210	0xbe076aab	-0.13224284
211	0xbd49c626	-0.049261235
212	0xbe3532b1	-0.17695118
213	0x3d453d15	0.048153955
214	0x3e99eeae	0.3006491
215	0xbe1ec6b9	-0.15505494
216	0x3bba753a	0.005690244
217	0xbe10170a	-0.14071289
218	0xbd168e1c	-0.03675662
219	0xbdce4113	-0.10071006
220	0xbd0b10ea	-0.033951677
221	0xbdf26247	-0.11835151
222	0xbb9d56c1	-0.0048016016
223	0xbd6b4b06	-0.057444595
224	0xbe1fe7d1	-0.15615775
225	0x3c8b2a6b	0.016988
226	0xbd914632	-0.07093467
227	0xbcdd1ee2	-0.026992265
228	0xbba0cd99	-0.0049073217
229	0x3d92abbd	0.07161663
230	0xbca8b7ad	-0.020595396
231	0xbce608c2	-0.028080348
232	0xbd9641f6	-0.073368
233	0x3e0f202a	0.13977113
234	0xbde8127e	-0.11331652
235	0x3d5df336	0.054187022
236	0x3da22701	0.07917596
237	0xbd996fb3	-0.07492008
238	0x3d3f2f2b	0.046675842
239	0x3ce1bea3	0.027556723
240	0xbcd9b529	-0.026575642
241	0x3d919679	0.071087785
242	0x3d10aef3	0.035323095
243	0xbdfa328d	-0.12216673
244	0xbddb0556	-0.10694377
245	0xbdf76359	-0.12079496
246	0x3df4ecfb	0.11959263
247	0x3d03ee3a	0.032209612
248	0x3e2a1dc9	0.16612925
249	0x3bf2552f	0.0073954086
250	0x3d3900ea	0.045166887
251	0x3e19d7bf	0.15023707
252	0xbd8bb369	-0.06821329
253	0x3d8a96b6	0.06767027
254	0xbe2a8def	-0.16655706
255	0x3c1c7d57	0.009551368

network_body._body_endoder.seq_layers.2.bias f4 [128]
0	0x3d6d03cd	0.057864953
1	0x3c9ca416	0.019121211
2	0x3aa445a1	0.0012532958
3	0x3ca0a7cb	0.01961126
4	0x3cf126bd	0.029437417
5	0x3bf10b85	0.0073561096
6	0x3c1a1843	0.0094051985
7	0x3d9beadb	0.076131545
8	0x3c390bba	0.0112943
9	0x3d1e4b56	0.038646065
10	0x3ccb5714	0.024821796
11	0x3af01d3c	0.0018319259
12	0xbc691a6e	-0.014227493
13	0xbbd77595	-0.006575296
14	0xbbf7c17d	-0.0075609074
15	0xb9ad7605	-0.00033085063
16	0x3d2bc273	0.041933488
17	0x3d495a9c	0.049158677
18	0x3d32ef08	0.04368499
19	0xbbe158b0	-0.0068770275
20	0x3c8c79b9	0.017147886
21	0xba8f03bb	-0.0010911146
22	0x3b7df060	0.003874801
23	0x3d37e242	0.04489351
24	0x3d2b80fc	0.041871056
25	0x3d3d2cf3	0.046185445
26	0x3cb62343	0.022233611
27	0xbbafa7bd	-0.005360572
28	0x3d0fcfe6	0.035110377
29	0xbb9d4e0c	-0.0048005637
30	0x3d1671c0	0.036729574
31	0x3ca847ed	0.02054211
32	0x3d3e540b	0.04646687
33	0x3d4453c2	0.04793144
34	0x3d9a0ce0	0.07521987
35	0xbc2cd601	-0.010549069
36	0x3ca6d04c	0.020362996
37	0x3d8c46df	0.06849455
38	0x3cdd5851	0.027019652
39	0x3ca329e9	0.019917445
40	0x3d176fa0	0.03697169
41	0xbb92e217	-0.0044825184
42	0x3d840e3d	0.06448028
43	0xbc5195db	-0.012792076
44	0x3c890712	0.016727004
45	0x3dba53c7	0.090980105
46	0x3c0521aa	0.008125702
47	0xbba34ce4	-0.0049835313
48	0x3d957203	0.07297137
49	0xbc91c636	-0.01779471
50	0x3d5b871c	0.053595647
51	0x3bd64ec7	0.0065401527
52	0x3cfab15a	0.030602146
53	0x3d631df7	0.0554485
54	0xbc5da9d6	-0.013529262
55	0xbaca3164	-0.0015426097
56	0x3c8f83c3	0.017518884
57	0xbbbd09d5	-0.0057689943
58	0x3bf5920c	0.007494217
59	0x3d5628c6	0.05228498
60	0x3c29ab94	0.010355849
61	0x3ca7749f	0.020441351
62	0xba6805ce	-0.00088509626
63	0x3d4486eb	0.04798023
64	0x3add7226	0.0016894981
65	0x3d3e123a	0.0464041
66	0x3c1988df	0.0093710115
67	0x3d594de0	0.053052783
68	0x3d1459eb	0.036218565
69	0x3d01096c	0.031503126
70	0x3d17f24b	0.037096303
71	0x3cafd276	0.02146266
72	0x3d2ad82d	0.041710068
73	0xbbb98b35	-0.0056623467
74	0x3d4f8fde	0.05067431
75	0x3d414d70	0.04719299
76	0x3d0471bc	0.032335028
77	0xbce4fdfd	-0.027953142
78	0x3c242cd8	0.010020457
79	0x3d238952	0.03992588
80	0x3cc5f942	0.024166707
81	0x3c58d7af	0.013235017
82	0x3bb363cd	0.0054745437
83	0x3d7321fd	0.059358586
84	0x3c3991fc	0.011326309
85	0x3db5910e	0.088655576
86	0xbb4863c5	-0.0030577045
87	0x3c5469dc	0.012964692
88	0x3d1fbae6	0.0389966
89	0x3c94f7b1	0.018184515
90	0x3d8cf40a	0.06882484
91	0x3c0bf127	0.008541382
92	0x3d3d0e73	0.046156358
93	0xbb9b19ff	-0.0047333236
94	0xbca8cdd9	-0.020605968
95	0x3da30051	0.07959045
96	0x3cbd9940	0.023144364
97	0x3de56f41	0.112028606
98	0x3caecff6	0.021339398
99	0x3cfab6f2	0.030604813
100	0x3ce566e5	0.028003165
101	0x3d224f16	0.039626203
102	0x3bdc56ac	0.0067241993
103	0x3d049e5b	0.032377582
104	0x3cec586b	0.028850755
105	0xbccad44f	-0.02475944
106	0x3d0d9cc4	0.03457333
107	0x3d590a88	0.05298856
108	0x3cb067cf	0.021533875
109	0x3d32e6f8	0.0436773
110	0x3d5139a7	0.051080372
111	0x3d688c43	0.05677439
112	0x3cda092e	0.026615705
113	0x3ca0728a	0.019585866
114	0x3acfe6b0	0.0015861597
115	0x3d0ae971	0.033914033
116	0x3cf6aac1	0.030110719
117	0x3d8100ec	0.06299004
118	0x3d6180fe	0.055054657
119	0x3d2e8441	0.042606596
120	0x3d0b91d0	0.034074605
121	0x3cb64858	0.022251293
122	0x3c9c8533	0.019106483
123	0x3956b87f	0.0002047736
124	0x3c19e478	0.00939285
125	0x3d1f876c	0.038947508
126	0x3c549dea	0.012977103
127	0x3d38621c	0.04501544

action_model._continuous_distribution.log_sigma f4 [1, 2]
0	0xbb4320b9	-0.0029774143
1	0xbb629b42	-0.0034577404

action_model._continuous_distribution.mu.weight f4 [2, 128]
0	0x3da789aa	0.08180554
1	0xbcb098ca	-0.02155723
2	0x3c9ef18d	0.01940229
3	0xbbc7e43d	-0.006100206
4	0x3ca6a65c	0.020342998
5	0xbcc2293a	-0.023701299
6	0xbc044069	-0.008071997
7	0x3c8457fd	0.016155237
8	0xbd200cb0	-0.0390746
9	0xbcde1410	-0.027109176
10	0x3cc94984	0.024571188
11	0x3c85c032	0.016326997
12	0x3c5263d8	0.012841187
13	0x3b5de26f	0.0033856889
14	0xbc56addf	-0.013102978
15	0x3cff9d7e	0.031203028
16	0xbb01b8a0	-0.0019793883
17	0xbd73a935	-0.05948754
18	0xbc905cf1	-0.017622443
19	0x3caacd62	0.020849887
20	0x3d1173b3	0.03551073
21	0x3acd04b5	0.0015641662
22	0x3d063fa6	0.032775544
23	0x3d8b4b3f	0.068014614
24	0xbc1a7f04	-0.009429697
25	0x3d6795a5	0.056539197
26	0x3d318114	0.04333599
27	0xbbaebb16	-0.005332361
28	0x3d0a9c0c	0.033840224
29	0xbc1f8ee3	-0.009738657
30	0x3d3484d2	0.04407198
31	0xbc0c7c39	-0.008574539
32	0x3cd64c39	0.026159393
33	0x3d70e144	0.05880858
34	0xbd70f38e	-0.05882602
35	0x3be8fa84	0.007109942
36	0x3bccae1c	0.0062463414
37	0x3de35c50	0.111015916
38	0x3ae00ff4	0.0017094598
39	0xbdae5fad	-0.085143425
40	0x3a511092	0.00079751865
41	0xbd2b11ea	-0.04176513
42	0xbd6ce0c0	-0.057831526
43	0x3c01860d	0.007905495
44	0x3b969e06	0.0045964746
45	0x3db84bae	0.0899881
46	0x3d1924c6	0.037388586
47	0xbd551b0d	-0.05202775
48	0xbd9adab7	-0.07561248
49	0xbc9e964c	-0.019358777
50	0x3d6a1465	0.057148356
51	0xbcbaa3d1	-0.022783192
52	0xbd4e72b4	-0.05040236
53	0xbd6ed143	-0.058305036
54	0xbcaa8938	-0.020817384
55	0xbb980ee2	-0.004640446
56	0x3d7b14d4	0.06129916
57	0x3bd98c25	0.006639021
58	0xbc7ccdb7	-0.015429906
59	0x3d255beb	0.040370863
60	0xbd10a591	-0.035314146
61	0xbd8524ad	-0.06501136
62	0xbc8ea42f	-0.017412273
63	0xbd71dde5	-0.059049506
64	0x3c9834bb	0.018579831
65	0x3d4d1b35	0.050074775
66	0xbc2f0ef7	-0.01068472
67	0x3d17c723	0.037055146
68	0xbd3389aa	-0.04383246
69	0x3cbd39fa	0.023098934
70	0xbc8396c0	-0.016063094
71	0xbd8a9b00	-0.06767845
72	0xbcb5abf0	-0.022176713
73	0x3a8d7d02	0.0010794702
74	0x3ca9b866	0.02071781
75	0xbdca114d	-0.09866581
76	0x3c8d2ad8	0.017232344
77	0xbc8cd22b	-0.01719006
78	0xbd53d586	-0.051717304
79	0x3d3ee652	0.04660637
80	0xbc6d9d4c	-0.0145028345
81	0x3c9836ad	0.018580759
82	0x3cb15553	0.021647131
83	0x3d874d5e	0.066065535
84	0xbae0ff66	-0.0017165958
85	0x3d9517ab	0.07279905
86	0x3c415da2	0.011802109
87	0x3d335a3d	0.04378723
88	0x3cf0980d	0.029369378
89	0x3c30fe51	0.010802821
90	0xbdb6efb4	-0.089324385
91	0x3b5fcfb0	0.003415089
92	0xbdb3c4fd	-0.08777807
93	0x3ca9c9b0	0.020726055
94	0xbbf08095	-0.007339547
95	0x3db657ab	0.0890344
96	0x3d391726	0.04518809
97	0x3d9fb508	0.07798201
98	0x3d02db5d	0.031947482
99	0x3d12fd30	0.03588599
100	0xbcdd6c08	-0.027029052
101	0x3cf48fd1	0.029853733
102	0x3c9be40e	0.019029643
103	0x3d14869a	0.03626118
104	0xbc8c7862	-0.017147247
105	0xbc35a0b2	-0.011085676
106	0xbc4968b5	-0.0122930305
107	0xbd96b29b	-0.07358285
108	0x3ccaaeda	0.024741579
109	0x3d5747a0	0.05255854
110	0xbcf7b7fe	-0.030239101
111	0x3cce4be5	0.025182674
112	0xbbab58e3	-0.005229102
113	0xbc348ad5	-0.011019428
114	0xbd2ee8fe	-0.042702667
115	0x3d29366b	0.041311663
116	0xbcb15c5a	-0.021650482
117	0xbd0d8e4d	-0.034559537
118	0xbd86b949	-0.06578309
119	0xbc62a2ee	-0.013832791
120	0x3cb887b5	0.022525648
121	0x3d112cf5	0.035443265
122	0x3ca8a62c	0.02058705
123	0xbc3d36ec	-0.011548739
124	0x3bda30d7	0.006658654
125	0x3c789623	0.015172514
126	0x3cacb75d	0.021083528
127	0xbd9c791f	-0.076402895
128	0x3dacac35	0.084312834
129	0x3cbd40b8	0.02310215
130	0x3cd94810	0.02652362
131	0xbd3238c7	-0.04351118
132	0xbd11405e	-0.035461776
133	0xbd2d8559	-0.0423635
134	0xbc8195df	-0.015818534
135	0x3db24818	0.08705157
136	0x3b884d5a	0.0041596116
137	0xbc3b15ac	-0.011418741
138	0x3d2b6ffd	0.041854847
139	0xbd3710d1	-0.04469377
140	0x3cf3bc55	0.02975289
141	0xbd03f511	-0.032216135
142	0xbc67885c	-0.014131632
143	0xbc461c6c	-0.012091737
144	0x3d1bb95f	0.03801858
145	0x3d379109	0.04481605
146	0x3d9ed8cf	0.07756197
147	0xbd41c134	-0.047303393
148	0xbca1f489	-0.019769924
149	0xbc1b5e92	-0.009482997
150	0x3bb0c366	0.005394387
151	0x3cedc1d9	0.029023098
152	0xbd945e9c	-0.07244608
153	0x3d6b29c8	0.057412893
154	0x3cfe5c4f	0.031049876
155	0x3ca5bde9	0.020232158
156	0x3d1fd1d1	0.039018456
157	0x3cf47357	0.029840155
158	0xbb320176	-0.0027161515
159	0x3c975a43	0.018475657
160	0x3d27700a	0.040878333
161	0xbc196433	-0.009362268
162	0x3dc1b997	0.094592266
163	0x3b86b177	0.004110511
164	0x3d1a4753	0.037665676
165	0x3d9c0685	0.07618431
166	0x3d3501c2	0.04419113
167	0xbc3b6ebe	-0.011439977
168	0xbd825d2e	-0.06365429
169	0x3b35319d	0.002764798
170	0xbd203f2b	-0.03912274
171	0xbcae6130	-0.021286577
172	0xbd390e41	-0.04517961
173	0xbce83583	-0.028345829
174	0x3ad275bd	0.0016056817
175	0xbca9652b	-0.020678123
176	0x3d1846f2	0.037177034
177	0x3c1075b9	0.00881713
178	0xb9b9a5d0	-0.0003540949
179	0xbd49b0fe	-0.04924106
180	0xbcfa6349	-0.030564921
181	0xbd8eb908	-0.06968886
182	0xbcd69844	-0.026195653
183	0xbd4d501f	-0.050125238
184	0xbcaf6149	-0.021408694
185	0x3cffdab2	0.031232212
186	0xbcaea5e7	-0.021319343
187	0x3d777b08	0.060420066
188	0xbb5853ae	-0.0033008861
189	0x3cd83618	0.026392981
190	0xbc16fd9c	-0.009215739
191	0x3ac8e350	0.0015326533
192	0xbc30e406	-0.0107965525
193	0x3bc4d0a4	0.006006317
194	0xbc9f7000	-0.019462585
195	0xbc705970	-0.014669761
196	0x3d931fcf	0.071838014
197	0xbd3408f8	-0.043953866
198	0xbd6a1552	-0.05714924
199	0x3cf6cf64	0.030128188
200	0x3ca2a1cb	0.01985254
201	0xbc90f2ae	-0.017693844
202	0xbd18af0a	-0.037276305
203	0xbb84395b	-0.0040351576
204	0x3cd93515	0.02651457
205	0xbaab1520	-0.001305256
206	0xbb347dcc	-0.00275408
207	0x3ccc1e80	0.024916887
208	0x3c8bdea9	0.017073946
209	0x3d3e7f74	0.046508268
210	0xbce1f404	-0.027582176
211	0x3c50d329	0.012745657
212	0x3d75e1a6	0.06002965
213	0x3d8499ae	0.064746246
214	0xbbba1822	-0.0056791464
215	0xbd00c152	-0.031434365
216	0x3d268faa	0.040664352
217	0x3d8426d1	0.06452716
218	0x3d175241	0.036943678
219	0xbca4d126	-0.020119261
220	0x3c89b778	0.016811118
221	0xbc0dc4c0	-0.008652866
222	0xb9a3d90d	-0.00031251498
223	0x3d23ad9b	0.039960485
224	0xbd2ae78b	-0.041724723
225	0xbccb754d	-0.024836207
226	0xbd42a15b	-0.04751716
227	0x3cbe078e	0.023196962
228	0xbcdc412e	-0.026886549
229	0xba290f6f	-0.0006449138
230	0x3bfb87df	0.007676109
231	0x3a7dfbb2	0.00096886896
232	0x3d346fa9	0.0440518
233	0xbc28e0fc	-0.010307547
234	0xbd7d7218	-0.061876386
235	0x3bc6915c	0.0060598087
236	0xbc092a7a	-0.008371944
237	0xbcc6cd84	-0.02426792
238	0x3cc35220	0.023842871
239	0x3cf7ca07	0.030247701
240	0x3d823d41	0.063593395
241	0x3d3b39af	0.04570931
242	0xbc62c58b	-0.013841043
243	0xbd7b8d0b	-0.061413806
244	0x3d778265	0.06042709
245	0x3dd59b9a	0.10430069
246	0xbc2c1432	-0.010502862
247	0x3d9a314a	0.075289324
248	0x3d4d9041	0.0501864
249	0xbd0f894d	-0.03504305
250	0x3cd2aeef	0.02571818
251	0xbb55cc0e	-0.0032622847
252	0xbc5571c9	-0.013027617
253	0x3d4f17ae	0.050559692
254	0x3b5bd108	0.003354134
255	0x3cf9280e	0.030414607

action_model._continuous_distribution.mu.bias f4 [2]
0	0x3b5a8880	0.003334552
1	0x3ae7a31d	0.0017672513

exp_avg f4 [128, 6]
0	0xb9f47ee5	-0.0004663385
1	0xac7eb974	-3.6198518e-12
2	0xb77cd54c	-1.50700325e-05
3	0xb9594eeb	-0.00020724132
4	0x00000000	0.0
5	0x39d39b1b	0.0004036062
6	0xba371039	-0.00069833134
7	0xadbc7b88	-2.1427984e-11
8	0xb962497a	-0.00021580412
9	0xbac35746	-0.0014903329
10	0x00000000	0.0
11	0xb970679a	-0.00022926778
12	0x3993c785	0.00028186679
13	0x2df7ef3d	2.8186892e-11
14	0x38e39f96	0.00010853929
15	0xb8355a2d	-4.3237746e-05
16	0x00000000	0.0
17	0x3824b0cf	3.9265313e-05
18	0xb9afe088	-0.0003354589
19	0xae42e1fc	-4.4311207e-11
20	0x39b3bd71	0.00034282685
21	0xba6a32f4	-0.0008933984
22	0x00000000	0.0
23	0x3a0815e7	0.0005191252
24	0x3895d397	7.144285e-05
25	0x2d3eb8a5	1.0841249e-11
26	0x38a3bafd	7.807275e-05
27	0x39ad729f	0.0003308253
28	0x00000000	0.0
29	0x391a6ade	0.00014726396
30	0xb9914355	-0.0002770672
31	0xad243e58	-9.336164e-12
32	0xb9a1413b	-0.00030756913
33	0xb9ebb9df	-0.00044961178
34	0x00000000	0.0
35	0xb9e0c08d	-0.0004286807
36	0x3aac3e33	0.0013141095
37	0xad48ecd9	-1.14212745e-11
38	0x3984aa52	0.000253039
39	0x3b143724	0.0022615874
40	0x00000000	0.0
41	0x3a1b8cbe	0.0005933753
42	0x3a71f948	0.0009230566
43	0x2ee0675a	1.02046996e-10
44	0x395c917e	0.00021035035
45	0x3ada16ea	0.0016638909
46	0x00000000	0.0
47	0x3a141938	0.000564951
48	0x3a1cadbd	0.0005976817
49	0x2e32315a	4.0516347e-11
50	0xb8c3fe80	-9.345729e-05
51	0x3a6a8c2c	0.0008947279
52	0x00000000	0.0
53	0xb9240da3	-0.00015645339
54	0xb9efe403	-0.00045755514
55	0xae5d9461	-5.038137e-11
56	0x3915be60	0.00014280668
57	0xba4b0af3	-0.0007745467
58	0x00000000	0.0
59	0x378b8d90	1.6636011e-05
60	0x3a4f3445	0.0007904212
61	0xae2b48b0	-3.8945458e-11
62	0x3a132fdd	0.0005614737
63	0x3b1b70fc	0.0023718467
64	0x00000000	0.0
65	0x3a88d4af	0.0010439361
66	0xba62fe27	-0.00086590875
67	0xaea9c260	-7.719758e-11
68	0xb83078e9	-4.2074276e-05
69	0xbadc2999	-0.0016797065
70	0x00000000	0.0
71	0xb8810f23	-6.154019e-05
72	0xba446af4	-0.0007492744
73	0xaeef7932	-1.088999e-10
74	0xb917a33b	-0.0001446129
75	0xbaed72f8	-0.0018115928
76	0x00000000	0.0
77	0xb9a4a34f	-0.00031402192
78	0x3a4b7d5d	0.0007762516
79	0xad8e257c	-1.6160177e-11
80	0x3a03503a	0.0005009208
81	0x3b121bfd	0.0022294514
82	0x00000000	0.0
83	0x3a8019a8	0.0009773271
84	0x384dd888	4.907747e-05
85	0x2dd8c505	2.4643851e-11
86	0x3916ec2f	0.000143931
87	0x3a88b72a	0.0010430564
88	0x00000000	0.0
89	0x3a3f5d1d	0.0007299947
90	0xba486af9	-0.00076453347
91	0xae780c19	-5.6399416e-11
92	0xb8c25c8e	-9.2678805e-05
93	0xbac274ab	-0.0014835795
94	0x00000000	0.0
95	0xb9cd0b94	-0.00039109273
96	0x39a34ddd	0.00031147795
97	0x2dc1706c	2.1991485e-11
98	0x38d0c9ca	9.955799e-05
99	0x39f9d822	0.00047654012
100	0x00000000	0.0
101	0x387a972f	5.9745445e-05
102	0x37f188e1	2.8793178e-05
103	0xa97b14a8	-5.5751112e-14
104	0x38434fa4	4.6565794e-05
105	0x3904c881	0.00012663195
106	0x00000000	0.0
107	0x39915eb0	0.00027727103
108	0x39ef0738	0.0004559101
109	0xadee6a66	-2.7104718e-11
110	0x38d71188	0.00010255264
111	0x3aaddcce	0.0013264657
112	0x00000000	0.0
113	0x39d71b2a	0.00041028234
114	0x390a1586	0.00013168724
115	0xadacf75f	-1.9663991e-11
116	0x391bf703	0.00014873971
117	0x3a409a97	0.00073472544
118	0x00000000	0.0
119	0x39f719ca	0.00047130726
120	0xb9fab42e	-0.0004781796
121	0xae5c68c4	-5.011526e-11
122	0x38b5f268	8.675904e-05
123	0xbaa1dbf5	-0.0012348877
124	0x00000000	0.0
125	0x393d93a3	0.00018079444
126	0x38b2ef0c	8.5322274e-05
127	0xad811f15	-1.4679405e-11
128	0xb95c8a9c	-0.00021032471
129	0x3a4f9fe1	0.0007920247
130	0x00000000	0.0
131	0x3827840c	3.993888e-05
132	0x36f454f7	7.281658e-06
133	0x2d396c3c	1.0540065e-11
134	0xb8beed3a	-9.104093e-05
135	0x3a1663f9	0.0005736943
136	0x00000000	0.0
137	0xb853a91f	-5.0463826e-05
138	0x3a9ce03b	0.0011968681
139	0x2de5969f	2.6101175e-11
140	0xb927d851	-0.00016006945
141	0x3b11cf31	0.002224874
142	0x00000000	0.0
143	0xb70ec6d6	-8.510155e-06
144	0xba51a213	-0.0007996868
145	0xae08d7e2	-3.1114562e-11
146	0xb91e27db	-0.00015082902
147	0xb9fe4765	-0.00048499848
148	0x00000000	0.0
149	0x390438ec	0.00012609706
150	0x3a01b772	0.0004948295
151	0x2daed40c	1.9875677e-11
152	0x391a7ab2	0.00014732292
153	0x3ac21454	0.0014807084
154	0x00000000	0.0
155	0x39b9117a	0.0003529897
156	0xb9bbab21	-0.0003579492
157	0xae0bb52c	-3.1765854e-11
158	0xb8907c00	-6.889552e-05
159	0xba4865bd	-0.0007644555
160	0x00000000	0.0
161	0xb6d690cb	-6.394553e-06
162	0xbaa9b71c	-0.0012948248
163	0x2d5f2d90	1.2686199e-11
164	0xb84f9949	-4.9495404e-05
165	0xbae04e7c	-0.0017113234
166	0x00000000	0.0
167	0x392fdb4c	0.00016770995
168	0x3a563519	0.00081713643
169	0x2b0d65c7	5.023451e-13
170	0x3934aa35	0.00017229545
171	0x3ae94150	0.0017795954
172	0x00000000	0.0
173	0x3a50351d	0.0007942485
174	0xb8e4b8c6	-0.00010906304
175	0xade4b00a	-2.5998776e-11
176	0x38ac9f77	8.231302e-05
177	0x39c0dbaf	0.0003678477
178	0x00000000	0.0
179	0x39dd4cea	0.0004220971
180	0x3a247902	0.0006274135
181	0x2d9cfb0e	1.7846637e-11
182	0x3a1096f2	0.00055156567
183	0x3a9e6d94	0.00120871
184	0x00000000	0.0
185	0x3a834655	0.0010015467
186	0xb9fc609a	-0.0004813716
187	0xae26c3a8	-3.7917808e-11
188	0x38966e5c	7.1731134e-05
189	0xba17e690	-0.00057945494
190	0x00000000	0.0
191	0x39985dd4	0.00029061607
192	0x3a40548c	0.0007336817
193	0x2e821afa	5.9165076e-11
194	0xb8342a9a	-4.295502e-05
195	0x3ab45cc3	0.0013760555
196	0x00000000	0.0
197	0x38a8e202	8.0529615e-05
198	0x3a9a228e	0.0011759566
199	0xae3bf248	-4.2734066e-11
200	0x376d517b	1.4145272e-05
201	0x3b1ab6d0	0.00236075
202	0x00000000	0.0
203	0x39d55596	0.00040690292
204	0x39ad147e	0.000330124
205	0xab24207b	-5.830958e-13
206	0xb95dd6ed	-0.00021156268
207	0x390bb3a3	0.00013322993
208	0x00000000	0.0
209	0xb987a6f7	-0.00025873605
210	0xb983c01d	-0.00025129403
211	0xadc400ab	-2.2282917e-11
212	0xb83e0a1b	-4.530894e-05
213	0xba0585a1	-0.00050934596
214	0x00000000	0.0
215	0xb83dfe1f	-4.529778e-05
216	0xb8c16e58	-9.22351e-05
217	0xacb4ba10	-5.136565e-12
218	0xb91331c0	-0.00014037546
219	0xb9237713	-0.0001558925
220	0x00000000	0.0
221	0xb8f96d8b	-0.00011893649
222	0x3aad2833	0.0013210833
223	0xae58275b	-4.914767e-11
224	0x391a2a0c	0.00014702248
225	0x3af9753c	0.0019032131
226	0x00000000	0.0
227	0x39488310	0.00019122311
228	0xba8f5b57	-0.0010937256
229	0x2e01f0cc	2.9545075e-11
230	0xb81a3a62	-3.6770834e-05
231	0xbad76968	-0.0016434612
232	0x00000000	0.0
233	0x38ad749a	8.2710016e-05
234	0xba0baf2a	-0.00053285307
235	0xae233700	-3.711076e-11
236	0x388aca54	6.618039e-05
237	0xbaa516ed	-0.0012595333
238	0x00000000	0.0
239	0x38874a36	6.4511245e-05
240	0x39925b67	0.0002791539
241	0x2e474a5a	4.53134e-11
242	0x3932ad7e	0.00017040034
243	0xb84ba507	-4.8552665e-05
244	0x00000000	0.0
245	0x39551f04	0.00020324817
246	0xb9f4157e	-0.0004655532
247	0xaea83506	-7.6491743e-11
248	0xb90701a5	-0.00012875216
249	0xb9447745	-0.00018736448
250	0x00000000	0.0
251	0xb7e28702	-2.7004167e-05
252	0x3898f2cc	7.293149e-05
253	0xadcf904c	-2.3597256e-11
254	0x38de8a1c	0.0001061151
255	0x3a3c794b	0.0007189705

exp_avg_sq f4 [128, 6]
0	0x35c6808d	1.4789563e-06
1	0x1db48262	4.7780416e-21
2	0x3505684f	4.969815e-07
3	0x361f711a	2.375868e-06
4	0x00000000	0.0
5	0x3596904c	1.1217867e-06
6	0x3770dabd	1.4356044e-05
7	0x1f4558d9	4.1789866e-20
8	0x36a11c8a	4.8014963e-06
9	0x37b077c7	2.103661e-05
10	0x00000000	0.0
11	0x37235071	9.734286e-06
12	0x3636bdf4	2.723068e-06
13	0x1e00fe0c	6.828799e-21
14	0x358ca189	1.0477826e-06
15	0x3695c4a6	4.463439e-06
16	0x00000000	0.0
17	0x36086fce	2.0330658e-06
18	0x36914723	4.329618e-06
19	0x1e5a49e6	1.1556106e-20
20	0x35c981b3	1.5013414e-06
21	0x36e43a13	6.8016902e-06
22	0x00000000	0.0
23	0x3640378b	2.864256e-06
24	0x359cdea6	1.1687705e-06
25	0x1d572f47	2.8479455e-21
26	0x34d89800	4.034373e-07
27	0x35eac6e4	1.7492243e-06
28	0x00000000	0.0
29	0x3567c6b9	8.6343385e-07
30	0x354350be	7.2760656e-07
31	0x1d1fc748	2.11465e-21
32	0x349718ce	2.814399e-07
33	0x355ba79c	8.182776e-07
34	0x00000000	0.0
35	0x35057eae	4.9730704e-07
36	0x369d65d0	4.690817e-06
37	0x1e7ccb2a	1.3382782e-20
38	0x35d24032	1.5664903e-06
39	0x36ef4afa	7.1314835e-06
40	0x00000000	0.0
41	0x3650edf5	3.1132925e-06
42	0x3726f59c	9.951556e-06
43	0x1ebd9566	2.0072943e-20
44	0x3643fe6d	2.920536e-06
45	0x3759be4e	1.2978517e-05
46	0x00000000	0.0
47	0x36b05e70	5.2562027e-06
48	0x35afce5b	1.3098573e-06
49	0x1d8c03d7	3.706166e-21
50	0x34e2987d	4.220673e-07
51	0x362199f4	2.4080482e-06
52	0x00000000	0.0
53	0x35811fc7	9.620497e-07
54	0x36455faf	2.9410983e-06
55	0x1e08a04f	7.232931e-21
56	0x3598b733	1.13782e-06
57	0x368816bc	4.0557625e-06
58	0x00000000	0.0
59	0x3603286d	1.9544052e-06
60	0x36d85e74	6.4482974e-06
61	0x1e9ec9e8	1.6812407e-20
62	0x361f6476	2.3751322e-06
63	0x37238899	9.747361e-06
64	0x00000000	0.0
65	0x3699c9eb	4.5832617e-06
66	0x3691f492	4.3498085e-06
67	0x1e3cbabe	9.9912545e-21
68	0x35a58cd7	1.2334448e-06
69	0x36d666be	6.3896578e-06
70	0x00000000	0.0
71	0x3620153c	2.3854218e-06
72	0x36ba1f88	5.5469027e-06
73	0x1ed32d63	2.2359265e-20
74	0x36197624	2.2867544e-06
75	0x370c17e4	8.350213e-06
76	0x00000000	0.0
77	0x3691d70f	4.346373e-06
78	0x3681b0a7	3.8650646e-06
79	0x1e37dbf5	9.733425e-21
80	0x35b155e1	1.3212522e-06
81	0x36c14886	5.760291e-06
82	0x00000000	0.0
83	0x361fab4e	2.3792559e-06
84	0x3710c2a2	8.628385e-06
85	0x1ece7a1e	2.1861605e-20
86	0x365dfe8f	3.3079739e-06
87	0x3749eb76	1.2035356e-05
88	0x00000000	0.0
89	0x36d78bc9	6.4237724e-06
90	0x36929a69	4.369115e-06
91	0x1e74e28d	1.2964102e-20
92	0x35df7fc2	1.6651977e-06
93	0x36cf15af	6.171605e-06
94	0x00000000	0.0
95	0x364f760e	3.091412e-06
96	0x3594d3b1	1.108847e-06
97	0x1d2c6d6d	2.2820582e-21
98	0x3490e313	2.6987308e-07
99	0x35e4b05f	1.7038655e-06
100	0x00000000	0.0
101	0x351644a9	5.597927e-07
102	0x3601b996	1.9330523e-06
103	0x1ddcfcc7	5.849488e-21
104	0x35406a74	7.1680483e-07
105	0x364e50de	3.0743463e-06
106	0x00000000	0.0
107	0x35c07b1e	1.4340947e-06
108	0x35fd1350	1.885559e-06
109	0x1e039fbd	6.968115e-21
110	0x35538e59	7.881077e-07
111	0x363e7e9b	2.83859e-06
112	0x00000000	0.0
113	0x35c49136	1.46454e-06
114	0x3560443f	8.3545814e-07
115	0x1d99d3f7	4.071793e-21
116	0x3506eea7	5.0266175e-07
117	0x35a6de3b	1.2432641e-06
118	0x00000000	0.0
119	0x358636a5	9.999682e-07
120	0x364155e0	2.8809227e-06
121	0x1e00f09d	6.826021e-21
122	0x3559657d	8.0986484e-07
123	0x369ec136	4.7312597e-06
124	0x00000000	0.0
125	0x35dc7b0a	1.6427086e-06
126	0x363acff8	2.7837214e-06
127	0x1e1661bb	7.961144e-21
128	0x3598c7a3	1.1382984e-06
129	0x368f7dcb	4.2763763e-06
130	0x00000000	0.0
131	0x361e0357	2.3545779e-06
132	0x36170159	2.2501538e-06
133	0x1ded7ee5	6.2864584e-21
134	0x358230f5	9.700003e-07
135	0x362fa4c9	2.617295e-06
136	0x00000000	0.0
137	0x35eaba0a	1.7488503e-06
138	0x36a59650	4.934882e-06
139	0x1e892da9	1.4524324e-20
140	0x36104be9	2.1501858e-06
141	0x36f4786c	7.2857856e-06
142	0x00000000	0.0
143	0x3683b5eb	3.9252823e-06
144	0x35f11161	1.7960957e-06
145	0x1dfd3478	6.7022794e-21
146	0x354e4c81	7.685231e-07
147	0x362fb1d6	2.6180546e-06
148	0x00000000	0.0
149	0x35cfd013	1.5483259e-06
150	0x362c44fb	2.567015e-06
151	0x1e00167d	6.780914e-21
152	0x3568b506	8.669016e-07
153	0x3674d7c0	3.6484416e-06
154	0x00000000	0.0
155	0x35ede9ab	1.7725882e-06
156	0x358b59d9	1.0382456e-06
157	0x1d566314	2.8373886e-21
158	0x34d0e07d	3.8906356e-07
159	0x35d57437	1.590356e-06
160	0x00000000	0.0
161	0x35300f52	6.5587403e-07
162	0x36b5c6dd	5.417371e-06
163	0x1e9bdecd	1.6503412e-20
164	0x360a677e	2.0623843e-06
165	0x370c31c7	8.35624e-06
166	0x00000000	0.0
167	0x368155b3	3.8544763e-06
168	0x36bb120a	5.5751343e-06
169	0x1e5b29d5	1.1602414e-20
170	0x35d80550	1.60948e-06
171	0x36e38403	6.7804954e-06
172	0x00000000	0.0
173	0x364d15a7	3.0559984e-06
174	0x34d69e21	3.997566e-07
175	0x1d280461	2.2236879e-21
176	0x3494f840	2.7747774e-07
177	0x3546f777	7.4120857e-07
178	0x00000000	0.0
179	0x35097419	5.120542e-07
180	0x36ded243	6.6405933e-06
181	0x1e961007	1.5888497e-20
182	0x361e4ea2	2.3589605e-06
183	0x372a30f2	1.0144186e-05
184	0x00000000	0.0
185	0x36985d4a	4.5408133e-06
186	0x37125c19	8.723721e-06
187	0x1efb48ed	2.660582e-20
188	0x363b639c	2.7923152e-06
189	0x375c15cf	1.31181e-05
190	0x00000000	0.0
191	0x36bce6dc	5.629712e-06
192	0x3657527c	3.2085509e-06
193	0x1df3f7cd	6.4577784e-21
194	0x35862855	9.995516e-07
195	0x36a12710	4.8027214e-06
196	0x00000000	0.0
197	0x35f3d502	1.8166904e-06
198	0x3671dac4	3.6039137e-06
199	0x1e4f3d2e	1.09711404e-20
200	0x35b2112f	1.3267035e-06
201	0x36b40dd5	5.3660283e-06
202	0x00000000	0.0
203	0x361eca46	2.3661573e-06
204	0x355f4421	8.3173114e-07
205	0x1d90d165	3.833299e-21
206	0x3531a3a4	6.6175767e-07
207	0x35c06857	1.4335482e-06
208	0x00000000	0.0
209	0x35a1ef12	1.2065013e-06
210	0x3543ca4c	7.293754e-07
211	0x1d2e3934	2.3058282e-21
212	0x34b2e046	3.3318264e-07
213	0x358bbf45	1.0411974e-06
214	0x00000000	0.0
215	0x35264c21	6.19506e-07
216	0x34c06e27	3.5842933e-07
217	0x1c4c341d	6.7565293e-22
218	0x33f3fde4	1.1361752e-07
219	0x34ed44c9	4.4194738e-07
220	0x00000000	0.0
221	0x34516aac	1.9503449e-07
222	0x36cf3516	6.1752608e-06
223	0x1eb330dd	1.8972572e-20
224	0x360c2a75	2.088634e-06
225	0x3727857f	9.985058e-06
226	0x00000000	0.0
227	0x3687a646	4.0426703e-06
228	0x366d9851	3.5404412e-06
229	0x1e4c6cfd	1.0822208e-20
230	0x3593161d	1.0958789e-06
231	0x36b5beaa	5.4164166e-06
232	0x00000000	0.0
233	0x36161704	2.2365139e-06
234	0x35ed34ea	1.7673276e-06
235	0x1dbc1616	4.978602e-21
236	0x351c6c41	5.827206e-07
237	0x362c77c1	2.5699703e-06
238	0x00000000	0.0
239	0x359a2ff2	1.1487848e-06
240	0x360058be	1.912514e-06
241	0x1db8e5f7	4.8942173e-21
242	0x35377eb7	6.8357207e-07
243	0x3637195d	2.7283888e-06
244	0x00000000	0.0
245	0x35ac1e10	1.2823748e-06
246	0x36c1765c	5.765627e-06
247	0x1e8a9344	1.4672226e-20
248	0x3615035b	2.2204683e-06
249	0x37064bee	8.004701e-06
250	0x00000000	0.0
251	0x368933e3	4.0889586e-06
252	0x357b5c33	9.3638954e-07
253	0x1d89a3fe	3.643316e-21
254	0x34a576b1	3.0820004e-07
255	0x35dce007	1.6456478e-06

exp_avg f4 [128]
0	0x3829d391	4.0489776e-05
1	0xb8ef5327	-0.000114118964
2	0x38bdba8d	9.04697e-05
3	0xb9b2082a	-0.00033956888
4	0x381ec6b8	3.7855207e-05
5	0xb820d487	-3.8344904e-05
6	0xb96f6db4	-0.00022833684
7	0x3a028757	0.00049792737
8	0x398c09f8	0.00026710308
9	0xb9a32bd7	-0.00031122446
10	0xb985bbe1	-0.00025507718
11	0xba039c25	-0.0005020521
12	0xba10c22f	-0.00055220997
13	0xb90ce7b3	-0.00013437755
14	0x396fc87d	0.00022867504
15	0xb99b5fc3	-0.00029635252
16	0x390c3864	0.00013372448
17	0xb73131da	-1.0561629e-05
18	0xb9915989	-0.00027723264
19	0xb93df879	-0.00018117008
20	0xb9be363d	-0.00036280035
21	0x36ea3d65	6.9808907e-06
22	0xb648a2a0	-2.9896983e-06
23	0xb7bee699	-2.2757145e-05
24	0xb8657eeb	-5.4716056e-05
25	0x38cabca7	9.66725e-05
26	0xb96bd627	-0.00022491124
27	0x399631c7	0.00028647317
28	0x37e3c1f2	2.7150822e-05
29	0xb9177421	-0.00014443744
30	0x384df91c	4.910781e-05
31	0xb99e3394	-0.00030174537
32	0x39aa8acd	0.0003252834
33	0xb9dd9c4e	-0.0004226886
34	0xb8ebefff	-0.00011250376
35	0xb91ca931	-0.00014940348
36	0xb7d9adaf	-2.5949294e-05
37	0xb9d55430	-0.0004068925
38	0x39b72f70	0.00034939824
39	0xb94cff8b	-0.00019550153
40	0x39403b86	0.00018332721
41	0xb99cdafb	-0.00029917792
42	0xb90a9459	-0.0001321597
43	0x386178cb	5.3756678e-05
44	0xb743f191	-1.167915e-05
45	0xb91147a3	-0.00013854964
46	0xb7c67056	-2.365575e-05
47	0xb9829074	-0.00024903158
48	0xb9b42e42	-0.0003436674
49	0x3983e359	0.00025155654
50	0x39ea80af	0.00044727835
51	0xba364537	-0.0006953063
52	0xb86f20f7	-5.701274e-05
53	0x3898c1e7	7.284042e-05
54	0x39040436	0.0001259007
55	0x39693322	0.0002223966
56	0xb90741fb	-0.00012899183
57	0xb9687924	-0.00022170373
58	0x39973ddb	0.0002884705
59	0x3807a54d	3.2340457e-05
60	0x3a290c99	0.00064487156
61	0xb89a37b0	-7.353665e-05
62	0xb993f005	-0.00028216853
63	0xb92ac48e	-0.00016285686
64	0x39733d35	0.00023197087
65	0x39599276	0.00020749294
66	0xb9b66a79	-0.00034793073
67	0x3a048e4e	0.00050566054
68	0x3910b40c	0.00013799983
69	0xba046386	-0.00050502305
70	0xb98250d0	-0.00024855742
71	0x38852c0a	6.350137e-05
72	0x38acf3e3	8.2470266e-05
73	0xb95cbc09	-0.00021050884
74	0x3914bafa	0.00014184034
75	0xba412b6f	-0.0007368838
76	0x39da1a3d	0.0004159975
77	0xb96420c0	-0.00021755975
78	0x37b1930a	2.1168515e-05
79	0x37d1242a	2.4931582e-05
80	0xb924abc7	-0.00015704251
81	0xb9c9e9df	-0.00038511955
82	0x39fb300e	0.00047910254
83	0xb903f02a	-0.00012582602
84	0xb89037cc	-6.876848e-05
85	0x39617ef7	0.0002150497
86	0x3a0e7cc5	0.0005435462
87	0xb89215e2	-6.9658985e-05
88	0x37eceb28	2.8242895e-05
89	0xb8b41267	-8.5864966e-05
90	0xb88e3aa7	-6.7820125e-05
91	0xb98cce78	-0.00026856712
92	0xb8f3d302	-0.00011626446
93	0x3934f42c	0.00017257099
94	0x3955ca66	0.00020388662
95	0xba57df1c	-0.0008234845
96	0x38cdebdf	9.819096e-05
97	0xb9f242ab	-0.00046207508
98	0x385d0a95	5.270036e-05
99	0xb903ba34	-0.000125625
100	0x381337ab	3.5099376e-05
101	0x37bea576	2.2726814e-05
102	0xb94eb478	-0.00019712921
103	0xb9a8cfcb	-0.00032198275
104	0x390a9c43	0.00013218918
105	0xb9695f73	-0.00022256169
106	0xb93f84ec	-0.00018264697
107	0xb8d5ff5e	-0.00010204197
108	0x38c7f593	9.534801e-05
109	0xb923da8b	-0.00015626305
110	0x38eaf3ce	0.00011203402
111	0xb9b03278	-0.00033606938
112	0x36bd55cf	5.6426284e-06
113	0xb966a813	-0.00021997122
114	0x39bd7bd2	0.00036141142
115	0xb9a463b1	-0.00031354793
116	0xb95be9d0	-0.0002097257
117	0xb9b6d473	-0.00034872032
118	0xb66cb274	-3.5270614e-06
119	0x37ecf6fa	2.82484e-05
120	0xb9083eb3	-0.00012993328
121	0xb947006a	-0.00018978273
122	0xb9617cb7	-0.00021504132
123	0x38832c1a	6.254781e-05
124	0xb81a9103	-3.6851514e-05
125	0xb951cb91	-0.00020007628
126	0x3736ccac	1.0895699e-05
127	0xb786222c	-1.5989957e-05

exp_avg_sq f4 [128]
0	0x34215413	1.502488e-07
1	0x35b7dcde	1.3698843e-06
2	0x348898de	2.54432e-07
3	0x34e2e3ab	4.226143e-07
4	0x33ce8b7c	9.6179946e-08
5	0x33a17acd	7.519484e-08
6	0x34ea16bd	4.360244e-07
7	0x354287bd	7.2468157e-07
8	0x341263ae	1.3633573e-07
9	0x348da906	2.6386277e-07
10	0x3521264d	6.003291e-07
11	0x34c10804	3.5954884e-07
12	0x353c2471	7.0088487e-07
13	0x34bb27eb	3.4860508e-07
14	0x35425d5e	7.24065e-07
15	0x34d3d511	3.945684e-07
16	0x33baa5b6	8.6914426e-08
17	0x3453625b	1.9686688e-07
18	0x3470f43c	2.2440594e-07
19	0x34161519	1.3977514e-07
20	0x3480847d	2.3938256e-07
21	0x349341d1	2.7428771e-07
22	0x34826aec	2.4292183e-07
23	0x3500c46d	4.7969553e-07
24	0x34679b0c	2.1569957e-07
25	0x34850e05	2.478338e-07
26	0x33e35162	1.0585315e-07
27	0x350cd4d3	5.2463764e-07
28	0x34e6bbd3	4.2977499e-07
29	0x339da2a8	7.340469e-08
30	0x3519b447	5.725928e-07
31	0x3566be74	8.595882e-07
32	0x347f24dc	2.3762135e-07
33	0x34bece5b	3.55404e-07
34	0x340b370b	1.2965408e-07
35	0x33b17574	8.2635694e-08
36	0x32d6a5e1	2.4988312e-08
37	0x3523dad0	6.1040646e-07
38	0x34b41a16	3.3546593e-07
39	0x343a9ef5	1.7380428e-07
40	0x3435a7ed	1.691803e-07
41	0x350e6569	5.3046693e-07
42	0x3404a663	1.2353989e-07
43	0x337b3730	5.8490684e-08
44	0x33c7ff42	9.313091e-08
45	0x34a46aeb	3.0625174e-07
46	0x33fb139b	1.16916645e-07
47	0x34714dfa	2.2473242e-07
48	0x34221fe1	1.5099023e-07
49	0x347dd3f0	2.3639564e-07
50	0x355b4d24	8.169611e-07
51	0x35624b54	8.430118e-07
52	0x34497e49	1.8765526e-07
53	0x3327ce46	3.9070322e-08
54	0x3528db98	6.290443e-07
55	0x35bba277	1.3979869e-06
56	0x33f7c386	1.1537399e-07
57	0x34a04cfd	2.985834e-07
58	0x34e34034	4.232876e-07
59	0x347a14ee	2.3290679e-07
60	0x3587bf5d	1.0113978e-06
61	0x333efeb2	4.4469466e-08
62	0x34e01d65	4.174464e-07
63	0x33efce85	1.11668705e-07
64	0x33c711c0	9.269888e-08
65	0x33bd5252	8.815972e-08
66	0x34f1184d	4.490743e-07
67	0x35487e7e	7.4689876e-07
68	0x33460e98	4.611374e-08
69	0x350008e9	4.769668e-07
70	0x346f9675	2.2313345e-07
71	0x34ec692c	4.4034948e-07
72	0x340b0fb1	1.2951092e-07
73	0x350e07ce	5.291048e-07
74	0x3496c4e3	2.808293e-07
75	0x35885a3d	1.0159052e-06
76	0x34935a1f	2.7446455e-07
77	0x34ba73f1	3.4729558e-07
78	0x33d15025	9.746899e-08
79	0x342db1cb	1.6176561e-07
80	0x354ddff2	7.6694334e-07
81	0x34e1157f	4.1925156e-07
82	0x3511b08a	5.427361e-07
83	0x34038432	1.2248418e-07
84	0x341e55ce	1.4746112e-07
85	0x345dbee8	2.065168e-07
86	0x35abd4ef	1.2802465e-06
87	0x3569b3f4	8.706113e-07
88	0x33357b4b	4.225448e-08
89	0x33232a74	3.7990006e-08
90	0x338c6aaa	6.53866e-08
91	0x3558e281	8.0795877e-07
92	0x34c0391e	3.5804345e-07
93	0x34b8e850	3.44417e-07
94	0x34a35006	3.041934e-07
95	0x35b5bdc9	1.3540786e-06
96	0x356b93a1	8.775915e-07
97	0x34c79a97	3.7179117e-07
98	0x33e9e824	1.0892134e-07
99	0x349398da	2.7492098e-07
100	0x3458875f	2.0165815e-07
101	0x3337dc7b	4.2808534e-08
102	0x34d1f01d	3.910399e-07
103	0x33b57c2f	8.451058e-08
104	0x33964c4f	6.9988e-08
105	0x338223ff	6.0601444e-08
106	0x348f212e	2.6659967e-07
107	0x343a2c76	1.7338775e-07
108	0x33c2309d	9.042672e-08
109	0x34ae30c2	3.2445502e-07
110	0x348695cc	2.5068437e-07
111	0x34bd8f58	3.530829e-07
112	0x349b7721	2.8957678e-07
113	0x34390b4d	1.7233579e-07
114	0x3533600d	6.682247e-07
115	0x34c6fd8d	3.7064856e-07
116	0x347d412a	2.3586168e-07
117	0x34921467	2.7209464e-07
118	0x32fa1b1e	2.9116162e-08
119	0x35512e0a	7.7925563e-07
120	0x3508ac28	5.091447e-07
121	0x35589339	8.068051e-07
122	0x33bd66e1	8.819712e-08
123	0x33fa00cc	1.1641677e-07
124	0x343eeeed	1.778205e-07
125	0x338be22d	6.513833e-08
126	0x3530586d	6.5693786e-07
127	0x3323d3ef	3.8144147e-08
