results/MoveToGoal2/MoveToGoal/MoveToGoal-3999941.onnx (onnx, 72639 bytes, 7 tensors)

action_model._continuous_distribution.log_sigma f4 [1, 2]
00000000: c2d5 913d 2474 243d
0.07120849 0.040149823

action_model._continuous_distribution.mu.bias f4 [2]
00000000: 1901 943c 1b79 583d
0.01806693 0.05284987

action_model._continuous_distribution.mu.weight f4 [2, 128]
00000000: 17ae 89bd 65c8 4abe 8a01 f5bd c50a 8b3d
00000010: 3573 25be c98b f4bd b79b dcbd f51c 07bd
00000020: bd93 63bd 8875 633d 5a33 29be 1486 9dbb
00000030: dc62 8e3d 80d8 983c d149 babc 6ba6 c2bd
00000040: 286f 3f3e 574e fa3c eb27 853d 0d03 663c
00000050: 8014 2c37 a39b c83c 6b3c 633c 80f5 f23d
00000060: 7209 1b3c e072 813d faf1 4d3c 1c3a 1e3e
00000070: 75a0 cabd 3c38 8dbc 627d 67bd 7490 4ebb
00000080: 3461 2d3d 1421 1cbd fe66 6a3d 0ad4 2ebc
00000090: cfba c7bc 9f89 6a3d e4e9 5c3d 8323 843c
000000a0: 7df2 aebc 8122 0dba 4ff2 b13d ad2b cabb
000000b0: 5685 8cbd 2b96 89bc c0e8 38be e51f 133d
000000c0: 51a9 a63d ec64 e8bd 019e dc3c 59ba 0e3d
000000d0: 9324 1d3d 8810 e8bd 6f6d b2bc 64a0 63b9
000000e0: fdcd f8bc 7f25 8f3d 6458 a1bd 0e8c a23d
000000f0: 3225 d3bc 62e5 0fbe ce55 17bd 903d ccbd
00000100: 4401 09bd 0b63 4cbd 87ea 9cbe fc75 7fbd
00000110: 3364 a1bd 2e4b 78bc 01d2 023c fd84 6cbc
00000120: 7385 f93d 7b91 db3c c562 a4bd 889b 0a3d
00000130: 637f 6c3c fc6f 04be 41ee 2eba 61ac eb3c
00000140: 50e7 f5bd 28fc 963c 2998 97bb cde1 a8bd
00000150: 5756 d7bd 2b4b 26be 0732 523d 24bc 6abd
00000160: f91b 043e 67f3 b4bd 218e 9b3d 74fe 13be
00000170: 991e 023e 2b1e 18be 4926 703d 89f8 283c
00000180: 6b9d 483c bba7 053d 2339 7f3e 59b5 e1bd
00000190: 06d0 8d3d 418b 523e 5f00 0fbe c5b0 8e3d
000001a0: de46 acbd 34a1 053e 0de6 84bd e6fb 8e3d
000001b0: 6a0b 683b 6932 f33d 8e5d e7bb a0e3 bc3c
000001c0: 1a46 7fbd 1acc 70bd 2e5d 293d e69e f1bc
000001d0: 779b 10be df9a 5f3d 4f9f 8bbe 85da 71bc
000001e0: bb1d c53c 2ae8 a73d 5a3e 4bbd c6b3 443d
000001f0: 4bf5 4a3e 0d43 23bb 633e 623d 4315 b8bd
00000200: 08dc 25bd de91 4abd 43ec 013c 8f63 1bbd
00000210: b088 a93d eba9 1d3c e983 d4bc ce07 2cbd
00000220: ddc1 e7bd ae3d c63d e90e 3f3d b2e2 a63d
00000230: c569 1a3e 1ee1 f6bc 86d3 293d 1d51 f7bc
00000240: 8bdc 81bd 687d e3bd f7f3 153d d4ac 04be
00000250: dbf6 1c3e 4a05 233d 9aea 103d 2a63 bc3d
00000260: 7066 fd3d 437c f7bc 0d6d 9c3c d16e 6fbd
00000270: de75 97bd b024 f4bc 45a2 123e 8e14 8d3d
00000280: 209a a1bc 2dbc 033e 05e9 cb3d e3d6 2cbe
00000290: deb0 893d abe0 8cbd 308f 30bd 82b5 28bd
000002a0: b8b7 abbd 5d2f 103d 423e 0abe 194f c5bc
000002b0: 69e3 bf3d 470d c83d c3bf 4abd 0dd0 9dbd
000002c0: a03b 1dbe d1e4 ff3c 80bf 8ebb 4704 0ebe
000002d0: 0207 d3bd 2433 e9bc 28c7 ee3b 878d 70bd
000002e0: c532 f6bc 9711 163d 41c3 0d3e a4cd c03d
000002f0: b9e9 be3c f31b e93d afe9 debd d475 20bd
00000300: ab64 823d db00 a23a 3547 8e3d ef41 f93a
00000310: 98b5 6abb a867 66bd 076e ce3d 9b2a 20bd
00000320: d3f2 8bbd 6f92 69ba 6c29 223e ca7e b53d
00000330: 40ef d1bd 5ff5 583d fd75 f8bd 873e acbd
00000340: 9107 613d 68c5 913d 7afd 18be f262 c2bc
00000350: c437 48bd d0b7 b73c 8a30 b4bd c782 043e
00000360: 68fb 9abc 851d 7bbd 686f 913c b09f 813c
00000370: a04f 103d 6f3e 03bd 8333 13bd 477d a73d
00000380: e0b4 f6bc 6a09 9dbd a0b7 dc3c 2ed5 9ebd
00000390: a949 c0bc 36f8 513d 1f5c a13d 2033 84bc
000003a0: b7e3 193d cce0 cabd 5a0e 8f3c 4f67 46bd
000003b0: f7fc 2a3d d580 d13c 788f 693d bd8c eabd
000003c0: ac62 5bbc 9984 8a3d 4e9d 78ba 1677 94bd
000003d0: e836 953d c131 9fbc 093e cfbc 016c 87bd
000003e0: 035d 953c 4150 063e 17de c4bc 77e6 543d
000003f0: 01f3 763c f88e 09bd 49f9 8e3d 46de 413c
-0.06722658 -0.19803007 -0.11963184 0.067891635 -0.16157229 -0.119407244 -0.10771888 -0.0329866
-0.055560816 0.05553201 -0.16523495 -0.004807243 0.0695245 0.018657923 -0.022740277 -0.09504398
0.18694746 0.030554933 0.065017544 0.014038813 1.0256772e-05 0.024488276 0.013869385 0.11863232
0.009462701 0.06320739 0.012569899 0.15451854 -0.09893886 -0.017238729 -0.05651606 -0.0031519206
0.04232903 -0.038117483 0.057227127 -0.010670671 -0.02438107 0.057260152 0.053933993 0.016130215
-0.021355862 -0.00053838646 0.08688795 -0.0061697573 -0.06861369 -0.016795238 -0.18057537 0.03591909
0.08137763 -0.11347374 0.02693081 0.034845684 0.038364958 -0.11331278 -0.021780698 -0.00021708157
-0.03037166 0.06989574 -0.07878187 0.079368696 -0.025774572 -0.14052346 -0.036947064 -0.099726796
-0.033448473 -0.049899142 -0.3064768 -0.062368378 -0.078804396 -0.015154643 0.007984639 -0.014436004
0.121836565 0.026802769 -0.08026651 0.033839732 0.014434668 -0.12933344 -0.0006673076 0.02876872
-0.1200701 0.018430784 -0.004626293 -0.08246193 -0.10514515 -0.16239612 0.05131724 -0.05730833
0.12901296 -0.08835488 0.07595468 -0.14452535 0.12706985 -0.14855258 0.05863026 0.010313162
0.012244563 0.032630663 0.2492414 -0.110209174 0.06924443 0.20560934 -0.13964985 0.0696731
-0.08411954 0.13049775 -0.06489191 0.069816396 0.0035407194 0.11874849 -0.007060713 0.023057759
-0.062322713 -0.058788396 0.04134863 -0.029494714 -0.14121805 0.054591056 -0.2726998 -0.014761572
0.024062028 0.08198579 -0.04962001 0.048023008 0.19820134 -0.0024911792 0.055235278 -0.0898843
-0.04049304 -0.049455516 0.007929864 -0.037936743 0.08278024 0.009623031 -0.025941806 -0.04199963
-0.11316273 0.09679733 0.04664508 0.081487074 0.1507941 -0.030136641 0.04146149 -0.030190045
-0.06340893 -0.11107904 0.036609616 -0.12956554 0.15328543 0.039799966 0.035379983 0.091986015
0.12373054 -0.03021062 0.019094968 -0.058455292 -0.07395528 -0.02980265 0.14319713 0.06888686
-0.019726813 0.12864752 0.09956554 -0.16878848 0.06723188 -0.068787895 -0.043105304 -0.041188724
-0.08384651 0.03520142 -0.13500312 -0.024085568 0.09369547 0.097681575 -0.049499284 -0.07705698
-0.15354776 0.031237038 -0.0043563247 -0.13868819 -0.10304071 -0.028466769 0.007286925 -0.05872872
-0.030053506 0.03663787 0.13844015 0.09414223 0.023304807 0.11382284 -0.10884415 -0.03917487
0.06366857 0.0012359874 0.069471754 0.0019016842 -0.0035813805 -0.056251198 0.1007958 -0.03910313
-0.068334244 -0.0008910065 0.15836114 0.08862074 -0.102507114 0.05296838 -0.121318795 -0.08410364
0.054938857 0.071177304 -0.14940444 -0.023728821 -0.048881307 0.022426516 -0.087983206 0.12940513
-0.018918708 -0.06130745 0.017753318 0.015823215 0.035232186 -0.032041963 -0.035937797 0.08178192
-0.030115545 -0.07667811 0.026943028 -0.077555045 -0.023472624 0.051262103 0.07878899 -0.01613766
0.03757068 -0.09906158 0.017462898 -0.048438367 0.041745152 0.025574127 0.057021588 -0.11452625
-0.013390224 0.06763572 -0.00094838894 -0.07249276 0.07285863 -0.019432904 -0.025298135 -0.06612397
0.018232828 0.13116552 -0.024031682 0.0519776 0.015072585 -0.03358361 0.06981141 0.011832779

network_body._body_endoder.seq_layers.0.bias f4 [128]
00000000: 993f 863d 34c9 4c3c 9893 1cbc 0f14 053b
00000010: 8651 bb3d 62f1 c1bd 64df 4e3d 8f76 453d
00000020: 15dd 9a3d 8cdd d3bc 751e 8fbc 5a3f bbbd
00000030: daf4 24be b0c5 dc3d eac9 3cbd 23e1 d0bc
00000040: ff86 f2bc 9cf6 2f3e b6ee 393d b57f 9c3c
00000050: 2a4e 073e 3de0 093e f3c9 09bd bc18 57bd
00000060: f0d7 903d 5086 b73b f559 e23d 7c48 d03d
00000070: c3f1 d63d f59a da3d 4d97 afbd 96a4 5cbe
00000080: 0d6c 22be 3976 afbd 8a67 613a 3bc6 ccbd
00000090: 81b8 cabd 5784 cbbd f6a6 a4bb 558e 6c3e
000000a0: 05fb 08bd d224 cc3c 64df 263d b976 af3c
000000b0: dc6c 303e 4f24 293d 27fc 10bc bfb2 48bb
000000c0: 75ae ad3c 9a9a 063d d2be a43d e043 d13d
000000d0: 84a2 96bd 8657 99bd a848 a53b bd31 27be
000000e0: dfcd f9bd a53d aebd 8660 b0bd 241b 673c
000000f0: 6894 7f3d f613 0bbe 4008 e73c 3b41 143e
00000100: f276 e8bb 0713 a63d 7fb3 debc 1506 47be
00000110: 2986 33bd 534d d53d 8138 cfbb b937 6b3d
00000120: 2f03 9fb7 f1f2 15be 2539 39bd 63d8 a03c
00000130: b155 82bd 71bb 923d 660f 3bbd 6c3b af3d
00000140: 20ea 483d e251 903c 2b5a 023e 4df8 bdbd
00000150: 5fd2 953d 2065 a73d 0f5d 94bc e9ee af3c
00000160: 0a94 063e 5256 f03c cf95 b33d ce86 a93d
00000170: 3bb2 353d 85da 843c 644c 57bc 6969 8abd
00000180: 054c f63d a0a7 123e ff05 ba3d ef54 623d
00000190: 5dd4 0abe 5d9f 173d 59a5 29be 7f86 993d
000001a0: 62a0 543d 99f5 95bc 7e64 a7bb 8c02 ca3d
000001b0: c45c 433d e715 21bd 1060 08bd 8942 e73c
000001c0: af71 0fbe ada5 313e f3b7 203b 4ad0 c23c
000001d0: 3a60 b33d 669d 153c c83e 80bd a2c2 d1bc
000001e0: befb bdbd 3f8e 7dba 0afe 53be 3b88 84bd
000001f0: 3823 edbd 71f6 acbd 4c5b 2bbb 4a4c 643c
0.06555099 0.012499142 -0.0095566735 0.0020306145 0.09146409 -0.09469868 0.05050601 0.04820877
0.07561699 -0.025862478 -0.017470578 -0.09142943 -0.16109028 0.107798934 -0.046090998 -0.025497979
-0.029605387 0.17183918 0.045393668 0.019103864 0.13213411 0.13464446 -0.03363986 -0.052513823
0.07072437 0.005600728 0.11052314 0.10170075 0.10495331 0.10674087 -0.0857378 -0.2154716
-0.1586153 -0.08567471 0.00085984974 -0.09998747 -0.098984726 -0.09937351 -0.005024786 0.2310117
-0.033442516 0.024919901 0.040740386 0.021418916 0.17229027 0.041294392 -0.00884918 -0.003062412
0.021201352 0.032862283 0.080442086 0.10218024 -0.07355216 -0.07487397 0.0050440617 -0.16327567
-0.1219747 -0.085078515 -0.086121604 0.014105592 0.06239739 -0.13581833 0.028202176 0.14478008
-0.0070942575 0.08109098 -0.0271852 -0.19435914 -0.043829117 0.10415139 -0.0063238745 0.05742619
-1.895576e-05 -0.14643456 -0.045220513 0.019634431 -0.063640006 0.07164658 -0.045668982 0.08556256
0.049051404 0.01761717 0.12729709 -0.09275875 0.07315516 0.08173585 -0.01811078 0.021476226
0.1314241 0.029338036 0.08768808 0.08277665 0.044359427 0.01621748 -0.013140772 -0.06758387
0.12026218 0.14321756 0.09083175 0.05525678 -0.13557573 0.037017215 -0.16566981 0.07496356
0.051910765 -0.018305587 -0.005108415 0.09863767 0.04769589 -0.03932753 -0.033294737 0.028229969
-0.1400821 0.17348357 0.0024523705 0.02378096 0.08758588 0.009131765 -0.062619746 -0.025605503
-0.09276532 -0.00096723804 -0.20702377 -0.064712964 -0.11578983 -0.084454425 -0.0026146946 0.013934204

network_body._body_endoder.seq_layers.0.weight f4 [128, 6]
00000000: 12cd 7abb 3331 353e 76c2 f73e 6508 94bf
00000010: f160 d33e d30f adbe a545 abbe d538 b73e
00000020: bfe7 c8be 7e84 e13e 578c 53bf 2344 9e3e
00000030: 46bf 4fbd 43db 0a3f b3c7 99be b9e1 4abc
00000040: 72a9 2f3e 527e 093d cba8 c63d ff90 d2be
00000050: 74fa a43e eec4 48bf a8b3 89be f118 83bf
00000060: 2081 0b3f b97e 023f 8f22 413f 9133 04bf
00000070: c920 e23e 58c4 dbbe d4be eebe 9fca 0a3e
00000080: 4464 1a3e 4b58 513f 1f78 2a3e b835 40be
00000090: 9de5 6a3f f735 e3be a4bf f23d d336 2dbe
000000a0: 3081 acbd c11a a7bd 9f4e f4be af1e 5d3e
000000b0: 1510 223f 0371 6a3d 29e3 433d b9a8 343e
000000c0: a657 18be 9268 183e 60be 453f 0bb5 ad3d
000000d0: 8338 dabe 6c0d f03e 46c1 41be 8204 fb3e
000000e0: 9ca4 943e b26b 423f f6e3 6ebc 1400 f6be
000000f0: 82ba 833e afb5 ba3e e7dc 873e f8ec 0abf
00000100: 7053 00bf 089b 423e d0ea 9a3e a670 0b3f
00000110: eb21 353e 985a 21bf 5285 513d c08c 263e
00000120: 5826 cfbe 407c e9be 9c8f 89be 0b45 3a3f
00000130: baca a43d 5ada 1abe 60f7 1fbf dc8c 393f
00000140: d7ab 73be a85f ce3e a038 dfbd 5985 d33e
00000150: 40c3 98bd eb83 49bd ebce b83e 8b13 2fbf
00000160: eff9 02bf 698b 0a3f 7fb8 90be a616 113e
00000170: f696 4d3e 00e9 8d3e e024 9e3d ea36 d53e
00000180: 9378 dc3e 4d69 563d 1a22 b33d 18eb 9cbe
00000190: d358 c13e 1d54 8b3f 4874 d6bd fe9d e13d
000001a0: 2103 08bf 9b5c 713d 7972 20bf a479 b53e
000001b0: 8d11 d7bd e84e 0bbe 7de8 983e 98a6 d0bc
000001c0: 98d7 1abd e570 b33e d26c 263e 00e0 4e3f
000001d0: ac0a ee3e adda 233f fadd 633e aa35 f4be
000001e0: dc26 033f be77 9c3e 3c0d 113c bd8d cb3e
000001f0: 2303 7bbe c226 033e 1966 393f 068e ffbe
00000200: 19de fd3e 6a58 463f 2c6c 54b9 155a 50be
00000210: dced c5be fd2d 943e 5325 cfbc 1db4 e5bc
00000220: ea81 8dbd e991 16bf d959 3e3d 98d7 29bf
00000230: d206 143f a688 1b3f d5f5 463d a8d0 a73e
00000240: dbba 54bf bc42 d63e d751 bbbe de9c a83e
00000250: 2e31 e5be ba07 893e 0fdc 343b d078 d63c
00000260: b583 f73e c102 e6bd 5ee0 2e3e e7bf 13be
00000270: d65b 56bf 8d04 ef3c c311 32bf 27d6 923e
00000280: 4df5 363f da03 063e ded7 33bf 650f 2c3f
00000290: 0ade a3be 9281 703d c4f1 76be 0e17 20bc
000002a0: 9c66 283f 2c7a 46be 612f 123e c48f d03a
000002b0: c711 fb3e db95 533e 9142 ecbe f94c 313f
000002c0: 9451 2bbf c56f 333f 564c e63e 15a5 c83e
000002d0: 65aa d33d 9fcb 513e 326a dabe ce64 2abf
000002e0: d400 bbbe 88d7 60bf f7b9 4a3c e594 a53e
000002f0: 62fb 133e 6872 00bf b4ce 02be 51a1 b8be
00000300: 63c5 66be 136b 5e3c eb9a 6abd 8d8f c63e
00000310: dfc4 39bf cfc5 163d 7976 1e3e f0d6 22be
00000320: de99 403e 6d6f ecbe 5501 163e 0ce2 02bf
00000330: 5442 ad3c b1c7 f0bc c7db 8e3e 1234 f0bd
00000340: ae09 2bbe 41c8 943e c15c d13d 8e70 fbbc
00000350: 2231 203e 19fd 3c3c e94a f8bd 0824 823d
00000360: 51da af3e a614 e53d 1cb3 203f 2f41 28bf
00000370: b9e1 273f 540d 2b3f bb31 bf3c c9c5 97be
00000380: 8c00 82be 9d92 27bf ca52 5e3e ef98 463d
00000390: 16e2 27be 95f9 dabd ee6a a0be dd6a 913e
000003a0: 94db 2cbd acbc b9be a874 b53e e63d a03e
000003b0: 27c6 76bf 36c5 513e 2415 71be 3d2a 94be
000003c0: a08c 09bf 0064 debd f658 34bc 595a a0be
000003d0: 80db b93e 73c2 97be 0714 a83e 6868 52be
000003e0: b0a5 ab3e 3b0d 61bc 7507 873e a702 81be
000003f0: 9659 ac3e 7cbc 873e 883e 3dbf 4d6c 59bf
-0.0038269204 0.1769455 0.4839055 -1.1565062 0.41284898 -0.33801135 -0.33451572 0.35785547
-0.39239308 0.44046396 -0.82636017 0.3091136 -0.050719522 0.54240817 -0.3003517 -0.012382918
0.17154482 0.033567734 0.097001635 -0.41126248 0.3222233 -0.7842549 -0.2689488 -1.0241987
0.54493904 0.50974613 0.7544336 -0.51641184 0.44165638 -0.42923236 -0.46629965 0.13553856
0.15077311 0.8177535 0.16647385 -0.18770492 0.9175661 -0.4437711 0.11852959 -0.16915445
-0.08423078 -0.081594 -0.47716233 0.21593736 0.6330579 0.057236683 0.04782406 0.17642488
-0.14877185 0.1488364 0.77243614 0.08481797 -0.4262124 0.4688524 -0.18921384 0.49026877
0.29031837 0.7594558 -0.014580717 -0.48046935 0.25728232 0.3646674 0.26535723 -0.54267836
-0.50127316 0.19004452 0.30257273 0.5446876 0.1768872 -0.6302886 0.051152535 0.1626463
-0.4045894 -0.45602608 -0.26867378 0.727616 0.080464795 -0.15122357 -0.6248684 0.7248056
-0.2379602 0.40307355 -0.10899472 0.41312674 -0.07459116 -0.049198072 0.36095366 -0.68389195
-0.5116262 0.54118973 -0.2826576 0.14168796 0.20077118 0.27716827 0.07721877 0.4164346
0.4306074 0.052346516 0.08746739 -0.30648112 0.3776308 1.0885044 -0.10471398 0.11016463
-0.53129774 0.058926206 -0.6267467 0.35444367 -0.105013944 -0.13604319 0.29864874 -0.025470063
-0.037803262 0.3504707 0.16252449 0.80810547 0.46492517 0.6400555 0.22252646 -0.47697192
0.5123117 0.30560106 0.008853253 0.39756575 -0.24512915 0.12807754 0.72421414 -0.49913043
0.4958351 0.7747866 -0.00020258193 -0.20346864 -0.38658035 0.28941336 -0.025286352 -0.028039986
-0.06909545 -0.5881639 0.046472404 -0.66344595 0.57822907 0.60755384 0.048574287 0.3277638
-0.8309762 0.4184779 -0.36585876 0.3293218 -0.44764084 0.26763707 0.0027596985 0.026180655
0.48342672 -0.11230994 0.17077777 -0.14428674 -0.8373388 0.029176975 -0.6955835 0.2867901
0.7146805 0.13087407 -0.7025126 0.6721099 -0.3200534 0.058717318 -0.24115664 -0.009771122
0.6578157 -0.19382542 0.14275886 0.0015911986 0.49037 0.20662634 -0.46144536 0.69258076
-0.66921353 0.7009242 0.44980115 0.39188448 0.103352346 0.20487832 -0.42659146 -0.66560066
-0.3652407 -0.87828875 0.012373439 0.3234016 0.14451364 -0.5017457 -0.12774163 -0.36060575
-0.22536235 0.013575333 -0.057276648 0.38781396 -0.72566026 0.03680974 0.15474881 -0.15902305
0.18808696 -0.4617876 0.14648946 -0.5112617 0.021149792 -0.029392095 0.27902052 -0.117286816
-0.16702911 0.29059032 0.102227695 -0.030693319 0.15643743 0.011534953 -0.12123663 0.06354529
0.3434625 0.11185579 0.627733 -0.6572446 0.655788 0.6681721 0.023339143 -0.29643086
-0.25391042 -0.6545809 0.21711269 0.048485693 -0.16394839 -0.10692135 -0.3133158 0.28401843
-0.042201594 -0.36276758 0.35440564 0.31297225 -0.96396106 0.20485386 -0.23543221 -0.28938475
-0.537302 -0.10858917 -0.011007538 -0.3131893 0.36300278 -0.2964054 0.3282778 -0.2054764
0.33524847 -0.013736065 0.26372877 -0.25197336 0.336621 0.2651099 -0.7392354 -0.8493088

network_body._body_endoder.seq_layers.2.bias f4 [128]
00000000: ad8b 043d 681c 053e f3e4 763d 2d2e 42bd
00000010: 349f 363e 8d22 0c3d 58f9 923d c0fc a9bc
00000020: 2cde e33c e51d f03d c3c4 253e a1c9 043d
00000030: b4d0 f93d 4a6d 0ebd face 84bc a633 a13d
00000040: 6314 073e 9c26 16bc 4052 5d3c 50a9 b8bd
00000050: a689 473e 03e8 423d 634b 373d 26cd 553e
00000060: de2d b43d 7057 4d3d 06a5 81bc f2bd d63d
00000070: 7b83 9c3c a31a 54bd 5a8c 033e 5bd3 9e3d
00000080: 79ad 8c3d 96b1 353e 1e3f 033e 56e2 ad3d
00000090: 5560 e43d 7d14 fe3a 32b6 adbc ea9f 5fbd
000000a0: b1d3 94bc 57e9 393d d294 b43d a8f7 3dbd
000000b0: ef19 033e fdf4 ad3d 57c3 c03d 6c35 0bbd
000000c0: 28a4 6d3d f239 a43d bd92 3abc 7f07 3c3d
000000d0: 2bda 1f3d 4fa0 8f3d 9489 4bbd edd8 83bd
000000e0: ac62 2bbd 4229 c43d 3115 1a3e ba06 103e
000000f0: abed 3c3c 84e7 f53d eedd 833c c701 013d
00000100: 1a7a f13c fc90 ac3c 2d49 613e 3c9f d8bc
00000110: bb6e 7a3d 20c1 2dbc abee f43d 665f debc
00000120: 754e 2d3d df34 42bb 3c69 fd3d 578b ad3d
00000130: d8e2 223c 4981 ac3d 54c8 563d 0a14 84bb
00000140: 2415 f53d de51 a93d d882 4d3d 16fa 223d
00000150: 8686 da3c 97ae c93d 87ce 133c ba23 1f3e
00000160: 0b21 363d f30e de3d 6c68 223d 63a4 4a3d
00000170: e606 b83d 00b0 193d 9e42 883c a241 ce3d
00000180: 42f2 f6bc 58f0 20bd e0a9 773e d3a2 153d
00000190: 239f a83d adec 473e 1bb6 053e 4349 083d
000001a0: d823 d33d 40b7 b43d 2096 4e3d fedf 16bd
000001b0: 7da9 1a3d 388a bf3d 751d 303d d50b 3d3d
000001c0: 40f7 87bd 43df 9e3d ae1b d33c cf06 2abc
000001d0: 8cca d23d fb4a 593d be63 453e 0bee 9abc
000001e0: 089f a13d 1352 183e aa0c 373c 442f b43d
000001f0: 8511 443e 0ae7 73bc d21d b93d 5034 d13d
0.032359768 0.12999117 0.060276937 -0.047407318 0.17834169 0.034212638 0.07176465 -0.020750403
0.0278159 0.11724452 0.1618834 0.03241885 0.1219801 -0.034772195 -0.016211975 0.07871179
0.1319137 -0.009164479 0.013508379 -0.09016669 0.19486102 0.047584545 0.04474963 0.20879039
0.08797811 0.050132215 -0.01582576 0.10485448 0.019105664 -0.051783215 0.12846509 0.077551566
0.06869025 0.17743525 0.12817046 0.08490436 0.111511864 0.0019384768 -0.021205042 -0.054595865
-0.018167349 0.045388546 0.08817448 -0.04637876 0.12802862 0.084939934 0.09412258 -0.033986494
0.05801788 0.08018865 -0.011387524 0.045905586 0.03902642 0.07012998 -0.04969175 -0.0643786
-0.041842148 0.09578182 0.15047146 0.14065066 0.011531274 0.12007049 0.016097035 0.031495836
0.029477168 0.021065228 0.2200057 -0.026443116 0.061140757 -0.010605127 0.11959585 -0.027145099
0.04231115 -0.0029633564 0.123735875 0.084738426 0.009941779 0.08423097 0.05243714 -0.004030709
0.11966923 0.08267568 0.05017361 0.03978928 0.026675474 0.098477535 0.009021408 0.15540972
0.044465106 0.10842695 0.039650366 0.049473178 0.08985691 0.037521362 0.016633328 0.10071112
-0.030144814 -0.03929171 0.24185896 0.036532234 0.08233478 0.19523878 0.13057749 0.033272993
0.10309571 0.08824015 0.05043614 -0.03683471 0.037759293 0.09352535 0.042996842 0.046153862
-0.06638956 0.077574275 0.025770035 -0.0103776 0.10292539 0.053050023 0.1927633 -0.018912336
0.07891661 0.14875059 0.011172453 0.08798078 0.19147308 -0.014886627 0.09038891 0.10215056

network_body._body_endoder.seq_layers.2.weight f4 [128, 128]
00000000: b0ed 3f3e 3709 78bd c97c debc f687 b5bd
00000010: 7d44 a63c c259 37be d126 a5bc 698c 163e
00000020: 4654 183a 619f b0bc 133e 26bd c81e b9bd
00000030: eff4 d4bd 3b40 92be f349 93bd 6afd 95bd
00000040: f0a3 8e3c bc90 c9bd 9ec9 abbd abcd ba3d
00000050: 13f1 dc3d 60aa 903d 6f57 cabd 69a2 903c
00000060: 3fdc c8bc 7c92 843d 858d 40bc d730 d0bd
00000070: b410 363d 7120 9abe c768 883d 0992 b5bd
00000080: 5b1a f0bd 8e01 0a3e 7d44 41bd 0994 6ebd
00000090: 3b6f fc3d 1666 62bd 5499 94bd 6697 a33d
000000a0: 2dc7 a4bc 5e23 373e 0e03 98bc e67e 93b9
000000b0: 483e 6cbe f8c3 03bc 2218 693e 76c3 4abe
000000c0: bba8 5abd 0dd7 28bd d84e a13c bd05 30be
000000d0: e457 5e3e 7b17 aabd 7c5e f03a 7b4d 2d3d
000000e0: 2a88 fa3d e8b4 88bc 3328 403d 66e9 06bd
000000f0: 9e97 853c e30e c03d a61a aabd 8be2 6ebd
00000100: f37c 5abd ffc3 e1bc 3ed3 ed3c f21f 88bd
00000110: 1fdd 043e 523d 003e df49 273d 2431 393d
00000120: a29f 18bc 476b 933d 556f 083e c2a5 5dbe
00000130: ba66 b0bd 9d44 1dbd 2d38 193d 54df 7fbd
00000140: c6fc fb3d 3c1c 01bd 19b1 55be 0d7e c63c
00000150: 2641 a7bc 8cb5 a83c 96e6 cb3d ec9c a3bd
00000160: b1ca 03be 3d7a 1abd 926d 87be 5be3 a4bd
00000170: 50a4 893d 8655 6abc 8a53 8b3d bb6f cabd
00000180: 223a 23be c7b6 c63d 53ef de3c e806 c83d
00000190: 24f5 563d 0b03 383d d06f 2c3d 2b10 a0bd
000001a0: a32f 173a 5914 f23c c997 6b3d 5378 03be
000001b0: 9e6c a4bd b905 a03d 5a1f 943a cf63 dabd
000001c0: 182b 07bd 6900 94ba a741 8b3d bc16 a3bd
000001d0: 8ec8 323d c9ec 153b 8ff8 863d a868 9f3d
000001e0: 506c 04be cb90 30be 6088 9cbd 6aec 61be
000001f0: ad1f 9a3d a762 62bd b329 94bb 516e c33d
00000200: 7992 5fbd 3444 bdbe 2d03 97bd a9ca 8e3d
00000210: d8f3 fc3d 1ab2 d0bd 47b4 a03d 5f8d a63d
00000220: 33af 08bd fa1d 353e ca2c 98bd df2c fdbd
00000230: 7d40 bfbd fd7c 03be c9b4 09be 91e9 04be
00000240: d9c2 b1bc 5bd8 ccbd 5ce5 273e 20f9 843d
00000250: 1e67 583d 1bdb 063c aba9 9f3b dbcc 893d
00000260: b59f 47be 6cd0 e4bd ed09 edbd a747 a3bd
00000270: a966 c9bc 09de 1fbe b622 86bc a297 48bb
00000280: dac8 51be 4b96 cebd 1853 4b3e a62f 83bd
00000290: 40c5 70bc e54f 4abe e859 393d 6a15 243c
000002a0: a9ac 44bc ba2f 9c3d c469 963d 604a 913d
000002b0: 353c 56be 23a4 0d3e 81d7 4ebe bd05 3a3d
000002c0: 0df6 dabd a522 503d 3293 01bd ca7f b93c
000002d0: ff65 5dbd bc22 1fbd d5b7 38bd c9b7 9cbd
000002e0: 3036 2bbe d7fa a7bd 6f6a c83d 74c2 35bd
000002f0: 8cef dcbd 6de4 9abd 831f 3b3d 9ab9 b3bd
00000300: 5938 d73c ee5f 143d 48dd 00be 305d 5bbe
00000310: 32f1 9a3c ad43 8c3d 62db 89bc 2ac7 18bd
00000320: 4576 4a3c f884 2e3d 47cb 8e3c e6b4 60be
00000330: a15a b9bc 37e6 6c3d ac1f c33d d3ba 0fbe
00000340: eb87 aebc 8c62 d03d e79f 0ebc 40ba 9f3d
00000350: 91fe 683d ecfa 08be e5b7 aa3c 0595 e6bd
00000360: bca1 ff3d f859 aebc 11a8 4c3e 76ce 93bd
00000370: 161a 7cbd 7fc0 9bbd 964d ffbd 1d8b 8cbe
00000380: d98d 79bd e392 103e cda9 ce3c 58c0 7cbc
00000390: bf12 13be 38eb eebd e5b9 a8bd fd8c f23c
000003a0: cbd8 00bd c71b a9be f772 f83d 7689 ebbc
000003b0: 9039 ab3b 652a 073d c0af 35bc d958 d6bd
000003c0: 8e15 5fbd c44e 6cbd 4353 86bd 0d63 b23c
000003d0: e681 1fbd d11a 87ba 0aa0 f9bd edab dc3c
000003e0: 2c74 f7bd 18c6 b4bd 31be b9bc 7a88 0bbe
000003f0: 3d31 823b e591 babd 9ab4 a8bc dad8 e53d
0.18743014 -0.060555663 -0.027159112 -0.08863823 0.02029633 -0.17905334 -0.02016011 0.14702
0.00058108976 -0.021560373 -0.040586542 -0.09039074 -0.1039828 -0.2856463 -0.07191839 -0.073237255
0.017412156 -0.09842059 -0.08388065 0.09121259 0.10788169 0.070637465 -0.09879958 0.017655568
-0.024519084 0.06473252 -0.011752491 -0.101655655 0.044449523 -0.30102876 0.0666061 -0.088657446
-0.11723777 0.13477156 -0.047184456 -0.058246646 0.12325903 -0.055273138 -0.072558075 0.07987861
-0.020114506 0.17884585 -0.018556144 -0.00028132572 -0.23070633 -0.008042328 0.22763112 -0.19801125
-0.05338357 -0.041220713 0.019690916 -0.17189689 0.21713215 -0.0830526 0.0018338705 0.04231022
0.122330025 -0.016687825 0.046913337 -0.03293743 0.016307648 0.093778394 -0.08305864 -0.058321517
-0.053341817 -0.027559279 0.029031392 -0.06646718 0.12974976 0.12523392 0.040841933 0.04521288
-0.009315403 0.07198196 0.1332372 -0.21645263 -0.086133435 -0.038395513 0.03740709 -0.06246884
0.12304072 -0.031521067 -0.20868339 0.024230028 -0.020416807 0.02059438 0.0995609 -0.07988915
-0.1287029 -0.03771423 -0.26450783 -0.08051177 0.06720793 -0.014302617 0.06803043 -0.09884592
-0.15940145 0.09702831 0.027213728 0.09766942 0.052479878 0.044924777 0.04209882 -0.07815584
0.00057672913 0.029550718 0.0575178 -0.12838869 -0.080285296 0.078135915 0.0011300847 -0.10663568
-0.03300008 -0.0011291626 0.067996316 -0.079633206 0.043648295 0.002287673 0.065903775 0.077836335
-0.12931943 -0.17242734 -0.07643199 -0.22062841 0.07525573 -0.055269863 -0.0045215725 0.095425256
-0.054583047 -0.36966097 -0.073736526 0.06972248 0.12351197 -0.1019022 0.07846885 0.08132433
-0.033370208 0.17687216 -0.07430418 -0.12362074 -0.09338472 -0.12840648 -0.1344787 -0.12979724
-0.021699356 -0.10002204 0.16396087 0.06492829 0.052832715 0.00823095 0.004872521 0.06728526
-0.19494517 -0.11172566 -0.11574159 -0.07972651 -0.024585085 -0.15612043 -0.016373973 -0.0030607958
-0.20486775 -0.1008726 0.19855917 -0.064055726 -0.014695466 -0.1975704 0.045251757 0.010014871
-0.012004056 0.076262906 0.07344392 0.07094264 -0.20921405 0.13832144 -0.20199396 0.04541563
-0.10691462 0.05081429 -0.031634517 0.022643942 -0.05405235 -0.038851485 -0.04509719 -0.07652242
-0.1671989 -0.08202141 0.097859256 -0.044374898 -0.107878774 -0.075631 0.04568435 -0.08775635
0.026271986 0.0362243 -0.12584412 -0.21422267 0.018913839 0.06848846 -0.016828243 -0.037299313
0.012357299 0.042607278 0.017430915 -0.21944007 -0.022626223 0.057836737 0.09527525 -0.14036112
-0.021305045 0.10175046 -0.008705116 0.07799196 0.0568834 -0.13376969 0.02083964 -0.11258892
0.1248202 -0.021283135 0.19985987 -0.07217114 -0.061548315 -0.07605075 -0.1246597 -0.27449885
-0.060926292 0.14118533 0.025227452 -0.015426718 -0.1436262 -0.11665958 -0.082385816 0.029608244
-0.03145675 -0.33029005 0.12131303 -0.02875207 0.005225368 0.032999415 -0.011089265 -0.10466165
-0.054463916 -0.057692304 -0.0655885 0.021775747 -0.03894224 -0.0010307675 -0.12188728 0.02693745
-0.12082705 -0.08826846 -0.022673698 -0.1362628 0.003973155 -0.091098584 -0.02059393 0.11223002
