results/Test2/Test2.onnx (onnx, 71103 bytes, 7 tensors)

action_model._continuous_distribution.log_sigma f4 [1, 2]
0	0x3c6a7a57	0.014311395
1	0xbcfff40c	-0.0312443

action_model._continuous_distribution.mu.bias f4 [2]
0	0xbcd07bee	-0.02544972
1	0x3d9f9772	0.07792558

action_model._continuous_distribution.mu.weight f4 [2, 128]
0	0xbb60d4c7	-0.0034306513
1	0x3bacc0ee	0.0052720224
2	0x3c68eec6	0.014217084
3	0x3cdd08b6	0.026981693
4	0xbd11ff28	-0.035643727
5	0xbd19e8a5	-0.037575383
6	0x3c3f5392	0.01167764
7	0xb98fb253	-0.00027407947
8	0x3bdd13f8	0.006746765
9	0x3c7372cf	0.0148589155
10	0xbcdbaf1c	-0.026816897
11	0xbc99ee51	-0.018790396
12	0x3d2c9e15	0.042142946
13	0xbd58b0bd	-0.052902926
14	0xbdb28ee0	-0.087186575
15	0x3b34f9d5	0.0027614732
16	0xbb4f1959	-0.0031600802
17	0xbd100695	-0.035162527
18	0xbc3e29b7	-0.011606625
19	0xbdbb88a5	-0.09156922
20	0x3c8ae63f	0.016955493
21	0xbda7188e	-0.0815898
22	0x3ca5f153	0.020256674
23	0x3cc7f0cf	0.024406819
24	0xbc547e07	-0.0129695
25	0xbd07f257	-0.033190098
26	0xbd9b0272	-0.07568826
27	0x3d294b02	0.0413313
28	0x3c879f9c	0.0165556
29	0x3cb4c8fb	0.022068491
30	0xbc6f4e34	-0.014606047
31	0xbc3850c3	-0.011249724
32	0x3b28804f	0.0025711244
33	0x3bc0cbc9	0.005883668
34	0x3d3e48a4	0.046455994
35	0x3cbb4eae	0.022864666
36	0x3cda5c15	0.026655236
37	0x3d0fc161	0.03509653
38	0xbd15766a	-0.03648988
39	0xbdaa554e	-0.08317052
40	0xba8c2408	-0.001069189
41	0xbd6733ef	-0.056446012
42	0x3c7a3a0a	0.015272627
43	0x3d0a6b6b	0.033793848
44	0xbc3cec9f	-0.011531024
45	0x3c2686c5	0.0101639675
46	0xbd35971a	-0.044333555
47	0xbc0a93c4	-0.008458082
48	0x3c95a6be	0.018267985
49	0xbd815adc	-0.06316158
50	0xbd246337	-0.04013368
51	0x3ca9c10b	0.020721933
52	0xbc961c9c	-0.018324189
53	0x3c9a9611	0.018870385
54	0xbd0e489e	-0.034737222
55	0x3d1f369b	0.038870435
56	0xbd18ee25	-0.037336487
57	0x3ce939eb	0.02847
58	0x3bbb7120	0.0057202727
59	0x3d0ebc7a	0.034847714
60	0xbd9d88e1	-0.07692123
61	0xbd06a7e6	-0.032874964
62	0x3da765f3	0.08173742
63	0xbd7e916a	-0.062150396
64	0x3d0f1dcb	0.034940522
65	0xbd475ecc	-0.04867439
66	0xbd310fb6	-0.043227874
67	0x3dae6c72	0.08516778
68	0xbc345936	-0.011007598
69	0xbd304a3d	-0.04303955
70	0xba21c1f6	-0.0006170565
71	0x3d14f88f	0.036369856
72	0x3ccb47ce	0.024814513
73	0xbd6ef4cb	-0.05833892
74	0x3cc2c5ff	0.023776053
75	0x3caf8d5e	0.021429714
76	0xbd5b587b	-0.05355118
77	0xbd59f9d6	-0.053216778
78	0x3c8426d3	0.016131794
79	0x3cbc8a49	0.023015158
80	0xbd3a3bf6	-0.04546734
81	0xbbb914a5	-0.005648213
82	0x3c774ac9	0.015093514
83	0x3caf6b6f	0.021413533
84	0xbdb71877	-0.08940213
85	0xbd6ed476	-0.058308087
86	0x3c425889	0.011861929
87	0xbd14f8b3	-0.03636999
88	0x3c5afef5	0.013366451
89	0x3d8d643a	0.06903882
90	0x3caea63c	0.021319501
91	0xbdb33fa8	-0.08752376
92	0xbcce8149	-0.025208132
93	0xbcf81470	-0.030283183
94	0xbdb9baae	-0.090688094
95	0x3b7a6160	0.0038205013
96	0xbd875c2e	-0.06609379
97	0xbcc9bdb2	-0.024626587
98	0x3c343a80	0.011000276
99	0x3d98587d	0.07438753
100	0xbc07f21a	-0.008297468
101	0xbd8d1241	-0.06888247
102	0x3cd61d73	0.02613709
103	0x3cbbc30a	0.02292015
104	0xbda2b702	-0.07945062
105	0xbc75fde8	-0.015014149
106	0x3c7f0217	0.015564463
107	0xbd10258e	-0.035192065
108	0xbc927015	-0.01787571
109	0xbd620f9f	-0.05519068
110	0xbd04ffeb	-0.032470625
111	0xbcf84b12	-0.030309234
112	0x3cc84485	0.024446735
113	0x3d4ed474	0.05049558
114	0x3d04251b	0.03226195
115	0x3d1f08f0	0.038826883
116	0xbd32702b	-0.043564003
117	0xbc008de3	-0.007846328
118	0xbd5318d8	-0.051537365
119	0xbbae6efa	-0.005323288
120	0x3d20c266	0.039247893
121	0xbcdf590c	-0.02726414
122	0xbd932bcb	-0.07186087
123	0xbca0c5fe	-0.01962566
124	0xbc2c6b2c	-0.010523599
125	0x3d0f33bc	0.034961447
126	0x3cd076d7	0.025447292
127	0x3d513e7d	0.051084984
128	0xbd9c2ec2	-0.07626106
129	0xbd6b532a	-0.05745236
130	0x3caa091f	0.020756302
131	0xbcd89b5e	-0.026441272
132	0x3b06a03e	0.002054229
133	0x3d71b210	0.059007704
134	0x3d2c05c1	0.041997675
135	0xbc7249bc	-0.014788087
136	0xbc62ba59	-0.013838374
137	0xbc6c22aa	-0.014412561
138	0x3a4de57b	0.00078543246
139	0x3d257661	0.040396098
140	0xbcf2a034	-0.029617406
141	0xbcb7d41e	-0.022440013
142	0x3d8982a0	0.06714368
143	0xbd1a39fe	-0.037652962
144	0xbd959d28	-0.07305366
145	0x3c9bd3a3	0.019021815
146	0xbd5f7e52	-0.054563828
147	0x3dc0c5a4	0.09412697
148	0xbc91bf66	-0.017791461
149	0x3d2d563e	0.042318575
150	0x3bf1f7dc	0.0073842835
151	0xbd898973	-0.067156695
152	0xbdd2fd20	-0.10302186
153	0xbd4de8d7	-0.05027088
154	0x3c986aad	0.018605554
155	0xbce5fcb6	-0.028074604
156	0xbc43a9e8	-0.011942364
157	0x3cb837f9	0.022487627
158	0xbc193fa8	-0.009353556
159	0xbbb2a332	-0.0054515833
160	0xbd731914	-0.05935009
161	0xbd7b3eff	-0.061339375
162	0xbc51bab9	-0.012800866
163	0x3cd0d43a	0.025491823
164	0xbcbaeb2f	-0.022817222
165	0xbc957faf	-0.01824936
166	0xbd242e6d	-0.040083338
167	0x3dae70e5	0.08517627
168	0x3ce27f83	0.027648693
169	0xbc99c0c7	-0.018768681
170	0x3d620778	0.055182904
171	0xbd0619d6	-0.032739483
172	0x3d4f3be4	0.050594226
173	0xbcd8e800	-0.026477814
174	0x3d758f44	0.059951082
175	0x3b8f6b7c	0.004376827
176	0x3d6c4362	0.05768145
177	0x3de147d8	0.11000031
178	0xbc629834	-0.013830233
179	0xbcbb518a	-0.02286603
180	0xbcca96fe	-0.024730202
181	0x3c5283ef	0.012848838
182	0x3cbd508d	0.023109699
183	0xbd8e1a7e	-0.06938647
184	0xbd4410fe	-0.047867768
185	0xbcbc4e67	-0.022986604
186	0x3cb63ed4	0.022246756
187	0x3cdc59f9	0.026898371
188	0x3d88ffe3	0.066894315
189	0xbc4e9baa	-0.012610355
190	0xbc050266	-0.008118248
191	0x3d60610b	0.054780047
192	0xba937a4a	-0.0011251655
193	0xbcfda618	-0.030962989
194	0xbd470827	-0.04859176
195	0x3b081642	0.002076522
196	0xbb4780d5	-0.003044178
197	0x3d308099	0.04309139
198	0x3d1310af	0.035904583
199	0x3d0c1210	0.034196913
200	0x3cba579f	0.02274686
201	0x3da5cc64	0.08095625
202	0x3cd1ca11	0.025609048
203	0x3c97d5ee	0.018534627
204	0x3c7bdc73	0.015372383
205	0xbc9b8f77	-0.018989308
206	0x3b50c384	0.0031854818
207	0xbd94b81c	-0.072616786
208	0x3cb91a81	0.022595646
209	0xbb18ff9c	-0.0023345714
210	0xbd136e89	-0.035994086
211	0x3d8a22a3	0.06744888
212	0xbd059e1e	-0.032621495
213	0x3cb84683	0.02249456
214	0x3d5f3184	0.05449058
215	0xbd664495	-0.05621775
216	0x3c0e85a0	0.008698851
217	0x3d25c22b	0.040468376
218	0x3b9c105b	0.004762692
219	0x3da16bd4	0.07881895
220	0xbcc4154b	-0.023935935
221	0x3d832e35	0.06405298
222	0x3d6b3e01	0.05743218
223	0x3c86bf35	0.016448596
224	0x3d3682b8	0.044558257
225	0xbd94d2bc	-0.07266757
226	0xbd9d0185	-0.076663055
227	0xbc8e948e	-0.01740482
228	0xbcd5fda5	-0.026121924
229	0x3d1ba5ca	0.037999906
230	0xbbdc8f34	-0.0067309383
231	0x3d7d6264	0.06186141
232	0x3d8f66d2	0.07002033
233	0xbc47f90f	-0.012205376
234	0xbc8c5f93	-0.017135417
235	0x3cdcb624	0.02694232
236	0x3caa2c3b	0.020773044
237	0x3ca0f34d	0.019647265
238	0x3db3cab6	0.087788984
239	0xbda1f2f1	-0.079076655
240	0xbd8b6046	-0.06805472
241	0xbbe79c01	-0.0070681577
242	0x3cb3465c	0.021884136
243	0x3d5fc0b8	0.05462715
244	0x3d214d23	0.039380204
245	0x3c4eceba	0.01262253
246	0x3d91d255	0.07120196
247	0xbd234d10	-0.039868414
248	0xbcc618ea	-0.024181802
249	0xbc6b9540	-0.014378846
250	0x3d83ad83	0.06429579
251	0xbd1639d1	-0.03667623
252	0xbd3b4b49	-0.045726094
253	0xbd05416c	-0.032533094
254	0x3d183e3c	0.037168726
255	0xbca6ab75	-0.020345429

network_body._body_endoder.seq_layers.0.bias f4 [128]
0	0xbcea8f31	-0.028632732
1	0xbdb05752	-0.08610405
2	0xbd600db9	-0.054700587
3	0x3e33bc6f	0.1755235
4	0x3e02ee4a	0.12786213
5	0xbd84c7a3	-0.0648339
6	0x3d59d368	0.05318013
7	0xbd5125c4	-0.051061407
8	0x3da166f7	0.07880967
9	0x3d8774ce	0.066140756
10	0xbdbef331	-0.09323729
11	0x3e058ec0	0.13042736
12	0xbc2149dc	-0.00984427
13	0x3e46a95e	0.19400546
14	0x3e078f3f	0.13238238
15	0x3e16e29c	0.14734882
16	0x3e32794b	0.17429082
17	0xbd8fe1e7	-0.07025509
18	0xbe025fcb	-0.12731855
19	0x3e3d36a6	0.18477878
20	0xbc4bcd6b	-0.012439112
21	0x3dedd2c0	0.11612463
22	0x3d19bd64	0.037534133
23	0x3a8391a9	0.0010037917
24	0x3c8e31c3	0.017357713
25	0x3ba1414f	0.0049211155
26	0x3e2c6043	0.16833596
27	0xbd6437f3	-0.05571742
28	0x3e0a326d	0.13495798
29	0x3e1ca283	0.15296368
30	0xbd91278f	-0.07087623
31	0xbdd1ce1c	-0.1024439
32	0x3e48a770	0.19595122
33	0x3dbddf2a	0.09271081
34	0xbdeaceef	-0.11465251
35	0x3dc4762c	0.09592852
36	0xbd89c1a2	-0.06726386
37	0xbd33eb28	-0.043925434
38	0xbc7900a3	-0.015197906
39	0xbd85af0f	-0.065275304
40	0x3dcfbbe9	0.10143263
41	0x3d462f1c	0.04838477
42	0x3e38bf0c	0.18041629
43	0x3ddf46f6	0.109022066
44	0x3e0f7b31	0.14011838
45	0x3e38205d	0.17981096
46	0xbd8b9f70	-0.0681752
47	0xbca31c40	-0.019910932
48	0x3cc9c01f	0.024627743
49	0x3e26bf14	0.16283828
50	0x3d2890a0	0.04115355
51	0x3e223ad0	0.15842748
52	0xbcbad79c	-0.022807889
53	0x3d3e1edf	0.04641616
54	0x3d2ccb3d	0.04218601
55	0x3df5695a	0.11982985
56	0xbdcbe523	-0.09955814
57	0xbe0c6d3c	-0.13713545
58	0x3dc86872	0.09785546
59	0xbda58537	-0.08082049
60	0xbcbbb0f1	-0.02291152
61	0xbdd70388	-0.104987204
62	0x3e0ae269	0.13562931
63	0x3df40348	0.11914688
64	0xbcde6e73	-0.027152276
65	0x3da37575	0.079813875
66	0xbddcf969	-0.10789759
67	0xbccd46cc	-0.025058173
68	0x3d9a998b	0.07548817
69	0xbd88d8a8	-0.06681949
70	0xbce53346	-0.02797855
71	0xbd33b13c	-0.043870196
72	0x3e0fca68	0.14042056
73	0x3dfe3b74	0.124136835
74	0x3dda0649	0.1064573
75	0xbd210370	-0.03930992
76	0x3de57939	0.11204762
77	0xbd654859	-0.0559772
78	0xbcd266ef	-0.025683848
79	0xbcfc8f36	-0.030830007
80	0x3df70999	0.120623775
81	0x3d5192eb	0.051165503
82	0x3d9666d8	0.07343835
83	0xbd8dcadb	-0.06923457
84	0xbd8ad413	-0.06778731
85	0x3defd75a	0.11710997
86	0x3e29a7c1	0.165679
87	0x3d9da7da	0.07698031
88	0x3dba8f7a	0.09109397
89	0x3e15cd3c	0.14629072
90	0xbe09b641	-0.1344843
91	0x3db0c64b	0.086315714
92	0x3c9bc55e	0.01901501
93	0x3d7b189e	0.061302774
94	0xbd4afd76	-0.049558125
95	0xbe26c6ff	-0.16286848
96	0x3d4690a5	0.048477788
97	0x3e0e8b9f	0.13920449
98	0xbd38452c	-0.044987842
99	0xbd2cb590	-0.04216534
100	0x3d6dd018	0.05805978
101	0x3e374d8d	0.17900677
102	0xbc9fac8d	-0.019491458
103	0xbd0fa892	-0.03507287
104	0x3c8e589d	0.017376238
105	0xbe07e945	-0.13272579
106	0xbdb65385	-0.08902649
107	0xbcc46bef	-0.023977248
108	0x3de9094c	0.11378726
109	0xbccaceb4	-0.024756767
110	0x3d1c8131	0.038209144
111	0xbe3cc6d8	-0.18435228
112	0x3e22f151	0.15912367
113	0xbcfe3610	-0.031031638
114	0x3e2a18c3	0.16611008
115	0xbcb24372	-0.021760676
116	0xbd2743dd	-0.040836204
117	0x3d281de7	0.041044142
118	0x3d0486cd	0.03235512
119	0xbd13d9c0	-0.036096334
120	0xbdb8a0a0	-0.09015012
121	0x3dd7a878	0.1053018
122	0xbd0773cf	-0.033069428
123	0xbe01ca25	-0.12674768
124	0xbd7395be	-0.059468977
125	0xbd302eb8	-0.043013304
126	0xbddd523e	-0.10806702
127	0x3d37c164	0.044862166

network_body._body_endoder.seq_layers.0.weight f4 [128, 3]
0	0xbefa9101	-0.48938754
1	0x3e9271aa	0.28602344
2	0xbea16a98	-0.31526637
3	0xbf1d3329	-0.6140619
4	0xbebd3e96	-0.36961812
5	0xbe747a48	-0.23874772
6	0xbf129e12	-0.57272446
7	0xbf0b5638	-0.54428434
8	0xbe4e7d3f	-0.20164965
9	0x3f9bca5d	1.2171131
10	0xbf1781ac	-0.5918224
11	0xbf20a9aa	-0.62758887
12	0x3f4865fc	0.78280616
13	0x3f49be3c	0.788059
14	0x3c5ebfe9	0.01359556
15	0xbfc2e535	-1.5226198
16	0xbd0429ca	-0.032266416
17	0x3ee7613b	0.45191368
18	0x3e061dbc	0.1309728
19	0xbed6eaba	-0.41975957
20	0x3e68e123	0.22742133
21	0xbdb49e88	-0.088193
22	0xbc0a530c	-0.0084426515
23	0xbe3c6627	-0.18398343
24	0xbf2271a4	-0.6345465
25	0xbf3cd622	-0.7376424
26	0x3e4b6f9e	0.19866797
27	0x3ee0b87a	0.43890744
28	0xbf168ce6	-0.58808744
29	0xbe87b85f	-0.2650785
30	0xbe919ae9	-0.284385
31	0x3e9d0712	0.30669457
32	0xbeaf2a77	-0.34212086
33	0x3f545786	0.8294605
34	0x3f785084	0.9699786
35	0x3f0fba49	0.56143624
36	0xbc73c512	-0.014878528
37	0xbebe29f5	-0.37141386
38	0x3f5b5adb	0.8568551
39	0x3f8af7d6	1.0856884
40	0xbeb7a0d8	-0.35864902
41	0xbeff4ebe	-0.49864763
42	0x3e83b8c5	0.25726905
43	0xbed099c9	-0.4074233
44	0x3e928a75	0.2862126
45	0x3f4bb2b1	0.79569536
46	0x3e602fc9	0.21893229
47	0xbea08879	-0.3135412
48	0x3f466f69	0.7751375
49	0xbf8fbdc6	-1.1229789
50	0xbf20c57d	-0.62801343
51	0x3e23b784	0.15987974
52	0xbeb43888	-0.3519938
53	0x3f3d8a4b	0.74039143
54	0xbea46a1e	-0.3211221
55	0x3e01260d	0.12612171
56	0x3e6854c7	0.2268859
57	0x3f3e1157	0.7424521
58	0xbed99af8	-0.42501044
59	0xbebb3b3c	-0.3656863
60	0x3e1ed954	0.15512592
61	0xbe5a57d1	-0.21322562
62	0xbdfe31f6	-0.12411873
63	0xbd3eac40	-0.04655099
64	0xbd8e93aa	-0.069617584
65	0xbe987633	-0.2977768
66	0x3d9934ae	0.07480751
67	0xbda5e50d	-0.081003286
68	0xbf56be25	-0.8388389
69	0xbf29db45	-0.66350204
70	0x3dcebe48	0.10094887
71	0x3f661f34	0.8989136
72	0xbf947f9a	-1.1601441
73	0xbeef8162	-0.467784
74	0xbed6af29	-0.41930512
75	0xbfc984c9	-1.5743648
76	0xbf0bb7f2	-0.54577553
77	0xbdcdc5f0	-0.10047519
78	0x3ca8c845	0.020603308
79	0xbeacb196	-0.33729237
80	0x3c7226b0	0.014779732
81	0xbefcb407	-0.493561
82	0x3eb549e7	0.35407946
83	0x3ec52965	0.38508144
84	0x3d5218fb	0.051293354
85	0x3ca81800	0.020519257
86	0x3d1f7e7a	0.038938977
87	0x3f15067a	0.5821301
88	0xbef380d5	-0.4755923
89	0xbd172bf6	-0.03690716
90	0xbcc06663	-0.023486322
91	0x3f3f0a61	0.7462521
92	0x3f06c2e1	0.5264111
93	0xbdd08591	-0.10181726
94	0x3f17554e	0.5911454
95	0x3e01b73f	0.12667559
96	0x3f402dd1	0.7506991
97	0xbe8f6c99	-0.2801254
98	0xbed3274f	-0.41240928
99	0xbe8ff783	-0.28118524
100	0xbeeba551	-0.46024564
101	0xbfb44fa8	-1.4086809
102	0xbded1055	-0.11575381
103	0xbe149df1	-0.14513375
104	0x3e1f18cd	0.15536804
105	0x3f1daf57	0.6159567
106	0xbecb45a0	-0.39701557
107	0xbf57e356	-0.8433126
108	0x3e0fa5ea	0.14028135
109	0xbe99f33d	-0.3006839
110	0x3f587c90	0.8456507
111	0xbf4cb2c2	-0.7996026
112	0x3ee670ce	0.45007938
113	0xbea79d79	-0.3273733
114	0xbeec54a8	-0.46158338
115	0x3d1657be	0.03670477
116	0x3f80f397	1.0074338
117	0x3ea7f8b4	0.32806933
118	0x3efe6e7f	0.49693677
119	0x3f5fa494	0.873605
120	0x3f293dbd	0.6610983
121	0xbd92ecab	-0.07174047
122	0x3ee98159	0.45606497
123	0xbf1790d0	-0.5920534
124	0x3e19ecff	0.15031813
125	0xbf310217	-0.69143814
126	0x3f0fd874	0.56189656
127	0xbf61361c	-0.8797319
128	0xbf680240	-0.90628433
129	0x3f259daa	0.646937
130	0xbf37e855	-0.71838886
131	0xbf247ce0	-0.64253044
132	0x3e9adf9b	0.30248722
133	0xbea226e0	-0.31670284
134	0x3edd6239	0.43239
135	0x3f045ed6	0.5170721
136	0xbeca8c73	-0.3956028
137	0x3ea71fca	0.3264144
138	0x3ebcd50f	0.368813
139	0x3f1f8a0a	0.62320006
140	0xbd7a3247	-0.061083104
141	0xbf50d2ed	-0.8157185
142	0x3f5118a2	0.8167821
143	0x3d961ca6	0.07329683
144	0xbf3daedd	-0.74094945
145	0x3e8b8337	0.27248546
146	0x3e891512	0.26773888
147	0x3fb5069d	1.4142643
148	0xbea77db0	-0.3271308
149	0xbe54c63c	-0.20778745
150	0xbf3db170	-0.74098873
151	0x3e5dd11a	0.21661797
152	0x3c286496	0.010277888
153	0xbe559554	-0.20857745
154	0xbf406906	-0.75160253
155	0xbfa28a2e	-1.2698419
156	0x3edcceda	0.43126565
157	0x3eb6fcb9	0.35739687
158	0xbd0ae8a2	-0.033913262
159	0x3ed36b83	0.41292962
160	0xbf34f6cf	-0.706891
161	0x3fb5ac28	1.4193163
162	0x3e084709	0.13308348
163	0x3ea9c636	0.33159035
164	0xbed5ab18	-0.41732097
165	0x3eea6af8	0.45784736
166	0x3df92636	0.12165491
167	0x3e7645bd	0.2405004
168	0xbde16fb8	-0.11007637
169	0x3dbc9522	0.09208132
170	0x3e9cdb39	0.30636004
171	0x3dd651fb	0.10464855
172	0x3eeb7d27	0.4599392
173	0x3e34e125	0.17664011
174	0x3f393ab3	0.7235519
175	0x3f0c6dc7	0.54855007
176	0x3d3ce504	0.046116844
177	0xbeaf2b0b	-0.34212527
178	0x3e9b099c	0.3028077
179	0xbd856723	-0.065138124
180	0x3e570114	0.20996505
181	0xbe32ffb5	-0.17480357
182	0x3f91c6b3	1.1388763
183	0x3e00cea2	0.12578824
184	0x3f3a593d	0.72792417
185	0xbe5d4290	-0.21607423
186	0x3edb1ad1	0.42793897
187	0xbf1bcf91	-0.60863596
188	0x3dcc6e64	0.09981993
189	0x3f245a69	0.64200455
190	0xbe83216b	-0.25611433
191	0x3e501361	0.20319892
192	0xbdb05e75	-0.08611766
193	0x3de2bb84	0.11070922
194	0x3f72cffc	0.9484861
195	0x3ed71535	0.42008367
196	0xbe155d01	-0.1458626
197	0xbf4ce932	-0.8004333
198	0xbd38e282	-0.04513789
199	0x3e651251	0.22370268
200	0xbecc865d	-0.3994626
201	0xbe807b65	-0.25094143
202	0x3e97a71a	0.29619676
203	0x3f46136b	0.7737338
204	0x3d85b7f9	0.065292306
205	0xbe873576	-0.26407975
206	0xbe81132b	-0.25209936
207	0xbf3f303b	-0.7468297
208	0xbf226052	-0.63428223
209	0xbb8f4a57	-0.0043728757
210	0xbdeefe95	-0.116696514
211	0xbc2a737f	-0.010403513
212	0x3f957923	1.1677593
213	0xbedbb1c4	-0.42909062
214	0x3f40e38c	0.7534721
215	0xbe949a32	-0.29023892
216	0x3eae719a	0.34071046
217	0xbf96a590	-1.1769276
218	0xbe311736	-0.1729401
219	0x3eb40882	0.3516274
220	0xbf6b158c	-0.9182975
221	0xbde6aa8b	-0.11262997
222	0x3e816b23	0.2527705
223	0xbf5bc6ba	-0.8585011
224	0xbee17495	-0.44034258
225	0xbf1776b4	-0.591655
226	0x3c6cc057	0.014450154
227	0xbf993d75	-1.197188
228	0x3f12aea1	0.5729771
229	0xbf06a93c	-0.5260198
230	0x3e843168	0.25818944
231	0x3e97d9f6	0.29658478
232	0xbe64859d	-0.22316594
233	0x3efba705	0.49150863
234	0xbe72a43d	-0.23695464
235	0x3e733187	0.23749362
236	0x3dae8f44	0.085234195
237	0xbf9433e3	-1.1578335
238	0x3d419706	0.047263168
239	0xbd8edc9e	-0.06975673
240	0x3efdccba	0.49570256
241	0xbf301457	-0.68781036
242	0xbe92e5f0	-0.28691053
243	0xbea808de	-0.32819265
244	0x3ed6fb00	0.41988373
245	0xbe751d03	-0.23936848
246	0xbe61e568	-0.22060168
247	0x3f6ddd19	0.92915493
248	0xbe712276	-0.23548302
249	0xbed39eb9	-0.41332033
250	0x3f44885e	0.7677058
251	0x3f1941cc	0.59866023
252	0x3e83da7d	0.2575263
253	0x3dad75e1	0.08469749
254	0x3f5152cd	0.8176697
255	0xbe9280f6	-0.28614014

network_body._body_endoder.seq_layers.2.bias f4 [128]
0	0xbdab9cd0	-0.08379519
1	0xbd55737b	-0.052112084
2	0x3d212c23	0.039348733
3	0xbd3ddb72	-0.046351857
4	0x3d0fece6	0.035138033
5	0x3e17167b	0.1475467
6	0x3d5b4467	0.05353203
7	0xbd82fdfd	-0.06396101
8	0xbd5f3d45	-0.05450179
9	0xbd1a176a	-0.037619986
10	0x3d5919c9	0.053003106
11	0x3d7f8b09	0.062388454
12	0xbd3401ba	-0.04394696
13	0x3cce7aef	0.025205104
14	0x3e24d124	0.16095406
15	0xbd5d077a	-0.05396221
16	0xbd506478	-0.050877064
17	0x3d8c1992	0.06840815
18	0xbd88216b	-0.06646999
19	0x3e0bb157	0.13641869
20	0xbd4c2884	-0.049843326
21	0x3dc8ebb0	0.09810579
22	0x3c84375c	0.016139679
23	0xbd83c53e	-0.06434105
24	0xbdaab57d	-0.083353974
25	0xbd56b967	-0.052422907
26	0x3d9c80f6	0.07641785
27	0xbd2a6167	-0.041596796
28	0xbd251289	-0.04030088
29	0x3d3792ae	0.04481762
30	0xbb7bc457	-0.0038416588
31	0xbc22444b	-0.009903978
32	0xbd6054fb	-0.054768544
33	0xbd998ee2	-0.07497956
34	0xbcee4cb3	-0.029089307
35	0x3d4f4d4f	0.050610837
36	0xbd67bcc9	-0.056576524
37	0xbd043fb1	-0.032287303
38	0xbd42e108	-0.047577888
39	0x3e0b87db	0.13626043
40	0x3d827a78	0.06371015
41	0x3c21b9af	0.009870931
42	0x3de5e422	0.112251535
43	0xbd602e06	-0.05473139
44	0x3e048046	0.12939557
45	0xbd667af6	-0.05626961
46	0x3de544a2	0.11194731
47	0x3ccb4dd9	0.024817394
48	0x3dbf3413	0.09336104
49	0x3e1913f9	0.14949025
50	0x3d178623	0.036993157
51	0xbd37cf38	-0.044875354
52	0xbd3ac90f	-0.0456019
53	0x3cde537f	0.027139423
54	0x3d3b68ab	0.045754116
55	0xbd3e921e	-0.046526067
56	0xbd0f7570	-0.035024107
57	0xbd241195	-0.04005583
58	0x3d6559de	0.055993907
59	0x3cfae2c8	0.030625716
60	0x3e048a19	0.12943305
61	0x3b1b1bae	0.0023667621
62	0xbcb7494f	-0.022373823
63	0x3e12d39c	0.14338535
64	0xbc7471e4	-0.014919732
65	0xbc64b710	-0.013959661
66	0xbc99c929	-0.018772678
67	0xbb5259be	-0.0032096948
68	0xbb22ffad	-0.0024871633
69	0x3e109f3e	0.14123246
70	0x3dc74e89	0.09731776
71	0x3d1a980a	0.037742652
72	0x3d2f5a77	0.042810883
73	0x3e143aba	0.14475527
74	0x3c590799	0.01324644
75	0x3d23fb7e	0.040034764
76	0x3d7cb4dc	0.06169592
77	0x3ce46f55	0.027885118
78	0x3baffe25	0.0053708726
79	0xbe0f8a2d	-0.14017554
80	0x3df6b349	0.12045915
81	0xbbf3754a	-0.0074297534
82	0xbd4ae5bd	-0.0495355
83	0x3db54595	0.08851162
84	0x3c0dc39b	0.008652593
85	0x3de6bd3b	0.112665616
86	0x3df66019	0.12030048
87	0xbd8ad5c5	-0.067790546
88	0x3cec437b	0.028840771
89	0x3d22ed6e	0.03977721
90	0x3c1f435a	0.009720648
91	0x3e0d8245	0.13819225
92	0xbd13c72c	-0.036078617
93	0x3e0acc32	0.13554457
94	0x3dc5dfc7	0.09661823
95	0x3d40d51b	0.047078233
96	0x3df818ac	0.12114081
97	0xbd6cce74	-0.057814077
98	0xbdafd785	-0.08586029
99	0xbcbd8949	-0.023136752
100	0xbd68b4b4	-0.056812957
101	0x3de2f76d	0.11082349
102	0xbccb2909	-0.02479984
103	0x3d8f42d9	0.06995172
104	0x3e102590	0.14076829
105	0xbccb5dcd	-0.024825001
106	0xbd5b58a5	-0.053551335
107	0x3d9742ef	0.073858134
108	0x3d9a0718	0.07520884
109	0x3de78f8c	0.11306676
110	0x3dfeb136	0.12436144
111	0xbd7931c0	-0.06083846
112	0xbdf485fe	-0.119396195
113	0xbcb600be	-0.02221715
114	0x3ccd7593	0.025080478
115	0x3dbd46bc	0.09242007
116	0x3ddf6945	0.109087504
117	0x3d5f7c80	0.05456209
118	0x3e0ad310	0.13557076
119	0xbd6dde94	-0.058073595
120	0xbd26d198	-0.040727228
121	0x3c8c7dc4	0.017149813
122	0x3e063a0a	0.13108078
123	0xbd391cd5	-0.045193512
124	0xbd50769c	-0.050894365
125	0xbd5ab65b	-0.053396564
126	0x3db4f367	0.08835488
127	0xbd02d073	-0.031937074

network_body._body_endoder.seq_layers.2.weight f4 [128, 128]
0	0xbdf291cc	-0.11844215
1	0xbd25f096	-0.040512644
2	0xbca105ef	-0.01965615
3	0xbd82c0cd	-0.0638443
4	0xbe0b8a5d	-0.13627
5	0xbd5e1022	-0.054214604
6	0xbd0e360c	-0.034719512
7	0xbd86933a	-0.0657105
8	0xbdf3884c	-0.11891231
9	0xbdcc0eb1	-0.0996374
10	0xbe0336ca	-0.12813869
11	0x3d67a8cb	0.056557458
12	0x3df43e3c	0.11925933
13	0xbd3d9ac9	-0.046290193
14	0x3c80fb6b	0.015744885
15	0xba91f8af	-0.0011136736
16	0xbe2241fa	-0.1584548
17	0xbd11460f	-0.035467204
18	0xbd687ff4	-0.05676265
19	0xbe21464c	-0.15749472
20	0xbdf5df28	-0.12005454
21	0xbdf3a11b	-0.11895963
22	0xbbc0cafe	-0.0058835736
23	0x3d63e7c1	0.05564094
24	0xbc60f1cb	-0.013729523
25	0xbcce7b17	-0.025205178
26	0xbdfd0519	-0.12354488
27	0x3e4f8388	0.20265019
28	0xbdeb38cc	-0.114854425
29	0xbe67f73d	-0.22652908
30	0x3d1f9f71	0.038970415
31	0x3d43ff33	0.0478508
32	0xbd9ce99e	-0.076617464
33	0x3d9e970d	0.077436544
34	0x3d3debde	0.04636752
35	0x3d2997b2	0.041404434
36	0xbe0aa671	-0.13540055
37	0x3c1d244a	0.0095911715
38	0xbdc310f8	-0.09524721
39	0x3df91dd8	0.12163895
40	0xbc08c83e	-0.008348523
41	0x3d4b76bb	0.049673777
42	0x3d5c690e	0.053811125
43	0xbd35a0ab	-0.044342678
44	0x3d0d1dd9	0.034452293
45	0xbd241c45	-0.040066022
46	0x3d42aa55	0.047525723
47	0xbba35cbb	-0.0049854196
48	0xbd2562cc	-0.040377423
49	0xbe0503f1	-0.12989785
50	0xbdc55c77	-0.09636777
51	0x3d846618	0.06464785
52	0x3de4b077	0.111664705
53	0xbbc939fc	-0.0061409455
54	0x3d406a25	0.046976227
55	0xbe05ca06	-0.13065347
56	0x3d68cdd6	0.056836925
57	0x3db19cc2	0.08672477
58	0x3ac627b3	0.0015118032
59	0x3c63627d	0.013878462
60	0x3dc155da	0.09440203
61	0x3ae24e2c	0.0017265729
62	0xbe65a1a2	-0.2242494
63	0xbe265d4c	-0.16246527
64	0xbcda65a8	-0.026659802
65	0x3d74699b	0.059671026
66	0xbd157c65	-0.036495585
67	0x3cbd005e	0.023071464
68	0xbe122d9b	-0.1427521
69	0xbd92f605	-0.07175831
70	0x3c1a95dc	0.009435143
71	0xbc0d545d	-0.008626071
72	0xbe212abf	-0.15738963
73	0x3c97f0f4	0.018547513
74	0xbdaf5e25	-0.085628785
75	0x3c284d85	0.010272388
76	0xbe086d64	-0.13322979
77	0xbcba8cfc	-0.022772305
78	0x3e08a7ff	0.13345335
79	0x3d0c8c71	0.034313623
80	0xbde63475	-0.11240474
81	0xbc54eee5	-0.01299641
82	0xbc4295a1	-0.011876495
83	0xbc4f2b26	-0.012644565
84	0x3d5c010d	0.05371194
85	0xbc8333d1	-0.016015919
86	0x3cecc381	0.028901817
87	0x3cc750da	0.024330545
88	0xbd54b04c	-0.051925942
89	0xbd9a2478	-0.07526487
90	0xbd89de52	-0.06731857
91	0xbdb99072	-0.09060754
92	0xbce27d9a	-0.027647782
93	0xbdd12baf	-0.1021341
94	0xbc9a28d2	-0.018818293
95	0xbc9911d9	-0.018685268
96	0xbdbe80c7	-0.09301906
97	0xbddd4d63	-0.10805776
98	0xbd622bd2	-0.05521757
99	0xbe050e8c	-0.1299383
100	0xbdafd685	-0.08585838
101	0x3ddd4d47	0.10805755
102	0xbd807bf7	-0.062736444
103	0xbdf274c7	-0.1183868
104	0x3def0c01	0.116722114
105	0x3d6ad58f	0.05733257
106	0x3cb865df	0.022509513
107	0xbde6a6b4	-0.11262265
108	0xbdf704ab	-0.12061437
109	0xba5e78cf	-0.000848663
110	0xbd2860d0	-0.041107953
111	0xbcac5ffc	-0.021041863
112	0xbdc2d11e	-0.09512542
113	0x3cebb6a1	0.028773608
114	0xbd6beccd	-0.057598878
115	0x3d6525a4	0.0559441
116	0x3d48736d	0.048938204
117	0xbb95ca5b	-0.004571242
118	0x3d709eb3	0.058745097
119	0x3d873079	0.06601042
120	0xbe2e4889	-0.17019857
121	0x3c962d48	0.018332139
122	0x3d9999df	0.07500052
123	0xbd8eacf6	-0.069665834
124	0xbd53da8d	-0.0517221
125	0x3d01f72c	0.031729862
126	0x3da90278	0.08252424
127	0x3d00e527	0.031468537
128	0xbe53f2a1	-0.20698024
129	0x3d46a1fd	0.048494328
130	0xbd7ad60f	-0.0612393
131	0xbe1e506a	-0.15460363
132	0xbde14b4d	-0.110006906
133	0xbcd58282	-0.026063208
134	0xbd8130ce	-0.06308137
135	0x3d6b41be	0.057435744
136	0xbdb8cfcd	-0.0902401
137	0xbe7ed136	-0.24884495
138	0x3e3f7187	0.18695651
139	0xbe5f0160	-0.21777868
140	0x3d378865	0.04480781
141	0x3a92cf4b	0.0011200694
142	0xbdecd3a1	-0.115638025
143	0xbc1711d1	-0.009220556
144	0xbd98c0ca	-0.074586466
145	0x3c30a789	0.010782131
146	0xbc9bc2ff	-0.01901388
147	0x3e38fc24	0.18064934
148	0xbd505c21	-0.05086911
149	0xbdcd0277	-0.10010236
150	0x3dd805d2	0.10547985
151	0x3e08cbe9	0.13359036
152	0xbd10f8c5	-0.035393495
153	0x3de7ad0c	0.11312303
154	0xbc50641b	-0.0127191795
155	0x3d18b63e	0.037283175
156	0x3d40e4a7	0.04709306
157	0x3d686f62	0.056746848
158	0xbc113a9c	-0.008864071
159	0x3de7ee3a	0.11324735
160	0x3d7a8cdf	0.0611695
161	0xbe4887ee	-0.19583103
162	0x3d65f7eb	0.056144636
163	0x3e0af5b0	0.13570285
164	0xbcf0521f	-0.029336033
165	0x3d2b2745	0.041785497
166	0xbe0de6ae	-0.13857529
167	0x3d749343	0.059710752
168	0x3d2ed21a	0.042680837
169	0xbdab0226	-0.08350019
170	0x3db0757d	0.08616159
171	0xbdf57b5d	-0.1198642
172	0x3d31fd5f	0.043454524
173	0xbe0948cf	-0.1340668
174	0xbdd35c8a	-0.10320385
175	0x3d1b7795	0.03795584
176	0x3b1a0def	0.002350684
177	0xbe138de7	-0.144096
178	0x3d8fd67f	0.07023334
179	0xbdb786ef	-0.089612834
180	0xbd967603	-0.07346728
181	0x3ba1d333	0.004938507
182	0x3d9b318a	0.07577808
183	0x3c301f9f	0.010749727
184	0xbdeded31	-0.11617506
185	0x3ddeb937	0.10875171
186	0x3d956724	0.07295063
187	0xbc08b863	-0.0083447425
188	0x3d9fa760	0.07795596
189	0x3c650a00	0.013979435
190	0x3dc2f877	0.09520047
191	0xbc2fb1c4	-0.010723535
192	0x3e0e7127	0.13910352
193	0x3dbf6af6	0.09346573
194	0xbc9681a0	-0.018372357
195	0xbe074834	-0.13211137
196	0x3dd5a931	0.10432661
197	0xbc072c2b	-0.008250277
198	0x3c637809	0.013883599
199	0xbce0bbeb	-0.027433356
200	0x3c4231e1	0.011852712
201	0xbdb92f4a	-0.09042223
202	0xbd1afd94	-0.037839487
203	0x3d398f2f	0.045302566
204	0xbc1d4dfc	-0.009601112
205	0xbbbd9ccb	-0.0057865134
206	0x3c790cc9	0.015200802
207	0x3cde12ce	0.027108576
208	0x3d505600	0.050863266
209	0x3d448181	0.047975067
210	0xbd9587bd	-0.07301281
211	0x3da96e1b	0.08272954
212	0xbe1869f3	-0.14884166
213	0x3ca69526	0.020334791
214	0xbb96eddd	-0.004605992
215	0xbe207d6d	-0.15672846
216	0xbdf3db4f	-0.11907064
217	0x3d952627	0.072826676
218	0x3e20d2ea	0.15705457
219	0xbd9ac722	-0.07557513
220	0x3c823c9f	0.015898047
221	0xbdb2df3a	-0.08733983
222	0x3dadc1fb	0.084842645
223	0x3da2b61d	0.079448916
224	0x3d195c56	0.037441574
225	0xbe609fb2	-0.21935919
226	0x3e529df0	0.20568061
227	0x3d57f5ab	0.05272452
228	0xbe32e74b	-0.17471044
229	0xbc394b54	-0.0113094635
230	0x3df73b39	0.12071843
231	0xbd963624	-0.07334545
232	0x3d603c70	0.054745138
233	0x3dfbc12f	0.12292706
234	0x3da2e9ec	0.07954773
235	0xbd7ce684	-0.061743274
236	0x3d5290d9	0.05140767
237	0x3d759872	0.059959836
238	0x3d8127dc	0.06306431
239	0x3e2a7708	0.1664697
240	0xbbb211b0	-0.0054342374
241	0x3cf23b08	0.029569164
242	0xbdb34bf0	-0.08754718
243	0x3b6cf0ff	0.0036154387
244	0x3e0b8c40	0.1362772
245	0xbe5ab660	-0.21358633
246	0x3dd69f06	0.1047955
247	0x3d56b762	0.05242098
248	0xbd21e1cb	-0.039521974
249	0x3d556059	0.052093837
250	0xbbe5c184	-0.0070115943
251	0xbc8bb70e	-0.01705506
252	0xbc2d0573	-0.010560381
253	0xbdcede4a	-0.10100992
254	0x3e0d22cc	0.13782805
255	0x3b55e026	0.0032634824
