results/Test2/Test2/Test2-48279.onnx (onnx, 72639 bytes, 7 tensors)

action_model._continuous_distribution.log_sigma f4 [1, 2]
00000000: ff11 913c 0e15 483c
0.017708777 0.012212051

action_model._continuous_distribution.mu.bias f4 [2]
00000000: c0c7 273b 1cb2 cbb9
0.0025601238 -0.0003885188

action_model._continuous_distribution.mu.weight f4 [2, 128]
00000000: 1053 193c f617 1cbc b072 343c 1cfa b63c
00000010: 7561 81bc 5533 6c3c 215e 19bd 0f6a 4b3c
00000020: 661a 873a 17e7 e2bc 1719 9cbc 5f6a 03bd
00000030: 8466 7e3c 59dc 5cbc 9fa0 14bc 6ccc 3f39
00000040: c856 33bd 6dff d33b 2ce5 c63c c709 25bd
00000050: a9a7 e2bb 686b 9f3b 5cb2 00ba ac42 5a3c
00000060: a59a 3c3d 9df6 cebb e760 7abb 642a bb3c
00000070: 48df 533c ec16 053d 6811 a13c 1835 ce3c
00000080: 75b4 40bc 4928 d53c ad41 aebb 422f 493b
00000090: f7f0 0a3b 803e 2fbc 2ec1 f1bc a4b4 14bd
000000a0: b87c 88bc a5b6 053c f3d9 9c3c 2b76 26bc
000000b0: 344b debc 47eb fe3c be87 2ebc 2bba 17bd
000000c0: 4d53 dbbc b6d1 ddbb a491 2d3d 4014 cc3b
000000d0: 6834 45bb 20f0 bbbc 761b 95bc 4e95 57bb
000000e0: a683 19bd 10a6 383c b674 83bc dfe2 93bc
000000f0: a978 25bc cc39 a7bc 187b 843c 109c e13b
00000100: e13c 393c aa3a 6dbc 5633 813c 25fc 79bc
00000110: 63c1 18b9 6f17 aebb 06a1 4cbc 7ab1 80bb
00000120: 4414 8bbc 5496 dfbb a08c 4dbc fd19 8e3b
00000130: f611 2fbc 7e30 27bc d46b 2e3c 15c2 363a
00000140: a600 a83c 0615 95ba 8bda c03c 582e 793b
00000150: 22ff 803c 0ba9 943c df12 d93c 27bf 583b
00000160: 9220 c5bc 1937 6f3b b85d 24bc 55a9 c8bc
00000170: 4b19 b5bb 5474 18b9 6999 07bb 7838 b63a
00000180: c0c8 fcbc 4ce0 b8bc 588d 023c 955f f13b
00000190: db41 5bbc c0c1 44bb 22fb 3ebc 918a 82bc
000001a0: 915a b23c e948 87bc 7676 80bb a8ad 1cbc
000001b0: 9177 babb 6c40 a53c d7ec 7eb9 2aa7 8bba
000001c0: b3df 67bb 34aa cb3c 2884 313b 6ca2 b2b9
000001d0: 5b8f 453c 0294 eabb 9e91 c9bb 1e80 0e3c
000001e0: de4a babc a749 433b 7666 483d 3b97 a23a
000001f0: ac0d 253c 23a8 d6ba 5a01 f3bb 1132 7cbb
00000200: 7847 9abc 966e d13b fff8 95bb 17d6 583c
00000210: 3d98 e13b c93f 9aba 4142 7bbb 3922 c6bc
00000220: 5b2d adbc 4020 a43a 73e0 0e3d aefd 183c
00000230: 6677 d2bb 4750 26bd 1005 0dbc 7c33 963c
00000240: 7a37 b3bc a821 243c 1a1c f3ba 7d38 033d
00000250: 3860 ed3c 18de debc c464 f03b cb2f 263c
00000260: 9d1c bcbc d46e 6f3a 3c45 153c 39b9 eb3b
00000270: 0615 e5bc 3cd7 d43c 6c2b 94bb bfc1 acba
00000280: 0522 2e3c 1059 e4bc b7b4 35bc ac20 1c3c
00000290: d4d9 643a 1d65 873c 2abb 283a 9296 a93c
000002a0: 9a11 833b 1fee 35bc 300f 50bd dbd4 dbbc
000002b0: 43af ac3c b0b0 d4bc 6b1c 4d3c 0688 e1bc
000002c0: 359e 803b 3bf7 0dbb cdba d9bc 458f e83c
000002d0: f1b0 86bc 3a0f 3ebc 5e1a 443a e1cb f33b
000002e0: 621d 923b 763f 823b 3622 113b d959 a3bc
000002f0: 56fb 87bc ecd6 0fbc a976 163c 46ba 8bbb
00000300: 59bc 81bc 4f24 d93b dacd 983b 8fc0 04bc
00000310: 49cd 2f3a 0a83 9bbb 317f dfbc f98c 413c
00000320: d357 51bc 24d8 29bc 8ffa 143b 3e60 373b
00000330: 0482 883c cb3c 85bb a3c7 973b 44f5 2abc
00000340: 4c1c 0dbd 9fe4 15bd 8a4f 463a d263 c03b
00000350: 04e9 353c 24b2 50bc f789 04bd cf34 d9bc
00000360: fba6 d3bc 2376 ca3c b6a4 96bb c9a2 cbba
00000370: de4d d73c 0c4b 8dbb fec7 d8bb 4057 f1bb
00000380: 5e27 debb 716a 3abb 6eba c3bc 7e05 173d
00000390: 40a5 f53a ccef 37bd b654 333c 3d9a b53c
000003a0: ed39 15bd bf53 163d 6c6a bc3b 6f48 0cbc
000003b0: 3c75 26bb 67bc 1d3d ada6 edbc 366f 5eb9
000003c0: b47c 97bc e739 113c dcfd 043d 4ccf 3bbc
000003d0: d20a 30bd 43d0 7abc 6602 dbbc 63b0 323b
000003e0: cba4 ad3c fed0 313d 9c4a 493c 53f3 a73c
000003f0: dc54 e83b c181 debc a040 bebc a172 1cbc
0.009358183 -0.009527197 0.011013672 0.022336058 -0.015793541 0.014416535 -0.037443284 0.012415423
0.001030755 -0.027698083 -0.019054933 -0.032083865 0.015527371 -0.013480269 -0.009071498 0.00018291333
-0.043783933 0.006469658 0.0242792 -0.040292528 -0.0069169593 0.0048650987 -0.000490939 0.01332156
0.046045918 -0.0063160197 -0.003820473 0.022847362 0.012931652 0.032492563 0.01966162 0.025171801
-0.011761774 0.026020186 -0.0053178878 0.0030698334 0.0021200755 -0.0106960535 -0.02951106 -0.036305085
-0.016661033 0.008161222 0.019146895 -0.010160009 -0.027135469 0.031118048 -0.010652481 -0.037042778
-0.02677312 -0.0067693843 0.04237522 0.006228 -0.003009105 -0.022941649 -0.018201571 -0.003289539
-0.037479065 0.011270061 -0.016046863 -0.018052517 -0.010099568 -0.020413302 0.016171977 0.006885059
0.011306019 -0.014479319 0.01577155 -0.01525787 -0.00014567892 -0.005312852 -0.012489563 -0.003927407
-0.016977437 -0.0068233404 -0.012545735 0.004336594 -0.010685435 -0.0102044325 0.010645825 0.00069716695
0.020508122 -0.0011374063 0.02354171 0.0038022008 0.015746657 0.018147012 0.026498256 0.003307292
-0.024063382 0.0036501347 -0.01003211 -0.024494806 -0.005526697 -0.00014539185 -0.0020690805 0.0013902327
-0.030857444 -0.02256789 0.007968269 0.0073661306 -0.0133824 -0.003002271 -0.011656554 -0.015935214
0.021771701 -0.016514258 -0.0039203716 -0.009562887 -0.005690523 0.02017232 -0.00024311557 -0.0010654677
-0.0035381138 0.024861433 0.0027086828 -0.0003407182 0.012058104 -0.007158757 -0.006151392 0.008697538
-0.022740778 0.002979854 0.04892584 0.0012404689 0.01007406 -0.0016377013 -0.0074159326 -0.003848199
-0.018832907 0.0063913567 -0.004576802 0.013234637 0.0068846033 -0.0011768277 -0.003833905 -0.02418624
-0.021139791 0.0012521818 0.03488202 0.009337826 -0.006422925 -0.040603902 -0.008607164 0.018335097
-0.02187704 0.01001779 -0.0018547804 0.032036293 0.028976545 -0.027205512 0.007336231 0.010143231
-0.022962863 0.0009133641 0.009110745 0.007193711 -0.027964126 0.025981538 -0.004521778 -0.00131803
0.010628228 -0.0278745 -0.011090449 0.009529274 0.00087299687 0.016527707 0.0006436581 0.02070168
0.003999901 -0.011104136 -0.050795734 -0.026834896 0.021079665 -0.025963157 0.012518982 -0.027530681
0.0039251097 -0.0021662253 -0.026578331 0.028388629 -0.016441794 -0.01160031 0.00074807357 0.0074400757
0.004459069 0.0039748503 0.0022145635 -0.019940304 -0.016599339 -0.008779269 0.009183564 -0.004264149
-0.015836881 0.006626643 0.0046632113 -0.00810255 0.000670631 -0.0047458457 -0.02728233 0.011813396
-0.012777287 -0.010366473 0.0022732352 0.0027980949 0.016663559 -0.004066085 0.004631953 -0.010434452
-0.034450814 -0.036594983 0.0007564953 0.0058712745 0.011102919 -0.012737785 -0.032358136 -0.026514439
-0.025836458 0.024714535 -0.004597272 -0.0015536185 0.026282247 -0.004311925 -0.006615638 -0.0073651373
-0.0067795953 -0.0028444792 -0.023892608 0.036870472 0.0018741265 -0.044906422 0.01094549 0.022168273
-0.036432195 0.03670096 0.005749991 -0.008562191 -0.0025399467 0.038509753 -0.029010141 -0.00021212999
-0.01849208 0.008863903 0.03246866 -0.011462998 -0.04297907 -0.0153084425 -0.026734542 0.002726578
0.021196743 0.0434122 0.012285855 0.020501768 0.007090194 -0.02716148 -0.023224175 -0.009548814

network_body._body_endoder.seq_layers.0.bias f4 [128]
00000000: 4c6f d9ba 51e8 533b fc97 95bb 7019 8eb9
00000010: a584 6ebb 7d59 83bb 4f29 d738 8f74 c13b
00000020: dc4c 80bb 62be 1cbb 60a1 4b3b 4ee1 b3bb
00000030: adbc 48b8 fb4f d5ba d844 24bb 5141 753b
00000040: 8467 baba 635f 9ebb 924a 503b 6373 07bb
00000050: fa43 71bb 3443 53ba 7bb4 8ebb fa49 14b9
00000060: 7a24 f33a 03e9 353a 49cc d6bb 85e3 4e3b
00000070: e577 113a d154 b03b b040 2e3b 5b98 203b
00000080: 0a03 88bb fdbe 3dbb 54e4 98ba e971 26bb
00000090: 39f9 b53a dda2 c7ba f73b 59ba 4b1d 18ba
000000a0: 8905 2f3b 0725 c6ba 1726 22bb fe7c 323b
000000b0: 87bd b7ba 3647 8a39 c8c3 2e3a 4197 0c3a
000000c0: 55dc a53a b671 583b 925d 92bb 5980 81bb
000000d0: 22c4 8d38 2f3a f839 ae68 843b 5317 07bb
000000e0: 7c44 76bb 217e 3bbb 543b 1cbb b403 a138
000000f0: 9503 c43b 86f2 7e3a 4f98 1c3a 30fd ccb8
00000100: 85ef 683b 59e7 9a3a fe78 5abb 3b4b 87b8
00000110: 2214 c43a df78 ec3a 7ad6 45bb 38c4 0b3b
00000120: 4a9d 01bb 5ca2 bc3b bacb d03a 60aa b5bb
00000130: 9e71 203b b86f 203b 70eb 303b a1e0 a0bb
00000140: ad06 483a 8b3c 1dbc 7c8f dcba 43fd 853b
00000150: a066 683b d334 62bb f8d2 34bb 2edc c9bb
00000160: 817f 04bb 235c b5bb ad15 ee3a 5e60 803a
00000170: 533a ba3a 1b8f 56ba 27ef c6b7 8de5 083b
00000180: b0e1 2c3b c293 57ba c09a 2b3a 6ddb 4139
00000190: 1e67 b5ba 3f1a be39 9a83 8fbb 017b 7b3b
000001a0: cfe5 23bb 37e4 c73a 02e4 5a3b 45c4 94ba
000001b0: 1fc2 793a be0e 6b3b a97e f03b b44b 86ba
000001c0: 5b4b 5439 2aed feb9 6d67 dc3b 42f6 87ba
000001d0: 3512 af3a 15e0 2cbb a5b4 603b d6a5 65bb
000001e0: c33d adba af34 c33a a816 c7ba 584c 1cbb
000001f0: b12d be3a 804b e13b b4aa 523b 14b0 7abb
-0.0016588955 0.0032334516 -0.004565237 -0.00027103303 -0.003639498 -0.0040084706 0.00010259693 0.0059037874
-0.0039154124 -0.0023917188 0.0031071529 -0.005489505 -4.7859434e-05 -0.0016274446 -0.0025065448 0.0037422965
-0.0014221524 -0.0048331483 0.0031782729 -0.002066814 -0.0036814199 -0.0008059025 -0.004355011 -0.00014141938
0.00185503 0.00069393235 -0.0065551144 0.0031568718 0.0005549177 0.0053812047 0.002658885 0.0024504873
-0.004150753 -0.002895295 -0.0011664727 -0.0025397486 0.0013883478 -0.0015231032 -0.00082868285 -0.0005802705
0.002670618 -0.0015117236 -0.0024741942 0.0027235146 -0.0014018276 0.00026374467 0.0006666747 0.0005363115
0.0012654165 0.0033026761 -0.004466721 -0.003952068 6.7599365e-05 0.00047345596 0.004040799 -0.0020613268
-0.003757744 -0.0028609114 -0.0023839073 7.677768e-05 0.0059818723 0.000972547 0.00059736235 -9.774638e-05
0.0035543155 0.0011818215 -0.0033336277 -6.4513144e-05 0.0014959613 0.0018041393 -0.0030187652 0.0021326672
-0.001977759 0.0057566594 0.0015929856 -0.005543992 0.0024481784 0.0024480652 0.00269958 -0.0049095904
0.00076303893 -0.009596954 -0.001682743 0.004089029 0.003546156 -0.003451635 -0.0027591567 -0.0061602807
-0.00202176 -0.005534665 0.0018164419 0.0009794345 0.0014208056 -0.00081847765 -2.3714803e-05 0.0020888776
0.0026379637 -0.0008223617 0.0006546192 0.00018487657 -0.0013839935 0.0003625918 -0.004379702 0.0038372877
-0.0025008803 0.0015250508 0.0033400063 -0.0011349997 0.00095275225 0.0035866941 0.007339318 -0.001024595
0.00020245968 -0.00048623356 0.0067261965 -0.0010373073 0.0013356867 -0.002637868 0.003428736 -0.0035041473
-0.0013217259 0.001489302 -0.0015189247 -0.0023849215 0.0014509467 0.0068754554 0.0032145204 -0.0038251923

network_body._body_endoder.seq_layers.0.weight f4 [128, 6]
00000000: f912 a73e a824 6cbd d8d1 98be 56be 56be
00000010: 56d4 20bc 69da 3fbe 7244 bcbe 051b c0be
00000020: d0eb 2bbf 69cf 18bf 667b bd3d 090d 883e
00000030: 11fc 893e a45d b03e dee3 af3e 4108 94bf
00000040: 4038 7abf 1b6d f83d daa6 8d3c ec9d 00bf
00000050: bbc0 953e 100f 753d 42b4 cf3e 2b09 dd3d
00000060: 1250 bdbe 3577 8bbd 41ca 833e 4845 0e3e
00000070: c956 3ebf 3893 273e e6f8 a3bf 9673 64be
00000080: 3d32 c93e ff43 b83e 5814 3a3e bab6 473f
00000090: e74c 4dbf 90f9 c03e f2c1 663e b76e 99be
000000a0: 3a72 e8be 2ce3 f2bb fe57 c2be a2f6 2abf
000000b0: 9725 39be 112a b93d 55f9 1c3f a17b a73d
000000c0: 64e8 a5bd 3568 e4be ea37 483d dd08 383e
000000d0: 6738 5b3e 0ba9 9ebd e19b 8bbe 2c03 f3bd
000000e0: c090 dc3a 1360 00be a014 05bf 960b 3e3e
000000f0: b751 c8be 81c1 9cbe 29dc 463d 50c6 b5bd
00000100: 2704 f93e f0fb 72bf b43b 95be 987c 07bc
00000110: 9b22 d63e 8fdb 073f 526c d0be 8728 02be
00000120: e5fd cd3d 8104 cdbe 83ad 933e 33bb fdbd
00000130: c566 2e3f c27a ec3d 5088 98be 9f37 98be
00000140: ea89 583f c5af 30bf 8d42 e7be b95a 83bd
00000150: a85a 92be bb84 09bf 6923 a1bd 6118 cc3e
00000160: b1ed f43e 1daa 83be 9314 863e d24c 163a
00000170: 971a 0bbd b779 e33e 9c1c 0fbf 49e4 df3e
00000180: cf82 aa3e c6cd fa3e 1ca6 903e 997d ecbd
00000190: 3ea2 92bd 5b95 073f f432 493f 9397 353f
000001a0: 29bb b7be 2468 883e c9d5 85be 1880 713e
000001b0: f4ed 2f3e 0ff6 113f 5ea2 8d3e 6e34 79be
000001c0: 16eb 893e b887 1d3e d810 f6be 0187 24bd
000001d0: 0a37 103f 5f94 8bbe 3d61 24be 3acc b8be
000001e0: 97a6 babe a5b4 2b3f 0f08 633e a7fc 913e
000001f0: b90a 9d3d eaf7 07be 98d6 97be f3bc db3e
00000200: 7ffb 9bbd 234c 6bbf a539 943e 02dc 643e
00000210: 7c31 af3b 9edf 38bd 4bc9 d43d a666 9fbd
00000220: b7ed 113f f4c2 99be 87ac b2bd 9b8c 41be
00000230: 79af 5bbf 11fe 9bbb 77a1 ea3e 5ef9 d43e
00000240: eaed 0c3e 8c1e f53e a659 f93d ef86 b63d
00000250: b35d e63d 30db 153e a8c9 d1bd 294d 83be
00000260: abd1 d13e 689e ecbe 3c04 1d3f 3242 863e
00000270: 7bd3 5c3e c598 803f 8982 753e 3a06 cdbe
00000280: 7bd6 c83d 9021 fbbd 87f3 23bf 9309 ccbe
00000290: b0f8 60be 0f77 0dbf 57dd f23e 5b9c 14bf
000002a0: 562a b53e 7063 2dbe ec2e 893e 3812 29bc
000002b0: 1f15 5d3f 783c c0be 1f10 233f 8c9d 573e
000002c0: 81fc e0be 6bc8 d73e ce8e 213b 9165 933e
000002d0: 6275 4fbf 1db4 d1bd 734b 69be 3e9b b7be
000002e0: 75d0 0dbe 1938 f53d 01e9 2bbc aa5e 043f
000002f0: 1466 983e c692 133f 5590 e9be f483 f53e
00000300: 243c cdbe 745b a0be cbb8 afba a8c3 9e3e
00000310: 5d47 6a3e 2af1 52bf 4a2b 8b3e 0b7d 5e3e
00000320: c306 fa3e 22ce 9ebe 87e4 01bf 2541 083f
00000330: 203d 71be adf5 3dbf f254 a8be 5bd3 84be
00000340: b8cd 543e 2920 0d3e 763e b4bc fa91 e83d
00000350: e56b f4be eb75 b1be 16af f23d ca85 e53d
00000360: 83d2 3ebe 2f0c afbe 0056 6b3e d735 41be
00000370: 818d 61be 15c8 323c 2d75 643e c94e 9ebc
00000380: 7da8 5fbe 35af 1f3e 0d12 c03e 0b3e 92bf
00000390: e349 32bd 8f91 12bf 71fd 56bf c25d 9f3d
000003a0: 768a 2f3e 4752 413e 04bc 40be 0195 65be
000003b0: 277a b93e 44e9 39be e06c b2be eb52 81be
000003c0: 3d51 543f 283c 74bf bdcf 583d 0070 423e
000003d0: 4de4 5bbe 8f9e 90be 417f 283e ebbb 8dbd
000003e0: f0e4 883d adb8 b43d 99a0 ac3d 995c 9e3e
000003f0: 78ce bd3e 1a67 d03e 8fb8 2a3e cf57 b7bd
0.32631662 -0.057652146 -0.29847598 -0.20971045 -0.00981625 -0.1873566 -0.3677097 -0.37520614
-0.67156696 -0.5969148 0.09252052 0.26572445 0.26950124 0.34446442 0.34353536 -1.1565019
-0.9774208 0.12130185 0.017291475 -0.5024097 0.29248604 0.059828818 0.40567213 0.10792764
-0.3697515 -0.06809846 0.25740245 0.13893616 -0.74351174 0.16364753 -1.2810333 -0.22309718
0.3929614 0.35989377 0.18171823 0.78013194 -0.8019547 0.376904 0.22534922 -0.2996728
-0.45399648 -0.007412335 -0.37957758 -0.6678258 -0.18080746 0.09041227 0.6131795 0.08177877
-0.081009656 -0.44610754 0.04888145 0.17972131 0.21408235 -0.07747086 -0.27267364 -0.11865839
0.0016827807 -0.1253665 -0.51984596 0.18559107 -0.39124843 -0.30616382 0.048549805 -0.08875716
0.4863598 -0.94915676 -0.29147112 -0.008269452 0.41823277 0.53069395 -0.40707642 -0.12710772
0.10058192 -0.400425 0.28843316 -0.12389221 0.68125564 0.11546852 -0.29791498 -0.29729936
0.8458544 -0.69018203 -0.45167962 -0.06413788 -0.2858479 -0.53718156 -0.07868082 0.3986235
0.47837594 -0.25715724 0.26187572 0.0005733493 -0.033960905 0.444288 -0.5590303 0.43728855
0.33302924 0.48985118 0.2825173 -0.11547393 -0.071598515 0.52962273 0.78593373 0.7093441
-0.3588498 0.26641953 -0.26139668 0.2358402 0.17180616 0.5701608 0.2766294 -0.24336407
0.2693717 0.15383804 -0.48059726 -0.040167812 0.5633398 -0.27261636 -0.16052718 -0.36093313
-0.36455223 0.67072517 0.22171043 0.2851307 0.07668061 -0.13278165 -0.2965591 0.42917594
-0.076163284 -0.9191305 0.2895023 0.22349551 0.005346475 -0.045135133 0.10389956 -0.077832505
0.5700335 -0.3003155 -0.08724313 -0.18901293 -0.85814625 -0.0047605117 0.45826313 0.41596502
0.13762632 0.47874868 0.12175302 0.08912455 0.112483405 0.14634395 -0.10243541 -0.25644806
0.40980276 -0.46214604 0.61334586 0.26222378 0.21565048 1.0046622 0.23975576 -0.40043813
0.09806534 -0.12262261 -0.6404347 -0.39851055 -0.21969867 -0.55259794 0.47434494 -0.5805108
0.35383862 -0.16932464 0.2679361 -0.010319285 0.86360353 -0.37546134 0.63696474 0.21056193
-0.43942645 0.42145094 0.0024651769 0.28788427 -0.81038487 -0.10239432 -0.22782688 -0.35860628
-0.13849051 0.119735904 -0.010492564 0.51706946 0.2976538 0.57645833 -0.4561793 0.47952235
-0.40084946 -0.31319773 -0.0013406513 0.3100865 0.22878785 -0.8239924 0.27181464 0.21727388
0.48833284 -0.31016642 -0.5073933 0.532244 -0.23558474 -0.74202996 -0.32877308 -0.259425
0.207816 0.137818 -0.02200244 0.11355968 -0.47738567 -0.34660277 0.11849801 0.11207159
-0.18634991 -0.34188983 0.22982025 -0.18868195 -0.22026636 0.010911961 0.22310324 -0.019324677
-0.21841617 0.1559418 0.37513772 -1.1425184 -0.043527495 -0.57253355 -0.8398047 0.07781555
0.17142662 0.18879043 -0.18821722 -0.22420122 0.36226007 -0.1815539 -0.3484869 -0.25258574
0.8293646 -0.9540429 0.05293249 0.18988037 -0.21473809 -0.2824597 0.16454794 -0.06920608
0.06684291 0.088242866 0.08429069 0.3093002 0.37071586 0.4070366 0.16671966 -0.08952295

network_body._body_endoder.seq_layers.2.bias f4 [128]
00000000: cf6d af3a f03d 85ba 72ed 323b ecdb f93a
00000010: 3ea8 1abb 3de0 5c3b 45e9 c6ba 84e8 0c3b
00000020: 3008 793a 244c 52bb d477 daba 7271 9fbb
00000030: 0db0 163b cc62 1439 11a9 e03a 1262 4dbb
00000040: 656b 29bb e3d2 e93a 2d3e 153b e649 ebba
00000050: a707 55b9 7e81 6dba d33a adba 67e7 2bba
00000060: d6b6 923b 00b9 0cb9 b9d6 abbb 0d1d 2cbb
00000070: 8c28 813b d387 893a 8ed1 393b eef8 313a
00000080: 2325 f5ba 36d4 7939 1884 d9b8 ecd7 f7b9
00000090: e7ad a83b 4ef4 d5b9 4cac f7ba d9a4 43ba
000000a0: f60c fbbb 50f3 0c3b d1af fb3a 1899 853b
000000b0: 250e f9ba a84a 523b 7a85 83ba 0f04 43bb
000000c0: da9f 30bb 82b6 01bb 6958 513b eeeb 0c3c
000000d0: 107b 0e3b 65b5 57bb e364 58bb 9fcd a9bb
000000e0: 6826 d5bb 3855 36bb d655 acbb a693 b63b
000000f0: 4cb9 46b9 6ca0 adba a32b 00b9 7b2e 96ba
00000100: c3eb 4fbb a506 75ba 1d68 80ba f7b5 763b
00000110: e89f 21bc c324 5ebb 6869 55bb f323 7fba
00000120: a15c 95ba f45a 60ba 07c1 293a 8df4 7839
00000130: 7fd7 f5b9 8075 b2bb 7ab0 a9ba 9238 51bb
00000140: d1da 033b c035 6bb9 590f 003b 0211 4f3b
00000150: 2b2f 313b b3af 8bb8 164b 3b3b 621f 3f3a
00000160: cd86 34bb 8f0f 0e3a fad0 57ba 5ad9 84bb
00000170: 2b2f c8b9 7183 4c3b be5a ec3a 7326 ff3a
00000180: 12df d6bb 5ab0 b538 9a7b 193b 740a 043b
00000190: d969 c4ba fd05 853a 3678 5dbb 40a3 14ba
000001a0: d0cd 67bb 0c80 8fba 64fb 67b9 3a9c 20bb
000001b0: d7cf 38bb 7eb9 4638 4d17 653a a40c 37bb
000001c0: f3cf ac39 081e b83b 5c56 d3ba d67f 503a
000001d0: 9000 20bb 2214 363b 3c03 cc3a 6e18 1fb9
000001e0: e5e1 63ba b291 993a 610c 673a 2a75 53ba
000001f0: a77c c63a e804 dfba 8c0e ab39 8137 daba
0.0013384166 -0.0010165554 0.0027302173 0.0019062734 -0.0023598815 0.0033702992 -0.0015175721 0.0021500895
0.0009499816 -0.003208884 -0.0016667792 -0.0048658187 0.0022993118 0.00014151185 0.001714023 -0.0031338972
-0.0025851366 0.0017839338 0.0022772655 -0.0017951101 -0.00020316114 -0.00090601284 -0.0013216384 -0.0006557614
0.004477362 -0.00013420358 -0.005244103 -0.0026262433 0.003941601 0.0010492749 0.0028353664 0.00067891076
-0.0018703084 0.00023825545 -0.00010371971 -0.00047272386 0.005147684 -0.00040808547 -0.0018895953 -0.0007463224
-0.007661457 0.002150733 0.0019202178 0.004077088 -0.0019001408 0.0032087956 -0.0010034286 -0.0029757058
-0.0026950748 -0.001979262 0.0031943566 0.008601172 0.0021740831 -0.0032914516 -0.0033019118 -0.0051819826
-0.0065048225 -0.002782179 -0.005259256 0.0055718003 -0.0001895178 -0.0013246662 -0.00012223287 -0.0011457944
-0.0031726218 -0.00093469984 -0.0009796653 0.003764508 -0.009864785 -0.0033896423 -0.0032564048 -0.0009732835
-0.0011395403 -0.0008558475 0.00064756017 0.00023742225 -0.000468906 -0.005446136 -0.0012946271 -0.0031924588
0.0020119438 -0.0002243137 0.0019540398 0.003159583 0.002703617 -6.660763e-05 0.002857869 0.0007290748
-0.0027546168 0.00054191885 -0.0008232739 -0.0040542306 -0.00038182116 0.0031206275 0.0018032414 0.0019466415
-0.006557354 8.6636006e-05 0.002341962 0.0020147832 -0.0014985158 0.0010148879 -0.0033793575 -0.0005670078
-0.0035370477 -0.0010948195 -0.00022123527 -0.002450718 -0.0028200054 4.737963e-05 0.0008739129 -0.0027931118
0.0003296133 0.0056188144 -0.001612376 0.00079536194 -0.0024414398 0.0027782996 0.0015564929 -0.00015172522
-0.00086930237 0.0011716394 0.0008813795 -0.000806647 0.001514335 -0.0017015012 0.000326265 -0.0016648622

network_body._body_endoder.seq_layers.2.weight f4 [128, 128]
00000000: 7db5 943d 9cb9 533e 0090 27be ed14 c63d
00000010: db20 a3bc 217c 263d 3295 20bd e22e 12bd
00000020: d69c 1ebe ac52 44be 629c f13c e94c c93d
00000030: 2aa3 983d 6b82 22bc 785b 17bd 4545 c93c
00000040: 96bb 80bd ba97 ea3d 9753 5c3d 7c0c f6bc
00000050: dd3d a93c ba9c f73c 8a79 8e3d 3f6c 9d3c
00000060: 19fd d7bd aa59 2fbd 1a60 f3bd 5a35 0fbe
00000070: 8c4e 50bd 08e3 c23d fddf 343d 6e4a 4abd
00000080: f587 883d a5a1 5c3d d78f 99bd 7884 5ebd
00000090: c376 9f3b b561 433e 19cf 6cbd ed71 b73d
000000a0: 04ac 1cbe e625 34bc 6bd7 d83d 5b41 9ebd
000000b0: 0a58 b33d 1068 19bd d5d7 d43d 6d69 033e
000000c0: 093f 8fbc 1c12 aebd e71d 0dbe 501f a33c
000000d0: d7f4 d13c b24d 293d 6c56 fb3c bf26 053e
000000e0: b816 90ba 20c5 70bd facf ad3c da46 a1bb
000000f0: 9698 043c 7815 b83d d697 bc3c 45e7 0e3e
00000100: 0de1 893d 6a51 583d af8f 373e 6bee 6e3d
00000110: 0433 85bc 2464 3fba 4840 c5bc 582f ed3d
00000120: 64cb 7d3d 9f6d e73d 4981 063d 74a2 813b
00000130: 32e5 b83b 89d4 73bd 2333 893d ba95 efb9
00000140: a476 cebd 68fd 313d 913a e2bc 0107 05bc
00000150: 1432 f83d 2210 01bd 1fba 2f3e 918c 2fbd
00000160: 32c3 e43c 2208 1d3c 3f64 4ebd 38d2 8c3d
00000170: 3d04 ce3d 01f8 70be 57a6 29bc 161c 043e
00000180: f34c afbc 3d84 303e abf0 a53c f441 c0bd
00000190: f640 5a3d 7fd0 21be 3118 853d 9439 a4bc
000001a0: d31c 513d 8a15 b13e 1ed9 62bc 89f8 203e
000001b0: d670 5c3d bd2a bfbd 51a2 1abe 5fc5 183d
000001c0: 35d6 333c 2c26 cabc a846 6c3d 06e3 e53c
000001d0: 5cca 533d 5540 e83d b592 843d bd7a 54bd
000001e0: 9de1 663c d5ed 7cbd c45f 47bd b1e5 da3b
000001f0: e74d 793d ff39 053e f4e4 90be 783c 013e
00000200: a5a9 f63d 3bd5 873d 1f1d a2bd 6471 c13b
00000210: d81a c7bd 305a e03d 39d6 813b bc16 1a3e
00000220: 50ae 003d 0b23 48bd 1c0a 1abe 6db2 9f3d
00000230: ee43 bfbc 48b4 393e 7a60 debc d193 51bd
00000240: e250 4f3c 3761 aebd c832 36be 8084 2dbe
00000250: cc1c 87bd 03d6 bebc 3e0e aebd 5ed6 323c
00000260: 1f09 e3bc f524 583e 8358 88bc 1a52 f7bc
00000270: afa9 003d 2a11 ccbd 77ba f73b 80b8 5f3d
00000280: 710c 7abd 78de 97bd 0bdc e33d 7713 123e
00000290: 248d 97bd 3028 963d 9440 22bd 66f3 43bd
000002a0: d2aa 74bd 807a bc3d 03ab 263e cbba c4bd
000002b0: 0b43 de3c 8c29 163d 5d71 f9bd 4ff5 c53d
000002c0: 687a 013e 52a7 a03b 655f 95bc ce72 b83d
000002d0: f491 09bb 379e 19bd 3773 4a3b c208 773d
000002e0: f194 073c 8c3f 403c 9b3a 8bbd 8811 d53c
000002f0: f668 1b3e ab9f a3bc 53d1 64bc 52dc 60bc
00000300: 837b 7abe 3f01 783c c36a e93d 46c2 16be
00000310: b337 f0ba 33b2 843d 4405 09bd ae36 033e
00000320: f601 4dbd 6f00 a5bd 55bc 9b3d 669b 1c3d
00000330: 8a6e 0a3e ce1f d63c bff0 393d 390e d6bd
00000340: 950e dfbd 9c31 0dbe 2774 043d 168e c1bd
00000350: 9132 043d 3650 d43d 726b d938 b88c 463d
00000360: abb7 25bd bdaa 98bd 8542 10bd 1a99 7bbc
00000370: d7a6 1e3e 4cf2 70bd d56a 2d3d 28ae 44bd
00000380: 400d 03be c357 62bd 9598 cfbd b643 2cbd
00000390: fdce 1fbd 58c1 fa3c d0bc b53b 50be 22bd
000003a0: ee45 1d3d 35a1 243d 6f5a 1d3e 4ead b83d
000003b0: 87c8 febd 1ade ff3d dffa b3bd aaac 93bd
000003c0: a0a4 633d 7ac4 1dbb c02d d5bd 42ec 68bd
000003d0: 47a1 2abe cb3f dabc 3abf 823d 3d38 cbbb
000003e0: 26d8 913d 39a7 9f3d f368 423c f834 8abc
000003f0: 2970 1bbd da54 b9bc 9ff1 713d a508 cebc
0.07261179 0.20676273 -0.16363525 0.0967196 -0.019913128 0.040645722 -0.039204784 -0.035689242
-0.15489516 -0.19172162 0.029493514 0.098291226 0.07452996 -0.009918789 -0.036952466 0.024569163
-0.06285779 0.11454721 0.053790655 -0.03003525 0.020659382 0.0302261 0.069567755 0.019216655
-0.105463214 -0.04281012 -0.11883564 -0.13985196 -0.050856158 0.09515959 0.044158924 -0.049387388
0.06666557 0.053865094 -0.074981384 -0.05432555 0.0048664524 0.19080241 -0.05781469 0.089572765
-0.15299994 -0.010995364 0.10587963 -0.07727309 0.087570265 -0.037452757 0.10392729 0.12833185
-0.017486112 -0.08499548 -0.13780938 0.019912392 0.025629444 0.04133386 0.030680858 0.13003062
-0.0010993099 -0.058781743 0.021217335 -0.0049217762 0.00809302 0.0898847 0.02302162 0.1395541
0.06732378 0.052812018 0.17925905 0.05833284 -0.016259678 -0.0007300994 -0.024078503 0.11581296
0.061961547 0.113002054 0.03283814 0.0039561335 0.0056425566 -0.05952886 0.06699207 -0.00045697187
-0.10081223 0.043454558 -0.027615817 -0.008119346 0.12118927 -0.031509526 0.17160843 -0.042858664
0.027925108 0.009584459 -0.05038857 0.068760335 0.10059402 -0.23532106 -0.0103546 0.12901339
-0.021398997 0.17237945 0.020256361 -0.093875796 0.053284608 -0.15802191 0.06498755 -0.020046987
0.05105288 0.34586746 -0.01384571 0.15719809 0.053818546 -0.093343236 -0.15100981 0.037297603
0.010976364 -0.024676405 0.05768457 0.028062355 0.051706657 0.11340395 0.06473295 -0.051874865
0.014091876 -0.06175025 -0.048675314 0.0066802134 0.06086531 0.13010405 -0.28299677 0.12620723
0.12044076 0.06632467 -0.07915711 0.00590341 -0.09721917 0.10954702 0.003962305 0.15047735
0.031416237 -0.048861545 -0.15042919 0.07797704 -0.023347821 0.18135178 -0.027145613 -0.05116636
0.012653561 -0.08514636 -0.17792809 -0.16945076 -0.065972894 -0.023295408 -0.0849881 0.010915367
-0.02771431 0.21107848 -0.016643768 -0.030190516 0.031411823 -0.09964211 0.00756007 0.054619312
-0.06104702 -0.074154794 0.11125954 0.14265238 -0.07399967 0.07331884 -0.039612368 -0.047839545
-0.05973322 0.092030525 0.16276173 -0.096059404 0.027131578 0.036660716 -0.121798255 0.096659295
0.1264435 0.0049027586 -0.018233964 0.09006272 -0.0020991536 -0.0375044 0.0030891427 0.060311086
0.0082752565 0.011733901 -0.067982875 0.026009336 0.15176758 -0.019973597 -0.013965922 -0.013724403
-0.24461178 0.015137016 0.11397316 -0.14722547 -0.0018327147 0.06479301 -0.033452287 0.12813827
-0.0500507 -0.08056723 0.07604281 0.038234137 0.1351873 0.026138213 0.04539561 -0.104519315
-0.10891453 -0.13788456 0.032337334 -0.09450929 0.032274786 0.103668615 0.000103673796 0.048474044
-0.040458363 -0.07454441 -0.035219688 -0.0153563265 0.15493332 -0.058824822 0.04233821 -0.04801765
-0.12798023 -0.055259477 -0.101365246 -0.04205676 -0.03901576 0.030609772 0.00554619 -0.039732277
0.03839677 0.0401928 0.15366529 0.0901743 -0.12440591 0.124935344 -0.08788084 -0.072106674
0.05557692 -0.0024073408 -0.10409117 -0.056865938 -0.16663085 -0.026641747 0.0638413 -0.0062017725
0.07121305 0.07795567 0.011865842 -0.01687096 -0.03794876 -0.022623468 0.05906832 -0.025150606
