results/Test2/Test2/Test2-5403.pt (torch, 149519 bytes, 12 tensors)

network_body._body_endoder.seq_layers.0.weight f4 [128, 6]
00000000: 53ce b1be 4238 f13d a4b9 25bc 3f00 533d
00000010: ee7b 54bd 79a6 993e b0d4 b6be 2088 3e3f
00000020: be53 efbd fa15 e1bd 72c6 55bf 74d1 683e
00000030: 42dd e6be 067d 1cbe e1ce d4be 99b5 c6be
00000040: 8d33 3e3f 6085 45bc eba5 17be 3b23 92be
00000050: 8039 0cbf 4515 5dbe 09b2 8f3f 2b12 cabd
00000060: a69b 7ebf b970 1cbf ef16 093d 09c5 6c3e
00000070: 3b02 be3e 9d32 68be c69a 4b3e 2ba5 11bf
00000080: 984a 233f 7838 8c3e 4de9 1ebe 46de 85be
00000090: 7893 7cbe 85ec d8be bc86 283f 231e 173f
000000a0: 59f9 aa3e 1d10 433e d98d 86bc 5ec4 763f
000000b0: 118f 223f 0428 eabe f354 633e a28f b8be
000000c0: 0ca8 ab3e eb53 963e 450b c43d 1150 bb3e
000000d0: 11a5 09bd e28d 003f 3ccf bdbd 9ae7 3f3e
000000e0: 3da5 05be 1edc ad3e 6bbb 303f 4b15 b2bd
000000f0: 47e3 993e 2b28 81bb 4017 f43e 2ee4 623f
00000100: bc0a 083e 6879 86be ebfa 883d 5681 32bd
00000110: b64b 1abe f4a1 a23c c4aa e83e e0f1 25bf
00000120: f5e7 dabd 735e 423f 27c6 70bf 3753 b83d
00000130: 9435 8f3e b6bb a53e f787 8cbe 9419 33bf
00000140: ef99 843d c019 e5be a39a 87be f006 8a3d
00000150: a535 f2be 9743 813e 092f 3a3e 9e0f cbbd
00000160: 1be3 093f a0bd 07bf 235c 2cbc b8dd d8be
00000170: a553 8dbd e330 993d 69e7 98bc 3f87 9c3e
00000180: 20db e03b 6bd7 55be b158 d23d c190 043f
00000190: 7bf7 f23e 5b1b da3c c12d 5c3e 2929 5a3e
000001a0: 02b1 223e af34 4ebe 5a2e 053f 6b7f edbc
000001b0: dd71 edbe ae5f 94be 5747 4abe ed93 5f3d
000001c0: b550 923d c17b 0abf 6967 29be bca9 7bbd
000001d0: d0ed 31bf 9c65 323e 5041 6e3e 3518 0d3e
000001e0: 5317 283f 7b33 493f 8aeb c1bd 52a1 bb3e
000001f0: 85fc 193f 0ed5 dd3e dbf5 493f a3c7 0dbe
00000200: cd82 263e ca1e 1dbf f431 8ebe f899 933e
00000210: 5f5d 483e 3818 553e a509 2a3f 7b66 72be
00000220: 210b 02bf 488c cbbe 5b5e 913e 5a9d f53d
00000230: e60e de3e cb24 bfbe 187a bcbe cf38 f53e
00000240: 2202 aa3e 2618 8cbd f4a0 0c3e b4db 78bc
00000250: ea52 1dbf 63a7 283e 1f48 22be ab17 513e
00000260: 8c92 3bbe 5742 3c3e b828 1dbe 9798 86be
00000270: cf97 c3be 84f7 243e 21a6 0fbf 17a0 1cbf
00000280: 5daa 5ebe 7c1e 0ebf 24e3 423e 3dfb f2be
00000290: 5e17 973c 0359 013e a7e2 253f e63d 72be
000002a0: 724a 93be 4c6e b4be dfe9 c3be 79ef c5bd
000002b0: ee6a 81bd ef3b 4a3e 00d2 b0be 9973 943e
000002c0: 62c2 0d3f db5b 16be ead0 96be e630 2abe
000002d0: fb81 633f 34a2 cabd a6ee 0fbf 3a7a 1abf
000002e0: 723e a63d ae0b 963e abb4 043f cef7 133f
000002f0: b619 adbe 8ec7 cabe adc9 a73e bb34 3ebf
00000300: 7c32 f8bd aa14 f8be a1f8 14bf 9cef 863f
00000310: 3eaa 81be 8ec0 babe 67e1 f53e 29de f3be
00000320: 85cd 383f 309a ea3e 9647 f33b 65a4 103f
00000330: 5e79 c03b 47c8 883e 892b aa3d 3db5 0e3e
00000340: 44d1 1dbf b8ff ec3e c2d7 e9bd b694 21bf
00000350: 2d04 a9bd 6a8c bfbe 1395 963e 9aae c6be
00000360: e93c f73e 5378 0c3f d91c d1be 93d6 7a3e
00000370: acad cc3d 7ea7 ec3e 4580 b83e 3f90 11bf
00000380: 65e7 31be 17e3 833e 2e04 babe 1bb6 51be
00000390: c772 613f 397c b13e e2a1 a93d b675 0a3e
000003a0: f32b 3dbf ffc0 3f3f 4095 5c3f 6670 d5bd
000003b0: 09e3 323f d864 3b3f 1089 283e ab8e 123f
000003c0: edbd 10bd 9d48 253e 1d9c 04bf d7e7 e9bc
000003d0: 09f8 2c3f cbcd bcbe 5a02 d2be bd06 c53e
000003e0: db2d e1be 52c3 9cbe 6c72 a6be de6c f23e
000003f0: 793c 64be 72ac 193f 2ccd bcbe f015 0f3f
-0.34727725 0.117783085 -0.010115061 0.051513907 -0.051876 0.3000982 -0.35709143 0.7442646
-0.116858944 -0.1099052 -0.8350593 0.2273615 -0.4509068 -0.15282068 -0.41564086 -0.38810423
0.7429741 -0.012055725 -0.14809386 -0.28542504 -0.5477524 -0.21590145 1.1226207 -0.098667465
-0.9945625 -0.611095 0.033469137 0.23122038 0.37111077 -0.22675557 0.1988326 -0.5689265
0.63785696 0.27386832 -0.15518685 -0.26146144 -0.2466563 -0.4236795 0.6583059 0.5903036
0.33393362 0.19049115 -0.01642506 0.9639338 0.6349955 -0.45733654 0.22200374 -0.36047083
0.33526647 0.293609 0.09572462 0.36584523 -0.033604685 0.50216496 -0.092680424 0.18740693
-0.13051315 0.33957 0.6903598 -0.086954676 0.3005621 -0.003941556 0.47673988 0.88629425
0.13285345 -0.262645 0.06688484 -0.043580376 -0.15067944 0.019852616 0.45442784 -0.64822197
-0.106887735 0.7592537 -0.94052356 0.09000247 0.27970564 0.32369775 -0.27447483 -0.69960904
0.06474673 -0.44746208 -0.26485166 0.067396045 -0.47306553 0.2524688 0.18182005 -0.09915088
0.5386216 -0.5302372 -0.010520014 -0.42356658 -0.069007196 0.074800275 -0.018665032 0.30571935
0.0068620592 -0.20882957 0.10270823 0.51783377 0.47454438 0.026624372 0.21501829 0.21304764
0.15887836 -0.20137285 0.5202385 -0.028991422 -0.46375933 -0.28979248 -0.19753776 0.054584432
0.071443 -0.54095083 -0.16543354 -0.06144117 -0.695035 0.17421573 0.23267102 0.13778765
0.6566059 0.7859418 -0.09468754 0.36646515 0.6015094 0.4332661 0.7889077 -0.13845687
0.16260834 -0.61375105 -0.27772486 0.28828406 0.19566868 0.2081002 0.66420966 -0.23671906
-0.5079823 -0.39755464 0.283923 0.11992903 0.43370742 -0.37332758 -0.368119 0.47894904
0.33204752 -0.068405434 0.13733274 -0.0151891 -0.6145464 0.16470103 -0.15847825 0.20419185
-0.18317622 0.18384682 -0.15347564 -0.26288292 -0.38201758 0.16110045 -0.5611287 -0.6118178
-0.21744676 -0.55515265 0.1903196 -0.47457305 0.01844376 0.12631612 0.6479897 -0.23656425
-0.28767735 -0.352404 -0.38264367 -0.096648164 -0.06319223 0.19749425 -0.34535217 0.28994444
0.5537473 -0.14683478 -0.29456264 -0.16620216 0.8887021 -0.09894219 -0.56223524 -0.6034275
0.08117379 0.29305786 0.5183818 0.57799995 -0.33808678 -0.39605373 0.32771054 -0.7429921
-0.12119004 -0.48453265 -0.5819188 1.0541873 -0.25325197 -0.36475033 0.4802353 -0.47630432
0.721886 0.4582076 0.007424305 0.56500846 0.005873843 0.267153 0.08309085 0.13936324
-0.6164744 0.46288848 -0.11418106 -0.6311754 -0.082527496 -0.37411815 0.2941061 -0.38805085
0.48288658 0.548711 -0.40842322 0.24495916 0.09994063 0.46221536 0.36035362 -0.5686073
-0.17373426 0.25759193 -0.36331314 -0.20479624 0.8806576 0.34665087 0.0828283 0.13521466
-0.73895186 0.74903864 0.8616524 -0.10421829 0.6987768 0.7320075 0.16458535 0.57248944
-0.035337377 0.16140981 -0.5180071 -0.028552933 0.6756597 -0.36875758 -0.4101742 0.38481703
-0.43980297 -0.30617768 -0.32509172 0.47348684 -0.22288693 0.60028756 -0.36875284 0.5589285

network_body._body_endoder.seq_layers.0.bias f4 [128]
00000000: 0000 0000 0000 0000 0000 0000 0000 0000
00000010: 0000 0000 0000 0000 0000 0000 0000 0000
00000020: 0000 0000 0000 0000 0000 0000 0000 0000
00000030: 0000 0000 0000 0000 0000 0000 0000 0000
00000040: 0000 0000 0000 0000 0000 0000 0000 0000
00000050: 0000 0000 0000 0000 0000 0000 0000 0000
00000060: 0000 0000 0000 0000 0000 0000 0000 0000
00000070: 0000 0000 0000 0000 0000 0000 0000 0000
00000080: 0000 0000 0000 0000 0000 0000 0000 0000
00000090: 0000 0000 0000 0000 0000 0000 0000 0000
000000a0: 0000 0000 0000 0000 0000 0000 0000 0000
000000b0: 0000 0000 0000 0000 0000 0000 0000 0000
000000c0: 0000 0000 0000 0000 0000 0000 0000 0000
000000d0: 0000 0000 0000 0000 0000 0000 0000 0000
000000e0: 0000 0000 0000 0000 0000 0000 0000 0000
000000f0: 0000 0000 0000 0000 0000 0000 0000 0000
00000100: 0000 0000 0000 0000 0000 0000 0000 0000
00000110: 0000 0000 0000 0000 0000 0000 0000 0000
00000120: 0000 0000 0000 0000 0000 0000 0000 0000
00000130: 0000 0000 0000 0000 0000 0000 0000 0000
00000140: 0000 0000 0000 0000 0000 0000 0000 0000
00000150: 0000 0000 0000 0000 0000 0000 0000 0000
00000160: 0000 0000 0000 0000 0000 0000 0000 0000
00000170: 0000 0000 0000 0000 0000 0000 0000 0000
00000180: 0000 0000 0000 0000 0000 0000 0000 0000
00000190: 0000 0000 0000 0000 0000 0000 0000 0000
000001a0: 0000 0000 0000 0000 0000 0000 0000 0000
000001b0: 0000 0000 0000 0000 0000 0000 0000 0000
000001c0: 0000 0000 0000 0000 0000 0000 0000 0000
000001d0: 0000 0000 0000 0000 0000 0000 0000 0000
000001e0: 0000 0000 0000 0000 0000 0000 0000 0000
000001f0: 0000 0000 0000 0000 0000 0000 0000 0000
0.0 0.0 0.0 0.0 0.0 0.0 0.0 0.0
0.0 0.0 0.0 0.0 0.0 0.0 0.0 0.0
0.0 0.0 0.0 0.0 0.0 0.0 0.0 0.0
0.0 0.0 0.0 0.0 0.0 0.0 0.0 0.0
0.0 0.0 0.0 0.0 0.0 0.0 0.0 0.0
0.0 0.0 0.0 0.0 0.0 0.0 0.0 0.0
0.0 0.0 0.0 0.0 0.0 0.0 0.0 0.0
0.0 0.0 0.0 0.0 0.0 0.0 0.0 0.0
0.0 0.0 0.0 0.0 0.0 0.0 0.0 0.0
0.0 0.0 0.0 0.0 0.0 0.0 0.0 0.0
0.0 0.0 0.0 0.0 0.0 0.0 0.0 0.0
0.0 0.0 0.0 0.0 0.0 0.0 0.0 0.0
0.0 0.0 0.0 0.0 0.0 0.0 0.0 0.0
0.0 0.0 0.0 0.0 0.0 0.0 0.0 0.0
0.0 0.0 0.0 0.0 0.0 0.0 0.0 0.0
0.0 0.0 0.0 0.0 0.0 0.0 0.0 0.0

network_body._body_endoder.seq_layers.2.weight f4 [128, 128]
00000000: b92c 7b3c 566d de3c 24b2 9dba d5ed de3d
00000010: 41df fdbd 8b77 e9bd a95d 0d3d ffb0 35bd
00000020: ada1 50bd 6723 cfbd efc6 55bc ca06 c83d
00000030: 338c 19bc 5bb0 c73c 0bc0 2bbd b4e2 9f3d
00000040: a39f 92bd 3175 db3d cc5b 5abd 3056 493d
00000050: 6ca5 d73d 2d41 8b3c 3df0 0dbd d8bf d8bc
00000060: f402 bf3d 78fe 38bd ad01 05be 3f6a 8ebb
00000070: fee4 b23d 8862 8a3d 54c0 983c ff76 b1bd
00000080: d5dd 7fbc cb92 7a3d c565 4fbd 7ce7 b8bd
00000090: a832 16bd 355d 1abe 41e3 a9bd 7d4d c63d
000000a0: 89d4 8cbd 79b6 29bd 7ad9 d4bc 1be0 633d
000000b0: c849 35bd 5fd2 41be f790 e43c cb35 82bd
000000c0: eae2 dbbd 7890 0d3d 4dc9 20be e098 d73d
000000d0: 8c60 36bd 43f8 e93d c0a4 623d 1e4b da3d
000000e0: 91eb 773d 4b2a dc3d 17d3 c4bd 9975 8b3c
000000f0: 7938 a0bd ffee 46bb c0ee 60bc 43a6 0dbe
00000100: 5f52 433d fc50 6e3d 87f7 e4bc 8aa5 b8bd
00000110: 441d 353c 7054 733d 4627 c2bd c610 f9b7
00000120: 4f5b d83d 4d99 f8bc 9e5e 02bb a969 d5bb
00000130: 053a 033e 6b13 873c 983e 6d3c 9392 4b3d
00000140: 2867 0f3e 89b6 bdbd af61 0cbd ef78 e7bd
00000150: 66a7 3cbc 7acc 863d 7ee6 5abc bd2a 023c
00000160: 1ed1 983d 4a8b 90bd 4f6a 0ebd ce36 5a3d
00000170: c664 c9bd 0550 89be c38e 553d 09ed 2e3e
00000180: 2e64 b03d 8582 483e 220c 91bb b3ab 473b
00000190: 46f6 e2bd 79fa 9c3c 3198 40be d922 263d
000001a0: 8839 1e3e ef55 9ebd 3bce 953c 11d7 b33d
000001b0: a293 0fbd 90ba 233e 7f69 373c 08e5 f6bc
000001c0: 7a3e 233d 21b8 ddbd 2b2a d13d 17ee c93c
000001d0: 6196 b23d 283f 6fbd 8c70 b0bd 79e8 3d3e
000001e0: a07d 7e3d 94af aabd d2b2 e03d fbfb b3bd
000001f0: 060b 9abd 464c e6bd ca49 e4bd d248 dfbd
00000200: 3afc 9c3d 44db d6bd b934 ddbd 208a 903d
00000210: a12d a33d 3e9c 713b 7f1f a93c 505b 05be
00000220: b7a3 453d 5c08 11be 5ce3 90bd c4cb 2abe
00000230: 4e0e cd3d bbd8 07bd baf4 0dbc ddab e9bb
00000240: 9b7c 053d 81f8 e7bd c65b 57bd 4c04 9a3d
00000250: 23b9 873d 80b6 7b3d 689e 28bd 4b21 87bd
00000260: 59d1 82bd 596c 48bd 1789 f2bc be95 223e
00000270: 224c c0bd 406b 0d3e 8001 d1bc 7f4e 08be
00000280: d91d fbbd ada4 bfbd 46e3 9cbd 9f14 0a3e
00000290: 286d 0ebd dd9c b3bd 426a 473d cc1e 183e
000002a0: 88d1 bdbd 2c36 023d 907d d53d 96cb 95ba
000002b0: 18b5 263d 9c63 723e ddde 9a3d 3314 00be
000002c0: 9a6a 95bc f58a 853d b076 fc3d b640 abbd
000002d0: fe88 ebbc d459 68bd 8b62 3bbd 2ca5 fabd
000002e0: c40b 11be 9935 a3bb 7910 84bd a6ca 683e
000002f0: 35d6 2abc 9d50 a93d 73bb 283c f40d cdbc
00000300: 58bd dc3c dc0c ccb9 e91e 61bd 0cf9 2bbd
00000310: 7a42 f13d 32dd 983d 6304 b8bb 5c20 c9bd
00000320: 5a33 9f3d 61b8 ba3c 694f e2bd 94db 13bd
00000330: 25bf 6b3d a718 8b3d 75d0 5e3c 4263 58bc
00000340: b564 dabd 402a 32be 2250 863d e4e8 43be
00000350: 7382 d63a 4a1b cb3c d34a be3b c705 3abd
00000360: e756 61bd 2ca1 16bc 6425 a53d ea9f db3d
00000370: 2bde 1a3d d04e debd 4b78 11be 8d6e ddbd
00000380: 2748 c73d 766b 92bd e704 c6bd dd03 443d
00000390: 1ca9 11bc f816 b7bb bbd0 e9bc 9dee 82bd
000003a0: 4f50 ce3c 0f10 a6bd 6e6a dfbd f59b 7fbc
000003b0: e784 133d 0e21 8abc a3d1 04be 5dd5 363e
000003c0: e511 2c3e 59c3 b8bd 34b6 a5bd 1951 9c3d
000003d0: 26c1 963d 5de5 2bbc 6207 bdbc de8f f03c
000003e0: a1b9 39bd 70da 46bd a84c e13d c40d c3bd
000003f0: 1605 84bd 08e9 05be 73bf 10be 3a44 d0bd
0.015330487 0.027151745 -0.001203124 0.108852066 -0.12396098 -0.11399754 0.03451315 -0.04435825
-0.050935436 -0.10114174 -0.013047918 0.0976692 -0.009371805 0.024376085 -0.041931193 0.07806912
-0.071593545 0.10715712 -0.0533102 0.04915446 0.105295986 0.016998852 -0.034652937 -0.026458666
0.09326735 -0.045164555 -0.1298892 -0.0043461616 0.08735083 0.067570746 0.018646397 -0.08665275
-0.015616854 0.06117515 -0.050634164 -0.09028527 -0.036669403 -0.15074618 -0.08295298 0.096827485
-0.06876475 -0.041433785 -0.025982607 0.055633646 -0.044259816 -0.18927906 0.027901156 -0.063579164
-0.1073664 0.034561604 -0.1570179 0.105272055 -0.044525668 0.11424305 0.0553329 0.10658859
0.060527388 0.10750254 -0.09610575 0.017023848 -0.07823271 -0.0030354855 -0.013728797 -0.13832955
0.047685977 0.0581827 -0.027950061 -0.09015949 0.011054341 0.059406698 -0.09480147 -2.9690924e-05
0.10564291 -0.030346537 -0.0019892822 -0.00651284 0.12815101 0.016488751 0.014480256 0.04970033
0.14004195 -0.092633314 -0.034272846 -0.11302363 -0.01151452 0.065819696 -0.013360618 0.00794476
0.07461761 -0.07057817 -0.034769353 0.053274922 -0.09833674 -0.26818863 0.0521381 0.17082609
0.08612858 0.19581039 -0.004426495 0.003046733 -0.11082129 0.019162403 -0.18808056 0.040560577
0.15451634 -0.07731234 0.018286815 0.08781255 -0.035052903 0.15989137 0.011194586 -0.030138507
0.039854504 -0.108261354 0.10213121 0.024649663 0.08720089 -0.05840984 -0.086152166 0.18545713
0.062131524 -0.0833427 0.10971607 -0.08788296 -0.07521634 -0.11245017 -0.11146887 -0.10902561
0.07665296 -0.1049104 -0.10801072 0.07057595 0.079676874 0.003686681 0.020644901 -0.13023114
0.048251834 -0.14163345 -0.07074615 -0.16679293 0.10012494 -0.033165675 -0.008664304 -0.0071310834
0.032589536 -0.11326695 -0.052577756 0.07520351 0.06627109 0.061453342 -0.041166693 -0.06598147
-0.06387586 -0.048931453 -0.029606385 0.15877435 -0.09389521 0.13810444 -0.02551341 -0.13311194
-0.12261552 -0.09357581 -0.076605365 0.13484429 -0.03477207 -0.08770154 0.04868532 0.14855498
-0.092684805 0.031789944 0.1042434 -0.0011428471 0.04070005 0.2367081 0.07562039 -0.12507705
-0.018239308 0.065206446 0.12327325 -0.08361952 -0.028751846 -0.05672629 -0.045748275 -0.12238535
-0.14164644 -0.0049807546 -0.064484544 0.22733554 -0.0104270475 0.08267329 0.010298598 -0.025031067
0.026945755 -0.00038919493 -0.05496112 -0.041985556 0.117802575 0.07464065 -0.0056157573 -0.09820625
0.077734664 0.022792997 -0.110503025 -0.036098078 0.057555337 0.067918114 0.013599505 -0.013207259
-0.106637396 -0.1739893 0.06558253 -0.1913181 0.0016365781 0.024793286 0.0058072596 -0.045415666
-0.055014517 -0.0091937 0.08063772 0.107238606 0.037809532 -0.10854876 -0.14206044 -0.108121015
0.09730559 -0.07149403 -0.09668904 0.047855247 -0.0088904165 -0.005587455 -0.028541913 -0.06393168
0.025184778 -0.08108532 -0.10908972 -0.015601148 0.036015417 -0.016861465 -0.12970595 0.17854829
0.16803701 -0.090216346 -0.08091393 0.07632656 0.07361059 -0.010491696 -0.02307481 0.029365476
-0.045343045 -0.048548162 0.11000949 -0.0952411 -0.064462826 -0.13077176 -0.14135532 -0.10169263

network_body._body_endoder.seq_layers.2.bias f4 [128]
00000000: 0000 0000 0000 0000 0000 0000 0000 0000
00000010: 0000 0000 0000 0000 0000 0000 0000 0000
00000020: 0000 0000 0000 0000 0000 0000 0000 0000
00000030: 0000 0000 0000 0000 0000 0000 0000 0000
00000040: 0000 0000 0000 0000 0000 0000 0000 0000
00000050: 0000 0000 0000 0000 0000 0000 0000 0000
00000060: 0000 0000 0000 0000 0000 0000 0000 0000
00000070: 0000 0000 0000 0000 0000 0000 0000 0000
00000080: 0000 0000 0000 0000 0000 0000 0000 0000
00000090: 0000 0000 0000 0000 0000 0000 0000 0000
000000a0: 0000 0000 0000 0000 0000 0000 0000 0000
000000b0: 0000 0000 0000 0000 0000 0000 0000 0000
000000c0: 0000 0000 0000 0000 0000 0000 0000 0000
000000d0: 0000 0000 0000 0000 0000 0000 0000 0000
000000e0: 0000 0000 0000 0000 0000 0000 0000 0000
000000f0: 0000 0000 0000 0000 0000 0000 0000 0000
00000100: 0000 0000 0000 0000 0000 0000 0000 0000
00000110: 0000 0000 0000 0000 0000 0000 0000 0000
00000120: 0000 0000 0000 0000 0000 0000 0000 0000
00000130: 0000 0000 0000 0000 0000 0000 0000 0000
00000140: 0000 0000 0000 0000 0000 0000 0000 0000
00000150: 0000 0000 0000 0000 0000 0000 0000 0000
00000160: 0000 0000 0000 0000 0000 0000 0000 0000
00000170: 0000 0000 0000 0000 0000 0000 0000 0000
00000180: 0000 0000 0000 0000 0000 0000 0000 0000
00000190: 0000 0000 0000 0000 0000 0000 0000 0000
000001a0: 0000 0000 0000 0000 0000 0000 0000 0000
000001b0: 0000 0000 0000 0000 0000 0000 0000 0000
000001c0: 0000 0000 0000 0000 0000 0000 0000 0000
000001d0: 0000 0000 0000 0000 0000 0000 0000 0000
000001e0: 0000 0000 0000 0000 0000 0000 0000 0000
000001f0: 0000 0000 0000 0000 0000 0000 0000 0000
0.0 0.0 0.0 0.0 0.0 0.0 0.0 0.0
0.0 0.0 0.0 0.0 0.0 0.0 0.0 0.0
0.0 0.0 0.0 0.0 0.0 0.0 0.0 0.0
0.0 0.0 0.0 0.0 0.0 0.0 0.0 0.0
0.0 0.0 0.0 0.0 0.0 0.0 0.0 0.0
0.0 0.0 0.0 0.0 0.0 0.0 0.0 0.0
0.0 0.0 0.0 0.0 0.0 0.0 0.0 0.0
0.0 0.0 0.0 0.0 0.0 0.0 0.0 0.0
0.0 0.0 0.0 0.0 0.0 0.0 0.0 0.0
0.0 0.0 0.0 0.0 0.0 0.0 0.0 0.0
0.0 0.0 0.0 0.0 0.0 0.0 0.0 0.0
0.0 0.0 0.0 0.0 0.0 0.0 0.0 0.0
0.0 0.0 0.0 0.0 0.0 0.0 0.0 0.0
0.0 0.0 0.0 0.0 0.0 0.0 0.0 0.0
0.0 0.0 0.0 0.0 0.0 0.0 0.0 0.0
0.0 0.0 0.0 0.0 0.0 0.0 0.0 0.0

action_model._continuous_distribution.log_sigma f4 [1, 2]
00000000: 0000 0000 0000 0000
0.0 0.0

action_model._continuous_distribution.mu.weight f4 [2, 128]
00000000: 2809 9c3b 85fe dabb 8fdb 4cbc 5d0b db3b
00000010: 41c1 c5bb 5ac5 973c 8315 dd3a 67d5 47bc
00000020: 53da 73bc 1f00 f33b c3e8 86bc ed13 b73c
00000030: bf67 9a3b 88da f5bc 3bb4 3b3c 4b31 153c
00000040: 9fe3 603c d874 b6bb 9f02 cebb 07ea 263c
00000050: 25ac 1cbc 448c 00bc f363 843b cb45 053d
00000060: 0a5d 933c f332 843b 8614 9bbc e846 d23b
00000070: 873a 9ebc cbd6 053c 834b ba3c bea2 1abd
00000080: 9ae7 6abc 0737 05bb 286e d43c cb05 94bb
00000090: 349a 85ba a38e 8b3c 26c6 01bd 67d1 863c
000000a0: 4332 85bc aff3 22bc e4cb 98bb 9651 983c
000000b0: 239c cb3c 4206 8d3a 7f4e ddbb bcb5 9fba
000000c0: d103 96bb 1b2e 6e3c 4818 dbba 9b8a a83c
000000d0: c72c 23bb bfa3 9f3c ff3c 813c e24a ffbb
000000e0: 38af 65bb bb20 a33c f246 bc3b 8fbc 3f3c
000000f0: 79e3 c03b fe0b 483c a3fa 063c 21f2 c8bb
00000100: b343 c9bb 19ab c1bc 8893 013c 7b75 fc3c
00000110: 25d7 3ebc a739 443b 7109 393a e3bc c63c
00000120: a237 ec3c 8a08 4b3c 6ace 7dbb 3bf8 ebbb
00000130: 53ce 98bc 1717 323c 47dc 543c c018 0a3b
00000140: 2a0a 3e3b 4f00 7f3c 4b8e 08bd 2ab6 92bb
00000150: 06a4 243a e6ab 8a3c 6c59 2abc f7e5 3b3a
00000160: 7371 a2bb 30b9 533c fa5c a4bc aa65 6dbb
00000170: 83a7 ab3b 0d1e 5fbb a0a1 f2bb 513c 4a3b
00000180: 926d 693b 1a48 50bc 7128 3f3d ab1b 443c
00000190: 762a 183b 43bb 25bd 90dd 96bb a548 ce3b
000001a0: 488a 4fba e298 683c bbbf 05bd 0b9d 60bc
000001b0: e77e 9abc 02a2 013d 1161 923b 556e 05bc
000001c0: 4390 6dbc 9c37 2bbc 74a4 3cbc 1824 133d
000001d0: b7a8 843c 1bfb 953b 9997 073c 623d d93b
000001e0: 9afa 38bc a302 95bc 164b 88bc 5529 6b3b
000001f0: b3f4 5abb e35a 09bd 1cd2 9dbb d3d0 b03c
00000200: 797f 20bc 04b0 90bb 27e5 b13b 8ce5 80bc
00000210: 579e 28bc 2475 81bc d3bd 133c 6d01 42bc
00000220: a831 21bd 50c3 e139 a07a ecb9 3f8e 0c3c
00000230: c057 c73b e72f d0ba 2b83 5c3c b3bd 03bc
00000240: a255 afba 77e7 023c d010 5abb ffeb 3f3c
00000250: 5f1b 5dbc 2a4e 39bb d3e8 fbbb 1a65 e1bb
00000260: 8515 69bb 234e 2a3d 72e3 783c 4c7e 2fbc
00000270: 6810 a43c bf04 ef3b 93cb 4f3c 5f7d d8ba
00000280: 07c4 66bb 130b 523c 628d 9ebc f2a0 dbbc
00000290: 1da9 3abc 6ebd acbc a31d e43c a674 083b
000002a0: 6ada 8a3c 6007 0a3d 4c65 b13b 12e7 fd3c
000002b0: 8f9e ebbb 4b6f f1bc 3cb2 113d 6bf3 36ba
000002c0: b648 943c 7da9 e3bc 2ddc 90bc 6342 bbbc
000002d0: 9c61 22ba c2f6 55ba a0d0 ef3b 9801 d33b
000002e0: d3f1 87bc 2933 163c ab91 d13b bd57 63bb
000002f0: d099 4e3c bcdd 3a3a 0d4c db3b 0771 813b
00000300: 8df1 eebb dfe1 443c 8755 803c 1e84 9cbc
00000310: ffb1 10bb fd61 e63c e235 a93c 6869 853c
00000320: 6e1a 893b 902f c7bc eabb b43c 8ddf c83c
00000330: 18fc 66bc c6e7 453b 2e77 443b 173f e93c
00000340: cbd2 dbbb 3f59 e33b ef6f 03bc ce45 353c
00000350: 1866 4d3c 655a 78bc 28a6 113d 37dc 6e3b
00000360: c492 41bc 07f5 b9bc c731 023d 7a4a 65bc
00000370: 3287 fc3b 2dcd c6bb fbe3 56bc f9b2 813c
00000380: 3bad 93bb 6bbc 603c 7813 1ebb 4d09 843c
00000390: 4390 103d 8374 963c 0505 0f3c 9a4d 72bc
000003a0: 9884 f53a 0f91 793c e305 cfbb 47b1 11bd
000003b0: f713 103c b207 e7bc 604a 0abd 9bfe 05bd
000003c0: 3676 823c 8350 7abb 4f72 033c d007 4d3c
000003d0: 3193 063d 0209 ec3c 7092 303b b637 11bd
000003e0: 15a6 d9bc 59dd b03c 1dfa 73bc a3f8 a83b
000003f0: 555b 60bc af08 f1bc 4bc6 85bb 07e4 3d3b
0.0047618337 -0.006683173 -0.012503519 0.006684704 -0.0060350006 0.018526722 0.0016867373 -0.012196875
-0.0148835955 0.007415786 -0.016468411 0.022348369 0.0047120745 -0.03001143 0.0114565445 0.009105991
0.013726144 -0.005568128 -0.0062869336 0.010187632 -0.009562527 -0.007845942 0.004040235 0.032537263
0.0179887 0.004034394 -0.018930685 0.006417144 -0.019315017 0.008168886 0.022741085 -0.03775286
-0.014337445 -0.0020326988 0.025931433 -0.004517292 -0.0010193051 0.017035788 -0.03168311 0.016457273
-0.016259318 -0.009945794 -0.0046629775 0.01859359 0.024854725 0.0010759311 -0.006753742 -0.0012184898
-0.0045780917 0.01453736 -0.001671561 0.020573905 -0.0024898516 0.01948726 0.015776156 -0.007790909
-0.0035047065 0.019913068 0.005745762 0.011702671 0.005886492 0.01220989 0.008238467 -0.0061323796
-0.0061421036 -0.023641156 0.007908709 0.030817738 -0.011647974 0.002994159 0.0007058597 0.02425999
0.028835122 0.012392173 -0.0038727769 -0.0072012222 -0.01865307 0.010869763 0.012991971 0.002107188
0.0028997757 0.015564038 -0.033338826 -0.004477282 0.0006280545 0.01692767 -0.010397296 0.00071677513
-0.004957372 0.01292257 -0.020063866 -0.0036223927 0.005238475 -0.0034045011 -0.007404521 0.0030858705
0.0035618288 -0.012712503 0.046669427 0.011969487 0.0023218668 -0.04046179 -0.004604049 0.006295281
-0.0007917029 0.014196606 -0.03265355 -0.013709317 -0.01885934 0.031648643 0.0044671376 -0.008143981
-0.014499727 -0.01045027 -0.011513818 0.035923094 0.01619373 0.0045770532 0.00827589 0.006629632
-0.011290217 -0.018189734 -0.016637366 0.003588279 -0.0033410012 -0.033533942 -0.0048163068 0.02158395
-0.009796017 -0.004415514 0.0054289284 -0.015734456 -0.010291657 -0.015802927 0.009017426 -0.01184116
-0.039353997 0.00043060863 -0.0004510479 0.008578836 0.0060834587 -0.0015883417 0.013459007 -0.008040833
-0.0013376961 0.007989756 -0.0033274181 0.011713981 -0.013495295 -0.002827535 -0.007687667 -0.0068785073
-0.0035565805 0.041578423 0.015190946 -0.010711264 0.020027354 0.007294267 0.012682813 -0.0016516856
-0.0035212056 0.012820023 -0.019354526 -0.026810143 -0.011392859 -0.02108642 0.027846163 0.002082148
0.016949851 0.03369844 0.005413687 0.030993972 -0.0071905325 -0.029472014 0.03557037 -0.0006979021
0.018101078 -0.02779078 -0.017683113 -0.022858804 -0.00061943545 -0.0008162075 0.007318571 0.006439399
-0.016594803 0.009167471 0.006395539 -0.0034689747 0.012609914 0.0007128378 0.0066924156 0.0039502415
-0.0072919787 0.0120167425 0.015665783 -0.019105967 -0.002207875 0.028122896 0.020655576 0.016285613
0.004184059 -0.024314672 0.02206226 0.02452066 -0.01409819 0.0030197962 0.0029978263 0.028472466
-0.006708478 0.006938129 -0.0080222925 0.011064006 0.012536548 -0.0151582705 0.03555885 0.0036447176
-0.011814777 -0.022699846 0.031785753 -0.013994807 0.007706546 -0.0060669393 -0.013115878 0.015832411
-0.0045067347 0.013716797 -0.002412049 0.016117716 0.03529383 0.018366104 0.008729224 -0.0147890095
0.0018731533 0.015232339 -0.0063178404 -0.035569455 0.0087938225 -0.028201912 -0.033762336 -0.032713514
0.015925508 -0.0038194961 0.008022859 0.01251407 0.032855216 0.028812889 0.0026942752 -0.03545352
-0.026568452 0.021589922 -0.014891175 0.005156593 -0.01369365 -0.029423086 -0.0040824763 0.0028975026

action_model._continuous_distribution.mu.bias f4 [2]
00000000: 0000 0000 0000 0000
0.0 0.0

network_body._body_endoder.seq_layers.0.weight f4 [128, 6]
00000000: ecd6 73be b918 dcbe 6502 68be 8156 413e
00000010: 902c 243e c5ee 53be 883b d1be e4f4 1d3f
00000020: 1ace 373e 3ebc 783e 2b68 213f 6fef f13d
00000030: b0d6 863d bc86 343e ee96 6e3e 80f9 1dbe
00000040: 20e4 403e e3ac 4c3d 0baf 423f 600d 36be
00000050: 2e04 4bbf e8c7 c4be e1ab 523e 2761 3b3f
00000060: 3339 3ebb cb37 34be 97d1 f43b cf67 60be
00000070: 958c 803e 8f90 e2be 428b b33e af86 93bd
00000080: abba 813e 9272 4cbf 8f24 1abf b7f5 273e
00000090: 719f 35be eae5 08bd 32e7 2abe 12d0 89be
000000a0: 499e 1dbd 3cd4 9e3e 5ba5 143d e208 373f
000000b0: bdf2 9d3d 0116 70be cee9 ce3d 35b1 093f
000000c0: fb8c e93e 3326 423d 99da 7dbd 6292 56be
000000d0: d7d1 793e 4b35 1fbe 4542 ee3e 8ed4 4ebe
000000e0: 1335 a8be 6214 1c3f 2c62 b4be 762c 403e
000000f0: 95c8 10bf 3dff c03e e1b1 37bf 2beb b9bd
00000100: 36d2 71bd 2ffb 6dbd 6ef8 c73d 56d6 183f
00000110: c9a9 1cbf 22db 50bc 2e65 81be 12d0 ca3e
00000120: 68fa 8abe ed13 cf3e 7996 a7bd dccc 90be
00000130: 5695 22bf c3ae d4be aea7 e93d bd13 193f
00000140: 77af 73bc bffb 1fbf 35cb c43e 889e 8fbe
00000150: 1fc1 7d3e f7a3 7c3e caab b63e c963 c3bd
00000160: c88e e13e 6522 0dbf 7797 2b3e 6566 d83e
00000170: aaf5 99bd 2ab9 b63e fa71 33be b544 f6bd
00000180: f16f ec3d 2c5f 823e 3bfd 953e 218c 61bf
00000190: 7284 fb3e 9fcc b53e 8911 2bbf aed1 3ebe
000001a0: be33 eabd e728 7b3e 1320 2e3d 107a 87bd
000001b0: aa03 a6be db18 473e aa2a cfbe cbca 083f
000001c0: 7787 fabe 0265 a23e c233 bebe c615 24be
000001d0: a0d5 28bf 40d4 72be 8e1a b53d 183c 3fbe
000001e0: 0234 99bd d3d0 0ebd 7959 b13c 8968 c5bd
000001f0: 81f2 8b3e 91a7 573e cc4f c63e 2bb7 25bf
00000200: f9a6 7dbe 410b 6abe e048 d33e 36ef eebe
00000210: 7b91 233f 05a3 05bf e970 fabe 563a 58bd
00000220: 6026 ae3e 39da d83d a69b 9f3d 709b 373d
00000230: a614 39bf 3acd 853e 9eed 7a3f 4a0e 593e
00000240: 9c1a 0cbe cb7c 70be b8f7 f3bd f959 0d3f
00000250: f70b 623e 88db 42be 2490 f9bd 49ca a5be
00000260: e524 2e3f 5106 61bd c88f 933c 9cce b53e
00000270: 64ff 223f 8541 f13d 4fd3 64bd 7e12 dbbd
00000280: 4d22 763e dd46 05bf 39ee 0a3f 12fc 50be
00000290: 8e13 07bf a31f ec3e 2b5a c6bb 2aa4 50bc
000002a0: 141a 05bf 93a0 953e 513b 0abf f2f3 07bf
000002b0: e394 d33e 2559 b6bd 603f d0be c037 063e
000002c0: f1f7 43bf f572 ccbe e2f7 983e d67c b53d
000002d0: 4b2b 063e 7517 71bf 19f6 f93d 4ad0 c7be
000002e0: 3541 7cbe 077a 103d f4d4 ac3e b554 073d
000002f0: f672 413e d158 f33e e562 a13a 2ede 903e
00000300: 9ac1 4cbd 779d 073f 6a59 803e ada1 d13d
00000310: 6038 06bd 99d4 4fbe 3035 843d e153 fe3e
00000320: 5593 f73d d078 9ebe 0bb2 093f c52e d2be
00000330: 661a 333e 4025 ae3d 870e 1f3e be4a ef3d
00000340: 2921 b4be fbcd aa3d b9cd 723d c23b 40bc
00000350: 2850 413e f379 11bd ed2f a4bd 5e51 113f
00000360: 04ac 0b3f aeb5 8cbe 2546 a5be fc97 893e
00000370: 7767 33be 7737 10be b704 8eba 28ca 2f3f
00000380: 82a9 35bb 012f 013f 27e4 33be 6266 043f
00000390: 0d13 9dbe cf96 fdbe e7e9 0ebd a583 98be
000003a0: e8df 0a3f 0fa6 ecbe 0a12 403d 0c74 ec3e
000003b0: 8268 3dbe defb 30bf 9d42 3d3e 21ea 4b3f
000003c0: 3de1 483f 0ae4 8ebd 802e 42bb c5dc 833e
000003d0: a532 4dbd a993 3f3e d029 c4be 06a2 113f
000003e0: 5696 073f f67f 6d3e 711e cbbd 7685 1c3d
000003f0: df60 643f a562 d6be 1929 0f3f 0334 12bf
-0.23812455 -0.42987612 -0.22657163 0.18880655 0.16032624 -0.20696552 -0.4086573 0.617018
0.17949715 0.24290559 0.6304957 0.118132465 0.06583917 0.17629522 0.23299763 -0.15427208
0.18837023 0.049969565 0.76048344 -0.1777854 -0.7930325 -0.38433766 0.20573379 0.7319512
-0.0029025793 -0.17599408 0.007471274 -0.219146 0.25107256 -0.44250914 0.35067183 -0.07203423
0.2533773 -0.7986232 -0.60212034 0.16402327 -0.17736603 -0.033422388 -0.16689757 -0.26916558
-0.03848103 0.31021297 0.036290508 0.7149793 0.07712314 -0.23445894 0.101031885 0.5378602
0.45615372 0.04739971 -0.06197605 -0.20954278 0.24396454 -0.15547673 0.46534935 -0.2019827
-0.32852992 0.609686 -0.3523115 0.1876696 -0.56556064 0.3769473 -0.71755797 -0.09078058
-0.059038363 -0.058100875 0.09764181 0.5970205 -0.6119657 -0.012747558 -0.25272506 0.3961187
-0.2714417 0.4044489 -0.08182997 -0.28281295 -0.6350912 -0.41539583 0.114089355 0.59795743
-0.014873377 -0.6249351 0.38436285 -0.28050637 0.24780701 0.24671923 0.3567794 -0.09540517
0.44054246 -0.55130607 0.16756998 0.4226562 -0.0751756 0.35688144 -0.17523947 -0.120248236
0.11544789 0.25463235 0.29294762 -0.88104445 0.49124485 0.35507676 -0.6682363 -0.18634674
-0.1143565 0.24527322 0.042511057 -0.066150784 -0.3242467 0.19443075 -0.40462238 0.5343444
-0.48931476 0.31717688 -0.37148863 -0.16023931 -0.65950966 -0.2371378 0.088429555 -0.18675268
-0.07480623 -0.03486712 0.02164911 -0.09639079 0.27333453 0.21060015 0.38732755 -0.6473262
-0.24770726 -0.22855856 0.41266537 -0.46666878 0.6389386 -0.52201873 -0.4891427 -0.05279001
0.34013653 0.10588498 0.077933595 0.04482597 -0.7229713 0.26133138 0.98018825 0.21196857
-0.13682026 -0.23485105 -0.11912483 0.5521541 0.22074877 -0.19029057 -0.12185696 -0.32380894
0.68025047 -0.054937664 0.018012896 0.35509193 0.63670945 0.11780075 -0.055865582 -0.106968865
0.24036522 -0.52061254 0.5426975 -0.20408657 -0.52764213 0.46117887 -0.0060532293 -0.012734452
-0.5199292 0.2922407 -0.5399676 -0.53106606 0.4132453 -0.08903722 -0.4067335 0.13107204
-0.76550204 -0.39931455 0.2987662 0.08861701 0.13102452 -0.9417642 0.122051425 -0.390261
-0.2463425 0.035272624 0.3375622 0.033039767 0.1889151 0.475287 0.0012312798 0.2829451
-0.04998932 0.5297465 0.25068218 0.10235915 -0.032768607 -0.20295943 0.06455457 0.4967337
0.12088648 -0.30951548 0.53787297 -0.41051307 0.17490539 0.085031986 0.15532885 0.11684178
-0.3518155 0.08340069 0.059278224 -0.011732997 0.18878233 -0.03551669 -0.080169536 0.5676478
0.5455935 -0.2748236 -0.3228008 0.26873767 -0.17519937 -0.14083658 -0.0010835145 0.6866784
-0.0027719443 0.5046235 -0.17567502 0.51718724 -0.30678597 -0.4952912 -0.034891035 -0.29787937
0.54247904 -0.46220443 0.046892203 0.46182287 -0.18496898 -0.6913432 0.18482442 0.7965413
0.78468686 -0.06977089 -0.0029629767 0.2575437 -0.050097127 0.18708672 -0.3831315 0.56887853
0.5296377 0.23193344 -0.099179156 0.038213216 0.89210314 -0.41872135 0.55922085 -0.57110614

network_body._body_endoder.seq_layers.0.bias f4 [128]
00000000: 0000 0000 0000 0000 0000 0000 0000 0000
00000010: 0000 0000 0000 0000 0000 0000 0000 0000
00000020: 0000 0000 0000 0000 0000 0000 0000 0000
00000030: 0000 0000 0000 0000 0000 0000 0000 0000
00000040: 0000 0000 0000 0000 0000 0000 0000 0000
00000050: 0000 0000 0000 0000 0000 0000 0000 0000
00000060: 0000 0000 0000 0000 0000 0000 0000 0000
00000070: 0000 0000 0000 0000 0000 0000 0000 0000
00000080: 0000 0000 0000 0000 0000 0000 0000 0000
00000090: 0000 0000 0000 0000 0000 0000 0000 0000
000000a0: 0000 0000 0000 0000 0000 0000 0000 0000
000000b0: 0000 0000 0000 0000 0000 0000 0000 0000
000000c0: 0000 0000 0000 0000 0000 0000 0000 0000
000000d0: 0000 0000 0000 0000 0000 0000 0000 0000
000000e0: 0000 0000 0000 0000 0000 0000 0000 0000
000000f0: 0000 0000 0000 0000 0000 0000 0000 0000
00000100: 0000 0000 0000 0000 0000 0000 0000 0000
00000110: 0000 0000 0000 0000 0000 0000 0000 0000
00000120: 0000 0000 0000 0000 0000 0000 0000 0000
00000130: 0000 0000 0000 0000 0000 0000 0000 0000
00000140: 0000 0000 0000 0000 0000 0000 0000 0000
00000150: 0000 0000 0000 0000 0000 0000 0000 0000
00000160: 0000 0000 0000 0000 0000 0000 0000 0000
00000170: 0000 0000 0000 0000 0000 0000 0000 0000
00000180: 0000 0000 0000 0000 0000 0000 0000 0000
00000190: 0000 0000 0000 0000 0000 0000 0000 0000
000001a0: 0000 0000 0000 0000 0000 0000 0000 0000
000001b0: 0000 0000 0000 0000 0000 0000 0000 0000
000001c0: 0000 0000 0000 0000 0000 0000 0000 0000
000001d0: 0000 0000 0000 0000 0000 0000 0000 0000
000001e0: 0000 0000 0000 0000 0000 0000 0000 0000
000001f0: 0000 0000 0000 0000 0000 0000 0000 0000
0.0 0.0 0.0 0.0 0.0 0.0 0.0 0.0
0.0 0.0 0.0 0.0 0.0 0.0 0.0 0.0
0.0 0.0 0.0 0.0 0.0 0.0 0.0 0.0
0.0 0.0 0.0 0.0 0.0 0.0 0.0 0.0
0.0 0.0 0.0 0.0 0.0 0.0 0.0 0.0
0.0 0.0 0.0 0.0 0.0 0.0 0.0 0.0
0.0 0.0 0.0 0.0 0.0 0.0 0.0 0.0
0.0 0.0 0.0 0.0 0.0 0.0 0.0 0.0
0.0 0.0 0.0 0.0 0.0 0.0 0.0 0.0
0.0 0.0 0.0 0.0 0.0 0.0 0.0 0.0
0.0 0.0 0.0 0.0 0.0 0.0 0.0 0.0
0.0 0.0 0.0 0.0 0.0 0.0 0.0 0.0
0.0 0.0 0.0 0.0 0.0 0.0 0.0 0.0
0.0 0.0 0.0 0.0 0.0 0.0 0.0 0.0
0.0 0.0 0.0 0.0 0.0 0.0 0.0 0.0
0.0 0.0 0.0 0.0 0.0 0.0 0.0 0.0

network_body._body_endoder.seq_layers.2.weight f4 [128, 128]
00000000: 51e0 1cbe bddf 29bc 7e9b b33d 5479 81bd
00000010: 3795 e93d 5fd7 03be 7650 763c 3d58 8f3c
00000020: c942 243e f07a 0c3e ba6a 21bd a7ad 4ebd
00000030: 20ac 1c3e 3ea6 99bd aea9 3c3d c30a ab3d
00000040: 57c9 02be fa39 a2bd ed20 86bd 0dd7 2f3d
00000050: 6bfe 223e de0e b9bd e8f6 dc3c 3d74 9f3d
00000060: 007e a0bd 26d5 5abd 09d4 1abc b587 9abc
00000070: 636e b43c bdfe ac3d 754f 98bd c426 413e
00000080: acc2 2f3e e559 9d3d 36e5 2cbe f7dd 2fbd
00000090: b113 bfbc 00a2 973c 4172 793c 9109 9b3d
000000a0: fc4c 343c 9285 2b3e 735f f5bd 9d17 813c
000000b0: b2b3 503d 3bb3 f8bd a011 463d 6cbf 243d
000000c0: 323a d5bc e63a 4abc 8299 593e 1aed 003d
000000d0: 2a74 ce3c dd54 f2bc adfc c03b d824 c3bd
000000e0: 8665 7d3b 418c a9bd 2ceb 2fbc a181 673d
000000f0: 9fe9 233d dc85 f13d 3820 e13b 6d36 7b3d
00000100: ec39 a93c e0a8 c9bb 835f 0e3e 38fe 1cbd
00000110: 70c8 4a3a c59c b13c 9b11 823c bfa7 58bd
00000120: 0f45 9b3d 529a a53d 32bb a8bd f438 a83c
00000130: 89f6 d9bc 1fc0 d53c 3e35 833d 4984 683c
00000140: b584 3fbd 3d80 0fbb 1df0 3a3c e243 bebc
00000150: 8dc4 433e 9893 adbd f2f0 c6bd 109e ea3d
00000160: 4f21 a63c b569 153e fe36 bf3c d54f 5dbc
00000170: 5a26 0ebe a01d 1ebd a381 0d3c b3f5 37bd
00000180: 6be9 dcbc 3837 acbd 083e 763d 5514 56bd
00000190: a7c5 0c3e 8a01 dabd 8315 96bd 4cee f9bd
000001a0: 85d8 ddbc 5669 b93c ed2d 113e d06f 72bd
000001b0: eec9 66bd 2995 8539 2ed1 ffbc 7918 993c
000001c0: 6819 1c3e 17e9 9abd db8f 2bbd 67fc efbd
000001d0: 7c0c 06bd 75ae 133e 189a 1fbd fb32 773e
000001e0: fc27 c5bd 5eab b43c 0cd8 d7bd 1623 9a3d
000001f0: af7b debd 1693 9c3d 4107 9ebc d260 893c
00000200: be85 d8bd c293 06be 7392 a83d c0ff 013e
00000210: c2bd 1b3d 80a1 7bbd 729b 023e 7673 31bd
00000220: c84f 35bc 7bc9 a53d 655d d13d cdcc f13d
00000230: e93f 0abe bce0 3d3d d45d 9dbd 2241 933d
00000240: ed54 3abb 4a95 2cbd dc52 813d 3aaf fdbc
00000250: ba26 e2bd d5fc 83bd aa05 c03d b64c c1bd
00000260: aa00 3ebd 3071 d3bc 302a 46bc 0517 b33d
00000270: 9d68 87bd 4bac 563c 4f52 c43c 2b57 e6bc
00000280: ae91 b6bd 95ce b7bd 333d b5bb 4379 43bc
00000290: b61b 38be 8735 a93c 1895 b7bc 68bd 9ebd
000002a0: bce0 293d d6c2 913c ca9b 903d b1ec 16be
000002b0: b43d 92bd 85da 0d3e cd8a d8bd f146 9a3d
000002c0: 6e8c 253e c92b b0bd c2ec 8abc 85e8 6b3d
000002d0: 085e 08be 3bc1 e8bd a238 94bd f433 44bd
000002e0: d65e f83d 81db 083e 1676 ccbd 5d9f 5fbd
000002f0: a1fc 83bd 3adf 06bb c65e 9f3d bb84 2e3d
00000300: d5d0 5e3d cee0 1ebd 5c6b 4abd 24db 493e
00000310: fcde f93d b52d e0bd 9525 063e 5f3a d83d
00000320: 72b0 5cbd 4cb4 24be 66a3 2fbd 5e63 54ba
00000330: 9bfd 153d 484f be3c 1eb6 cbbd 6058 e73b
00000340: 7421 7cbd e7b7 6bbd 1f22 113d ecf1 90bd
00000350: 488e 99bd 93f8 04bd 3751 513e 6b98 45be
00000360: aa1c 75be e0a3 90bd 5225 8d3c c766 06bd
00000370: 14a5 d03c e95c fbbd 8788 a63d 4e5e 1c3c
00000380: 1a15 d63d 22d2 b0bd 8c1b fb3d 50ef f13c
00000390: e202 1c3e 2846 05be 3e83 d3bd a16b b0bd
000003a0: 854e ab3d 22b4 b23d 9320 94bd 908f 453e
000003b0: f75b 09be 019d efbd 7e44 2b3d 753c 073e
000003c0: 2d33 ecbc 7e95 0d3e fcb4 c73d fda4 2b3d
000003d0: a6b4 60bd 3c37 bebc 292d a43d 8d72 2abc
000003e0: d9b7 7abd f576 c23c f895 21bd 2853 493d
000003f0: 62c3 12bd 696d 85bc cdca 203d 6873 c73c
-0.15319945 -0.010368285 0.08769892 -0.0632197 0.114054136 -0.12875126 0.015033832 0.01749813
0.16041102 0.13718772 -0.039408423 -0.050458577 0.15300035 -0.07502411 0.046060257 0.08351662
-0.12772118 -0.079212144 -0.06549249 0.042929698 0.15917365 -0.09036039 0.026973203 0.077858426
-0.078365326 -0.05342593 -0.009449967 -0.018863538 0.022025293 0.08447025 -0.0743703 0.18862444
0.17164105 0.07683162 -0.16884312 -0.04293629 -0.02332482 0.018509865 0.015224994 0.07570184
0.011004683 0.16750172 -0.11981096 0.01575833 0.05095262 -0.121435605 0.048356652 0.040221617
-0.026028726 -0.012343144 0.21249965 0.031476118 0.025201876 -0.029581482 0.0058894963 -0.09528512
0.003866525 -0.082787044 -0.010737222 0.056520108 0.04001772 0.1179311 0.006870296 0.0613312
0.020657502 -0.0061541647 0.13903622 -0.03832838 0.0007735556 0.021681199 0.015877536 -0.05289435
0.07581531 0.08086075 -0.0823883 0.02053497 -0.026606815 0.026092587 0.064066395 0.0141916955
-0.04675742 -0.0021896504 0.0114097865 -0.023225728 0.19117947 -0.08475417 -0.097139254 0.11455929
0.020279555 0.14591105 0.023341652 -0.013507803 -0.13881817 -0.03860247 0.008636865 -0.04491205
-0.026966771 -0.0840897 0.06011775 -0.052265484 0.13747273 -0.10644825 -0.07328322 -0.12203655
-0.027080784 0.022633236 0.14177676 -0.059188664 -0.05634492 0.0002547887 -0.031227674 0.018688427
0.15244067 -0.075639896 -0.04188524 -0.11718064 -0.03272675 0.14422019 -0.038965315 0.24140541
-0.09626767 0.02205437 -0.105392545 0.07526223 -0.108634345 0.07645242 -0.019290568 0.0167698
-0.10572384 -0.13142303 0.08231058 0.12695217 0.038022764 -0.061433315 0.1275461 -0.043323003
-0.011066385 0.0809507 0.10222892 0.11806641 -0.13500942 0.0463569 -0.07683912 0.071901575
-0.0028431967 -0.04213456 0.06314632 -0.030967344 -0.11042543 -0.06444708 0.0937608 -0.094384596
-0.046387352 -0.025810808 -0.012095019 0.08744625 -0.0661175 0.013102601 0.023965029 -0.028117737
-0.08914505 -0.08974949 -0.005530977 -0.0119307665 -0.17979321 0.020655407 -0.02240996 -0.0775097
0.04147409 0.0177931 0.070609644 -0.14738728 -0.07140675 0.1385289 -0.10573349 0.07533062
0.16166851 -0.08602101 -0.016958598 0.057594795 -0.1331712 -0.11364981 -0.07237364 -0.04790111
0.121274635 0.13364984 -0.099834606 -0.05459534 -0.064446695 -0.002057983 0.077817485 0.04260705
0.054398376 -0.03878861 -0.049418792 0.19712502 0.12200734 -0.10946218 0.13100274 0.105580084
-0.05387921 -0.16084403 -0.04288044 -0.0008101965 0.03661881 0.023231164 -0.099468455 0.0070600957
-0.06155534 -0.05754843 0.03543293 -0.07077393 -0.07497841 -0.03246362 0.20441137 -0.19296424
-0.23936716 -0.07062507 0.01722971 -0.03281286 0.02546934 -0.122735806 0.08131509 0.009543968
0.104532436 -0.0863383 0.122611135 0.029533058 0.15235475 -0.13015044 -0.10327767 -0.086142786
0.08364586 0.08725764 -0.072327755 0.19293046 -0.13413988 -0.11699868 0.041813366 0.13206656
-0.028832996 0.13826558 0.09751317 0.041905392 -0.05485978 -0.023219697 0.08016426 -0.010403288
-0.061210487 0.023738364 -0.039449662 0.04915157 -0.035830863 -0.016287522 0.039255906 0.024347022

network_body._body_endoder.seq_layers.2.bias f4 [128]
00000000: 0000 0000 0000 0000 0000 0000 0000 0000
00000010: 0000 0000 0000 0000 0000 0000 0000 0000
00000020: 0000 0000 0000 0000 0000 0000 0000 0000
00000030: 0000 0000 0000 0000 0000 0000 0000 0000
00000040: 0000 0000 0000 0000 0000 0000 0000 0000
00000050: 0000 0000 0000 0000 0000 0000 0000 0000
00000060: 0000 0000 0000 0000 0000 0000 0000 0000
00000070: 0000 0000 0000 0000 0000 0000 0000 0000
00000080: 0000 0000 0000 0000 0000 0000 0000 0000
00000090: 0000 0000 0000 0000 0000 0000 0000 0000
000000a0: 0000 0000 0000 0000 0000 0000 0000 0000
000000b0: 0000 0000 0000 0000 0000 0000 0000 0000
000000c0: 0000 0000 0000 0000 0000 0000 0000 0000
000000d0: 0000 0000 0000 0000 0000 0000 0000 0000
000000e0: 0000 0000 0000 0000 0000 0000 0000 0000
000000f0: 0000 0000 0000 0000 0000 0000 0000 0000
00000100: 0000 0000 0000 0000 0000 0000 0000 0000
00000110: 0000 0000 0000 0000 0000 0000 0000 0000
00000120: 0000 0000 0000 0000 0000 0000 0000 0000
00000130: 0000 0000 0000 0000 0000 0000 0000 0000
00000140: 0000 0000 0000 0000 0000 0000 0000 0000
00000150: 0000 0000 0000 0000 0000 0000 0000 0000
00000160: 0000 0000 0000 0000 0000 0000 0000 0000
00000170: 0000 0000 0000 0000 0000 0000 0000 0000
00000180: 0000 0000 0000 0000 0000 0000 0000 0000
00000190: 0000 0000 0000 0000 0000 0000 0000 0000
000001a0: 0000 0000 0000 0000 0000 0000 0000 0000
000001b0: 0000 0000 0000 0000 0000 0000 0000 0000
000001c0: 0000 0000 0000 0000 0000 0000 0000 0000
000001d0: 0000 0000 0000 0000 0000 0000 0000 0000
000001e0: 0000 0000 0000 0000 0000 0000 0000 0000
000001f0: 0000 0000 0000 0000 0000 0000 0000 0000
0.0 0.0 0.0 0.0 0.0 0.0 0.0 0.0
0.0 0.0 0.0 0.0 0.0 0.0 0.0 0.0
0.0 0.0 0.0 0.0 0.0 0.0 0.0 0.0
0.0 0.0 0.0 0.0 0.0 0.0 0.0 0.0
0.0 0.0 0.0 0.0 0.0 0.0 0.0 0.0
0.0 0.0 0.0 0.0 0.0 0.0 0.0 0.0
0.0 0.0 0.0 0.0 0.0 0.0 0.0 0.0
0.0 0.0 0.0 0.0 0.0 0.0 0.0 0.0
0.0 0.0 0.0 0.0 0.0 0.0 0.0 0.0
0.0 0.0 0.0 0.0 0.0 0.0 0.0 0.0
0.0 0.0 0.0 0.0 0.0 0.0 0.0 0.0
0.0 0.0 0.0 0.0 0.0 0.0 0.0 0.0
0.0 0.0 0.0 0.0 0.0 0.0 0.0 0.0
0.0 0.0 0.0 0.0 0.0 0.0 0.0 0.0
0.0 0.0 0.0 0.0 0.0 0.0 0.0 0.0
0.0 0.0 0.0 0.0 0.0 0.0 0.0 0.0

value_heads.value_heads.extrinsic.weight f4 [1, 128]
00000000: 7f66 b53d 7798 473e e2a2 873d f7da 023e
00000010: 095c 24be 826a 90bd 9869 5b3e d793 38be
00000020: 6b83 103e a920 8f3c 8bd8 bdbd 29c9 193e
00000030: cf50 3ebe af1b 023d 7002 403d eaaa edbd
00000040: 52c2 2a3e 5eec 41be d2e9 b83d 686d 4b3d
00000050: 49c6 363e f010 1abe 1154 143e 0670 0dbd
00000060: 03c4 8a3d f6b6 3b3e e9ed fa3d 3012 6abd
00000070: 4c4d 64bd 4081 8a3d 5db4 f33d d204 413e
00000080: 065d 34bc 492a 2f3e d3cf ea3d 96e6 cb3d
00000090: ab98 d23d 038d ec3d 984a 04bd fb6e 483e
000000a0: 2c7e 10be 0ff6 053c 4433 21be 6ff0 743c
000000b0: 74f9 b63d bb76 c13d da26 e3bd ee8b 193d
000000c0: 9555 273e a614 1a3e b64a 58be bb00 acbd
000000d0: f9fb 3cbe 38aa 163e 5a6b 34be f3de dbbd
000000e0: 6c0c 183e c61f d6bd 719d 383e 4245 4fbe
000000f0: 5ec8 e83d 1008 913c 7324 1ebe 5918 e73d
00000100: 069a 96bd cd7e 0cbe 6b0e 183d 08c8 9c3d
00000110: d7b9 913d 4842 4dbe d953 ecbc 4191 d2bd
00000120: 1d94 8e3d 0ebb 43be 7fe6 143e 71da 4fbe
00000130: cb27 423d fcea 5a3e d552 d5bd d225 6e3d
00000140: c4e5 583d a5ef 513e 215f e73d 9a73 f5bd
00000150: e66f aebc 0a92 b6bd c6fe 293e acbf 1d3e
00000160: 9b07 593e 52f6 4abd 19b0 553e c12f 203d
00000170: b45a 09be dacb 13be cf90 993c 59b9 713c
00000180: 517c c53d 6d98 473e 44c5 303e f75b 903d
00000190: ff0d 54be 676e 0b3d 7ec2 943c 4439 7fbd
000001a0: 8105 813c 2ee9 21bd b014 02be 774e 423e
000001b0: 12a8 383e 0bc9 acbd 1741 c83d a117 2a3c
000001c0: b494 0d3e db86 153d 0e34 79bd 2f78 03be
000001d0: 289f bebc 95ae 943d 4a1c abbd 3b5b e23c
000001e0: 6466 7abd 92af 96bd 45e8 40be d624 443e
000001f0: a719 973d 25ed 93bb ef2e 55be 249a 0e3e
0.0885744 0.19491754 0.06622864 0.12778841 -0.16050734 -0.07051565 0.21427 -0.18025146
0.14112632 0.017471628 -0.09269818 0.15018143 -0.18585514 0.031764682 0.046877325 -0.11604865
0.1667569 -0.18937823 0.09028973 0.049664885 0.17849077 -0.15045524 0.14485194 -0.034530662
0.067756675 0.18331513 0.12252409 -0.05714625 -0.05573778 0.06762934 0.11899636 0.18849495
-0.011008507 0.17105974 0.114654206 0.0995609 0.10283025 0.11550333 -0.0322977 0.19573586
-0.14110631 0.008176341 -0.15742213 0.014949902 0.08934298 0.09446474 -0.11091395 0.037486963
0.1634124 0.15046939 -0.2112225 -0.08398577 -0.18455495 0.14713371 -0.17619076 -0.107358836
0.14848489 -0.10455279 0.18028809 -0.20241264 0.11366342 0.01770404 -0.15443592 0.11283941
-0.073535964 -0.13720246 0.037123125 0.076553404 0.07115524 -0.20044816 -0.028848575 -0.10281611
0.06961844 -0.19114324 0.14541052 -0.20298173 0.04740123 0.21378702 -0.104161896 0.058141537
0.052953497 0.20501573 0.11297441 -0.1198494 -0.021293592 -0.089145735 0.16601095 0.15405148
0.21194308 -0.049551316 0.20867957 0.03910804 -0.13413507 -0.14433232 0.018745808 0.014753663
0.09642852 0.1949174 0.17262751 0.07048791 -0.20708464 0.034040835 0.018159147 -0.062310472
0.015749695 -0.039529018 -0.12703204 0.18975244 0.18032864 -0.084367834 0.0977804 0.01038161
0.13826257 0.03650556 -0.06084066 -0.12838815 -0.023269251 0.072598614 -0.08355005 0.027631393
-0.061132804 -0.07357706 -0.18838604 0.19154677 0.0737794 -0.004514354 -0.20818685 0.13925987
