results/Test2/Test2/Test2-61773.pt (torch, 429919 bytes, 36 tensors)

network_body._body_endoder.seq_layers.0.weight f4 [128, 3]
000000 ce 87 2d 3f 38 a6 0e bf 67 e3 03 bf a7 e1 f5 3e
       0.67785347 -0.5572238 -0.51518863 0.48023722
000010 e3 16 96 bd f2 b6 c8 bf d3 96 08 be 78 f1 18 bf
       -0.07328584 -1.568083 -0.13338785 -0.5974345
000020 69 f6 cc be 58 0a f6 be 49 3e 0a 3e e8 a9 82 3e
       -0.40031746 -0.48054767 0.13500322 0.25520253
000030 8a f9 2a bf 2b 72 bc be 7a 16 76 bf d1 e8 b4 be
       -0.66787016 -0.36805853 -0.96128047 -0.35333875
000040 27 ee ee 3e 9c 42 81 3f fd 03 e2 3f 6c a5 37 bf
       0.4666607 1.0098453 1.7657467 -0.7173679
000050 89 8b 91 bf 7f 61 88 3e 63 be 3a 3f 3c fc 3a 3f
       -1.1370708 0.26636884 0.7294676 0.7304113
000060 28 fe 2f bf 07 76 8b 3e a5 ee 0e 3f 37 cd 0e 3f
       -0.68747187 0.27238485 0.5583289 0.55781883
000070 87 ff a0 3e 7f c2 6f bf 09 3d c4 be 9e c7 85 3b
       0.31444952 -0.9365615 -0.38327816 0.004082634
000080 b8 2a 81 bd 34 b1 b7 3c 6a 44 dd 3e d4 16 98 3e
       -0.06306976 0.022423364 0.43216258 0.29704916
000090 42 27 15 bf a6 34 db 3e 85 ec a1 3e e0 c7 88 3e
       -0.5826303 0.42813605 0.31625763 0.26714993
0000a0 6d bd 2f bf 1b 54 9d 3f 69 04 31 bf b3 b9 84 bf
       -0.68648416 1.2291292 -0.69147354 -1.0369171
0000b0 38 ca 84 3e d3 2e e3 be f2 94 87 bd 3b 44 fd 3e
       0.2593553 -0.44371662 -0.06620206 0.49466118
0000c0 c6 7f 8e be e4 9d 26 3f 5e f0 98 bf 75 16 8a bf
       -0.27831858 0.6508467 -1.1948354 -1.0788103
0000d0 f4 85 8f 3e ce 0c 38 bf 58 d6 12 be 9e 7b 13 3f
       0.28031886 -0.7189454 -0.14339578 0.576105
0000e0 08 cd 8a 3e f7 45 72 3d b0 44 47 bf b8 8e 28 3f
       0.2710955 0.059148755 -0.77839184 0.6584277
0000f0 e8 ae 84 3e d9 87 b1 bf b5 7e a2 3f 84 c3 d2 3e
       0.25914693 -1.3869582 1.2694918 0.41164792
000100 f3 82 d3 be 26 ff ad bf a2 fd cf 3d ab 7d 50 3f
       -0.41310844 -1.359349 0.101557985 0.81441754
000110 6f 53 66 3f c9 8e 0e 3f 36 3e 66 bf d9 cb d7 3e
       0.8997106 0.5568662 -0.89938676 0.4214771
000120 77 eb a4 3d 80 87 18 3f e3 2d 1d be ac 52 9a be
       0.08052724 0.59581757 -0.15349536 -0.301412
000130 bd c9 5c 3f d8 08 6f bd 89 06 2f be 29 63 76 bf
       0.8624533 -0.058358043 -0.17092337 -0.96245056
000140 da ba 45 be d6 36 e9 be 75 60 80 3e 64 fd 2d be
       -0.1930956 -0.4554965 0.2507359 -0.16991192
000150 75 84 92 3e 9c a0 82 bf 23 b2 b1 3e d9 02 a4 be
       0.28616682 -1.0205264 0.3470622 -0.32033423
000160 21 d5 56 bf b7 59 36 3e 9f ef 94 3e ae 3f 87 bf
       -0.8391896 0.17807661 0.29089066 -1.0566308
000170 59 d7 fd 3e d4 32 3f bf 7f 41 42 be 40 e9 1e bf
       0.4957836 -0.7468693 -0.18970297 -0.6207466
000180 9b 19 da be ac 86 cc 3e d5 df 4e 3e b5 f3 44 be
       -0.4259766 0.39946496 0.20202573 -0.19233592
000190 7d 82 11 bf a2 c9 29 3f 0e 9c 46 3f d1 e4 4c 3e
       -0.56839734 0.6632329 0.7758187 0.20009162
0001a0 ef eb 00 bf a8 a4 de be b7 74 e7 be eb 56 63 be
       -0.50360006 -0.43484998 -0.45206234 -0.22201125
0001b0 30 7a 11 bf 3f 14 14 bf 7e ce 69 3e ee 53 56 3f
       -0.5682707 -0.57843393 0.22832677 0.83721817
0001c0 82 ad 7a bf 64 0f de 3e 9b 4a f6 be 79 e9 1d 3e
       -0.97921 0.43371117 -0.48103794 0.15421094
0001d0 a7 35 87 3f d0 8a c0 3e c6 7f a4 3e 34 19 3f bf
       1.0563248 0.37605906 0.32128733 -0.7464783
0001e0 30 1b 04 bd c6 28 85 bd e9 99 a1 be 3f a3 85 be
       -0.03225249 -0.065019175 -0.31562737 -0.2610111
0001f0 47 04 23 3f 67 c7 da be 40 56 51 bd 62 da 3a bf
       0.636784 -0.42730257 -0.051107645 -0.72989476
000200 51 fd 6b bf 0c fe 97 bd 36 27 ce be c0 8e 38 3f
       -0.92183405 -0.074215025 -0.4026429 0.7209282
000210 27 ad bf 3d f4 37 b5 be e9 c1 ea bc e9 05 13 3f
       0.09359198 -0.3539425 -0.028656917 0.57430893
000220 63 96 b7 be a8 6e 28 bf 25 ac e4 3e 6d 2c c0 be
       -0.35856923 -0.6579385 0.44662586 -0.37533894
000230 19 bc 8c 3e 08 7a 48 3f ad b1 14 3c 10 ce 92 3e
       0.27487257 0.78311205 0.009075564 0.28672838
000240 7f d0 9d 3b 34 46 93 3e bf fa d8 3e 2a dc 77 be
       0.0048161144 0.28764498 0.42378804 -0.2420508
000250 a3 a7 94 3f c3 e6 86 3e 11 0a 3a 3f f8 e6 a9 be
       1.1613659 0.26347932 0.7267161 -0.33184028
000260 4b f6 89 3e 95 65 62 3f 8b 99 2e be da c6 0b 3e
       0.2694572 0.8843625 -0.1705076 0.13650075
000270 25 9e af 3d 11 c7 a3 3e cb af b8 3e 90 c6 31 be
       0.085750856 0.31987813 0.3607162 -0.17360902
000280 74 69 dc 3e 50 6a dc bc c9 4a 13 3e 6e 51 88 3d
       0.43049204 -0.026906163 0.14383997 0.066561565
000290 f8 6c 87 3f c7 4e 71 3e b1 2e d4 3e 9a 0d c5 be
       1.058013 0.23565207 0.41441873 -0.3848694
0002a0 84 7e c0 3e f5 5c 11 be 9d 1b 8d 3f 9f ce 2d bf
       0.37596524 -0.14195617 1.1024052 -0.67893404
0002b0 3d 15 9f bf 7c 8d bd be 27 36 86 3e a5 af ad bf
       -1.2428356 -0.37022007 0.2621319 -1.3569227
0002c0 8c 24 41 be 0e 6b 29 bf 26 c6 8e be f0 8f 44 3f
       -0.18861598 -0.6617898 -0.2788555 0.7678213
0002d0 ce 8f 1d 3f 27 e1 8e 3e fb d2 3d bf bf 35 7d 3e
       0.61547554 0.27906153 -0.74150056 0.24727534
0002e0 31 63 1d be 13 e0 d0 bc 31 4c 58 3f a2 a6 d4 3e
       -0.1536987 -0.025497472 0.8449126 0.4153338
0002f0 d9 fd d3 3e 40 9a b0 3f 2a ad 8e 3f ab ed 48 3f
       0.41404608 1.3797073 1.1146595 0.7848765
000300 b1 b0 51 bf 71 13 49 be 71 63 82 3e 41 b2 cc 3e
       -0.81910235 -0.19636323 0.25466493 0.39979747
000310 e3 61 77 3e e9 33 aa be 1e 7a 44 3f 6c 02 47 be
       0.24158435 -0.3324273 0.76748836 -0.19434518
000320 d6 53 29 3f a7 1e 02 3f e6 57 1a be a7 ef 2e be
       0.6614355 0.5082802 -0.15072593 -0.17083608
000330 5a f9 00 3e af 78 09 bf 99 8d 8c be 83 99 09 3f
       0.1259512 -0.53699774 -0.2745178 0.53749865
000340 e5 f3 43 bf ab c3 8f be 6e 02 ad 3e 52 6a d0 3d
       -0.7654403 -0.2807897 0.33790916 0.10176529
000350 ce 85 0c bf 19 7c 7f be 4f 23 43 be 4b 4a bc 3e
       -0.5489167 -0.24949683 -0.19056438 0.3677543
000360 ff fa c5 be df 45 a4 bf 65 5f 38 3e 8a 8b 31 3f
       -0.38668057 -1.2833823 0.1800514 0.69353545
000370 4c cd 2a be be 52 43 3e 31 97 b5 be f1 31 00 bf
       -0.16679877 0.19074532 -0.35466912 -0.50076205
000380 8b 3b 72 be 8b 3a 92 be e5 c8 e7 3d cc 29 ab 3e
       -0.23655526 -0.2856029 0.113176145 0.33430326
000390 be 6a d7 bd 3f 3c 5b 3e 5e 4c 92 be f2 1d 90 be
       -0.10518406 0.21409701 -0.2857389 -0.28147846
0003a0 db c6 c7 3f d0 51 2a bf b8 42 4c 3f 6a c2 86 be
       1.5607561 -0.66531086 0.79789305 -0.263202
0003b0 03 f4 72 3f 73 97 5e 3f c5 b6 a0 be b6 cf d7 3d
       0.9490358 0.86949843 -0.31389442 0.105376646
0003c0 8c 2d 86 3e a9 8f 96 3e 78 70 d0 3e f6 c0 22 3d
       0.26206625 0.2940648 0.40710807 0.039734803
0003d0 5e e6 69 ba d9 54 b1 3e 48 8e 18 bf ae f7 38 be
       -0.0008922572 0.34635046 -0.59592104 -0.18063232
0003e0 c2 e5 73 bf 55 8d 20 bd e7 8e 8a be 14 c6 8e be
       -0.9527246 -0.039197285 -0.2706215 -0.27885497
0003f0 80 4b b0 bd ef 8b 5b 3f c2 52 c7 be 58 14 3c bf
       -0.086081505 0.85760397 -0.38930327 -0.7346854

network_body._body_endoder.seq_layers.0.bias f4 [128]
000000 0e 51 9a 3c 57 75 8d 3b fb 7c 14 bc a3 72 c7 bb
       0.018837478 0.0043169665 -0.009063001 -0.006086664
000010 5d e5 4f 3c c3 82 e3 3b d8 91 2b 3d f5 86 82 3c
       0.012688962 0.0069430782 0.041887134 0.015933493
000020 11 75 e9 ba 11 b4 54 bc 6c 6c dc 3b 8f 90 ad bb
       -0.0017811378 -0.012982384 0.006726792 -0.0052967737
000030 58 a3 19 3c 61 a3 a6 37 33 70 ae bb 3e c1 c0 bb
       0.009377323 1.9864821e-05 -0.005323434 -0.0058824113
000040 4a b7 7d 3b 86 8a 40 bc d2 54 69 3a 30 c7 ff 3b
       0.0038713985 -0.011751777 0.0008900884 0.0078057274
000050 e8 8f 9b ba 25 aa dc 3b 4d b4 00 bb a4 a3 a1 3c
       -0.0011868449 0.00673415 -0.0019638718 0.01973135
000060 cf ee 26 bb 78 61 a0 bb 82 e7 ed 3b 2e d9 46 bc
       -0.002547193 -0.0048944317 0.007260264 -0.012136741
000070 be 20 6d ba ed 66 22 3b 4b 54 9a 3a 6a 9b 34 b9
       -0.00090457115 0.0024780587 0.0011774389 -0.00017224034
000080 21 19 f2 bb 36 3e 08 3b 80 0a 12 3c b8 4b 3d 3c
       -0.0073882495 0.0020789034 0.008913636 0.011553697
000090 c2 d5 99 bb e2 08 24 3c 96 f2 c1 3a a4 ef b7 3c
       -0.0046946714 0.010011883 0.0014797028 0.022453137
0000a0 6a 47 67 bb 5a c0 14 bc 8e 3d 04 3c 59 e2 9f 3b
       -0.0035290369 -0.009079063 0.008071316 0.0048792777
0000b0 b0 38 ba 3c 04 18 69 bc 4c 8c 49 3c ed 12 a8 3a
       0.022732109 -0.014226917 0.012301516 0.0012823023
0000c0 15 2d 54 b8 b3 5d 2c bb 63 d2 98 3c 84 b6 a5 bc
       -5.0586725e-05 -0.0026300966 0.018655008 -0.020228632
0000d0 36 80 30 bc f9 2f bb bb db e0 c5 3a 2e bb 09 bd
       -0.010772755 -0.005712506 0.0015096919 -0.033625774
0000e0 6f d2 6f 3c b0 e6 b9 b9 09 22 f0 bc 7c e9 51 bb
       0.014637574 -0.00035457825 -0.029313104 -0.0032030037
0000f0 aa 30 ea 3b f2 97 fb bb d7 bd ab 3c ac 42 e8 bb
       0.0071469145 -0.0076780254 0.020964546 -0.007088026
000100 56 21 12 3a 53 c2 dd bc 64 3a 70 3c be 51 9f 3c
       0.00055744254 -0.0270702 0.014662359 0.019448157
000110 33 09 c6 3c 68 a7 b0 3b 08 43 de bb 5f a2 0d bc
       0.024174308 0.00539105 -0.006782893 -0.008644669
000120 fc 75 cd bb 07 a2 36 3c 50 72 b0 b9 52 f9 eb 3b
       -0.0062701683 0.011147029 -0.00033654505 0.007201352
000130 e6 be fd 3a ef 22 74 bb b2 cf 96 3c 92 40 93 bc
       0.001935926 -0.0037252267 0.018409584 -0.017975125
000140 92 5b d6 ba 2c 97 12 bb cb f5 58 3c cf 2d 6f 3c
       -0.0016354194 -0.0022367937 0.013242195 0.014598324
000150 3d 40 c9 3b ed a0 3d 3c ab 08 ab 3c 11 07 6b ba
       0.006141691 0.011574012 0.020878157 -0.00089655916
000160 cd 7e 02 3c 9c c3 ab bb 4a 9b 3e 3c 2c 41 93 3c
       0.007964802 -0.0052418243 0.0116337035 0.017975412
000170 89 81 1f ba dc 6f 84 3c ee df ec b9 6b 3f 4b bb
       -0.0006084671 0.01616662 -0.00045180268 -0.0031013142
000180 49 15 20 bc db d6 c3 3c 69 98 ae 3b 14 18 bd 3c
       -0.0097707 0.023906162 0.0053282273 0.02308277
000190 a6 ec 13 bc 48 c8 8d 38 89 91 4c bb e2 a2 21 3a
       -0.009028589 6.760709e-05 -0.0031214675 0.0006165934
0001a0 a6 c5 ac bb f1 d0 18 3b 6a 17 dd ba b0 0e 72 3c
       -0.005272585 0.0023317898 -0.001686794 0.01477401
0001b0 06 df d1 3c 2a a6 fa 3b d8 55 52 ba ab 32 c5 bb
       0.025619041 0.007649203 -0.0008023656 -0.006018003
0001c0 ed 6a c9 bb bf 54 87 3c 94 a2 88 3b 81 19 d5 3c
       -0.0061467797 0.016519902 0.0041697714 0.026013138
0001d0 2a d0 6c 3c 78 ee 4a 3c 45 cd da bb b7 64 a4 bb
       0.014453927 0.012385957 -0.006677302 -0.005016889
0001e0 e8 49 49 bc 4a 5e 59 bb a3 73 02 bc 4f 6b ca 3c
       -0.012285687 -0.0033167773 -0.00796214 0.024709372
0001f0 8b 9e 8f 3c dd 04 29 3b af 74 cb 3c 6d 55 2d 3b
       0.017531654 0.0025790252 0.024835913 0.0026448623

network_body._body_endoder.seq_layers.2.weight f4 [128, 128]
000000 71 5f 27 3c 90 29 0c 3e d1 14 17 bd d3 cd 89 bd
       0.010215626 0.1368773 -0.036885086 -0.06728711
000010 97 67 3a 3d 0e dd 63 3e 4c ee 15 3d 57 af 48 3d
       0.045508947 0.22252294 0.03660421 0.048995342
000020 9f a3 2e bd a5 dd c1 bd 2e 56 d0 bd b7 12 4b 3e
       -0.04263651 -0.094661035 -0.101726875 0.19831358
000030 9d 69 7f bd 1c 68 c0 3d 7c 84 2b 3c 4a f7 d2 bc
       -0.06235658 0.09394857 0.010468598 -0.025752682
000040 cb ca 9d bc ad 01 11 3d 07 3f 45 3d 00 1b bd 3d
       -0.019261738 0.03540199 0.04815581 0.092336655
000050 ae a4 3a bd 97 44 28 bd 46 e8 97 3d e9 a3 25 bc
       -0.045567207 -0.041081037 0.074173495 -0.01010988
000060 7c fe 82 bd 78 f3 d1 3c 5d 5f fc bd af 47 9b 3d
       -0.06396195 0.02562879 -0.123228766 0.07582032
000070 59 1f cf 3d 85 c2 fc bd af 72 2a 3d bb f7 22 38
       0.10113401 -0.12341789 0.041613277 3.8854527e-05
000080 f0 6e 0c 3d 1c e1 2d 3e 2a 15 23 bd 22 ec 3c 3e
       0.034285486 0.16980404 -0.039815105 0.18449453
000090 a7 68 8c bd 52 c2 25 3d a3 6b b0 bc 20 c5 ea bb
       -0.06855898 0.04046852 -0.0215357 -0.0071646124
0000a0 fe 8b 1c 3d 3a 64 66 bd d4 52 cc bb 22 22 bd bd
       0.038219444 -0.056247927 -0.00623546 -0.09235026
0000b0 17 07 48 be c6 42 be 3d b1 c1 d0 bd 98 0c 8f 3c
       -0.19533955 0.0929008 -0.10193194 0.01746206
0000c0 aa d5 33 3d 51 e8 81 bd ab e4 e7 bd 03 da 4b 3e
       0.043904938 -0.06343139 -0.11322912 0.19907384
0000d0 6a e0 12 3e 27 f0 c1 bb 5a 9d d2 3c b2 ad ca ba
       0.1434342 -0.005918521 0.025709797 -0.0015463142
0000e0 05 3e 48 3e 96 f3 28 bc bb d1 4b 3d 69 df da 3d
       0.19554909 -0.010311982 0.04976056 0.10687143
0000f0 05 7f 4b bd 3c 3b 74 bd d0 50 d4 bc 0e ae a8 bd
       -0.049681682 -0.059626803 -0.02591744 -0.08236323
000100 c6 4c 78 3c da 94 3b be 28 4e b2 bd 4e 0e 4a bd
       0.015155023 -0.18318501 -0.08706313 -0.04933005
000110 08 a8 92 bd 4b bc 9d bd 00 34 83 3e 07 a5 66 3d
       -0.07160956 -0.0770193 0.2562561 0.056309726
000120 d4 44 19 be 4c 7d 82 3e 8a c5 4a 3d 7e 79 c8 3c
       -0.14967662 0.2548622 0.049504794 0.024471994
000130 08 3a f8 b8 21 55 43 bd df fb 63 3a 29 c5 89 bd
       -0.00011836371 -0.047688607 0.00086968945 -0.067270584
000140 43 a7 d3 3d ea 60 d9 bd 00 a9 30 3c a2 de c8 bc
       0.10334637 -0.10614188 0.01078248 -0.024520222
000150 b5 ec 05 bd 5a 4c 19 3b b7 2d 94 bd 2a ac 9b bd
       -0.032696445 0.0023391456 -0.07235282 -0.07601197
000160 ec af 24 3d e2 99 3f 3d 68 73 1c bd 3a 70 ea bd
       0.040206835 0.046777613 -0.038195997 -0.11447187
000170 0c c6 86 bd 55 6e 79 3d ae 75 be bc 40 9c e3 3d
       -0.06580743 0.060896236 -0.023249473 0.11113787
000180 43 8a 14 bd 2c d2 04 3d ed 88 07 bb a1 bf 86 bd
       -0.03626467 0.032426998 -0.002068098 -0.06579519
000190 d0 89 0c be 3e c6 68 bd 49 1f 3e 3d 2d d8 20 3d
       -0.13724446 -0.056829683 0.046416555 0.03926866
0001a0 c9 54 31 3d b6 94 ed bd 75 ab 85 3d 68 a0 02 be
       0.043293748 -0.1160063 0.065268435 -0.12756503
0001b0 62 9a 93 bd 7c 42 87 bd bf 2d b3 3d 9d 75 a5 bd
       -0.072071806 -0.06604478 0.0874896 -0.080790736
0001c0 56 19 cf 3d 8b 71 23 be 9c 1a 03 3d 1d 81 72 bd
       0.10112254 -0.15961282 0.0320078 -0.059205163
0001d0 f7 07 a8 bd ef 6d 71 bd a9 88 09 3d 00 58 06 3e
       -0.08204644 -0.05894273 0.033577595 0.13119507
0001e0 fb 57 04 3e 89 b6 cf bd 9a 14 93 3d 5c fb 42 be
       0.12924187 -0.10142238 0.07181664 -0.19041198
0001f0 f8 83 50 3a f9 b6 11 3e b3 96 57 3d 6d 0a f9 3c
       0.0007954235 0.14229955 0.052633952 0.03040048
000200 6d c5 01 be b0 e4 00 be 1e 83 0f 3c dd 93 b9 39
       -0.12672968 -0.12587237 0.008759288 0.00035396116
000210 fd e3 af 3d 9c 92 ca 3d 5d 3f 03 3e 19 30 19 be
       0.08588407 0.09891245 0.1281714 -0.14959754
000220 1f 54 6b 3d fc 82 3e be 87 82 6d bd 44 65 89 bd
       0.05745327 -0.18604654 -0.05798581 -0.06708768
000230 07 2b 0a 3e 7c fd 88 3d 15 57 81 3d 57 4c ab bc
       0.13492976 0.06688973 0.06315438 -0.020910425
000240 08 95 15 bd 51 7f 29 3c f5 27 c8 bd 43 16 31 3d
       -0.03651908 0.010345296 -0.09773246 0.04323412
000250 83 02 8f 3d d4 51 d0 3c f5 fd 24 bc 02 55 c1 bb
       0.06982901 0.025429644 -0.010070314 -0.0059000263
000260 65 e5 11 be 83 19 3f bc 48 fc 8a bd ba 3c 11 3c
       -0.14247663 -0.011663797 -0.067864 0.008864576
000270 73 93 be 3d a3 0c 4c 3d f9 f8 38 bd 8b 33 2f 3e
       0.093054675 0.04981674 -0.045159314 0.17109506
000280 94 1d c9 3d 38 fd 66 bc 7b df 7e bd 10 bd e5 bd
       0.09820095 -0.014098458 -0.062224846 -0.112177014
000290 62 8e 1c be 4e af 45 be 28 2b c9 bd 1a 16 bf bd
       -0.1528869 -0.19305155 -0.098226845 -0.093303874
0002a0 b5 6d fe bd f8 73 1f 3e f8 15 90 bd c5 7b f7 3c
       -0.12423269 0.15571582 -0.0703544 0.030210385
0002b0 ff bd 8f 3c a0 fe 80 3d 93 f3 3e 3d d1 f9 1e bd
       0.017546652 0.06298566 0.04661901 -0.038812462
0002c0 ab 75 71 bc eb d9 5b bd 10 11 8f be d8 17 00 be
       -0.014737527 -0.05367462 -0.27942705 -0.12509096
0002d0 78 47 98 bd 9f b3 cb bd b0 4c ce bb 52 c0 d6 3d
       -0.074355066 -0.099463694 -0.006295763 0.10485901
0002e0 bc fc 27 3d 8f 2e 34 bc 80 0c 15 3c bb 21 b8 bd
       0.04101251 -0.010997429 0.0090972185 -0.089908086
0002f0 41 bb 04 be 23 3c ca 3c bd b8 a1 3d 1e fd b1 3d
       -0.12962057 0.024686879 0.07896564 0.086908564
000300 6f ad 6c bd 4c d8 ff bd ea 69 63 3d 84 2f 47 bd
       -0.057782587 -0.12492427 0.05552093 -0.0486293
000310 3d a2 16 3d c9 37 02 3d 83 c9 4f bd c0 a3 1f bd
       0.036775816 0.031791482 -0.050729286 -0.038974524
000320 11 ac 16 bd 55 ee 3d be c3 70 d2 bc 79 5f 15 3d
       -0.03678519 -0.18547948 -0.025688535 0.036468003
000330 73 44 5e 3c 08 11 9d 3d 05 2b da 3c cd 1c e2 bd
       0.013566124 0.07669264 0.026631841 -0.110406496
000340 ca 56 16 3d 82 e5 28 bc fb 4b b9 3c 23 18 78 3e
       0.036703862 -0.010308625 0.022619238 0.24227957
000350 40 b2 36 3d 22 d2 88 bd 06 19 78 3b cd bb 28 bb
       0.044603586 -0.06680705 0.0037856712 -0.0025746704
000360 24 28 bb bd 94 0e 47 bd 24 f5 9e 3c 34 5b 42 be
       -0.091385156 -0.048597887 0.019404002 -0.18980104
000370 71 b1 e5 3d ec e7 d3 bb cc d8 88 3d 22 73 69 3d
       0.11215485 -0.006466856 0.06681976 0.056994565
000380 15 cb 23 bd 8e 06 43 3c 61 2a 11 be ed 68 aa bb
       -0.039988596 0.011903418 -0.14176323 -0.0052004964
000390 11 90 f1 3c d3 55 66 ba fd 6e 22 be 7f d9 c8 3b
       0.029487642 -0.00087865925 -0.15862651 0.006129443
0003a0 77 11 50 bd 56 a4 e6 bd ab 35 11 3e d6 94 8c 3d
       -0.050797906 -0.11261813 0.14180629 0.06864326
0003b0 02 c2 5b 3e 99 0d 15 3e ad f5 21 be fd 2b a6 bc
       0.21460727 0.14555968 -0.15816374 -0.020284647
0003c0 a0 06 cc 3c c5 2a 86 3d 2f e6 c1 bd fd 3a a3 3d
       0.024905503 0.065511264 -0.09467732 0.079702355
0003d0 98 19 9f bd 8e dc b3 3c 4f 74 dc bc 72 a0 87 bc
       -0.077685535 0.021955755 -0.026910929 -0.016555998
0003e0 3c 9c a4 3c 16 18 2d 3d 8c 98 e7 bd ef 07 98 3c
       0.02009403 0.0422593 -0.11308393 0.01855847
0003f0 8b 00 16 3e 32 2d 3f 3d e0 2a d9 3d bd a0 60 3c
       0.14648645 0.04667396 0.10603881 0.013710198

network_body._body_endoder.seq_layers.2.bias f4 [128]
000000 88 92 cf bb a5 0e 38 3c c6 2f a3 3c 34 66 39 3c
       -0.0063346066 0.01123396 0.019920241 0.011315871
000010 cf c6 c6 3b 64 cc db 3c 7d 94 93 3b 6f 28 13 bb
       0.0060661803 0.02683086 0.004503785 -0.002245452
000020 4f e0 a7 3c bf d6 8d bc 57 c6 2c 3c 9d 78 2f bc
       0.0204927 -0.017314313 0.010545335 -0.010709909
000030 67 00 61 3c 34 b9 80 bb 37 ff 79 3b 67 9b 51 bb
       0.013733006 -0.003928328 0.0038146505 -0.0031983496
000040 d7 aa 0c 3c 1c a8 69 3c 86 a6 23 bc d0 ae 93 3c
       0.008585653 0.014261272 -0.009988433 0.018027693
000050 b1 dd 81 3c c4 90 cf 3a cd cc 2a bb 13 db 01 3c
       0.015852781 0.001583599 -0.0026062012 0.0079257665
000060 87 9b 01 bc bd a6 7d 3c 14 6b 23 bc 9e e0 1b 3b
       -0.007910616 0.015481648 -0.00997426 0.0023785005
000070 07 99 9c bb 0b 4c 0d bc cb b2 40 bc 5f 3b 64 3c
       -0.0047789845 -0.008624087 -0.011761378 0.013930171
000080 27 89 58 ba 2a 35 6e 3a 85 0c 41 bb 6d 23 aa 3a
       -0.00082601834 0.00090869016 -0.0029456925 0.0012980528
000090 4f 87 c2 3c 46 ee 49 bc df 5e 88 bc f0 2b 90 39
       0.02374616 -0.012324875 -0.0166468 0.00027498556
0000a0 48 5f 25 3b 8d 6f 82 3b 8b 46 a0 bc dc 90 29 bc
       0.0025233794 0.003980583 -0.019564888 -0.010349479
0000b0 83 2f ab 3c 15 36 3e bc 85 a3 79 39 95 4d c9 3c
       0.020896679 -0.011609574 0.00023807406 0.024573127
0000c0 0f 1b e6 38 8b ff 36 3c 8d ed d6 3a c6 ff a6 3a
       0.00010972295 0.011169325 0.00163977 0.0012741021
0000d0 ab d3 93 bb ab 77 b7 3c ac ad 1c 3c e7 38 ca 3b
       -0.004511317 0.02239593 0.009562891 0.006171334
0000e0 7d 32 ca 3a eb ca ef 3b 3f dd 05 bc 95 fa d7 3b
       0.0015426424 0.007317891 -0.008170425 0.006591151
0000f0 3e 7d f0 bb ff f1 85 3c d5 4b 19 3c 0f 01 2e bb
       -0.007339149 0.016350744 0.009356459 -0.0026550924
000100 50 3c e5 bb b7 4f 9e 3c 3f 9d ac 3c a2 d5 8d 3b
       -0.006995715 0.01932512 0.021071075 0.0043284455
000110 1d 4f 93 bb 66 c4 65 3b 4b c9 87 bb 14 25 b1 bb
       -0.004495515 0.003505969 -0.004143869 -0.0054060314
000120 12 38 23 3c ba 53 f6 3a fe 50 3b bb 2e d3 cf bb
       0.009962099 0.0018793263 -0.002858221 -0.0063423133
000130 26 05 81 3a d8 0a 8e 3c 02 42 87 3c d4 86 9a 3b
       0.0009843453 0.017339155 0.016510967 0.00471578
000140 56 f7 1d 3b 9f f4 97 ba 24 e2 07 bc 66 f3 70 b9
       0.0024103723 -0.0011593289 -0.008293662 -0.00022978857
000150 d1 a3 37 3c 05 64 4e 3c 1b 26 02 bc 36 90 36 3a
       0.0112084905 0.012597089 -0.007943655 0.0006964238
000160 ea ad 13 bc 72 f3 b2 bb 31 1e e7 bb 6b 66 38 3c
       -0.009013632 -0.00546115 -0.0070531596 0.011254887
000170 57 85 9b 3b 94 35 c1 bc c3 87 f3 bb 12 ff a7 bc
       0.00474612 -0.023585118 -0.0074319555 -0.02050737
000180 5e 9a 2a 3c 8a 95 d3 bb f2 43 66 bb 08 b0 72 bc
       0.010412781 -0.0064570354 -0.0035135713 -0.014812477
000190 92 6b 7c bb 3b dd b7 3c eb df 20 3c f4 ca 6a bb
       -0.0038516265 0.022444358 0.009819011 -0.0035826536
0001a0 79 de 15 3c bc d3 c0 bb 81 25 66 bc f4 17 ce b9
       0.00914728 -0.0058846157 -0.014047028 -0.00039309228
0001b0 b2 68 cc bb a9 a0 8c b9 98 76 03 3b 4e b4 c2 3c
       -0.0062380666 -0.00026822582 0.00200597 0.023767617
0001c0 67 b0 1d 3c 57 34 4d bc 9f 15 c3 bb 64 d8 c3 bb
       0.009624577 -0.012524686 -0.005953505 -0.0059767235
0001d0 ea 9e 2c 3c b2 10 37 3b 33 c1 b7 3b 39 78 98 3c
       0.010535935 0.0027933535 0.005607748 0.018612014
0001e0 cf a6 cd b9 13 ed 94 3b b9 3c 0c 3b b5 30 8e 3c
       -0.0003922493 0.004544863 0.0021398498 0.01735721
0001f0 26 e4 00 bb 1f c2 cc 3b e0 7b a8 3b fd fb 0e 3c
       -0.0019667237 0.006248727 0.00514172 0.008727071

action_model._continuous_distribution.log_sigma f4 [1, 2]
000000 e5 1c 79 bc b6 d4 86 bc
       -0.015204643 -0.01645885

action_model._continuous_distribution.mu.weight f4 [2, 128]
000000 77 31 93 38 44 75 0b bd b9 55 03 bc 3a 0a 15 bd
       7.01872e-05 -0.03404738 -0.008016043 -0.036386706
000010 ec fc 2a bb c4 75 05 bd bf c9 10 3d be 79 3b bc
       -0.0026090695 -0.032583013 0.03534865 -0.0114426
000020 64 d0 06 bd e7 aa ab bb 33 5c cd 3b 12 b3 03 3c
       -0.03291358 -0.005238879 0.0062670945 0.008038299
000030 0d 0d ba bc 1a 3d 44 bc 7f dd 44 3d 0a 8a c9 3c
       -0.022711301 -0.011977458 0.048062798 0.024601955
000040 21 a7 c0 bc 5b 40 0e 3c ee 88 b9 3a e3 84 fc bc
       -0.023517193 0.008682336 0.0014155188 -0.030825084
000050 59 0c 94 bc 44 c2 91 bc dd d7 cd 3c 4f 3b 33 bc
       -0.018072294 -0.017792828 0.025127346 -0.010939433
000060 64 c7 38 3c 4b 8f b7 bc 81 7d f1 bb a7 c4 4a 3b
       0.011278007 -0.022407195 -0.0073696976 0.0030939968
000070 4b bf 85 3c 6c 0c 79 bb 55 27 c2 3b b9 4c cc b9
       0.016326567 -0.0038001789 0.005925099 -0.00038967075
000080 ff 32 86 bc c1 8e bc bc 9d 3d 87 3c 9b 8a 67 3d
       -0.016381739 -0.02301729 0.016508872 0.05652867
000090 f9 0f 17 bc 3a 01 7e 3c d1 7b a1 3c b6 e6 df 3b
       -0.009220117 0.015503222 0.01971236 0.006832923
0000a0 61 94 87 b9 52 88 0e ba 6f 7e be 3b 0c a1 a8 ba
       -0.00025859757 -0.00054371834 0.005813412 -0.0012865379
0000b0 fc 00 8c 3c 95 f1 cc 3c ed eb b4 bc de 83 fa bc
       0.017090313 0.025017539 -0.022085154 -0.030580457
0000c0 c8 aa 21 3c a8 a1 3e 39 b4 68 cc 3c 31 36 10 3d
       0.009867378 0.00018180034 0.02495227 0.03520793
0000d0 b3 11 33 3c 23 f6 b0 3a 9f 7f 6a 3c 10 f9 7b bc
       0.010929513 0.0013501089 0.014312654 -0.015379205
0000e0 98 ab c5 ba c0 65 f2 3c 58 ef 05 bc fb ca 0f bd
       -0.0015081046 0.029589534 -0.00817474 -0.035105687
0000f0 0a d1 25 bb 15 fe de bb a3 a8 21 bd 11 17 0d 3d
       -0.00253016 -0.0068051913 -0.039467465 0.034445826
000100 f1 e8 bc bc d1 aa 0b 3b f2 29 ce bb e7 9a 1f 3c
       -0.023060294 0.0021311531 -0.0062916214 0.009741521
000110 b6 77 44 3c 95 33 2b 3d bc e3 0e bc 5a b5 1e 3c
       0.011991432 0.04179724 -0.008721288 0.009686792
000120 0b d0 15 bd 04 c6 e4 bb 65 bc 67 3c f6 2d 95 3c
       -0.03657536 -0.006981613 0.014144038 0.018210392
000130 07 88 29 3c 35 33 87 bc 16 d0 99 bc 7f f0 4b 3c
       0.010347373 -0.01650391 -0.01877598 0.012447475
000140 f8 91 54 3c 03 29 c3 bb bd 2f e1 3c 6c 62 02 3c
       0.012974255 -0.0059558167 0.027488584 0.007958036
000150 fd 9f d3 bc 3e cd 95 3a 5d af d6 3b ae 34 93 39
       -0.025833124 0.0011428965 0.0065516667 0.00028077274
000160 a2 db 20 3c 1e 32 0b 3c 47 99 80 3c 8a ed ed bc
       0.00981799 0.008495836 0.015698088 -0.029043932
000170 3e 6e a8 3c 6d a9 99 3c a1 1b bf 3c d2 f5 1a bb
       0.02056038 0.018757546 0.023328604 -0.0023645055
000180 6b 1f cc 3b fe 29 40 3c d7 90 2a 3c 04 5b 60 bb
       0.0062293313 0.011728762 0.010410509 -0.0034233937
000190 d2 6a 01 3d 45 5b 07 bc 2f f6 c7 bc a7 06 ac bb
       0.031596012 -0.008261506 -0.024409382 -0.0052498165
0001a0 2d 8b 4c bc 2b 29 c6 3b 6b c9 c7 3b 96 9f a0 3c
       -0.012484354 0.006047388 0.006097009 0.019607347
0001b0 e2 a4 5f bc da 6d d0 bc d1 25 a0 bc 8f c9 d6 bb
       -0.013650151 -0.025443006 -0.019549282 -0.0065547894
0001c0 e5 59 88 3c a3 2c 01 3b 64 ec c5 3c 45 be aa 3a
       0.016644428 0.0019710443 0.024160571 0.0013026675
0001d0 be 34 8d 3c 7c 02 d9 bc ae 78 dc 3c 2d 0b 8e 3c
       0.017237063 -0.026490442 0.026913013 0.017339313
0001e0 ce 18 06 3c 32 59 3e bb 2c 9f 03 3d f4 5c b8 ba
       0.008184625 -0.0029044864 0.03213422 -0.0014065788
0001f0 e8 4f 9b 3b 8e dc f4 bc a9 c6 07 3c c1 51 56 3b
       0.00473975 -0.029890325 0.00828711 0.0032702538
000200 18 9c f8 bc 87 f6 d8 3c 07 46 81 3c cc de b8 bc
       -0.030347869 0.02648474 0.015780462 -0.022567175
000210 ae 4c 1e 3b 97 e2 93 3c da ad 36 3c 1d 3c 09 bd
       0.0024154591 0.018052382 0.011149848 -0.033504594
000220 b9 ec 1a bd c6 59 e9 bc b9 7a 1d 3c ac d2 37 bc
       -0.037823413 -0.02848519 0.009611779 -0.011219662
000230 63 0a c4 bc ba 90 9a bb 7b 2b 94 3c 3d 29 c6 bc
       -0.023930734 -0.00471696 0.01808714 -0.024189586
000240 30 b7 04 3d 58 2a 3e 3d 81 1c 50 bc cd 07 2b 3c
       0.032401264 0.0464271 -0.012702108 0.010438872
000250 01 79 7a bc 42 75 17 3c 1f db 0d bc 16 d2 a2 3c
       -0.015287639 0.009244265 -0.0086582 0.019875567
000260 4b c4 64 bc 1b 22 cb bc 84 ac 49 bc d4 b2 c3 3b
       -0.0139628155 -0.024796536 -0.012309197 0.0059722457
000270 95 9f be bc ed 82 cd bc a8 6f 51 bc 93 9b 46 3c
       -0.023269454 -0.025086844 -0.012782969 0.012122053
000280 8f 2f 0d bc 46 7e f1 3b 88 92 a2 bb b0 c1 8d 3c
       -0.008617296 0.0073697893 -0.0049613155 0.017304271
000290 d0 93 c7 3b e1 f3 37 3c 2a b2 26 b9 1f 63 30 bd
       0.0060906187 0.011227579 -0.00015897365 -0.04306328
0002a0 fc 69 3c 3b c5 9c a6 3b d5 e0 10 bd d5 74 33 bc
       0.0028749695 0.0050846064 -0.035370667 -0.010953148
0002b0 29 91 41 3d 5d e2 0e bc 80 f1 82 bc 9e 28 68 bc
       0.047257576 -0.008720961 -0.015984297 -0.01416984
0002c0 c6 46 ec 3a 16 b3 3e 3c 55 4b e8 3b 16 8b 68 3b
       0.0018026463 0.011639377 0.0070890584 0.0035483292
0002d0 ec 03 18 bc 4e 32 14 3d a8 62 b8 3c 78 2c d5 bc
       -0.009278279 0.036180787 0.02250798 -0.02602218
0002e0 03 c1 c8 ba f2 c8 99 3c 44 09 d9 bc 64 40 46 bb
       -0.0015316311 0.018772576 -0.026493676 -0.0030250782
0002f0 39 92 f8 bc f5 e8 50 3c bb 4d 9b 3c 9c be 59 bc
       -0.030343162 0.012750854 0.018957963 -0.013290074
000300 75 9f 00 bd dc b3 d4 3c 06 32 95 3c dd 20 86 3c
       -0.03140207 0.02596467 0.01821233 0.016373092
000310 c6 31 c2 bb 3a 3c 71 3c df f3 52 bc 6e d1 ee bc
       -0.0059263436 0.014723832 -0.012875526 -0.029152598
000320 91 37 8a bb 90 57 48 3b a3 42 22 3c 4c 35 83 bc
       -0.00421805 0.003056977 0.009903583 -0.016016625
000330 af aa fa 3a ac ab 1a 3d 59 b8 e7 bc ad cc 7d 3c
       0.0019124354 0.037761375 -0.028286146 0.015490693
000340 cc 43 88 3b 5d b3 b4 3a e6 3e 31 bd 40 49 a9 3a
       0.0041584726 0.0013786365 -0.043272875 0.0012915507
000350 31 e1 25 bc e7 6b 1f 3d 49 a7 98 bc da 06 4a 3a
       -0.010124491 0.038921263 -0.018634455 0.00077067094
000360 f9 72 8c bc b7 fd 03 bd b8 47 6f bc 51 be ad bc
       -0.017144667 -0.032224383 -0.014604501 -0.021208914
000370 40 86 4f 3c 81 95 20 bd d8 a8 df bc 79 67 26 bd
       0.012666285 -0.039205078 -0.02730219 -0.040626023
000380 fc 74 61 3c 9d 2f b0 bc a8 2f 5d 3b 8a ba 61 bc
       0.013760801 -0.021507079 0.003375033 -0.013777385
000390 31 d2 02 bd fa 46 a7 3c ca 03 2c 3a a6 a8 c7 bc
       -0.031938735 0.020419586 0.0006561844 -0.02437241
0003a0 96 d9 db 3c 9f a1 ea bc e7 74 27 bc a3 a1 68 b9
       0.026837151 -0.02864152 -0.010220743 -0.00022185459
0003b0 54 0d 74 bc ac 7c 94 39 1c 1c a5 bc 1c 7f ab 3b
       -0.014895756 0.00028321648 -0.020155005 0.0052336585
0003c0 16 41 cd 3c ae e5 1c bb 8a 55 e1 bc e6 2a 91 b9
       0.02505545 -0.002394061 -0.027506609 -0.00027688517
0003d0 5a 84 86 3c 89 8c 44 3b be ed 8d 3c 62 87 08 3d
       0.016420532 0.0029990992 0.017325278 0.033332236
0003e0 d2 89 5a 3a d7 ea 16 3c 20 d2 a0 3c 16 03 12 3c
       0.0008336577 0.009211264 0.019631445 0.008911869
0003f0 b4 53 d9 3a 23 3a 8b ba 49 17 3d 3c 8c 1e 29 3c
       0.0016580732 -0.0010622184 0.011541196 0.010322224

action_model._continuous_distribution.mu.bias f4 [2]
000000 95 de fa ba e5 74 47 3c
       -0.0019139821 0.012173866

exp_avg f4 [128, 3]
000000 5b c7 a9 37 d0 22 7a 35 b4 1d 4c b7 5d 76 c9 37
       2.0239202e-05 9.3182916e-07 -1.2166263e-05 2.4016184e-05
000010 9a 7e a8 34 02 d3 86 b7 9c ee 40 39 85 fd 61 36
       3.1384553e-07 -1.6072303e-05 0.00018399436 3.367518e-06
000020 5d 4f f7 b5 78 70 8f b8 44 a1 52 b6 9a 3a 0b 38
       -1.8426032e-06 -6.83972e-05 -3.1386307e-06 3.319476e-05
000030 ba 70 4f 3a f2 33 ce 37 23 b3 85 b9 23 4f 7c b8
       0.0007913221 2.4581303e-05 -0.00025501204 -6.0155184e-05
000040 50 ff 3d 36 a8 61 ba b7 2e e1 2a b8 54 ae 90 36
       2.8311806e-06 -2.2218403e-05 -4.0740873e-05 4.311829e-06
000050 26 a5 86 38 c0 e3 13 b9 d9 99 16 b6 50 38 13 38
       6.420379e-05 -0.00014103856 -2.2441293e-06 3.5099976e-05
000060 02 55 7e b9 81 ab 09 b6 19 bd 99 38 ff 48 cb 37
       -0.00024254996 -2.051442e-06 7.330831e-05 2.4233477e-05
000070 1b 4d f8 b5 54 90 29 b8 c5 8a e0 39 86 c8 40 37
       -1.849988e-06 -4.0427156e-05 0.00042828 1.149078e-05
000080 56 8b 52 b9 e8 c0 23 b9 e0 3d 89 b6 ad da 3b 38
       -0.00020079067 -0.00015616755 -4.0901214e-06 4.4787932e-05
000090 16 d2 92 39 59 e4 ec 36 69 70 07 b9 09 99 21 ba
       0.00028003816 7.0599312e-06 -0.0001291648 -0.00061644666
0000a0 63 95 ab b6 d6 a0 13 39 b9 10 a6 38 7d e6 b4 b6
       -5.113588e-06 0.00014078929 7.918612e-05 -5.3912504e-06
0000b0 28 6f dc b7 98 4f fc b9 3f 2d 2c b7 cf 7a 63 39
       -2.6277805e-05 -0.00048124488 -1.0262534e-05 0.00021694157
0000c0 9b ce 69 39 0f e2 18 36 0f e1 a7 38 26 eb 05 b7
       0.00022297578 2.2781348e-06 8.005101e-05 -7.9821675e-06
0000d0 09 d9 bc b6 c6 0d 89 37 5c 68 8c b7 be 68 d5 b6
       -5.628103e-06 1.6338086e-05 -1.6737897e-05 -6.3600883e-06
0000e0 84 9d af b8 ef 0e a9 39 85 13 3f 36 7a 7b 98 b8
       -8.37399e-05 0.00032245318 2.847258e-06 -7.270924e-05
0000f0 c9 cd 64 ba 6c 9e 3d b7 72 69 49 39 bd 9f 88 37
       -0.0008728174 -1.1302163e-05 0.00019208135 1.6286847e-05
000100 cb e3 bf 34 81 f2 71 b7 6d b9 11 ba e6 d6 05 b7
       3.5742264e-07 -1.4421182e-05 -0.00055589416 -7.977453e-06
000110 aa 9f 1f 39 c8 d9 14 38 00 31 16 36 62 a0 1c b8
       0.00015222901 3.5488774e-05 2.2380264e-06 -3.7342666e-05
000120 12 b8 1c 38 c9 85 96 35 cc 47 3a b7 77 7e 3f b8
       3.7364727e-05 1.1214808e-06 -1.110318e-05 -4.5655728e-05
000130 32 6e 46 b6 e7 43 0b 39 7b 74 29 38 2e 56 9f 36
       -2.9568441e-06 0.00013281369 4.040122e-05 4.748602e-06
000140 28 07 9b b8 63 6a 05 39 47 c7 dc b6 68 b3 11 38
       -7.392309e-05 0.000127235 -6.57971e-06 3.473778e-05
000150 dd a1 ab b9 20 af a9 b6 8f c4 21 38 13 64 6d 39
       -0.0003273626 -5.0569797e-06 3.856845e-05 0.00022639362
000160 ee 3c 7b 36 f0 06 c0 b8 35 64 bc b9 be 0a 51 b7
       3.743738e-06 -9.156566e-05 -0.00035932814 -1.2459872e-05
000170 dd bb de 38 70 3e b5 39 f2 b5 15 37 af e5 b8 b8
       0.00010620777 0.0003456953 8.9234545e-06 -8.8165856e-05
000180 ff 2a 8b b9 0f 58 ea b6 d2 26 2b 39 a8 dc c0 b8
       -0.0002654418 -6.983995e-06 0.00016322293 -9.196374e-05
000190 b4 10 07 b6 0f b0 d5 36 25 a9 98 38 85 59 27 b3
       -2.012629e-06 6.3683906e-06 7.2794304e-05 -3.8964135e-08
0001a0 e5 be 2f b8 70 a8 d2 39 a2 d9 a9 37 c2 81 93 b9
       -4.1901036e-05 0.00040179817 2.0247713e-05 -0.00028134702
0001b0 cb 1c 67 39 e2 f4 b7 36 05 14 c0 b7 7f da 97 38
       0.00022040603 5.482333e-06 -2.2897506e-05 7.240939e-05
0001c0 fc 2d f4 35 7a 9e 09 b8 c3 43 b4 38 4f 65 4a b6
       1.81928e-06 -3.2810938e-05 8.5956905e-05 -3.0159315e-06
0001d0 11 5f 34 b9 e1 97 a4 37 39 28 e4 35 2d a6 56 b7
       -0.00017201553 1.9621048e-05 1.699903e-06 -1.2794085e-05
0001e0 5d 1c c4 b7 0a 99 b2 b5 2c ad 98 b8 ef 0d 9b 38
       -2.3378228e-05 -1.3306574e-06 -7.2801806e-05 7.393571e-05
0001f0 e9 c7 b3 b6 8b 20 37 39 76 2d e4 b8 0b 2a b2 35
       -5.3578883e-06 0.00017464363 -0.00010880355 1.327427e-06
000200 c8 a2 d3 b7 47 52 34 39 77 37 39 37 df 3d a7 b8
       -2.5228961e-05 0.00017196788 1.1039773e-05 -7.974705e-05
000210 bf 39 7f 38 24 c2 9f 36 5e 15 a7 b7 14 48 17 37
       6.0850518e-05 4.76117e-06 -1.9917901e-05 9.017083e-06
000220 13 e7 d1 b5 0a 24 e3 b7 0e 82 19 b8 14 54 1a 36
       -1.5638965e-06 -2.707729e-05 -3.6599165e-05 2.2996728e-06
000230 6a f0 2d b8 b6 8e 27 38 31 28 0b b6 b9 ee 73 b7
       -4.1470317e-05 3.9948813e-05 -2.0736009e-06 -1.4539511e-05
000240 00 a8 a8 b9 2a 20 78 b6 cb ed f3 38 d7 ee dd 38
       -0.00032168627 -3.6973602e-06 0.00011631435 0.000105825886
000250 f6 64 98 b5 07 12 73 b8 a2 15 0d 39 a3 01 30 36
       -1.1354266e-06 -5.7952504e-05 0.00013454867 2.6226996e-06
000260 d1 49 92 b8 b1 67 f5 b7 6f 74 d4 b5 73 6d 82 36
       -6.975572e-05 -2.9254561e-05 -1.5829118e-06 3.8870435e-06
000270 95 70 1d ba 88 96 66 b7 a7 f6 3a 39 22 9d cb b8
       -0.0006005851 -1.3744117e-05 0.00017830227 -9.7090626e-05
000280 12 5e de b6 94 cd 32 b8 9f 1d 83 ba 9f 0a ab b7
       -6.627067e-06 -4.2629967e-05 -0.0010003335 -2.0389734e-05
000290 f7 08 93 39 af c5 db b7 7c 07 34 b6 c4 58 3b b7
       0.00028044704 -2.6198888e-05 -2.6826447e-06 -1.1166736e-05
0002a0 b3 cd fd b9 fe 03 21 b7 25 05 1b 39 c6 c7 86 38
       -0.00048409178 -9.597277e-06 0.00014783868 6.4268286e-05
0002b0 f3 26 2f 36 a3 1e 1a b8 9f 3c 5f b8 39 ea 7f b6
       2.6099704e-06 -3.6744994e-05 -5.32238e-05 -3.8134297e-06
0002c0 6e 6f b0 36 c3 23 a8 b9 e9 0f 22 b7 33 3d bb 37
       5.258181e-06 -0.00032070102 -9.659657e-06 2.2320635e-05
0002d0 43 d7 35 37 81 a9 c0 34 18 10 4a b7 70 89 9b b8
       1.083856e-05 3.5886117e-07 -1.2043885e-05 -7.416576e-05
0002e0 56 62 4c b5 94 a6 69 b6 de 66 fb 38 4a b5 12 36
       -7.613902e-07 -3.4816667e-06 0.00011987773 2.186122e-06
0002f0 5d e1 49 b8 67 fb 3f 37 c5 34 23 35 64 cb bd b6
       -4.813202e-05 1.1443021e-05 6.079902e-07 -5.6563167e-06
000300 50 65 5e 39 4e 7f 1f 36 ea 02 25 b9 af 1a 86 b7
       0.00021209312 2.3766947e-06 -0.00015736712 -1.598647e-05
000310 ad 6e c7 b5 12 5a 6f b6 47 a7 41 38 be 36 c2 b4
       -1.4858866e-06 -3.5666203e-06 4.6170575e-05 -3.6175146e-07
000320 7f 6c 90 b7 54 25 bb 37 e4 a8 d0 35 8a d7 ae b7
       -1.721666e-05 2.230952e-05 1.5546361e-06 -2.0842785e-05
000330 60 69 ee 37 90 6f 0e 36 90 b4 14 35 ad 88 a1 b7
       2.842088e-05 2.1224587e-06 5.539705e-07 -1.925634e-05
000340 cb e0 5e b4 54 b0 0c 37 99 e5 94 b7 27 9c 84 b5
       -2.075714e-07 8.385705e-06 -1.774989e-05 -9.880213e-07
000350 ad a5 25 37 d1 b6 e9 b9 f1 d3 63 b7 0f 84 39 39
       9.873341e-06 -0.00044577432 -1.3579601e-05 0.0001769217
000360 08 39 9b b9 14 af c7 b6 c7 8f 12 39 cc 65 a9 38
       -0.00029606395 -5.951044e-06 0.00013977206 8.077509e-05
000370 71 6f 0a 33 18 86 20 b8 bf b5 7c b9 d3 b7 32 b6
       3.2231984e-08 -3.8271857e-05 -0.00024100298 -2.6631067e-06
000380 35 0a 32 39 30 74 09 3a 2a 25 9b 37 16 68 34 b9
       0.00016979205 0.00052434485 1.8494746e-05 -0.00017204913
000390 22 cc 57 39 70 8a cf 36 b1 93 2c b7 4c 9c 9f 39
       0.00020580043 6.185197e-06 -1.0286386e-05 0.00030443294
0003a0 52 37 6e 36 1c 1a 8e 36 22 7c 20 39 6b fd d5 36
       3.5496964e-06 4.2349693e-06 0.00015305032 6.3773964e-06
0003b0 2b 4c 9e b8 ae ac a4 b7 5f b3 44 b6 06 b2 a4 36
       -7.5482145e-05 -1.9630734e-05 -2.9310684e-06 4.9083055e-06
0003c0 e3 26 4d b9 98 cb 4e b6 40 47 00 38 bf 06 12 b9
       -0.0001956481 -3.08149e-06 3.0583935e-05 -0.00013926158
0003d0 ff e6 1c b6 7a d7 24 38 a3 2f ed 39 9c e0 8c 37
       -2.338027e-06 3.9301325e-05 0.00045239655 1.6793892e-05
0003e0 dd 6a 02 b9 ad ef 86 38 a9 d3 e9 36 df 67 a0 b7
       -0.00012437576 6.434261e-05 6.9685816e-06 -1.9121855e-05
0003f0 b0 a9 85 39 59 d2 dc 36 07 e7 5b 34 f3 06 01 3a
       0.00025494164 6.5809986e-06 2.0480012e-07 0.0004921995

exp_avg_sq f4 [128, 3]
000000 69 02 79 30 db aa 3c 2b c6 21 77 2e 06 c4 9c 30
       9.05891e-10 6.7028127e-13 5.6191295e-11 1.1406207e-09
000010 fb 85 4a 2b 9b 78 09 2f 28 9c 6d 33 1a b8 85 2d
       7.195075e-13 1.2502925e-10 5.5322886e-08 1.5202107e-11
000020 c9 6b f4 30 f2 45 ed 33 72 a1 03 2e 1b 7e 48 31
       1.7783971e-09 1.10488955e-07 2.9929344e-11 2.9175513e-09
000030 51 20 90 35 41 36 c1 2f d9 32 48 33 11 96 96 33
       1.0738241e-06 3.5145045e-10 4.6612374e-08 7.012216e-08
000040 9f ec cb 2d 96 ce 89 31 a7 cd c6 2f ad 3a d2 2c
       2.3183509e-11 4.010711e-09 3.6162115e-10 5.9750733e-12
000050 a4 26 16 30 5a 23 51 31 41 1a 1c 2c a0 1c 82 30
       5.4624594e-10 3.0433598e-09 2.2183507e-12 9.466881e-10
000060 b1 08 1d 34 24 20 79 2e bf d4 28 32 24 fe 29 31
       1.4624926e-07 5.6644592e-11 9.82726e-09 2.47372e-09
000070 59 66 e8 2b e1 b3 92 2f d6 64 99 34 4d a9 c2 2e
       1.6512999e-12 2.6685057e-10 2.857184e-07 8.8521725e-11
000080 fa 4d 5d 32 ea 2d 4a 32 3a 66 b6 2c 44 6c 01 31
       1.2881623e-08 1.1768387e-08 5.1841005e-12 1.8833513e-09
000090 39 ad 21 34 ca cb 58 2e a4 dd 09 32 0d 5c bf 33
       1.5057311e-07 4.9293715e-11 8.024845e-09 8.9108745e-08
0000a0 0d 07 76 2e b9 33 b8 32 85 64 5c 34 cf 67 c7 2e
       5.5940187e-11 2.144394e-08 2.0525665e-07 9.0679124e-11
0000b0 cd d6 cb 32 77 0b aa 34 2a f8 eb 2e 63 60 9f 32
       2.372999e-08 3.167331e-07 1.07306455e-10 1.8553868e-08
0000c0 06 58 02 34 ad b8 0c 2e aa 6c 18 31 9b 47 d5 34
       1.2139216e-07 3.199634e-11 2.218068e-09 3.9726442e-07
0000d0 be d3 01 2f e2 fb 75 32 30 b7 2f 35 2d 68 7d 2f
       1.1807708e-10 1.43181484e-08 6.5459153e-07 2.3047227e-10
0000e0 67 66 57 33 0a 45 57 34 ca 44 ab 2e e2 a5 a3 32
       5.0151723e-08 2.0048552e-07 7.788399e-11 1.9051132e-08
0000f0 bd 6b 4a 34 9e 73 d3 2e 2d 4a 11 33 be af e1 30
       1.8851911e-07 9.615707e-11 3.3827906e-08 1.6420854e-09
000100 d1 1c 80 2b 87 78 43 2f aa ef d8 33 f8 dd 41 2e
       9.102945e-13 1.7777967e-10 1.01018784e-07 4.4080267e-11
000110 25 7c 81 32 8a 80 5b 31 e1 29 93 2c 7d ad ca 30
       1.5074031e-08 3.194176e-09 4.1826408e-12 1.4746743e-09
000120 4c 67 65 32 ef 8e 8d 2c e4 e4 0a 30 fd 37 b0 34
       1.3353041e-08 4.02333e-12 5.052938e-10 3.2823291e-07
000130 b3 80 bf 2e 58 94 06 32 fa f8 d0 33 c6 36 e8 2d
       8.708536e-11 7.833556e-09 9.731043e-08 2.639967e-11
000140 8b 34 7c 31 fb 67 e0 34 0e b1 13 2f 70 2b a1 32
       3.6700694e-09 4.1798907e-07 1.3432475e-10 1.876262e-08
000150 64 0a dd 32 dd 76 ae 2d a1 b4 0d 32 d6 d9 75 33
       2.5732511e-08 1.9834296e-11 8.2483504e-09 5.724163e-08
000160 64 89 ca 2d 05 d7 ad 31 99 c3 43 33 89 66 57 2e
       2.3025755e-11 5.0594076e-09 4.557987e-08 4.897641e-11
000170 e7 4d 97 32 ef 53 94 34 a1 29 cd 2e a1 6b 7d 32
       1.761414e-08 2.7628218e-07 9.3297155e-11 1.475101e-08
000180 00 21 2b 35 60 57 4e 2f a7 b4 a0 32 24 31 3e 32
       6.3750485e-07 1.8766633e-10 1.8708603e-08 1.1070629e-08
000190 9d b8 a8 2c 36 64 b8 30 b9 25 3e 31 26 a4 e6 2b
       4.7953434e-12 1.3416244e-09 2.7670082e-09 1.6388043e-12
0001a0 d9 a6 76 2f 32 1c d2 35 10 1d fd 2f 41 cc 4a 33
       2.2432846e-10 1.5654425e-06 4.6041082e-10 4.7217558e-08
0001b0 ab d3 d8 33 9d 0a 1b 2e 20 4f 28 32 3f 3e a0 30
       1.0096786e-07 3.5252346e-11 9.796878e-09 1.1659224e-09
0001c0 f7 87 9b 2b ea 92 a5 2f a0 dc e3 35 11 fa 16 30
       1.105115e-12 3.0117714e-10 1.6977028e-06 5.492505e-10
0001d0 45 a1 a2 33 ce c8 26 31 55 a9 0c 2c 8f 3a 9d 2f
       7.5730476e-08 2.4270324e-09 1.9989195e-12 2.8599742e-10
0001e0 a7 30 98 34 90 7d a1 2e 04 63 c8 31 14 ea 31 35
       2.8347606e-07 7.343737e-11 5.832023e-09 6.6278267e-07
0001f0 c4 c2 3e 2f b8 49 39 32 38 fd ae 33 c1 4a 9d 2d
       1.7349594e-10 1.0785179e-08 8.1485666e-08 1.7882031e-11
000200 ca d7 bf 30 f7 96 7d 34 cf d0 c8 2e 40 66 ca 32
       1.395841e-09 2.3617382e-07 9.132039e-11 2.3562393e-08
000210 f8 88 1c 32 8e 4a da 2c 82 8f 5a 30 20 e2 87 31
       9.111538e-09 6.20421e-12 7.9511875e-10 3.9547245e-09
000220 e8 0e 26 2c a9 63 ad 2f 07 b2 e4 31 5a 5f 9d 2c
       2.3598293e-12 3.153933e-10 6.6559127e-09 4.4727945e-12
000230 38 de 93 30 08 08 85 31 05 b2 77 2c 05 c1 c3 2f
       1.0758816e-09 3.8717225e-09 3.5199632e-12 3.5607442e-10
000240 59 92 1e 34 1a ce 68 2e 4e 63 3d 32 8b de bd 33
       1.4768138e-07 5.2933748e-11 1.1023827e-08 8.841479e-08
000250 ea ea 0e 2e b3 81 f8 31 fb 23 37 31 44 24 8c 2c
       3.2495708e-11 7.232495e-09 2.6650457e-09 3.9830656e-12
000260 5d 6a e1 30 97 98 7e 30 5f 71 91 2b 95 30 77 2f
       1.6401135e-09 9.2621505e-10 1.0334336e-12 2.2481779e-10
000270 a7 ba f5 33 0b d0 75 2e f9 c0 83 32 f6 36 f2 34
       1.14426534e-07 5.589133e-11 1.5338161e-08 4.5116002e-07
000280 52 04 15 2f 66 1c ac 32 94 7a b1 34 66 89 3c 2f
       1.3553006e-10 2.003635e-08 3.3058006e-07 1.7147314e-10
000290 e2 7d 84 33 31 6e 98 30 8f 87 0b 2c 54 21 06 2f
       6.169627e-08 1.1090774e-09 1.9828338e-12 1.219907e-10
0002a0 44 66 90 33 c2 a1 5b 2e e0 72 c1 32 63 77 7c 32
       6.7241245e-08 4.9938505e-11 2.2520396e-08 1.4695476e-08
0002b0 1a 8b 97 2c 70 70 95 30 85 96 ad 30 6a 71 42 2c
       4.3071215e-12 1.0873134e-09 1.2630187e-09 2.7632016e-12
0002c0 97 ae 2e 2f 05 2b ad 34 22 30 07 2f b3 d9 bf 32
       1.5887235e-10 3.2255062e-07 1.2295279e-10 2.2334325e-08
0002d0 08 c3 30 30 66 5a ac 2a 38 f5 37 2e 8c cc de 30
       6.4305583e-10 3.0616064e-13 4.182718e-11 1.6210762e-09
0002e0 ff 81 06 2c 97 25 e0 2f 9c 7f 80 31 f5 8a 70 2c
       1.9114708e-12 4.0772072e-10 3.739798e-09 3.4183188e-12
0002f0 bb f3 62 30 95 6f cc 2f 10 07 b4 2b b9 cb 9f 2f
       8.2564683e-10 3.7186668e-10 1.279173e-12 2.9066685e-10
000300 90 74 0b 35 84 ff 32 2f 6e 07 b4 32 c7 4b 28 30
       5.1951156e-07 1.6279783e-10 2.0958137e-08 6.122573e-10
000310 4e 0f d2 2a 57 f2 1d 2e 70 e2 2a 30 85 28 4b 2c
       3.7314113e-13 3.5912908e-11 6.2167427e-10 2.8870528e-12
000320 12 cf 64 30 97 8f 71 30 f2 c6 9a 2b 75 7e ea 2e
       8.324018e-10 8.787934e-10 1.0997577e-12 1.0663551e-10
000330 55 9a 81 31 54 66 26 2c 94 c5 81 2f 41 b0 c5 2f
       3.7719396e-09 2.3646822e-12 2.360535e-10 3.5959327e-10
000340 76 89 09 2b d8 19 94 2e 88 5c 93 30 91 e0 d2 2a
       4.8862943e-13 6.7348516e-11 1.0721957e-09 3.7459318e-13
000350 b9 d2 de 2e 19 59 e7 34 c9 7f 30 2f 06 b3 0d 33
       1.0132823e-10 4.309193e-07 1.6052505e-10 3.299194e-08
000360 39 9d 16 35 3a d7 33 2f d7 95 aa 32 ec 9a 86 31
       5.6108144e-07 1.6356419e-10 1.9858744e-08 3.917526e-09
000370 35 f7 63 2c 58 72 45 30 4a a0 11 35 77 9c 32 2f
       3.2395868e-12 7.1830675e-10 5.424996e-07 1.6244593e-10
000380 b0 b4 b5 32 42 ce 7e 35 d4 5a ad 2f 9e 27 84 33
       2.115334e-08 9.492252e-07 3.1533054e-10 6.153935e-08
000390 a0 32 c0 33 35 53 fe 2d 6c 02 5a 31 40 22 12 34
       8.949905e-08 2.8913408e-11 3.1724552e-09 1.360977e-07
0003a0 e2 63 0e 2e e4 fa 2a 31 6c 6d da 31 74 b9 80 2d
       3.2375776e-11 2.488087e-09 6.357075e-09 1.4634273e-11
0003b0 f4 b8 c2 31 4f a8 ec 30 18 4e 0c 2c 08 4a 99 2f
       5.66717e-09 1.7219096e-09 1.9938547e-12 2.788314e-10
0003c0 05 86 45 32 fc 34 13 2d ce 04 83 31 23 40 78 32
       1.1497382e-08 8.3677475e-12 3.813148e-09 1.4450083e-08
0003d0 a3 4b e9 2c 7a d4 72 31 2c d7 0c 35 01 2f 43 2f
       6.6306557e-12 3.5336414e-09 5.246718e-07 1.7751846e-10
0003e0 99 a8 97 32 bf c2 b7 33 e5 52 10 2e 48 b4 24 31
       1.7655383e-08 8.557026e-08 3.2815434e-11 2.396762e-09
0003f0 6f 1c f2 33 5b 64 16 2e 07 5b 71 31 de 62 d9 34
       1.1274175e-07 3.4195185e-11 3.5121859e-09 4.0491335e-07

exp_avg f4 [128]
000000 c8 fc 4e b7 52 17 81 b6 5c 49 43 b8 31 3b 2e 38
       -1.2337412e-05 -3.8472144e-06 -4.6559944e-05 4.153996e-05
000010 a4 37 ab b9 9b 7a 1a b8 11 be 72 b8 d6 45 fe 37
       -0.00032657117 -3.6830646e-05 -5.787431e-05 3.031168e-05
000020 ff d0 dc 37 49 05 d0 37 f4 16 1e b9 20 3b 64 38
       2.6323365e-05 2.4797993e-05 -0.00015076605 5.44145e-05
000030 3d 3a c3 b8 5a 4b 92 38 8d 59 97 38 1a d8 0d 39
       -9.309172e-05 6.975858e-05 7.216921e-05 0.00013527312
000040 a4 7b 18 b8 f9 34 9b 38 ae 2a b8 38 4b 3b 24 b8
       -3.6354773e-05 7.400843e-05 8.7817534e-05 -3.9155868e-05
000050 6e 89 20 39 2c c6 86 b6 df ec e2 38 42 22 f8 b7
       0.00015309986 -4.0165814e-06 0.000108206405 -2.9579856e-05
000060 f1 79 71 b7 42 d5 18 38 a9 cf 7d b8 c2 2e b2 38
       -1.4393111e-05 3.6438236e-05 -6.05133e-05 8.496411e-05
000070 44 6e 8f 38 29 9f 4d b8 9b 9a 2f 39 e6 a8 f8 b8
       6.83931e-05 -4.9024038e-05 0.00016746896 -0.00011857021
000080 bf d4 bb 38 c8 9f e1 37 8c f9 47 35 86 53 8a b9
       8.956482e-05 2.6896494e-05 7.4496415e-07 -0.0002638364
000090 ec 68 9a b8 50 f7 cb b7 33 93 44 38 6d 6d bd b7
       -7.3628355e-05 -2.431465e-05 4.686713e-05 -2.2581511e-05
0000a0 c8 49 bf 37 f4 6c 88 38 1a 3e 84 b7 82 fc 17 b9
       2.2803331e-05 6.5052795e-05 -1.5764545e-05 -0.00014494549
0000b0 60 35 86 b8 e1 68 b1 37 b4 5b fb b7 6d e4 eb 37
       -6.39956e-05 2.1148882e-05 -2.9964234e-05 2.8120552e-05
0000c0 15 e5 4c 38 1c 36 8d 37 d4 2b 13 b8 82 bb b1 37
       4.885074e-05 1.6833706e-05 -3.508835e-05 2.118736e-05
0000d0 6f 88 3f 39 cf 44 bf 38 4a 6f 8e 39 ef 5e 18 38
       0.00018266005 9.120406e-05 0.00027167267 3.6328038e-05
0000e0 38 9e 07 39 0f 89 0c b8 6f 41 57 38 bf 91 0c 39
       0.00012933544 -3.3506247e-05 5.1320934e-05 0.00013405735
0000f0 c1 9f 9e b6 c7 7f 2c 37 1b 8f f4 b7 12 e4 08 b7
       -4.7273647e-06 1.0281749e-05 -2.9153705e-05 -8.159333e-06
000100 16 87 e4 b7 8d 6c a6 37 cf 9a a5 36 a7 48 ad b7
       -2.7242622e-05 1.983929e-05 4.9354053e-06 -2.0657038e-05
000110 f0 5c f1 b7 37 cf 34 36 c9 8a 5e 37 ae 71 3b 39
       -2.8772716e-05 2.6942705e-06 1.3264545e-05 0.00017876059
000120 08 1e a4 38 a7 3f fd b3 45 4a 09 38 0e e2 80 b9
       7.825723e-05 -1.1792809e-07 3.2732514e-05 -0.00024582486
000130 75 30 b2 b8 0d ca 55 b8 40 5e b3 b8 f8 93 24 38
       -8.496727e-05 -5.097133e-05 -8.5529406e-05 3.9238454e-05
000140 18 54 2e 38 fc b4 04 38 56 63 6b b9 a2 72 c9 b8
       4.156315e-05 3.1639807e-05 -0.00022448352 -9.605779e-05
000150 80 f3 be b8 0f b5 53 b9 1a b7 49 b8 20 4b 78 39
       -9.1052614e-05 -0.00020189978 -4.809266e-05 0.0002367911
000160 00 5d 04 b8 ab b1 43 39 4b 5b cb b6 01 ab 4b b8
       -3.1557865e-05 0.00018662836 -6.0604993e-06 -4.855823e-05
000170 de bc a5 b5 07 c8 2a b9 88 8e 35 b8 57 25 97 38
       -1.2348426e-06 -0.0001628698 -4.3286505e-05 7.207196e-05
000180 d9 a5 8b 37 45 06 aa b7 9b 13 88 b8 f0 1e 88 b8
       1.664732e-05 -2.0268499e-05 -6.488637e-05 -6.490748e-05
000190 93 4f b2 b7 16 f1 63 b8 34 17 c8 37 2f 56 ce b8
       -2.1256308e-05 -5.4345546e-05 2.3852663e-05 -9.8388984e-05
0001a0 8d ef 06 36 70 44 18 37 b4 3b 26 39 bb 75 8f b9
       2.0106993e-06 9.07584e-06 0.00015853235 -0.00027362801
0001b0 37 31 91 b7 27 ab 29 b9 c8 ec c4 38 85 97 19 39
       -1.7308264e-05 -0.00016180855 9.390112e-05 0.00014647662
0001c0 92 2b 6b 38 80 54 1b b9 35 bb 74 39 aa ab 7f b6
       5.6068944e-05 -0.0001481343 0.00023339393 -3.8097883e-06
0001d0 72 94 ec b8 e5 43 ce b8 90 2d 6d 39 c8 73 35 39
       -0.00011281007 -9.835492e-05 0.00022619055 0.00017304637
0001e0 47 4b c8 38 e3 a2 cd 36 62 50 73 36 da 42 71 b8
       9.550765e-05 6.1284386e-06 3.625661e-06 -5.7521138e-05
0001f0 1e 8a 82 b7 2a 00 9a b8 89 23 c0 b8 78 46 c0 38
       -1.5561523e-05 -7.343323e-05 -9.1618924e-05 9.168399e-05
