results/Test2/Test2/Test2-112406.onnx (onnx, 72639 bytes, 7 tensors)

action_model._continuous_distribution.log_sigma f4 [1, 2]
0	0xbd07a48f	-0.03311592
1	0xbc9eef7b	-0.019401303

action_model._continuous_distribution.mu.bias f4 [2]
0	0xbbe82feb	-0.0070857904
1	0x3a8b85bf	0.0010644718

action_model._continuous_distribution.mu.weight f4 [2, 128]
0	0xbbfd9219	-0.0077383635
1	0x3c66a9dd	0.0140785845
2	0x3d3807fa	0.044929482
3	0x392590b2	0.0001578953
4	0xba68bf1f	-0.0008878577
5	0x3b8710e7	0.004121888
6	0x3d4f7853	0.05065186
7	0xbb9c0cb9	-0.004762259
8	0xbc63ff28	-0.013915814
9	0xbad66c6b	-0.0016359215
10	0x3cf437e5	0.029811809
11	0x3cc63c81	0.024198772
12	0x3ca26835	0.01982508
13	0x3d458b66	0.048228644
14	0xbc69688c	-0.014246117
15	0x3bbc43b8	0.0057453774
16	0x3d29bd9c	0.04144059
17	0xbd025c4a	-0.031826295
18	0xbca47389	-0.020074623
19	0x3bbcad39	0.0057579544
20	0xbcbbcc65	-0.022924611
21	0x3b454fb9	0.0030107333
22	0xbce49b61	-0.027906122
23	0x3ce3adfd	0.027792925
24	0xbc8bcb92	-0.017064843
25	0x3cce0087	0.025146736
26	0xbc9ed0fe	-0.019386765
27	0x3b89de0f	0.0042073797
28	0x3d19214c	0.03738527
29	0xbbc5aacd	-0.006032324
30	0xbc32ff95	-0.010925193
31	0xbba3fc39	-0.0050044325
32	0xbd262f4e	-0.040572457
33	0x3c912edd	0.017722541
34	0x3b515d35	0.0031946425
35	0xbba5e473	-0.0050626337
36	0xbbd591bf	-0.0065176184
37	0xbab14c72	-0.0013526811
38	0xbba294fd	-0.0049616084
39	0x3cb974a8	0.022638634
40	0x3c0a9c4b	0.008460115
41	0x3b98dd1d	0.0046650306
42	0xbabca214	-0.0014391565
43	0xbbaf2649	-0.00534514
44	0x3ab9b518	0.001416835
45	0xbd0da25c	-0.034578666
46	0xbb89d8e0	-0.0042067617
47	0xbccc76b1	-0.02495894
48	0x3cd65c51	0.026167067
49	0x3c19e734	0.009393502
50	0x3c838d1e	0.0160585
51	0xbcc4ae23	-0.024008816
52	0xbaff3357	-0.0019470257
53	0xbc415bed	-0.011801702
54	0xbc4b84d5	-0.012421806
55	0x3d02e3c0	0.03195548
56	0x3beb9c23	0.007190244
57	0x3cca7d65	0.024717996
58	0x3c27c9e5	0.0102410065
59	0x3c5a319f	0.013317495
60	0x3b8d3f9d	0.004310562
61	0x3cd41fa2	0.02589399
62	0xbb9d38ed	-0.004798046
63	0x3cf4d277	0.029885514
64	0x3bc8dfb4	0.006130183
65	0x3cdad6a3	0.026713675
66	0x3b8be49e	0.0042691967
67	0x3c0c0f0c	0.008548509
68	0x3d04f2de	0.03245818
69	0x3cbc5200	0.02298832
70	0xbb0c440b	-0.0021402861
71	0x3d2d4727	0.042304184
72	0xbb734eff	-0.0037125943
73	0xbb51d2f7	-0.0032016614
74	0x3cc56ec9	0.024100678
75	0x3c5ed982	0.013601663
76	0xbd2cb088	-0.04216054
77	0xbc83e07f	-0.016098259
78	0x3c9b21ec	0.018937074
79	0x3b11adb3	0.0022228777
80	0xbb32cb49	-0.0027281812
81	0x3b0109d5	0.0019689698
82	0x3cde8256	0.027161758
83	0x3c1147d1	0.00886722
84	0xbc286774	-0.010278571
85	0x3c08f18b	0.00835837
86	0xb9c239b4	-0.00037045556
87	0x3b82ec5d	0.003995462
88	0x3d0cba02	0.03435708
89	0x3b92e3b6	0.0044827117
90	0x3ae2cddd	0.0017303784
91	0x3ba66fa1	0.005079225
92	0x3c174332	0.009232329
93	0x3aed5584	0.0018107151
94	0xbc71107f	-0.014713406
95	0x3cfe2ae2	0.031026307
96	0xbd0125de	-0.031530254
97	0x3a9f02dd	0.0012131591
98	0x3ca4c115	0.0201116
99	0x3c6be6d7	0.014398298
100	0xbc62108b	-0.013797889
101	0x3ca44940	0.02005446
102	0x3cbc166c	0.02295991
103	0xbc8dc9f8	-0.01730822
104	0xbd1c23c5	-0.03812005
105	0x3c3e6108	0.011619814
106	0x3bc5be89	0.0060346765
107	0x3c101871	0.00879489
108	0x3c2f103a	0.010685021
109	0x3c9e0dff	0.019293783
110	0x3c60edb8	0.013728552
111	0x3c591f42	0.013252081
112	0x3bbe613c	0.005809931
113	0x3c15b95f	0.009138434
114	0x3b8c1b83	0.0042757406
115	0x3c7cbbe2	0.015425654
116	0x3c38e7fa	0.011285776
117	0x3af6c6a0	0.0018827505
118	0xbc251952	-0.010076838
119	0x3c35382b	0.011060755
120	0x3cb01cf5	0.021498183
121	0x3cbac886	0.022800695
122	0x3c3d75fb	0.011563773
123	0x3d0dbd4f	0.034604367
124	0xbc21b7e4	-0.009870503
125	0x3c9a8655	0.018862883
126	0x3ba8f2c5	0.0051558935
127	0xbcad983e	-0.021190759
128	0x3c15d2ad	0.009144467
129	0xbb1f16ae	-0.0024274993
130	0xbcb3cc08	-0.021947876
131	0x3c5e5d6a	0.013572076
132	0xbcf5f3d0	-0.030023485
133	0xbd1ab765	-0.037772555
134	0xbb7a6a94	-0.0038210498
135	0x3c3704b8	0.011170559
136	0x3cca09c3	0.024662858
137	0xbc8333b8	-0.016015872
138	0xbbdf18c4	-0.006808372
139	0xbc2b98a5	-0.010473405
140	0x3c4bd6cd	0.012441349
141	0xbcd2af20	-0.025718272
142	0xbce2d873	-0.027691102
143	0x3bf9fdec	0.007629147
144	0x3c91d1e2	0.017800275
145	0xbcefa8bc	-0.029255264
146	0xbcd9c5b5	-0.026583532
147	0x3c7c4ff3	0.015399921
148	0xbcd72251	-0.02626148
149	0x3c0b6838	0.008508734
150	0x3c9ce224	0.019150801
151	0x3b0dc764	0.0021633739
152	0xbc24c9d7	-0.010057888
153	0xbc8f7d70	-0.017515868
154	0x3bec5528	0.0072123
155	0x3c1c73e1	0.009549112
156	0x3c29dd55	0.010367711
157	0x3c4729c5	0.012155955
158	0x3bd74a00	0.006570101
159	0xbc9cc960	-0.019138992
160	0x3c57c5dd	0.013169733
161	0x3cbcd363	0.023050016
162	0x3c1f683b	0.00972944
163	0x3cc4e900	0.024036884
164	0x3ad24836	0.0016043249
165	0x3c8e78cf	0.01739159
166	0x3c2267dc	0.009912457
167	0xbc049bce	-0.008093787
168	0x3bd5bbb9	0.0065226224
169	0x3c84b6f8	0.016200528
170	0x3a0d0ba2	0.00053804566
171	0x3c8d3631	0.017237755
172	0x3bb6be24	0.0055768657
173	0xbcf3ba40	-0.029751897
174	0xbc8318aa	-0.016002972
175	0x3cc572a8	0.024102524
176	0x3ca19715	0.019725362
177	0xbcd966d0	-0.026538283
178	0x3c79dbad	0.015250129
179	0x3bc15fae	0.0059012985
180	0x3d16cdfb	0.036817532
181	0xbbf1250f	-0.007359154
182	0xbd0c0619	-0.034185503
183	0xbb4f4f92	-0.003163312
184	0xbc115cf1	-0.008872257
185	0x3d234931	0.039864723
186	0xbd0908ae	-0.033455543
187	0xbc00bd7d	-0.0078576775
188	0xbb7bbf93	-0.0038413748
189	0xbd420d0f	-0.047375735
190	0x3b7d2c47	0.0038631128
191	0xbb96741c	-0.004591478
192	0xbbcbdc6a	-0.0062213438
193	0xbc685010	-0.014179245
194	0x3d10ab1b	0.03531943
195	0xbd0b69bf	-0.034036394
196	0xbbb352eb	-0.005472531
197	0xbcc33cd2	-0.023832712
198	0x3c5b6656	0.013391098
199	0x3ce98232	0.028504465
200	0x3ca7b9b6	0.020474296
201	0x3c42768b	0.011869083
202	0x3ca26d40	0.019827485
203	0xbc8b4a20	-0.017003119
204	0xbb8587ae	-0.004075012
205	0xbbb1228d	-0.00540573
206	0xbc9f1446	-0.019418847
207	0x3c371f7e	0.011176942
208	0x3b8c1493	0.0042749136
209	0xbd564f2a	-0.05232159
210	0x3b1403bc	0.0022585234
211	0x3cb40f15	0.021979848
212	0xbab360d2	-0.0013685471
213	0x3938b78f	0.00017615988
214	0x3cba321c	0.022728972
215	0x3c0afd20	0.008483201
216	0xbc1fcc34	-0.009753276
217	0xbc105dfe	-0.008811472
218	0xbcefa3e1	-0.029252948
219	0x3b7f81c5	0.003898726
220	0xbc72bae1	-0.014815063
221	0x3b5f6da9	0.0034092462
222	0x3cdded64	0.027090736
223	0xbbae60f4	-0.0053216163
224	0x3c9276ad	0.017878855
225	0xba55a389	-0.0008149674
226	0xbd5c8ae4	-0.053843394
227	0xbb189fa5	-0.0023288515
228	0xbc98c856	-0.018650215
229	0xbce68dc1	-0.028143765
230	0xbb27f000	-0.002562523
231	0xbb6759a6	-0.0035301237
232	0xbcfeefe6	-0.031120252
233	0xbc68c79e	-0.014207749
234	0xbcaf4559	-0.021395372
235	0x3b8b407c	0.0042496305
236	0xbc19fd3b	-0.009398754
237	0xbce9c86b	-0.02853795
238	0xbc4fc320	-0.012680799
239	0xbccc92d2	-0.024972353
240	0xbb580e58	-0.0032967534
241	0xbc4500e6	-0.01202414
242	0x3c695881	0.014242292
243	0x3ae9a5d1	0.0017825906
244	0xbb708c70	-0.00367048
245	0x3c0fe953	0.008783656
246	0xbb9aa9d7	-0.0047199535
247	0x3c5896a7	0.013219512
248	0xbb86c836	-0.0041132225
249	0xba6b90a0	-0.00089860894
250	0xbd206871	-0.039162103
251	0xbce6be07	-0.028166784
252	0xbc6f010a	-0.01458765
253	0xbc073367	-0.008252001
254	0xbc508363	-0.012726638
255	0xbc07b80a	-0.008283624

network_body._body_endoder.seq_layers.0.bias f4 [128]
0	0x3ba08c69	0.0048995507
1	0x3cc84b3f	0.024449943
2	0x3bff04f7	0.0077825743
3	0x3bc89db5	0.006122316
4	0xbc219eae	-0.009864492
5	0x3ba0f2b8	0.004911747
6	0xba51c9ec	-0.0008002806
7	0x3c0b16b4	0.0084893
8	0xbc077661	-0.00826797
9	0x3c13a856	0.009012302
10	0xbc0f8425	-0.008759533
11	0x3bd85037	0.006601359
12	0xbbeb0169	-0.007171799
13	0x3c5a0517	0.013306878
14	0xba5ce47d	-0.00084263814
15	0x3bd4683c	0.0064821523
16	0x3b972376	0.0046123816
17	0x3c1007c6	0.008790916
18	0x3c6808e1	0.014162273
19	0x3c88fae0	0.016721189
20	0xb9e5721a	-0.00043763296
21	0x3aa5965a	0.0012633309
22	0x3b84c0f9	0.0040513244
23	0x3baa6d64	0.0052010287
24	0x3b2f86d1	0.0026783238
25	0x3bd56517	0.006512295
26	0xbbcad6ac	-0.0061901417
27	0xbbb7ff60	-0.00561516
28	0x3b4d10e2	0.003129058
29	0xbc1229f5	-0.008921136
30	0xbc4bfed9	-0.012450897
31	0x3c5ed83d	0.01360136
32	0xbb643e9a	-0.0034827353
33	0xbc00c9a1	-0.007860572
34	0x3b15c303	0.0022851832
35	0x3c4f57fe	0.012655256
36	0xbc88cc42	-0.01669896
37	0x3c67bce0	0.014144152
38	0xbc244ba6	-0.010027802
39	0x3b055c5b	0.0020349238
40	0x3bebf84e	0.007201231
41	0xbb9fa7e2	-0.004872308
42	0x3b739f80	0.0037173927
43	0xba8c386a	-0.0010697965
44	0xbab2ab1f	-0.001363132
45	0x3c16d21e	0.009205369
46	0x3add0d22	0.0016864876
47	0x3c35bc84	0.011092309
48	0xbc403154	-0.011730511
49	0xbb1bce42	-0.0023774062
50	0x3bbab5ac	0.0056979265
51	0xbb62b1bd	-0.0034590804
52	0xbb0e75f8	-0.0021737795
53	0xbb0374db	-0.0020058665
54	0xbb215eb9	-0.002462311
55	0x3b56d36c	0.0032779826
56	0x3acbb4b2	0.0015541522
57	0x3c87e8d1	0.016590508
58	0xbc06cf10	-0.0082280785
59	0x3be686dc	0.0070351195
60	0xbbb67149	-0.005567704
61	0xbbbf5bad	-0.005839786
62	0xbb7d4243	-0.0038644231
63	0xbc340501	-0.010987521
64	0xbc3fb220	-0.011700183
65	0x3c2bcb08	0.010485418
66	0x3c8f0e60	0.01746291
67	0x3ad60434	0.0016328157
68	0x3c4560f5	0.012047042
69	0x3c55c1de	0.01304671
70	0x3b189bc4	0.0023286203
71	0xbc38e092	-0.0112840105
72	0xbbad86f7	-0.00529563
73	0x3be43b4e	0.0069650775
74	0xbc170013	-0.009216326
75	0xbb3f6f27	-0.002921054
76	0x3b543841	0.0032382163
77	0x3c064260	0.008194536
78	0x3b99ef80	0.00469774
79	0x3c87a219	0.016556786
80	0xbb0bfbd7	-0.0021359825
81	0x3b582f68	0.003298724
82	0xbc1d1592	-0.009587662
83	0xbc733f7b	-0.014846678
84	0x3c84e549	0.016222613
85	0x3caf2548	0.021380082
86	0x3a226c44	0.00061959424
87	0x3bdcbfe6	0.0067367433
88	0x373bf2f6	1.1202637e-05
89	0x3cfbd0f8	0.030739293
90	0xbb817509	-0.0039507193
91	0x3b934f59	0.004495543
92	0x3b078220	0.0020676926
93	0xbb54aa2f	-0.003245007
94	0x3bf3e8ef	0.0074435393
95	0xbad06bcf	-0.001590127
96	0x38af8d96	8.371023e-05
97	0x3b82f9d9	0.0039970693
98	0x3befec8c	0.0073218998
99	0x3c2b8baf	0.010470315
100	0xbb95b3df	-0.0045685614
101	0xbbad8f26	-0.0052966056
102	0x3ce69930	0.028149217
103	0xbbfff108	-0.0078107156
104	0x3c14ae18	0.00907471
105	0x39c89885	0.0003826061
106	0x3bed6c3a	0.0072455676
107	0x3bd6b2db	0.006552083
108	0x3b83ef9b	0.004026366
109	0xbbdebd5c	-0.0067974757
110	0x3b3d73b2	0.002890807
111	0x3c8f3582	0.01748157
112	0xbc254571	-0.010087357
113	0x3bbc6079	0.005748805
114	0x3c208cd0	0.009799197
115	0xbbccc4fa	-0.0062490674
116	0x3c29fd3a	0.010375315
117	0xbbdd2bdc	-0.006749613
118	0x3c01197f	0.007879614
119	0x3c710b25	0.01471213
120	0xbbe7c1cc	-0.007072663
121	0xbbba8551	-0.005692162
122	0x3cf53881	0.02993417
123	0xbb187448	-0.0023262668
124	0x3c69265c	0.014230337
125	0x3bb1cc95	0.0054259994
126	0xbc46f9a7	-0.012144483
127	0xbc05abed	-0.008158666

network_body._body_endoder.seq_layers.0.weight f4 [128, 6]
0	0xbe83cf67	-0.25744173
1	0xbea79bc2	-0.3273602
2	0xbd09ba31	-0.03362483
3	0xbf00dcf9	-0.5033718
4	0x3eb366b6	0.350393
5	0x3d45f203	0.048326503
6	0xbe88997c	-0.266796
7	0x3e1ef588	0.1552335
8	0x3f0587e2	0.52160466
9	0xbe602a29	-0.21891083
10	0x3e933cd2	0.2875734
11	0x3f1d7377	0.6150431
12	0x3ea31a3c	0.31855953
13	0x3ea9b02d	0.33142224
14	0xbe3dbd80	-0.1852932
15	0xbd0c22d2	-0.034212895
16	0xbdee48bb	-0.11634966
17	0xbefa4a1d	-0.4888467
18	0xbda39d31	-0.07988966
19	0xbf364edd	-0.71214086
20	0xbe1f152b	-0.15535419
21	0xbef0fa6e	-0.47066063
22	0x3e8607b4	0.26177752
23	0x3dbf6da0	0.09347081
24	0xbf602cc2	-0.87568295
25	0x3ed7dbe4	0.4215995
26	0xbe6257c8	-0.22103798
27	0x3ef10164	0.47071373
28	0x3d5baf50	0.053633988
29	0xbe4e662c	-0.20156163
30	0x3e00bccd	0.12572022
31	0xbd80713a	-0.06271596
32	0xbe67d5b1	-0.2264011
33	0xbe062523	-0.13100104
34	0xbf35ead8	-0.7106147
35	0xbe54e8ec	-0.20791978
36	0xbedf9316	-0.43666905
37	0x3ddd2324	0.10797718
38	0x3e024091	0.12719943
39	0x3f0291e6	0.51003873
40	0x3e6987f0	0.22805762
41	0x3e34ed31	0.17668606
42	0x3e7a6e6d	0.24456187
43	0xbe16b59f	-0.1471772
44	0x3e45f494	0.1933158
45	0xbe02aa3b	-0.1276025
46	0xbe32d674	-0.1746462
47	0xbd92256c	-0.07136044
48	0xbf20cb8e	-0.628106
49	0xbe8c2d5a	-0.2737835
50	0x3c397620	0.011319667
51	0x3e35e54d	0.17763253
52	0xbeec62f9	-0.4616926
53	0xbea6098b	-0.32429156
54	0x3df50470	0.11963737
55	0xbf046053	-0.5170948
56	0xbe15e6f6	-0.14638886
57	0xbf1277ed	-0.5721424
58	0x3d0b6333	0.03403015
59	0x3eb8e82f	0.36114642
60	0xbe3a1ee9	-0.18175854
61	0x3e293c9a	0.16527024
62	0xbd5426c0	-0.051794767
63	0x3ec8ce7c	0.39220035
64	0x3e34cb04	0.1765557
65	0xbda971d2	-0.082736626
66	0x3dca6e17	0.09884279
67	0xbe7a9553	-0.24471025
68	0xbcb79463	-0.022409623
69	0x3e9bf25e	0.3045835
70	0x3ad449f8	0.0016196361
71	0x3e35a608	0.17739117
72	0xbf2ab045	-0.66675216
73	0xbeb48ad3	-0.35262164
74	0xbf046af2	-0.51725686
75	0x3dd1ba4c	0.102406114
76	0x3cfeeaaf	0.031117765
77	0xbdc18e78	-0.09451002
78	0x3f6cb9bd	0.92470914
79	0x3e9618ec	0.2931589
80	0xbe937633	-0.28801116
81	0xbdf62437	-0.12018626
82	0x3e912b0d	0.28353158
83	0xbf091ba6	-0.53557813
84	0xbf0daeef	-0.5534505
85	0xbd2fe031	-0.042938415
86	0x3ed704c7	0.41995832
87	0x3d13bbfc	0.036067948
88	0x3dd937cc	0.106063455
89	0x3f202fe8	0.625731
90	0x3e23d490	0.15999055
91	0xbf171e04	-0.59030175
92	0xbe731bce	-0.23741075
93	0x3e885f07	0.26635
94	0xbf738a34	-0.95132756
95	0xbf161d04	-0.58638024
96	0x3ea17712	0.31536156
97	0x3e7e3632	0.24825361
98	0x3f190343	0.597706
99	0x3e07a559	0.13246669
100	0xbf2027fe	-0.62561023
101	0x3dc2aab4	0.09505215
102	0xbed5dbac	-0.4176916
103	0xbebf1e95	-0.3732802
104	0xbf18e587	-0.5972523
105	0xbcdfd12c	-0.02732142
106	0xbe65f582	-0.22456935
107	0xbe5c6ef4	-0.215267
108	0xbd6db790	-0.058036387
109	0x3f3a01b9	0.7265888
110	0xbe8b6a05	-0.27229324
111	0xbe34bad8	-0.176494
112	0x3ee6be8d	0.45067254
113	0x3ea00e02	0.31260687
114	0xbdaf6cb7	-0.085656576
115	0xbf19d540	-0.6009102
116	0x3f67aa32	0.9049407
117	0xbf1beabb	-0.60905045
118	0xbeaf319b	-0.34217533
119	0xbf18bb88	-0.5966115
120	0xbd8558ab	-0.06511053
121	0xbdb0d652	-0.08634628
122	0xbf0c74fb	-0.54866
123	0x3ebe37e8	0.37152028
124	0x3f9669b1	1.1751004
125	0x3f333265	0.6999877
126	0x3e99ad30	0.30014944
127	0xbe3f09ce	-0.18656084
128	0xbf572d34	-0.8405335
129	0x3ef1e745	0.47246757
130	0x3f5e0117	0.8672041
131	0x3f0eda92	0.5580226
132	0xbe71503c	-0.23565763
133	0xbf2bd28e	-0.67118156
134	0xbefa41f8	-0.48878455
135	0xbf180ad1	-0.59391505
136	0xbe10d2aa	-0.14142862
137	0x3ee9c858	0.45660663
138	0x3f4180cb	0.7558715
139	0xbf402766	-0.7506012
140	0x3ed36222	0.41285807
141	0xbe88cd01	-0.26718906
142	0x3ecabc12	0.3959661
143	0x3f339987	0.7015614
144	0xbe406972	-0.18790224
145	0x3ccd2bdf	0.025045333
146	0xbd15a85f	-0.036537524
147	0x3e522271	0.20520951
148	0xbd98c12b	-0.07458719
149	0xbe931aea	-0.2873147
150	0xbf1a84ef	-0.6035909
151	0xbdc6222e	-0.09674488
152	0x3e75104c	0.23931998
153	0x3da18acc	0.078878015
154	0x3f788dce	0.97091377
155	0x3ed00c02	0.4063416
156	0xbf5c3375	-0.8601602
157	0xbe7fd71a	-0.24984398
158	0xbe2322bc	-0.15931219
159	0x3f16f3c9	0.58965737
160	0xbe15f0ef	-0.1464269
161	0x3f2440d8	0.64161444
162	0xbecc9658	-0.39958453
163	0xbf9143b7	-1.134879
164	0xbe58c795	-0.21169885
165	0x3dcd1bb7	0.10015052
166	0xbf2c4ec4	-0.67307687
167	0xbe45b34b	-0.19306676
168	0xbd362eb3	-0.04447813
169	0x3e70d10c	0.23517245
170	0xbf2d24f1	-0.67634493
171	0x3eb39491	0.35074285
172	0x3efd958c	0.49528158
173	0x3d0a95e2	0.033834346
174	0xbede9359	-0.43471792
175	0x3e87e7f7	0.26544163
176	0xbf135c59	-0.57562786
177	0xbca3761d	-0.019953782
178	0x3f10cc2b	0.56561536
179	0xbc1e0601	-0.009644986
180	0x3ce4e8aa	0.027942974
181	0xbe9bebd9	-0.30453375
182	0xbf4bf317	-0.796678
183	0xbdb20edd	-0.08694241
184	0x3dd4b128	0.103853524
185	0x3f0d8e0c	0.5529487
186	0x3e2a3eaa	0.16625467
187	0xbeef8e76	-0.46788377
188	0x3c45a5b9	0.012063437
189	0xbec4f654	-0.38469183
190	0x3deae037	0.11468547
191	0x3e7eb23b	0.24872677
192	0xbf63dbf2	-0.89007485
193	0x3ab285cc	0.0013620197
194	0xbd0ed9ab	-0.034875553
195	0x3c78de11	0.0151896635
196	0xbf0ad2ad	-0.54227716
197	0xbdbdbbbc	-0.09264323
198	0xbe10a258	-0.14124429
199	0x3b19ca8d	0.0023466677
200	0xbe639d6a	-0.22228017
201	0x3ed84547	0.42240354
202	0xbe152610	-0.14565301
203	0x3ed3fb3e	0.4140262
204	0xbe7dabee	-0.24772617
205	0x3f39fbaa	0.72649634
206	0xbece24c5	-0.40262428
207	0x3f14c7f1	0.58117586
208	0x3f3d10af	0.7385358
209	0x3dc9c18f	0.098513715
210	0xbd877582	-0.0661421
211	0x3e94d46c	0.29068315
212	0x3eb21cf6	0.3478772
213	0xbed0173a	-0.4064272
214	0xbdd458cf	-0.103685014
215	0x3de3ed4b	0.111292444
216	0xbea06a7c	-0.3133124
217	0xbe25073c	-0.16116041
218	0xbd293a3d	-0.041315306
219	0xbe8bda13	-0.27314815
220	0x3dcf604a	0.101257876
221	0x3eb8f546	0.3612463
222	0x3f3bec64	0.7340758
223	0xbe3a5e38	-0.18200004
224	0xbecdefab	-0.40221915
225	0x3eaf40b4	0.34229052
226	0xbf39199c	-0.723047
227	0x3e5eba15	0.21750672
228	0xbd6fa065	-0.058502574
229	0x3e3f1bd9	0.18662967
230	0x3e00f9f5	0.12595351
231	0xbee66e99	-0.45006254
232	0x3e9f97cc	0.311705
233	0xbf606ac3	-0.87662905
234	0x3eafb87f	0.34320447
235	0x3eaacd10	0.33359575
236	0x3bcc46ab	0.00623401
237	0x3df5aca8	0.11995822
238	0xbebbeb1a	-0.36702806
239	0xbe2e3d89	-0.17015661
240	0x3ef4f797	0.47845146
241	0x3e867330	0.26259756
242	0xbe16231f	-0.14661835
243	0x3ee973ba	0.45596105
244	0x3f112dfa	0.5671078
245	0xbe154b42	-0.1457949
246	0xbd16a316	-0.036776625
247	0xbdb3525e	-0.08755945
248	0xbdbf3dd8	-0.09337968
249	0xbe9e8c40	-0.30966377
250	0x3eaf7c9c	0.34274757
251	0xbdc404cf	-0.0957123
252	0x3d88b22f	0.06674611
253	0xbe4a1883	-0.19735913
254	0xbe6fbe0d	-0.23412342
255	0xbe7e3927	-0.2482649

network_body._body_endoder.seq_layers.2.bias f4 [128]
0	0x3af46a61	0.0018647426
1	0x3b456f65	0.003012621
2	0x3c331027	0.010929144
3	0xbaaf493f	-0.001337327
4	0x3c38e6ca	0.011285493
5	0x3c51c1c5	0.012802546
6	0x3be99b85	0.007129135
7	0x3b900410	0.0043950155
8	0x3b86567f	0.0040996666
9	0x3be016af	0.0068386416
10	0x3aca9ca0	0.0015458055
11	0xbbe4697b	-0.006970582
12	0x3c1c645f	0.009545415
13	0x3c931c74	0.017957903
14	0x3c105205	0.0088086175
15	0x3abea1c8	0.0014544064
16	0x3c42a68a	0.011880526
17	0x3c501e55	0.012702544
18	0x3b804047	0.0039139125
19	0xbb144177	-0.0022622028
20	0x3c04aeeb	0.008098344
21	0xbbb582e8	-0.005539287
22	0x3bf9d6cc	0.0076244827
23	0x3c112c9d	0.008860734
24	0x3bcdf202	0.006284953
25	0x3bfbef0d	0.007688409
26	0x3bd3b5f9	0.006460902
27	0xbb6e54b8	-0.0036366414
28	0xbbe6f3bb	-0.007048098
29	0x3b9bd412	0.0047555054
30	0x3b9c0253	0.0047610193
31	0x3abaa58e	0.0014240013
32	0x3bb2195c	0.005435152
33	0xbbbdf8b4	-0.00579747
34	0xbaea970b	-0.0017897798
35	0x3b2e9648	0.0026639868
36	0xbc3390db	-0.010959829
37	0xbc031b8d	-0.008002174
38	0xbb9249e9	-0.004464377
39	0x3bef873f	0.0073098238
40	0xbb991999	-0.004672241
41	0xbb41baa5	-0.0029560712
42	0xbb047e28	-0.0020216797
43	0x3b220de2	0.0024727513
44	0xbbcb2200	-0.0061991215
45	0x3c19a462	0.009377571
46	0x39ae2237	0.00033213358
47	0x3b59fb01	0.0033261182
48	0xba19c3f2	-0.0005865685
49	0x3ac202f4	0.0014801905
50	0xb91bee37	-0.00014870694
51	0x3bdca237	0.0067332047
52	0x3a6becff	0.0008999854
53	0x3c779ead	0.015113515
54	0xba5add9a	-0.0008349061
55	0x3b80dc69	0.003932525
56	0x3b1d94a5	0.0024044898
57	0xbb3e3612	-0.0029023928
58	0xbb59e008	-0.0033245105
59	0xbbe876c0	-0.007094234
60	0xbbf5a1bf	-0.0074960883
61	0xbba0ca8b	-0.0049069575
62	0x3b15dc12	0.0022866768
63	0xbbfe2b0e	-0.0077565974
64	0xbbbd3700	-0.005774379
65	0xbab41777	-0.0013739903
66	0x3bc4ae22	0.0060022036
67	0x3c028b63	0.007967803
68	0xbb246075	-0.0025081907
69	0x3bdabbaf	0.0066752057
70	0x39b0f3ad	0.00033750889
71	0xbbeac7af	-0.0071649174
72	0x3adcab77	0.0016835768
73	0x3ac04cd4	0.0014671334
74	0x3bd61645	0.0065334165
75	0xbb9f0d4b	-0.0048538796
76	0x3b81f689	0.003966157
77	0x3c673673	0.014112103
78	0xbbd34663	-0.0064475997
79	0xbbe81f56	-0.0070838137
80	0x3afe1406	0.001938463
81	0xb9bdfeb9	-0.00036238672
82	0xbaf0db8b	-0.0018375976
83	0x3c4d7feb	0.012542705
84	0xbc2fdf42	-0.010734381
85	0xbbc562e7	-0.006023753
86	0x3b560875	0.003265885
87	0xbaf15cd2	-0.0018414503
88	0x3c25faf1	0.01013063
89	0xbb5c3afb	-0.003360449
90	0xbb041e63	-0.0020159713
91	0xbbfae4d5	-0.0076566734
92	0x3c15ad03	0.0091354875
93	0xbbd3479f	-0.006447747
94	0x3c3bd393	0.011464017
95	0xbbafe4c2	-0.005367846
96	0x3bc8fefb	0.0061339117
97	0xba9fc8eb	-0.0012190616
98	0x3ba94ecc	0.005166864
99	0x3c12b234	0.00895362
100	0x3b9426f8	0.004521247
101	0x3c7917a9	0.015203395
102	0xbbb04bd8	-0.005380135
103	0x3b9ee328	0.0048488565
104	0xbbb52801	-0.0055284505
105	0xbb8653c8	-0.004099343
106	0xbb704652	-0.0036663008
107	0xbbfe7070	-0.0077648684
108	0xbbaaee7a	-0.005216417
109	0x3c84cb49	0.016210215
110	0xba40fc49	-0.0007361812
111	0x3b290a0b	0.002579334
112	0x3ab9cc1f	0.0014175213
113	0xbbaf9677	-0.005358513
114	0x3be27b39	0.006911662
115	0xbc092779	-0.008371227
116	0xbbac5edf	-0.005260333
117	0xbb31d10a	-0.0027132654
118	0xbbc1db0b	-0.0059160045
119	0x39afba77	0.00033517528
120	0xbbfa9c91	-0.0076480587
121	0x3ad2ac7f	0.0016073136
122	0xbb8c5c87	-0.004283491
123	0x3bd2e4a8	0.0064359494
124	0x3b4eeac3	0.0031573034
125	0x3b07b530	0.0020707361
126	0xbb87b1a6	-0.0041410504
127	0x3bac1985	0.0052520656

network_body._body_endoder.seq_layers.2.weight f4 [128, 128]
0	0xbcc536ec	-0.02407404
1	0xbca416d3	-0.020030415
2	0x3d905e36	0.07049219
3	0xbe2e5ec5	-0.17028339
4	0x3a394bb4	0.00070684706
5	0xbd10122d	-0.035173584
6	0x3ddf414a	0.10901125
7	0x3d9fc91a	0.07802029
8	0xbd995536	-0.07486956
9	0xbce34b15	-0.027745763
10	0xbd68b6db	-0.05681501
11	0x3c4da322	0.012551101
12	0x3d616881	0.055031303
13	0x3cfec78b	0.031101009
14	0x3db23a71	0.08702553
15	0x3cf58cd7	0.029974384
16	0x3ddfdab7	0.109303884
17	0xbd2d7ac2	-0.0423534
18	0xbbf34332	-0.007423782
19	0xbc8a8e0c	-0.016913436
20	0xbc88e0cf	-0.01670876
21	0xbcbe5a08	-0.02323629
22	0x3dc9d0cb	0.09854277
23	0x3cd45488	0.025919214
24	0xbdb61497	-0.08890646
25	0x3dbee44c	0.09320888
26	0xbe1a8cb5	-0.15092738
27	0x3d1ebdc7	0.038755205
28	0xbd8d73f2	-0.069068804
29	0x3d159b1c	0.036524877
30	0xbc883f68	-0.016631797
31	0xbd29dd3e	-0.04147076
32	0xbd673a70	-0.056452215
33	0x3d92e054	0.071716934
34	0xbca9dc0d	-0.020734811
35	0xbd33ed25	-0.04392733
36	0x3d1479da	0.03624902
37	0xbd96b19d	-0.07358096
38	0xbc3f838a	-0.011689076
39	0xbcb7f3d3	-0.022455132
40	0xbd3e34de	-0.046437137
41	0xbd84cc4c	-0.06484279
42	0xbb94615a	-0.004528207
43	0xbd9a2034	-0.075256735
44	0x3e139bfc	0.14414972
45	0xbdd31178	-0.10306066
46	0xbe58beeb	-0.2116658
47	0x3c91fe60	0.01782149
48	0x3c3205ec	0.01086567
49	0x3d813b3f	0.063101284
50	0xbd8e7003	-0.06954958
51	0x3d2216b6	0.03957244
52	0x3d8315ca	0.0640064
53	0x3d04df1f	0.032439347
54	0x3ba5d6c3	0.005061002
55	0x3e2a8edc	0.16656059
56	0xbdd3972f	-0.1033157
57	0x3e31170e	0.17293951
58	0xbd7dcd01	-0.061963085
59	0xbdee042c	-0.116218895
60	0xbd382e6c	-0.044966146
61	0x3c9f1c5c	0.019422702
62	0x3e2d04b8	0.16896331
63	0x3cdc2b70	0.026876181
64	0xbdbb07fc	-0.09132382
65	0xbd00813b	-0.031373244
66	0x3d1e2fa1	0.03861964
67	0x3cc0c638	0.023532018
68	0xbe8b4e33	-0.272081
69	0xbd9189d9	-0.071063705
70	0xbd4e2bb5	-0.05033465
71	0xbdc9def9	-0.09856982
72	0x3e33b982	0.17551234
73	0x3d352fdd	0.0442351
74	0x3ccdf035	0.025138954
75	0xbbb4ab77	-0.0055136043
76	0xbdec3687	-0.11533838
77	0x3aa825ce	0.001282865
78	0xbdc64278	-0.09680647
79	0x3d81e057	0.063416176
80	0xbdcd1347	-0.100134425
81	0x3e4619af	0.19345735
82	0x3dead01f	0.11465477
83	0xbd5c020d	-0.053712893
84	0xbdfdd4ed	-0.12394128
85	0x3d9ffa81	0.07811452
86	0xbdb5b929	-0.08873207
87	0xbcaa53a1	-0.02079183
88	0x3e209f48	0.15685761
89	0xbe0e7faa	-0.13915887
90	0xbd6409f6	-0.055673562
91	0x3d9e9dc4	0.07744935
92	0xbdd4b7b0	-0.10386598
93	0x3b8db172	0.0043241316
94	0xbcc3942c	-0.023874365
95	0x3d837c3b	0.064201795
96	0xbe12d991	-0.14340807
97	0x3e6865c3	0.22695069
98	0x3d10019c	0.035157785
99	0x3dd0a87e	0.10188387
100	0x3cbb35b2	0.022852752
101	0xbdb566cc	-0.088574976
102	0xbde6f6e4	-0.112775594
103	0x3deb01f9	0.11474986
104	0xbcc16672	-0.02360842
105	0xbe3ffded	-0.18749209
106	0x3d02c457	0.031925526
107	0x3e3e700f	0.18597434
108	0x3d412ec5	0.047163744
109	0xbd25e97d	-0.040505875
110	0x3dda3ebf	0.10656499
111	0x3d9b35d8	0.07578629
112	0x3c9c5ad9	0.019086288
113	0x3dde2637	0.10847133
114	0xbd7299e5	-0.059228797
115	0x3e1712b2	0.14753225
116	0xbe0c6de6	-0.13713798
117	0x3d1c4848	0.03815487
118	0x3db418de	0.087938055
119	0x3c322e84	0.010875348
120	0xbdc909d6	-0.09816329
121	0xbd323c23	-0.043514382
122	0xbde43049	-0.11142022
123	0xbd693981	-0.056939606
124	0xbdbf7769	-0.093489476
125	0xbd704589	-0.058660064
126	0x3de24902	0.110490814
127	0xbe0c1a16	-0.13681826
128	0xbe6ad7e2	-0.22933915
129	0x3cefadac	0.029257618
130	0x3cd588f9	0.02606629
131	0xbdda5776	-0.10661213
132	0x3dd7c9c0	0.10536528
133	0x3dfabe4b	0.12243327
134	0x3e2d77d0	0.16940236
135	0xbd55ab8a	-0.052165546
136	0x3d1ff820	0.03905499
137	0x3dd29835	0.102829374
138	0x3d9f71ea	0.07785399
139	0xbc92a156	-0.017899197
140	0xbe065569	-0.13118519
141	0xbe63755a	-0.22212735
142	0xbd9da2a3	-0.07697036
143	0x3c182d5e	0.00928816
144	0xbd862044	-0.06549123
145	0x3e1342a6	0.14380893
146	0xbdd6d494	-0.10489765
147	0xbd8c1221	-0.06839395
148	0x3a10ccf8	0.0005523707
149	0xbc03bac9	-0.0080401385
150	0xbd173db8	-0.036924094
151	0xbd30d5c6	-0.04317262
152	0xbc535579	-0.012898796
153	0xbdf779d2	-0.12083782
154	0xbe13a69a	-0.14419022
155	0x3c2f28cf	0.010690882
156	0xbcaa3f67	-0.020782186
157	0xbd738d80	-0.059461117
158	0x3d949f30	0.07256925
159	0xbdfe642c	-0.1242145
160	0x3df2f871	0.11863793
161	0xbe2ad4b4	-0.16682702
162	0xbdf5b7dc	-0.11997959
163	0xbd34e0ee	-0.044159822
164	0x3dc7daaf	0.097585075
165	0x3c550b24	0.013003144
166	0xbd33ff14	-0.043944433
167	0xbd6768b0	-0.056496322
168	0x3c903e67	0.01760788
169	0x3cc7468e	0.024325635
170	0x3e1d8dda	0.15386143
171	0x3db3ae08	0.08773428
172	0xbc9e12be	-0.019296046
173	0xbdb30e82	-0.087430015
174	0xbd892be6	-0.06697826
175	0xbc289f5d	-0.010291901
176	0x3d8fe1e0	0.07025504
177	0xbd191303	-0.037371647
178	0xbb3478ef	-0.0027537902
179	0x3df14c06	0.117820784
180	0xbe15d8a3	-0.14633422
181	0xbdd5c4ae	-0.10437904
182	0xbdf15098	-0.1178295
183	0x3b6db519	0.0036271273
184	0xbd915fab	-0.07098325
185	0xbd88881d	-0.066665865
186	0xbc9868ce	-0.018604662
187	0x3d88b0e1	0.06674362
188	0xbda1d026	-0.07901029
189	0xbdccfa9e	-0.10008739
190	0x3ccc499d	0.024937445
191	0x3e095348	0.13410676
192	0x3e1e1233	0.1543663
193	0xbd9fa73b	-0.077955686
194	0x3b8faaec	0.004384389
195	0xbd82b25c	-0.063816756
196	0x3d11a1a9	0.03555456
197	0xbc6f5884	-0.014608506
198	0x3d73c565	0.059514422
199	0xba31fd7e	-0.00067897874
200	0x3e209f3e	0.15685746
201	0xbd569bc2	-0.052394636
202	0xbdac0f87	-0.08401399
203	0xbd57449a	-0.052555658
204	0x3d5b0e0e	0.0534802
205	0x3c874601	0.016512873
206	0xbdd19888	-0.10234171
207	0xbdc76fe8	-0.09738141
208	0x3d8cc11d	0.06872771
209	0x3e13cdeb	0.1443402
210	0xbdcabb1b	-0.09898969
211	0x3d51cb12	0.051219054
212	0x3d8173bb	0.06320902
213	0xbd190d00	-0.037365913
214	0x3c2b5c9a	0.01045909
215	0xbe089714	-0.13338882
216	0xbb440b07	-0.00299138
217	0xbe3f8c8d	-0.1870596
218	0xbe07b845	-0.13253887
219	0x3d8b5f40	0.06805277
220	0xbda9fca5	-0.08300141
221	0x3d2288f5	0.039681394
222	0xbd0246bf	-0.03180575
223	0xbbd0495e	-0.0063564023
224	0xbe348f55	-0.17632802
225	0x3df0d205	0.11758808
226	0x3db30d97	0.087428264
227	0x3d129e73	0.03579564
228	0xbdd5a940	-0.104326725
229	0xbe1ec241	-0.1550379
230	0xbc807059	-0.015678572
231	0x3c28dd48	0.010306664
232	0x3d673b3b	0.05645297
233	0xbc0e1697	-0.008672378
234	0x3df5f436	0.1200947
235	0xbe2fc401	-0.17164613
236	0x3c6555dc	0.013997521
237	0x3d03ba19	0.0321599
238	0xbce58c2c	-0.02802094
239	0xbe02e3d3	-0.1278222
240	0xbd3f52a5	-0.046709675
241	0xbcc405dd	-0.023928577
242	0xbc2ca6b3	-0.010537791
243	0xbe2a4238	-0.16626823
244	0x3d52b7f4	0.051444963
245	0x3df35ea8	0.118832886
246	0x3c5502bc	0.01300114
247	0x392faf5e	0.0001675463
248	0x3dc6eee3	0.09713533
249	0x3d337cb0	0.043820083
250	0xbe718a92	-0.23588017
251	0x3d594e5c	0.053053245
252	0xbd8654f9	-0.06559176
253	0xbd58deba	-0.052946784
254	0x3dc930d0	0.09823763
255	0x3d712886	0.058876537
