results/Test2/Test2/Test2-126501.onnx (onnx, 71103 bytes, 7 tensors)

action_model._continuous_distribution.log_sigma f4 [1, 2]
0.008310721 -0.007824105
00000000: b129 083c ad30 00bc

action_model._continuous_distribution.mu.bias f4 [2]
-0.013303772 0.026873333
00000000: 10f8 59bc 7725 dc3c

action_model._continuous_distribution.mu.weight f4 [2, 128]
-0.01991372 -0.001960394 -0.03469573 -0.024981061 0.021115448 -0.012110167 -0.006726728 0.018869728
-0.020634886 -0.0064335777 0.0056618582 -0.044223376 0.042450443 -0.06591582 -0.024146097 -0.0050363485
-0.0018197338 -0.011017254 -0.006237027 -0.028247438 0.0069139814 -0.046212047 0.01915318 -0.002136723
0.014056983 -0.03138867 -0.025361756 0.032563638 0.015090014 0.018742483 0.028065912 0.01388365
0.005272588 0.011470201 -0.008575984 -0.043595694 -0.017480807 -0.028604444 0.00076123537 -0.0049450123
0.04120524 -0.017854905 -0.012404691 -0.018317016 -0.047692858 -0.047948316 -0.036999702 -0.008521048
-0.03730973 0.018519582 0.01778821 -0.02375299 0.021351982 -0.00036733295 0.017951718 0.024908291
0.016520107 -0.010616942 0.006949981 0.00056194444 -0.0056652054 -0.015989615 -0.010958373 -0.023618096
-0.021466693 -0.042045955 -0.029847695 -0.02939199 -0.014746984 0.013307606 0.00018508775 0.01652247
-0.016631017 -0.027804151 0.010872969 -0.026540896 0.025922352 0.0051408946 -0.0035408016 -0.043496005
0.014109903 0.016558448 -0.011804555 0.0006673126 0.01760776 0.03369642 0.009026155 0.015180135
-0.00038455817 0.021424776 -0.0075849015 0.0017912597 -0.045196768 0.005557537 -0.03658502 -0.057052597
-0.01723532 0.0040956363 0.024461405 -0.013899175 -0.011399897 0.015400923 0.01634398 0.01908436
-0.04505345 0.012521741 -0.020563848 0.013671271 -0.018956818 0.014573332 0.008101514 -0.0005685659
-0.017397568 0.03283966 -0.03589888 -0.017592292 -0.0040849936 0.027599523 0.01739806 -0.03092801
0.012463633 -0.05603835 0.0012972725 -0.018508762 0.010193999 -0.006252563 -0.024222666 0.0055607944
-0.0214435 -0.031917863 -0.0201975 -0.04654086 -0.00036760163 -0.010443323 -0.024611918 -0.050076146
-0.014454131 0.013539916 0.033779807 -0.0025976726 0.007465967 -0.017810449 0.0286563 -0.02888769
-0.022775417 0.02556554 0.0033728853 -0.0070795715 -0.016795913 0.004669356 0.030660614 -0.07155658
-0.022120146 -0.0022026675 -0.034034807 0.010030554 -0.010000857 0.0028243489 -0.005125058 0.0041966303
0.01321931 -0.02233245 -0.02345332 -0.02500583 -0.011529573 -0.032392986 -0.023282485 0.016147899
-0.032747447 0.015243645 0.005186649 -0.0072744363 -0.030202469 -0.035508666 -0.012070252 -0.012911925
-0.013821636 -0.032956306 -0.006388008 -0.022386769 -0.021678075 -0.004654801 -0.021049755 0.0068209665
-0.00242184 0.007611116 -0.053284917 -0.026100243 0.014659291 -0.0027707785 0.00015573013 0.0014020794
0.027131148 -0.026515588 0.0040279455 0.0117872385 0.0045141284 -0.039308377 -0.020071024 0.021372804
-0.0070769 0.020816777 0.024721064 -0.00035658802 -0.03062386 0.010668379 -0.009937628 -0.010114321
0.020254625 -0.00482791 -0.008078463 -0.035629958 0.016953161 -0.024188846 0.02551439 -0.03311792
-0.0219923 -0.015735263 0.015035972 0.009884653 -0.026144875 0.017005466 -0.021669475 -0.036339443
0.0032748722 -0.04205342 -0.0614359 -0.007315914 0.015074259 -0.00033180043 0.036121555 0.0052234884
-0.010039197 0.014507997 0.005269946 -0.03396014 0.015328281 -0.0085174935 0.038432974 -0.0037604866
-0.010680394 -0.01612746 -0.026669713 0.027242735 0.018988742 -0.017477365 0.0071179573 -0.031526867
-0.04267269 -0.015320675 0.011514437 -0.034280278 0.0029494865 -0.021873178 0.011425987 0.0051893527
00000000: 1922 a3bc f479 00bb 1c1d 0ebd 15a5 ccbc
00000010: 4efa ac3c b969 46bc e26b dcbb b094 9a3c
00000020: 7e0a a9bc c3d0 d2bb 1c87 b93b 9223 35bd
00000030: 84e0 2d3d e0fe 86bd 09ce c5bc f407 a5bb
00000040: 2284 eeba b681 34bc f95f ccbb 2c67 e7bc
00000050: ae8e e23b d848 3dbd 21e7 9c3c 4308 0cbb
00000060: 434f 663c 6891 00bd 75c3 cfbc 7361 053d
00000070: 1b3c 773c d689 993c 7cea e53c 4078 633c
00000080: adc5 ac3b 83ed 3b3c 4982 0cbc 6691 32bd
00000090: e933 8fbc de53 eabc a48d 473a c509 a2bb
000000a0: d3c6 283d 7344 92bc 0c3d 4bbc 910d 96bc
000000b0: 9659 43bd 7465 44bd 008d 17bd de9b 0bbc
000000c0: 16d2 18bd 61b6 973c 95b8 913c a195 c2bc
000000d0: 5aea ae3c 9896 c0b9 7b0f 933c 790c cc3c
000000e0: 2d55 873c aff2 2dbc abbc e33b 744f 133a
000000f0: 30a3 b9bb a7fc 82bc bf8a 33bc bd7a c1bc
00000100: ebda afbc 6138 2cbd 2783 f4bc 78c7 f0bc
00000110: 559d 71bc 2508 5a3c 1d14 4239 225a 873c
00000120: c53d 88bc 88c5 e3bc 8a24 323c 4b6c d9bc
00000130: 1d5b d43c f374 a83b cb0c 68bb de28 32bd
00000140: 392d 673c 95a5 873c e467 41bc 97ee 2e3a
00000150: 263e 903c 4205 0a3d 70e2 133c 1ab6 783c
00000160: 869e c9b9 0383 af3c c48a f8bb b4c8 ea3a
00000170: 3f20 39bd 001c b63b 2dda 15bd fcaf 69bd
00000180: 1631 8dbc b034 863b 4963 c83c 5eb9 63bc
00000190: a2c6 3abc 2754 7c3c cfe3 853c ce56 9c3c
000001a0: f789 38bd fd27 4d3c 8475 a8bc 77fd 5f3c
000001b0: 544b 9bbc fcc4 6e3c 36bc 043c d00b 15ba
000001c0: 5885 8ebc e182 063d b40a 13bd b61d 90bc
000001d0: 69db 85bb 6518 e23c 6086 8e3c bd5c fdbc
000001e0: 4434 4c3c 7888 65bd 3e09 aa3a b09f 97bc
000001f0: bb04 273c 4de2 ccbb 9d6e c6bc 5337 b63b
00000200: 47aa afbc 4ebc 02bd 3a75 a5bc a1a1 3ebd
00000210: a8ba c0b9 791a 2bbc ef9e c9bc a51c 4dbd
00000220: 05d1 6cbc 86d6 5d3c b25c 0a3d b73d 2abb
00000230: 12a5 f43b 38e7 91bc 9ec0 ea3c e0a5 ecbc
00000240: 8393 babc d36e d13c a00b 5d3b c0fb e7bb
00000250: 9597 89bc 6601 993b f82b fb3c 428c 92bd
00000260: 4f35 b5bc a15a 10bb 1568 0bbd 3157 243c
00000270: a2da 23bc b618 393b 1af0 a7bb e383 893b
00000280: ce95 583c 8bf2 b6bc 2d21 c0bc 07d9 ccbc
00000290: 89e6 3cbc 82ae 04bd e9ba bebc 9948 843c
000002a0: 3022 06bd 7bc0 793c c4f4 a93b 655e eebb
000002b0: 2b6b f7bc 8971 11bd 4ec2 45bc 8a8c 53bc
000002c0: 2574 62bc 31fd 06bd 7f52 d1bb 7564 b7bc
000002d0: 3896 b1bc 4d87 98bb 8970 acbc 6a82 df3b
000002e0: bcb7 1ebb ab66 f93b 4941 5abd 2dd0 d5bc
000002f0: 862d 703c f395 35bb 7d4b 2339 fac5 b73a
00000300: 2442 de3c 3837 d9bc dbfc 833b 431f 413c
00000310: 41eb 933b d201 21bd fd6b a4bc 0516 af3c
00000320: 57e5 e7bb f287 aa3c d483 ca3c 6ff4 bab9
00000330: e4de fabc 6dca 2e3c 6fd1 22bc 89b6 25bc
00000340: 07ed a53c 7233 9ebb 885b 04bc b8f0 11bd
00000350: 5be1 8a3c b027 c6bc 8e03 d13c a8a6 07bd
00000360: 3229 b4bc 3de7 80bc 7059 763c 3df3 213c
00000370: c72d d6bc 0c4f 8b3c 2f84 b1bc abd8 14bd
00000380: 3d9f 563b 3540 2cbd 36a4 7bbd 56ba efbb
00000390: 06fa 763c 80f5 adb9 32f4 133d cc29 ab3b
000003a0: 727b 24bc f3b2 6d3c 83af ac3b ca19 0bbd
000003b0: 7823 7b3c f58c 0bbc e56b 1d3d 7f72 76bb
000003c0: d2fc 2ebc bc1d 84bc 717a dabc 282c df3c
000003d0: 478e 9b3c b12c 8fbc c13d e93b 5122 01bd
000003e0: 8fc9 2ebd 9203 7bbc 0da7 3c3c 7a69 0cbd
000003f0: 2c4c 413b 612f b3bc 1034 3b3c 720b aa3b

network_body._body_endoder.seq_layers.0.bias f4 [128]
0.015912523 0.062511735 0.000766239 0.018942041 0.045063674 -0.0011224994 -0.0052779964 0.044554092
0.049075533 0.022628093 0.005638525 0.024045102 0.038831927 -0.024361923 0.018101014 -0.021355527
-0.002804034 0.055806678 0.0062015317 0.014322825 -0.0027079154 0.017222095 0.0026615104 -0.0014012991
-0.021312203 -0.014722597 -0.015893616 0.046279732 -0.0057600047 0.043544296 0.059812605 0.01108182
-0.0035082516 0.006269533 0.019936299 0.029612657 -0.0143227205 0.019531453 -0.010423523 0.0022238276
0.021688018 -0.022099197 -0.0061422125 -0.0029733365 -0.0014359307 0.006220997 -0.02063359 -0.0036883405
0.027335405 -0.009444421 0.056055013 0.025924515 0.015313952 0.0047251196 0.009836552 0.03546708
0.035443373 0.025952974 0.01107272 -0.0013761839 0.0014765322 -0.037451137 -0.036984704 0.030319935
-0.021487635 -0.017322011 0.020690942 -0.0054489328 -0.036451407 0.0462962 -0.0022580917 0.00914387
-0.03919728 0.0047252215 -0.005850039 -0.0073406654 0.040132314 0.043724623 -0.0022116161 -0.0036577068
-0.010563036 -0.025156135 0.048756056 -0.004716688 0.012128545 0.018422158 -0.016721236 0.018242212
-0.024523988 -0.0014327328 0.027004458 0.004555284 0.0045371703 -0.035280924 0.020187084 -0.00016918626
0.019488543 -0.0018042801 0.0032587706 0.0073715625 -0.07764741 0.010929598 -0.0031328774 -0.035379756
0.011676622 -0.018923959 0.06069718 0.027266951 -0.01592114 0.03719942 0.063842885 -0.007198611
0.038588133 -0.0062794094 0.03108381 -0.010260557 -0.0038301782 0.05790696 0.020005193 0.033335656
0.0013618773 0.0052138087 -0.007282452 -0.008353579 -0.010954478 0.011357945 0.017943248 -0.0072049084
00000000: fb5a 823c 2706 803d 6edd 483a 572c 9b3c
00000010: b094 383d d420 93ba 0bf3 acbb 5a7e 363d
00000020: 6d03 493d 8d5e b93c 60c3 b83b 3cfa c43c
00000030: 3a0e 1f3d a892 c7bc 9448 943c c9f1 aebc
00000040: e2c3 37bb 8b95 643d 3836 cb3b 48aa 6a3c
00000050: 4877 31bb 5a15 8d3c bc6c 2e3b ccab b7ba
00000060: ee96 aebc 0c37 71bc 5433 82bc d18f 3d3d
00000070: 6cbe bcbb 815b 323d 10fe 743d 8690 353c
00000080: b2ea 65bb a870 cd3b 7351 a33c 3e96 f23c
00000090: d8a9 6abc 6d00 a03c 6dc7 2abc a3bd 113b
000000a0: 12ab b13c 6009 b5bc 9d44 c9bb 4fdc 42bb
000000b0: d735 bcba 81d9 cb3b c607 a9bc 16b8 71bb
000000c0: 80ee df3c c6bc 1abc f199 653d a65f d43c
000000d0: 5fe7 7a3c 2dd5 9a3b 7d29 213c ee45 113d
000000e0: 122d 113d 559b d43c 5b6a 353c 1261 b4ba
000000f0: 3388 c13a 5d66 19bd 467d 17bd 8361 f83c
00000100: d606 b0bc e4e6 8dbc 0d80 a93c f68c b2bb
00000110: 124e 15bd 16a1 3d3d 7efc 13bb 2cd0 153c
00000120: 548d 20bd 08d6 9a3b afb1 bfbb f789 f0bb
00000130: c861 243d 9718 333d c3f0 10bb 23b6 6fbb
00000140: 9610 2dbc 3d14 cebc 6eb4 473d 728e 9abb
00000150: ceb6 463c 11ea 963c f9fa 88bc b170 953c
00000160: 88e6 c8bc 89ca bbba 7438 dd3c 7e44 953b
00000170: 8bac 943b bb82 10bd 625f a53c 9767 31b9
00000180: 70a6 9f3c 987d ecba 1991 553b 268d f13b
00000190: 9b05 9fbd 0e12 333c f650 4dbb 5dea 10bd
000001a0: 4d4f 3f3c 6b06 9bbc 9b9d 783d f15e df3c
000001b0: 0d6d 82bc 6b5e 183d 0fc0 823d 53e2 ebbb
000001c0: 970e 1e3d 81c3 cdbb 79a3 fe3c e51b 28bc
000001d0: ba03 7bbb d92f 6d3d eee1 a33c f88a 083d
000001e0: 0581 b23a 99d8 aa3b a3a1 eebb 73dd 08bc
000001f0: 697a 33bc ad16 3a3c b8fd 923c 2717 ecbb

network_body._body_endoder.seq_layers.0.weight f4 [128, 3]
-0.7028876 0.838643 0.63979673 0.6852934 -0.2590658 -1.03825 0.47310895 -0.250669
-0.609664 -0.015870174 0.028507741 -0.52315235 0.52097905 -0.11228463 -0.63597584 -0.32032368
0.6398471 -0.083801605 -1.1493189 0.068011455 -0.36225697 0.46285957 -0.3029789 -0.368486
0.7061701 -0.02368273 0.059177395 0.5027092 0.40622887 0.317061 -0.258072 -0.9978346
-0.10687033 0.7312713 -0.9291148 0.8257929 0.13337724 -0.19016382 -1.0756667 0.6465006
-0.013013415 -0.309625 1.0239754 -0.06069505 1.0521809 -0.93976194 -0.3559965 0.092403844
-0.055073526 -0.016952949 0.5740322 0.57988906 -1.4206365 0.33521613 -0.5157462 0.35313597
0.14023542 -0.029557217 -0.24430054 -0.15389806 -0.6555646 0.7192273 -0.23662664 0.4906002
0.26706794 0.39758626 -0.92835826 0.24493799 0.009061804 0.8781939 -0.1957008 0.6899335
0.03139944 0.43332896 0.52251893 -0.18807484 0.9680569 -0.7402575 -0.8768272 0.5869617
0.27378786 0.1942935 0.21523233 -0.33016992 0.0045289393 0.84438324 -0.7271123 0.04648674
0.35643926 -0.34333876 0.12175299 -0.14960723 -0.48447293 0.5113812 -0.24873932 0.610316
0.09946378 -0.24702364 -0.66850626 0.70565844 -0.008483698 -0.34273556 0.7799106 0.5701867
-0.897919 -0.17538355 1.256 -0.43925107 -0.19628651 -0.17704195 0.75572634 0.7484309
-0.19395477 0.3231339 -0.26345283 0.0077087255 0.06758952 -0.63875276 0.51679003 -0.9515819
0.09247777 -0.8163183 0.13711108 0.5906943 0.08128268 -0.909694 -0.9453404 0.19598958
0.1633613 -0.53705907 -0.8283896 -0.13417126 -0.5517592 -0.10794758 -0.053541113 -0.12045356
-0.018053446 0.77042073 0.21198234 0.7340453 0.4802987 -0.054623976 0.29072383 0.68600684
0.009342854 -0.30141208 -0.2489266 -0.9796824 -0.44024035 -0.12119131 0.9524337 0.21292542
-0.054697264 -0.400036 -0.84443915 -0.9025063 -0.37821776 0.8519035 -0.67150736 -0.1735179
0.28175548 0.27521017 0.021691756 0.7089614 -0.16044463 -0.14882693 0.60991913 0.5584449
0.09661528 -0.8505987 0.17196345 0.11852703 0.10118387 0.17769653 -0.46561953 -1.0058211
-0.51725906 -0.6863908 0.6727678 -0.5168938 -1.7751006 0.7542169 0.3405053 0.5182091
0.592423 0.686682 0.086953126 0.12371256 -0.15372545 0.27381414 -1.1238863 0.8381519
-0.47034556 0.5233838 -0.052826393 0.45209888 -0.11541662 0.42337728 -0.035861447 -0.4065125
-0.4266168 -0.49734882 -0.5624367 -0.95587134 0.23982614 -0.5850144 0.016380813 0.8129527
-0.4194572 0.40109047 -0.7502168 -0.08151753 0.4157648 0.75530946 -0.4531669 -0.74262136
0.28837475 -0.12613131 0.21687554 -0.5567395 0.5220158 -0.60782886 -0.50104517 0.68961287
0.20124668 0.17245358 0.11974189 -0.7810721 0.31782925 0.9048196 0.22827287 0.70817965
0.1860732 0.037480775 -0.85163635 0.5947813 -1.2466857 -0.31705284 0.33771223 0.08603163
-0.71374696 0.59926486 1.1032153 0.89626145 -0.07141733 -0.22543237 0.046795312 -0.0029328044
-0.87694746 -0.23355466 -0.046174698 -0.107761934 -0.26940665 -0.69953024 -0.47494903 0.56788033
00000000: 71f0 33bf 4fb1 563f b8c9 233f 636f 2f3f
00000010: 46a4 84be 60e5 84bf 563b f23e b057 80be
00000020: f112 1cbf 2b02 82bc 1189 e93c 50ed 05bf
00000030: e25e 053f 7cf5 e5bd 50cf 22bf 7701 a4be
00000040: 05cd 233f 2da0 abbd e21c 93bf 9749 8b3d
00000050: bf79 b9be eefb ec3e 0d20 9bbe 32aa bcbe
00000060: 90c7 343f 4902 c2bc ff63 723d 8db1 003f
00000070: 3bfd cf3e d255 a23e 0322 84be 1772 7fbf
00000080: d5de dabd 9934 3b3f 78da 6dbf 2a67 533f
00000090: 0b94 083e 4eba 42be 72af 89bf 1081 253f
000000a0: 3836 55bc 2b87 9ebe a011 833f 5f9b 78bd
000000b0: ddad 863f 3d94 70bf 2c45 b6be 3a3e bd3d
000000c0: c794 61bd e9e0 8abc c6f3 123f 9c73 143f
000000d0: 6bd7 b5bf 73a1 ab3e f107 04bf 3dce b43e
000000e0: e099 0f3e fa21 f2bc ec29 7abe 7497 1dbe
000000f0: 15d3 27bf 481f 383f 414e 72be f32f fb3e
00000100: 21bd 883e 6d90 cb3e e3a8 6dbf 06d1 7a3e
00000110: f677 143c 51d1 603f ca65 48be 7b9f 303f
00000120: b39c 003d 4bdd dd3e cdc3 053f b196 40be
00000130: 94d2 773f 8481 3dbf bf77 60bf 1f43 163f
00000140: ec2d 8c3e e0f4 463e dd65 5c3e 080c a9be
00000150: 7f67 943b 8029 583f 0824 3abf e168 3e3d
00000160: 357f b63e 19ca afbe a259 f93d a332 19be
00000170: d60c f8be e1e9 023f 85b5 7ebe ab3d 1c3f
00000180: abb3 cb3d c4f3 7cbe 3a23 2bbf 08a6 343f
00000190: 35ff 0abc 097b afbe 39a8 473f c1f7 113f
000001a0: 05de 65bf bf97 33be 9cc4 a03f 84e5 e0be
000001b0: 55ff 48be 7c4a 35be 4877 413f 2b99 3f3f
000001c0: 149c 46be ce71 a53e 4ae3 86be 7a99 fc3b
000001d0: 606c 8a3d 4d85 23bf 5a4c 043f df9a 73bf
000001e0: fc64 bd3d 3cfa 50bf d966 0c3e be37 173f
000001f0: 8977 a63d b5e1 68bf d401 72bf 7eb1 483e
00000200: 2f48 273e b47c 09bf 5711 54bf 3164 09be
00000210: 1740 0dbf 9f13 ddbd ed4d 5bbd 5bb0 f6bd
00000220: d2e4 93bc 4b3a 453f e611 593e 65ea 3b3f
00000230: b6e9 f53e 64bd 5fbd c1d9 943e 259e 2f3f
00000240: c512 193c af52 9abe 9de6 7ebe 77cc 7abf
00000250: 2f67 e1be 2633 f8bd b2d2 733f 1f09 5a3e
00000260: 3d0a 60bd 85d1 ccbe 2a2d 58bf a70a 67bf
00000270: c2a5 c1be 5916 5a3f e8e7 2bbf adae 31be
00000280: 4142 903e 59e8 8c3e e9b2 b13c 7f7e 353f
00000290: 994b 24be 1666 18be a923 1c3f 3ff6 0e3f
000002a0: 3bde c53d d6c0 59bf 3017 303e 4dbe f23d
000002b0: 7d39 cf3d 14f6 353e af65 eebe bfbe 80bf
000002c0: 176b 04bf 4fb7 2fbf 833a 2c3f 2753 04bf
000002d0: 7f36 e3bf 5c14 413f b656 ae3e 5aa9 043f
000002e0: 09a9 173f 64ca 2f3f 7b14 b23d 035d fd3d
000002f0: 346a 1dbe 5e31 8c3e 82db 8fbf 1f91 563f
00000300: 22d1 f0be 7bfc 053f 7d60 58bd 8179 e73e
00000310: 8d5f ecbd e8c4 d83e 74e3 12bd 6822 d0be
00000320: 846d dabe 81a4 febe dafb 0fbf fcb3 74bf
00000330: fc94 753e 81c3 15bf 0e31 863c ab1d 503f
00000340: 18c3 d6be bb5b cd3e 350e 40bf aaf2 a6bd
00000350: 20df d43e f65b 413f 7e05 e8be 6f1c 3ebf
00000360: dba5 933e 9128 01be 9f14 5e3e 7b86 0ebf
00000370: d4a2 053f ac9a 1bbf 7f44 00bf 788a 303f
00000380: 9c13 4e3e ac97 303e 3c3b f53d 57f4 47bf
00000390: 84ba a23e 42a2 673f 5dc0 693e 434b 353f
000003a0: f989 3e3e 7185 193d d704 5abf 9643 183f
000003b0: 6693 9fbf c054 a2be 9ee8 ac3e 5a31 b03d
000003c0: 1fb8 36bf 6c69 193f 2936 8d3f 6471 653f
000003d0: 4043 92bd bed7 66be 71ac 3f3d 4b34 40bb
000003e0: a17f 60bf f428 6fbe ae21 3dbd 4ab2 dcbd
000003f0: abef 89be 6a14 33bf 852c f3be 9b60 113f

network_body._body_endoder.seq_layers.2.bias f4 [128]
-0.004322294 -0.020914529 -0.00580426 -0.004932646 -0.006766324 -0.0087708905 -0.014151279 -0.040199324
0.026744796 0.041091617 0.018945234 0.0029394845 -0.0027181678 0.034179535 0.036151856 -0.022920143
-0.00898202 0.029167563 0.047187652 0.0054292926 -0.022344334 0.037118323 0.017202022 -0.030128773
-0.05295333 0.047179855 0.027585 0.0025538818 -0.016779974 -0.0013873489 -0.007104177 -0.0012236296
0.0155117735 -0.020519998 -0.014206324 0.04302914 -0.0024012136 0.010650779 -0.016603392 0.03117043
-0.06261971 0.033191424 0.0074915597 -0.0100545725 0.016417263 0.023154711 0.05408395 -0.023413006
-0.0024717564 -0.022757597 -0.011257509 0.017610298 -0.045363795 -0.0135083115 -0.020442482 0.0025893059
-0.0072490447 0.026070863 -0.020588418 -0.022172838 0.017666744 0.03545509 0.0046071988 0.041319627
0.01672675 0.035832345 0.0066117384 0.0143345 0.032312833 -0.035688892 -0.026856352 0.0050425637
-0.002790638 0.038266193 0.015930504 0.02862345 -0.020924902 0.017791077 -0.01781636 0.048987575
0.009656962 -0.012284161 -0.0032023035 -0.018587692 0.009152674 -0.058315556 0.014793009 -0.020029526
-0.035513565 -0.016221335 0.016817655 0.01840099 0.003961825 0.016216073 0.010280328 0.027218375
0.03419678 -0.042953018 -0.051940575 0.0058963983 0.018559953 -0.004273291 0.01299501 0.0070347805
0.0064183096 0.009700439 0.009881536 -0.018622888 0.013392979 -0.022316268 0.018298395 0.027430227
-0.0035682272 -0.01680153 0.004728843 0.0298551 0.020075688 -0.015169809 0.002277793 0.009632065
-0.03665589 0.035147335 0.022912584 -0.009801942 -0.002221595 -0.013998408 0.04141347 0.009506106
00000000: 08a2 8dbb f254 abbc a931 bebb 09a2 a1bb
00000010: 0ab8 ddbb c8b3 0fbc c4da 67bc 0ca8 24bd
00000020: e717 db3c af4f 283d 0933 9b3c 5ea4 403b
00000030: 4a23 32bb d7ff 0b3d f813 143d 06c3 bbbc
00000040: 5329 13bc d0f0 ee3c d747 413d 35e8 b13b
00000050: 770b b7bc 6209 183d 41eb 8c3c 9ed0 f6bc
00000060: 97e5 58bd aa3f 413d f0f9 e13c 075f 273b
00000070: 2876 89bc b4d7 b5ba 28ca e8bb 3262 a0ba
00000080: 1825 7e3c 8e19 a8bc a4c1 68bc 533f 303d
00000090: ae5d 1dbb 9b80 2e3c d603 88bc 2159 ff3c
000000a0: c33e 80bd bbf3 073d c27b f53b efbb 24bc
000000b0: 7f7d 863c f3ae bd3c 2287 5d3d a2cc bfbc
000000c0: 31fd 21bb 246e babc 6a71 38bc 7943 903c
000000d0: 63cf 39bd f751 5dbc fe76 a7bc 58b1 293b
000000e0: 6589 edbb 9092 d53c 0ba9 a8bc d0a3 b5bc
000000f0: d9b9 903c 5b39 113d fcf7 963b c53e 293d
00000100: 8a06 893c f0c4 123d 48a7 d83b 40db 6a3c
00000110: 765a 043d 842e 12bd da01 dcbc 173c a53b
00000120: 23e3 36bb 03bd 1c3d b080 823c ba7b ea3c
00000130: b36a abbc 98be 913c 9df3 91bc 32a7 483d
00000140: 3c38 1e3c 8143 49bc bddd 51bb 3745 98bc
00000150: 19f5 153c 4bdc 6ebd 605e 723c f614 a4bc
00000160: ac76 11bd 9be2 84bc 2ec5 893c acbd 963c
00000170: 32d2 813b 92d7 843c d26e 283c 12f9 de3c
00000180: ec11 0c3d 81ef 2fbd a4bf 54bd 9336 c13b
00000190: 0b0b 983c f706 8cbb 06e9 543c 0484 e63b
000001a0: af50 d23b 97ee 1e3c 2ae6 213c 078f 98bc
000001b0: 3a6e 5b3c 9bd0 b6bc 84e6 953c 5bb5 e03c
000001c0: ebd8 69bb 5da3 89bc 69f4 9a3b af92 f43c
000001d0: c575 a43c ca8a 78bc 0647 153b cfcf 1d3c
000001e0: 7d24 16bd a7f6 0f3d 2cb3 bb3c 5398 20bc
000001f0: 2e98 11bb 9459 65bc 2ca1 293d 80bf 1b3c

network_body._body_endoder.seq_layers.2.weight f4 [128, 128]
0.0022426674 -0.04765796 -0.11734404 0.12703806 -0.037800375 0.068265826 -0.10692194 -0.09920829
0.11187959 -0.013855976 -0.20040242 -0.063487604 0.10706707 0.010106752 0.014955159 -0.017680287
0.017799104 -0.053884525 0.21956189 0.17248279 -0.10670702 0.00686862 -0.12170113 -0.06443176
-0.080940746 0.17244868 0.04455248 0.06125883 -0.08665457 -0.09655757 0.035387047 0.07709196
-0.123867266 0.08949331 -0.06556953 -0.028414434 0.028421897 -0.1716263 0.22346638 0.07446491
0.027896117 -0.03891527 -0.025056286 -0.054368664 0.013922099 0.020914776 0.008550092 0.052458856
-0.054476853 -0.16395281 -0.08587723 0.008376952 0.15490393 -0.047996134 -0.030396549 -0.02335098
0.06955399 0.084801555 -0.10327074 0.0723988 -0.01796964 -0.072174415 0.0649517 -0.051693037
0.08985746 0.10258802 -0.060038313 0.1091772 -0.042291097 -0.08699833 0.13143875 -0.024906265
-0.020799585 -0.12503037 -0.053476095 0.085414365 0.111451656 -0.047694076 -0.00201426 -0.043567378
-0.002383882 -0.056843765 -0.12601084 -0.057448123 0.06606917 0.034226835 0.034603506 0.078013085
0.0021764478 -0.08722245 -0.017361099 0.16780756 0.016195167 -0.023726257 -0.12331508 -0.0366691
-0.0224898 -0.12371325 0.14219731 0.06762145 0.035513025 0.031878337 0.055212792 -0.04476067
0.034179416 0.09555437 0.068055026 -0.051271133 -0.01796634 -0.10810673 -0.116426975 0.007072517
0.009616404 0.028136384 -0.028961856 0.052847788 0.13351767 0.08112424 -0.05563763 0.0056557953
0.02254727 -0.019660508 0.07448943 -0.114244275 -0.1154092 -0.057391193 0.046626754 -0.05114959
-0.088039935 -0.110322386 0.099045746 -0.011233282 -0.08459563 0.0056065903 -0.013646775 -0.034230288
-0.009350679 0.013661291 0.05345847 0.016032297 0.065859035 0.026550848 -0.05019535 0.037050433
-0.030768266 0.0052952473 -0.15624985 0.033430744 0.037389126 0.15213512 0.020429289 0.099404335
-0.0054628896 0.07994585 -0.03522072 -0.09745915 0.13709027 0.11811675 -0.029792076 0.06799319
0.04283197 0.035697434 -0.005010243 0.022578157 -0.034132767 -0.024990622 1.6347001e-05 0.048434425
-0.07291302 -0.10875118 0.27060446 -0.061443947 0.08958625 0.1802773 0.06881837 0.011478884
-0.104669176 0.103017636 0.024145214 0.005311971 0.018491218 -0.061711222 -0.12156816 -0.029690597
0.07418949 0.11164976 -0.073906206 -0.07774263 0.03745668 -0.023761488 0.09817683 0.10988417
-0.013188845 -0.049637232 0.032379165 -0.029480834 -0.095176 -0.12831965 0.11397244 -0.05097446
0.012202472 0.13618898 -0.04610774 0.111243166 0.1256566 -0.09340186 -0.03635227 0.0417343
-0.0014531538 0.11598508 0.09713256 -0.032342587 -0.12867789 -0.0066409553 -0.026733575 0.044703055
0.029625896 0.04277549 0.10201097 0.038462654 -0.09502156 0.07307828 -0.09838907 0.06325683
-0.06686138 0.006925818 0.053052835 -0.024825854 -0.12615962 0.11016244 0.019399323 0.03256373
-0.09781063 0.034358785 0.094972074 0.11681148 0.05319289 0.086647876 0.11228733 0.0003668484
0.12467624 -0.032921012 -0.034031935 0.14522706 0.12564579 -0.03707656 -0.15542258 0.012896598
-0.1821721 -0.15434477 0.095235564 -0.13762279 -0.03673178 -0.12271472 0.017918231 0.11289381
00000000: b7f9 123b fe34 43bd 1252 f0bd 4416 023e
00000010: 91d4 1abd f4ce 8b3d e4f9 dabd b72d cbbd
00000020: 2021 e53d 2d04 63bc 4b36 4dbe ca05 82bd
00000030: fb45 db3d ca96 253c 7c06 753c 40d6 90bc
00000040: 6dcf 913c 05b6 5cbd d5d4 603e 549f 303e
00000050: 3689 dabd 2912 e13b 713e f9bd ccf4 83bd
00000060: 43c4 a5bd 6396 303e a97c 363d 8aea 7a3d
00000070: f477 b1bd fabf c5bd 02f2 103d 64e2 9d3d
00000080: 1fae fdbd 4548 b73d 5149 86bd 63c5 e8bc
00000090: 0ad5 e83c cebe 2fbe 5fd4 643e 0f81 983d
000000a0: 6686 e43c 9e65 1fbd d742 cdbc adb1 5ebd
000000b0: 8419 643c 7755 ab3c af15 0c3c 19df 563d
000000c0: 1f23 5fbd 3fe3 27be 67e0 afbd 7c3f 093c
000000d0: 239f 1e3e 9897 44bd 2f02 f9bc 8e4a bfbc
000000e0: 5372 8e3d 70ac ad3d 9c7f d3bd d245 943d
000000f0: 1135 93bc 2ed0 93bd 6605 853d 14bc 53bd
00000100: 3007 b83d ab19 d23d bcea 75bd 4c98 df3d
00000110: 6e39 2dbd 2e2c b2bd e197 063e 3908 ccbc
00000120: e463 aabc f607 00be c009 5bbd baed ae3d
00000130: c440 e43d dd5a 43bd ad01 04bb b573 32bd
00000140: e73a 1cbb 02d5 68bd fc08 01be b94e 6bbd
00000150: 464f 873d 7031 0c3d 68bc 0d3d 53c5 9f3d
00000160: bca2 0e3b afa1 b2bd dd38 8ebc bfd5 2b3e
00000170: baab 843c 915d c2bc 9e8c fcbd 5732 16bd
00000180: 873c b8bc 5f5d fdbd 2c9c 113e 1d7d 8a3d
00000190: 1b76 113d dc92 023d cf26 623d f756 37bd
000001a0: b7ff 0b3d 02b2 c33d 6f60 8b3d ae01 52bd
000001b0: 252e 93bc 1067 ddbd 4471 eebd 93c0 e73b
000001c0: 1f8e 1d3c 467e e63c 6a41 edbc ec76 583d
000001d0: dbb8 083e 7724 a63d 49e4 63bd 4054 b93b
000001e0: 0db5 b83c 130f a1bc ea8d 983d e7f8 e9bd
000001f0: a95b ecbd 0713 6bbd b2fb 3e3d 3c82 51bd
00000200: 484e b4bd b4f0 e1bd 7fd8 ca3d cd0b 38bc
00000210: 7940 adbd 7db7 b73b b996 5fbc 0f35 0cbd
00000220: 9733 19bc 9cd3 5f3c 45f7 5a3d 2a56 833c
00000230: 1ae1 863d 2a81 d93c a499 4dbd 32c2 173d
00000240: bb0d fcbc c183 ad3b f6ff 1fbe adee 083d
00000250: 5725 193d 4fc9 1b3e 535b a73c 8094 cb3d
00000260: 0a02 b3bb a6ba a33d 9a43 10bd aa98 c7bd
00000270: 6461 0c3e 32e7 f13d 830e f4bc 0340 8b3d
00000280: 9370 2f3d 7937 123d f72c a4bb d4f5 b83c
00000290: cdce 0bbd 22b9 ccbc eb20 8937 2d63 463d
000002a0: 6c53 95bd f0b8 debd ab8c 8a3e a6ac 7bbd
000002b0: ff78 b73d 9d9a 383e a5f0 8c3d ee11 3c3c
000002c0: cb5c d6bd e9fa d23d 2fcc c53c 0b10 ae3b
000002d0: e57a 973c e8c4 7cbd baf8 f8bd b239 f3bc
000002e0: a9f0 973d a1a8 e43d 235c 97bd 8737 9fbd
000002f0: 2d6c 193d 74a7 c2bc ef10 c93d f40a e13d
00000300: 0616 58bc 6950 4bbd 04a0 043d ca81 f1bc
00000310: a2eb c2bd 3a66 03be 626a e93d 98ca 50bd
00000320: e1ec 473c 2075 0b3e 78db 3cbd 75d3 e33d
00000330: 20ac 003e 7949 bfbd 1ee6 14bd 96f1 2a3d
00000340: c077 beba 9689 ed3d 70ed c63d a979 04bd
00000350: 23c4 03be 5f9c d9bb 5f00 dbbc 8d1a 373d
00000360: 02b2 f23c 5a35 2f3d 21eb d03d 048b 1d3d
00000370: aa9a c2bd 11aa 953d 3580 c9bd cc8c 813d
00000380: 9fee 88bd f9f1 e23b ee4d 593d 975f cbbc
00000390: fd2f 01be d89c e13d 54eb 9e3c 8c61 053d
000003a0: f150 c8bd ccbb 0c3d b880 c23d db3a ef3d
000003b0: cae0 593d 7174 b13d e6f6 e53d 8f55 c039
000003c0: 4256 ff3d 2fd8 06bd 1265 0bbd 67b6 143e
000003d0: 4aa9 003e 97dd 17bd 1927 1fbe 414c 533c
000003e0: 538b 3abe 8e0c 1ebe dd0a c33d fdec 0cbe
000003f0: 1074 16bd db51 fbbd 41c9 923c df34 e73d
