results/Test2/Test2/Test2-499940.pt (torch, 429983 bytes, 36 tensors)

network_body._body_endoder.seq_layers.0.weight f4 [128, 3]
0	0xbefa9101	-0.48938754
1	0x3e9271aa	0.28602344
2	0xbea16a98	-0.31526637
3	0xbf1d3329	-0.6140619
4	0xbebd3e96	-0.36961812
5	0xbe747a48	-0.23874772
6	0xbf129e12	-0.57272446
7	0xbf0b5638	-0.54428434
8	0xbe4e7d3f	-0.20164965
9	0x3f9bca5d	1.2171131
10	0xbf1781ac	-0.5918224
11	0xbf20a9aa	-0.62758887
12	0x3f4865fc	0.78280616
13	0x3f49be3c	0.788059
14	0x3c5ebfe9	0.01359556
15	0xbfc2e535	-1.5226198
16	0xbd0429ca	-0.032266416
17	0x3ee7613b	0.45191368
18	0x3e061dbc	0.1309728
19	0xbed6eaba	-0.41975957
20	0x3e68e123	0.22742133
21	0xbdb49e88	-0.088193
22	0xbc0a530c	-0.0084426515
23	0xbe3c6627	-0.18398343
24	0xbf2271a4	-0.6345465
25	0xbf3cd622	-0.7376424
26	0x3e4b6f9e	0.19866797
27	0x3ee0b87a	0.43890744
28	0xbf168ce6	-0.58808744
29	0xbe87b85f	-0.2650785
30	0xbe919ae9	-0.284385
31	0x3e9d0712	0.30669457
32	0xbeaf2a77	-0.34212086
33	0x3f545786	0.8294605
34	0x3f785084	0.9699786
35	0x3f0fba49	0.56143624
36	0xbc73c512	-0.014878528
37	0xbebe29f5	-0.37141386
38	0x3f5b5adb	0.8568551
39	0x3f8af7d6	1.0856884
40	0xbeb7a0d8	-0.35864902
41	0xbeff4ebe	-0.49864763
42	0x3e83b8c5	0.25726905
43	0xbed099c9	-0.4074233
44	0x3e928a75	0.2862126
45	0x3f4bb2b1	0.79569536
46	0x3e602fc9	0.21893229
47	0xbea08879	-0.3135412
48	0x3f466f69	0.7751375
49	0xbf8fbdc6	-1.1229789
50	0xbf20c57d	-0.62801343
51	0x3e23b784	0.15987974
52	0xbeb43888	-0.3519938
53	0x3f3d8a4b	0.74039143
54	0xbea46a1e	-0.3211221
55	0x3e01260d	0.12612171
56	0x3e6854c7	0.2268859
57	0x3f3e1157	0.7424521
58	0xbed99af8	-0.42501044
59	0xbebb3b3c	-0.3656863
60	0x3e1ed954	0.15512592
61	0xbe5a57d1	-0.21322562
62	0xbdfe31f6	-0.12411873
63	0xbd3eac40	-0.04655099
64	0xbd8e93aa	-0.069617584
65	0xbe987633	-0.2977768
66	0x3d9934ae	0.07480751
67	0xbda5e50d	-0.081003286
68	0xbf56be25	-0.8388389
69	0xbf29db45	-0.66350204
70	0x3dcebe48	0.10094887
71	0x3f661f34	0.8989136
72	0xbf947f9a	-1.1601441
73	0xbeef8162	-0.467784
74	0xbed6af29	-0.41930512
75	0xbfc984c9	-1.5743648
76	0xbf0bb7f2	-0.54577553
77	0xbdcdc5f0	-0.10047519
78	0x3ca8c845	0.020603308
79	0xbeacb196	-0.33729237
80	0x3c7226b0	0.014779732
81	0xbefcb407	-0.493561
82	0x3eb549e7	0.35407946
83	0x3ec52965	0.38508144
84	0x3d5218fb	0.051293354
85	0x3ca81800	0.020519257
86	0x3d1f7e7a	0.038938977
87	0x3f15067a	0.5821301
88	0xbef380d5	-0.4755923
89	0xbd172bf6	-0.03690716
90	0xbcc06663	-0.023486322
91	0x3f3f0a61	0.7462521
92	0x3f06c2e1	0.5264111
93	0xbdd08591	-0.10181726
94	0x3f17554e	0.5911454
95	0x3e01b73f	0.12667559
96	0x3f402dd1	0.7506991
97	0xbe8f6c99	-0.2801254
98	0xbed3274f	-0.41240928
99	0xbe8ff783	-0.28118524
100	0xbeeba551	-0.46024564
101	0xbfb44fa8	-1.4086809
102	0xbded1055	-0.11575381
103	0xbe149df1	-0.14513375
104	0x3e1f18cd	0.15536804
105	0x3f1daf57	0.6159567
106	0xbecb45a0	-0.39701557
107	0xbf57e356	-0.8433126
108	0x3e0fa5ea	0.14028135
109	0xbe99f33d	-0.3006839
110	0x3f587c90	0.8456507
111	0xbf4cb2c2	-0.7996026
112	0x3ee670ce	0.45007938
113	0xbea79d79	-0.3273733
114	0xbeec54a8	-0.46158338
115	0x3d1657be	0.03670477
116	0x3f80f397	1.0074338
117	0x3ea7f8b4	0.32806933
118	0x3efe6e7f	0.49693677
119	0x3f5fa494	0.873605
120	0x3f293dbd	0.6610983
121	0xbd92ecab	-0.07174047
122	0x3ee98159	0.45606497
123	0xbf1790d0	-0.5920534
124	0x3e19ecff	0.15031813
125	0xbf310217	-0.69143814
126	0x3f0fd874	0.56189656
127	0xbf61361c	-0.8797319
128	0xbf680240	-0.90628433
129	0x3f259daa	0.646937
130	0xbf37e855	-0.71838886
131	0xbf247ce0	-0.64253044
132	0x3e9adf9b	0.30248722
133	0xbea226e0	-0.31670284
134	0x3edd6239	0.43239
135	0x3f045ed6	0.5170721
136	0xbeca8c73	-0.3956028
137	0x3ea71fca	0.3264144
138	0x3ebcd50f	0.368813
139	0x3f1f8a0a	0.62320006
140	0xbd7a3247	-0.061083104
141	0xbf50d2ed	-0.8157185
142	0x3f5118a2	0.8167821
143	0x3d961ca6	0.07329683
144	0xbf3daedd	-0.74094945
145	0x3e8b8337	0.27248546
146	0x3e891512	0.26773888
147	0x3fb5069d	1.4142643
148	0xbea77db0	-0.3271308
149	0xbe54c63c	-0.20778745
150	0xbf3db170	-0.74098873
151	0x3e5dd11a	0.21661797
152	0x3c286496	0.010277888
153	0xbe559554	-0.20857745
154	0xbf406906	-0.75160253
155	0xbfa28a2e	-1.2698419
156	0x3edcceda	0.43126565
157	0x3eb6fcb9	0.35739687
158	0xbd0ae8a2	-0.033913262
159	0x3ed36b83	0.41292962
160	0xbf34f6cf	-0.706891
161	0x3fb5ac28	1.4193163
162	0x3e084709	0.13308348
163	0x3ea9c636	0.33159035
164	0xbed5ab18	-0.41732097
165	0x3eea6af8	0.45784736
166	0x3df92636	0.12165491
167	0x3e7645bd	0.2405004
168	0xbde16fb8	-0.11007637
169	0x3dbc9522	0.09208132
170	0x3e9cdb39	0.30636004
171	0x3dd651fb	0.10464855
172	0x3eeb7d27	0.4599392
173	0x3e34e125	0.17664011
174	0x3f393ab3	0.7235519
175	0x3f0c6dc7	0.54855007
176	0x3d3ce504	0.046116844
177	0xbeaf2b0b	-0.34212527
178	0x3e9b099c	0.3028077
179	0xbd856723	-0.065138124
180	0x3e570114	0.20996505
181	0xbe32ffb5	-0.17480357
182	0x3f91c6b3	1.1388763
183	0x3e00cea2	0.12578824
184	0x3f3a593d	0.72792417
185	0xbe5d4290	-0.21607423
186	0x3edb1ad1	0.42793897
187	0xbf1bcf91	-0.60863596
188	0x3dcc6e64	0.09981993
189	0x3f245a69	0.64200455
190	0xbe83216b	-0.25611433
191	0x3e501361	0.20319892
192	0xbdb05e75	-0.08611766
193	0x3de2bb84	0.11070922
194	0x3f72cffc	0.9484861
195	0x3ed71535	0.42008367
196	0xbe155d01	-0.1458626
197	0xbf4ce932	-0.8004333
198	0xbd38e282	-0.04513789
199	0x3e651251	0.22370268
200	0xbecc865d	-0.3994626
201	0xbe807b65	-0.25094143
202	0x3e97a71a	0.29619676
203	0x3f46136b	0.7737338
204	0x3d85b7f9	0.065292306
205	0xbe873576	-0.26407975
206	0xbe81132b	-0.25209936
207	0xbf3f303b	-0.7468297
208	0xbf226052	-0.63428223
209	0xbb8f4a57	-0.0043728757
210	0xbdeefe95	-0.116696514
211	0xbc2a737f	-0.010403513
212	0x3f957923	1.1677593
213	0xbedbb1c4	-0.42909062
214	0x3f40e38c	0.7534721
215	0xbe949a32	-0.29023892
216	0x3eae719a	0.34071046
217	0xbf96a590	-1.1769276
218	0xbe311736	-0.1729401
219	0x3eb40882	0.3516274
220	0xbf6b158c	-0.9182975
221	0xbde6aa8b	-0.11262997
222	0x3e816b23	0.2527705
223	0xbf5bc6ba	-0.8585011
224	0xbee17495	-0.44034258
225	0xbf1776b4	-0.591655
226	0x3c6cc057	0.014450154
227	0xbf993d75	-1.197188
228	0x3f12aea1	0.5729771
229	0xbf06a93c	-0.5260198
230	0x3e843168	0.25818944
231	0x3e97d9f6	0.29658478
232	0xbe64859d	-0.22316594
233	0x3efba705	0.49150863
234	0xbe72a43d	-0.23695464
235	0x3e733187	0.23749362
236	0x3dae8f44	0.085234195
237	0xbf9433e3	-1.1578335
238	0x3d419706	0.047263168
239	0xbd8edc9e	-0.06975673
240	0x3efdccba	0.49570256
241	0xbf301457	-0.68781036
242	0xbe92e5f0	-0.28691053
243	0xbea808de	-0.32819265
244	0x3ed6fb00	0.41988373
245	0xbe751d03	-0.23936848
246	0xbe61e568	-0.22060168
247	0x3f6ddd19	0.92915493
248	0xbe712276	-0.23548302
249	0xbed39eb9	-0.41332033
250	0x3f44885e	0.7677058
251	0x3f1941cc	0.59866023
252	0x3e83da7d	0.2575263
253	0x3dad75e1	0.08469749
254	0x3f5152cd	0.8176697
255	0xbe9280f6	-0.28614014

network_body._body_endoder.seq_layers.0.bias f4 [128]
0	0xbcea8f31	-0.028632732
1	0xbdb05752	-0.08610405
2	0xbd600db9	-0.054700587
3	0x3e33bc6f	0.1755235
4	0x3e02ee4a	0.12786213
5	0xbd84c7a3	-0.0648339
6	0x3d59d368	0.05318013
7	0xbd5125c4	-0.051061407
8	0x3da166f7	0.07880967
9	0x3d8774ce	0.066140756
10	0xbdbef331	-0.09323729
11	0x3e058ec0	0.13042736
12	0xbc2149dc	-0.00984427
13	0x3e46a95e	0.19400546
14	0x3e078f3f	0.13238238
15	0x3e16e29c	0.14734882
16	0x3e32794b	0.17429082
17	0xbd8fe1e7	-0.07025509
18	0xbe025fcb	-0.12731855
19	0x3e3d36a6	0.18477878
20	0xbc4bcd6b	-0.012439112
21	0x3dedd2c0	0.11612463
22	0x3d19bd64	0.037534133
23	0x3a8391a9	0.0010037917
24	0x3c8e31c3	0.017357713
25	0x3ba1414f	0.0049211155
26	0x3e2c6043	0.16833596
27	0xbd6437f3	-0.05571742
28	0x3e0a326d	0.13495798
29	0x3e1ca283	0.15296368
30	0xbd91278f	-0.07087623
31	0xbdd1ce1c	-0.1024439
32	0x3e48a770	0.19595122
33	0x3dbddf2a	0.09271081
34	0xbdeaceef	-0.11465251
35	0x3dc4762c	0.09592852
36	0xbd89c1a2	-0.06726386
37	0xbd33eb28	-0.043925434
38	0xbc7900a3	-0.015197906
39	0xbd85af0f	-0.065275304
40	0x3dcfbbe9	0.10143263
41	0x3d462f1c	0.04838477
42	0x3e38bf0c	0.18041629
43	0x3ddf46f6	0.109022066
44	0x3e0f7b31	0.14011838
45	0x3e38205d	0.17981096
46	0xbd8b9f70	-0.0681752
47	0xbca31c40	-0.019910932
48	0x3cc9c01f	0.024627743
49	0x3e26bf14	0.16283828
50	0x3d2890a0	0.04115355
51	0x3e223ad0	0.15842748
52	0xbcbad79c	-0.022807889
53	0x3d3e1edf	0.04641616
54	0x3d2ccb3d	0.04218601
55	0x3df5695a	0.11982985
56	0xbdcbe523	-0.09955814
57	0xbe0c6d3c	-0.13713545
58	0x3dc86872	0.09785546
59	0xbda58537	-0.08082049
60	0xbcbbb0f1	-0.02291152
61	0xbdd70388	-0.104987204
62	0x3e0ae269	0.13562931
63	0x3df40348	0.11914688
64	0xbcde6e73	-0.027152276
65	0x3da37575	0.079813875
66	0xbddcf969	-0.10789759
67	0xbccd46cc	-0.025058173
68	0x3d9a998b	0.07548817
69	0xbd88d8a8	-0.06681949
70	0xbce53346	-0.02797855
71	0xbd33b13c	-0.043870196
72	0x3e0fca68	0.14042056
73	0x3dfe3b74	0.124136835
74	0x3dda0649	0.1064573
75	0xbd210370	-0.03930992
76	0x3de57939	0.11204762
77	0xbd654859	-0.0559772
78	0xbcd266ef	-0.025683848
79	0xbcfc8f36	-0.030830007
80	0x3df70999	0.120623775
81	0x3d5192eb	0.051165503
82	0x3d9666d8	0.07343835
83	0xbd8dcadb	-0.06923457
84	0xbd8ad413	-0.06778731
85	0x3defd75a	0.11710997
86	0x3e29a7c1	0.165679
87	0x3d9da7da	0.07698031
88	0x3dba8f7a	0.09109397
89	0x3e15cd3c	0.14629072
90	0xbe09b641	-0.1344843
91	0x3db0c64b	0.086315714
92	0x3c9bc55e	0.01901501
93	0x3d7b189e	0.061302774
94	0xbd4afd76	-0.049558125
95	0xbe26c6ff	-0.16286848
96	0x3d4690a5	0.048477788
97	0x3e0e8b9f	0.13920449
98	0xbd38452c	-0.044987842
99	0xbd2cb590	-0.04216534
100	0x3d6dd018	0.05805978
101	0x3e374d8d	0.17900677
102	0xbc9fac8d	-0.019491458
103	0xbd0fa892	-0.03507287
104	0x3c8e589d	0.017376238
105	0xbe07e945	-0.13272579
106	0xbdb65385	-0.08902649
107	0xbcc46bef	-0.023977248
108	0x3de9094c	0.11378726
109	0xbccaceb4	-0.024756767
110	0x3d1c8131	0.038209144
111	0xbe3cc6d8	-0.18435228
112	0x3e22f151	0.15912367
113	0xbcfe3610	-0.031031638
114	0x3e2a18c3	0.16611008
115	0xbcb24372	-0.021760676
116	0xbd2743dd	-0.040836204
117	0x3d281de7	0.041044142
118	0x3d0486cd	0.03235512
119	0xbd13d9c0	-0.036096334
120	0xbdb8a0a0	-0.09015012
121	0x3dd7a878	0.1053018
122	0xbd0773cf	-0.033069428
123	0xbe01ca25	-0.12674768
124	0xbd7395be	-0.059468977
125	0xbd302eb8	-0.043013304
126	0xbddd523e	-0.10806702
127	0x3d37c164	0.044862166

network_body._body_endoder.seq_layers.2.weight f4 [128, 128]
0	0xbdf291cc	-0.11844215
1	0xbd25f096	-0.040512644
2	0xbca105ef	-0.01965615
3	0xbd82c0cd	-0.0638443
4	0xbe0b8a5d	-0.13627
5	0xbd5e1022	-0.054214604
6	0xbd0e360c	-0.034719512
7	0xbd86933a	-0.0657105
8	0xbdf3884c	-0.11891231
9	0xbdcc0eb1	-0.0996374
10	0xbe0336ca	-0.12813869
11	0x3d67a8cb	0.056557458
12	0x3df43e3c	0.11925933
13	0xbd3d9ac9	-0.046290193
14	0x3c80fb6b	0.015744885
15	0xba91f8af	-0.0011136736
16	0xbe2241fa	-0.1584548
17	0xbd11460f	-0.035467204
18	0xbd687ff4	-0.05676265
19	0xbe21464c	-0.15749472
20	0xbdf5df28	-0.12005454
21	0xbdf3a11b	-0.11895963
22	0xbbc0cafe	-0.0058835736
23	0x3d63e7c1	0.05564094
24	0xbc60f1cb	-0.013729523
25	0xbcce7b17	-0.025205178
26	0xbdfd0519	-0.12354488
27	0x3e4f8388	0.20265019
28	0xbdeb38cc	-0.114854425
29	0xbe67f73d	-0.22652908
30	0x3d1f9f71	0.038970415
31	0x3d43ff33	0.0478508
32	0xbd9ce99e	-0.076617464
33	0x3d9e970d	0.077436544
34	0x3d3debde	0.04636752
35	0x3d2997b2	0.041404434
36	0xbe0aa671	-0.13540055
37	0x3c1d244a	0.0095911715
38	0xbdc310f8	-0.09524721
39	0x3df91dd8	0.12163895
40	0xbc08c83e	-0.008348523
41	0x3d4b76bb	0.049673777
42	0x3d5c690e	0.053811125
43	0xbd35a0ab	-0.044342678
44	0x3d0d1dd9	0.034452293
45	0xbd241c45	-0.040066022
46	0x3d42aa55	0.047525723
47	0xbba35cbb	-0.0049854196
48	0xbd2562cc	-0.040377423
49	0xbe0503f1	-0.12989785
50	0xbdc55c77	-0.09636777
51	0x3d846618	0.06464785
52	0x3de4b077	0.111664705
53	0xbbc939fc	-0.0061409455
54	0x3d406a25	0.046976227
55	0xbe05ca06	-0.13065347
56	0x3d68cdd6	0.056836925
57	0x3db19cc2	0.08672477
58	0x3ac627b3	0.0015118032
59	0x3c63627d	0.013878462
60	0x3dc155da	0.09440203
61	0x3ae24e2c	0.0017265729
62	0xbe65a1a2	-0.2242494
63	0xbe265d4c	-0.16246527
64	0xbcda65a8	-0.026659802
65	0x3d74699b	0.059671026
66	0xbd157c65	-0.036495585
67	0x3cbd005e	0.023071464
68	0xbe122d9b	-0.1427521
69	0xbd92f605	-0.07175831
70	0x3c1a95dc	0.009435143
71	0xbc0d545d	-0.008626071
72	0xbe212abf	-0.15738963
73	0x3c97f0f4	0.018547513
74	0xbdaf5e25	-0.085628785
75	0x3c284d85	0.010272388
76	0xbe086d64	-0.13322979
77	0xbcba8cfc	-0.022772305
78	0x3e08a7ff	0.13345335
79	0x3d0c8c71	0.034313623
80	0xbde63475	-0.11240474
81	0xbc54eee5	-0.01299641
82	0xbc4295a1	-0.011876495
83	0xbc4f2b26	-0.012644565
84	0x3d5c010d	0.05371194
85	0xbc8333d1	-0.016015919
86	0x3cecc381	0.028901817
87	0x3cc750da	0.024330545
88	0xbd54b04c	-0.051925942
89	0xbd9a2478	-0.07526487
90	0xbd89de52	-0.06731857
91	0xbdb99072	-0.09060754
92	0xbce27d9a	-0.027647782
93	0xbdd12baf	-0.1021341
94	0xbc9a28d2	-0.018818293
95	0xbc9911d9	-0.018685268
96	0xbdbe80c7	-0.09301906
97	0xbddd4d63	-0.10805776
98	0xbd622bd2	-0.05521757
99	0xbe050e8c	-0.1299383
100	0xbdafd685	-0.08585838
101	0x3ddd4d47	0.10805755
102	0xbd807bf7	-0.062736444
103	0xbdf274c7	-0.1183868
104	0x3def0c01	0.116722114
105	0x3d6ad58f	0.05733257
106	0x3cb865df	0.022509513
107	0xbde6a6b4	-0.11262265
108	0xbdf704ab	-0.12061437
109	0xba5e78cf	-0.000848663
110	0xbd2860d0	-0.041107953
111	0xbcac5ffc	-0.021041863
112	0xbdc2d11e	-0.09512542
113	0x3cebb6a1	0.028773608
114	0xbd6beccd	-0.057598878
115	0x3d6525a4	0.0559441
116	0x3d48736d	0.048938204
117	0xbb95ca5b	-0.004571242
118	0x3d709eb3	0.058745097
119	0x3d873079	0.06601042
120	0xbe2e4889	-0.17019857
121	0x3c962d48	0.018332139
122	0x3d9999df	0.07500052
123	0xbd8eacf6	-0.069665834
124	0xbd53da8d	-0.0517221
125	0x3d01f72c	0.031729862
126	0x3da90278	0.08252424
127	0x3d00e527	0.031468537
128	0xbe53f2a1	-0.20698024
129	0x3d46a1fd	0.048494328
130	0xbd7ad60f	-0.0612393
131	0xbe1e506a	-0.15460363
132	0xbde14b4d	-0.110006906
133	0xbcd58282	-0.026063208
134	0xbd8130ce	-0.06308137
135	0x3d6b41be	0.057435744
136	0xbdb8cfcd	-0.0902401
137	0xbe7ed136	-0.24884495
138	0x3e3f7187	0.18695651
139	0xbe5f0160	-0.21777868
140	0x3d378865	0.04480781
141	0x3a92cf4b	0.0011200694
142	0xbdecd3a1	-0.115638025
143	0xbc1711d1	-0.009220556
144	0xbd98c0ca	-0.074586466
145	0x3c30a789	0.010782131
146	0xbc9bc2ff	-0.01901388
147	0x3e38fc24	0.18064934
148	0xbd505c21	-0.05086911
149	0xbdcd0277	-0.10010236
150	0x3dd805d2	0.10547985
151	0x3e08cbe9	0.13359036
152	0xbd10f8c5	-0.035393495
153	0x3de7ad0c	0.11312303
154	0xbc50641b	-0.0127191795
155	0x3d18b63e	0.037283175
156	0x3d40e4a7	0.04709306
157	0x3d686f62	0.056746848
158	0xbc113a9c	-0.008864071
159	0x3de7ee3a	0.11324735
160	0x3d7a8cdf	0.0611695
161	0xbe4887ee	-0.19583103
162	0x3d65f7eb	0.056144636
163	0x3e0af5b0	0.13570285
164	0xbcf0521f	-0.029336033
165	0x3d2b2745	0.041785497
166	0xbe0de6ae	-0.13857529
167	0x3d749343	0.059710752
168	0x3d2ed21a	0.042680837
169	0xbdab0226	-0.08350019
170	0x3db0757d	0.08616159
171	0xbdf57b5d	-0.1198642
172	0x3d31fd5f	0.043454524
173	0xbe0948cf	-0.1340668
174	0xbdd35c8a	-0.10320385
175	0x3d1b7795	0.03795584
176	0x3b1a0def	0.002350684
177	0xbe138de7	-0.144096
178	0x3d8fd67f	0.07023334
179	0xbdb786ef	-0.089612834
180	0xbd967603	-0.07346728
181	0x3ba1d333	0.004938507
182	0x3d9b318a	0.07577808
183	0x3c301f9f	0.010749727
184	0xbdeded31	-0.11617506
185	0x3ddeb937	0.10875171
186	0x3d956724	0.07295063
187	0xbc08b863	-0.0083447425
188	0x3d9fa760	0.07795596
189	0x3c650a00	0.013979435
190	0x3dc2f877	0.09520047
191	0xbc2fb1c4	-0.010723535
192	0x3e0e7127	0.13910352
193	0x3dbf6af6	0.09346573
194	0xbc9681a0	-0.018372357
195	0xbe074834	-0.13211137
196	0x3dd5a931	0.10432661
197	0xbc072c2b	-0.008250277
198	0x3c637809	0.013883599
199	0xbce0bbeb	-0.027433356
200	0x3c4231e1	0.011852712
201	0xbdb92f4a	-0.09042223
202	0xbd1afd94	-0.037839487
203	0x3d398f2f	0.045302566
204	0xbc1d4dfc	-0.009601112
205	0xbbbd9ccb	-0.0057865134
206	0x3c790cc9	0.015200802
207	0x3cde12ce	0.027108576
208	0x3d505600	0.050863266
209	0x3d448181	0.047975067
210	0xbd9587bd	-0.07301281
211	0x3da96e1b	0.08272954
212	0xbe1869f3	-0.14884166
213	0x3ca69526	0.020334791
214	0xbb96eddd	-0.004605992
215	0xbe207d6d	-0.15672846
216	0xbdf3db4f	-0.11907064
217	0x3d952627	0.072826676
218	0x3e20d2ea	0.15705457
219	0xbd9ac722	-0.07557513
220	0x3c823c9f	0.015898047
221	0xbdb2df3a	-0.08733983
222	0x3dadc1fb	0.084842645
223	0x3da2b61d	0.079448916
224	0x3d195c56	0.037441574
225	0xbe609fb2	-0.21935919
226	0x3e529df0	0.20568061
227	0x3d57f5ab	0.05272452
228	0xbe32e74b	-0.17471044
229	0xbc394b54	-0.0113094635
230	0x3df73b39	0.12071843
231	0xbd963624	-0.07334545
232	0x3d603c70	0.054745138
233	0x3dfbc12f	0.12292706
234	0x3da2e9ec	0.07954773
235	0xbd7ce684	-0.061743274
236	0x3d5290d9	0.05140767
237	0x3d759872	0.059959836
238	0x3d8127dc	0.06306431
239	0x3e2a7708	0.1664697
240	0xbbb211b0	-0.0054342374
241	0x3cf23b08	0.029569164
242	0xbdb34bf0	-0.08754718
243	0x3b6cf0ff	0.0036154387
244	0x3e0b8c40	0.1362772
245	0xbe5ab660	-0.21358633
246	0x3dd69f06	0.1047955
247	0x3d56b762	0.05242098
248	0xbd21e1cb	-0.039521974
249	0x3d556059	0.052093837
250	0xbbe5c184	-0.0070115943
251	0xbc8bb70e	-0.01705506
252	0xbc2d0573	-0.010560381
253	0xbdcede4a	-0.10100992
254	0x3e0d22cc	0.13782805
255	0x3b55e026	0.0032634824

network_body._body_endoder.seq_layers.2.bias f4 [128]
0	0xbdab9cd0	-0.08379519
1	0xbd55737b	-0.052112084
2	0x3d212c23	0.039348733
3	0xbd3ddb72	-0.046351857
4	0x3d0fece6	0.035138033
5	0x3e17167b	0.1475467
6	0x3d5b4467	0.05353203
7	0xbd82fdfd	-0.06396101
8	0xbd5f3d45	-0.05450179
9	0xbd1a176a	-0.037619986
10	0x3d5919c9	0.053003106
11	0x3d7f8b09	0.062388454
12	0xbd3401ba	-0.04394696
13	0x3cce7aef	0.025205104
14	0x3e24d124	0.16095406
15	0xbd5d077a	-0.05396221
16	0xbd506478	-0.050877064
17	0x3d8c1992	0.06840815
18	0xbd88216b	-0.06646999
19	0x3e0bb157	0.13641869
20	0xbd4c2884	-0.049843326
21	0x3dc8ebb0	0.09810579
22	0x3c84375c	0.016139679
23	0xbd83c53e	-0.06434105
24	0xbdaab57d	-0.083353974
25	0xbd56b967	-0.052422907
26	0x3d9c80f6	0.07641785
27	0xbd2a6167	-0.041596796
28	0xbd251289	-0.04030088
29	0x3d3792ae	0.04481762
30	0xbb7bc457	-0.0038416588
31	0xbc22444b	-0.009903978
32	0xbd6054fb	-0.054768544
33	0xbd998ee2	-0.07497956
34	0xbcee4cb3	-0.029089307
35	0x3d4f4d4f	0.050610837
36	0xbd67bcc9	-0.056576524
37	0xbd043fb1	-0.032287303
38	0xbd42e108	-0.047577888
39	0x3e0b87db	0.13626043
40	0x3d827a78	0.06371015
41	0x3c21b9af	0.009870931
42	0x3de5e422	0.112251535
43	0xbd602e06	-0.05473139
44	0x3e048046	0.12939557
45	0xbd667af6	-0.05626961
46	0x3de544a2	0.11194731
47	0x3ccb4dd9	0.024817394
48	0x3dbf3413	0.09336104
49	0x3e1913f9	0.14949025
50	0x3d178623	0.036993157
51	0xbd37cf38	-0.044875354
52	0xbd3ac90f	-0.0456019
53	0x3cde537f	0.027139423
54	0x3d3b68ab	0.045754116
55	0xbd3e921e	-0.046526067
56	0xbd0f7570	-0.035024107
57	0xbd241195	-0.04005583
58	0x3d6559de	0.055993907
59	0x3cfae2c8	0.030625716
60	0x3e048a19	0.12943305
61	0x3b1b1bae	0.0023667621
62	0xbcb7494f	-0.022373823
63	0x3e12d39c	0.14338535
64	0xbc7471e4	-0.014919732
65	0xbc64b710	-0.013959661
66	0xbc99c929	-0.018772678
67	0xbb5259be	-0.0032096948
68	0xbb22ffad	-0.0024871633
69	0x3e109f3e	0.14123246
70	0x3dc74e89	0.09731776
71	0x3d1a980a	0.037742652
72	0x3d2f5a77	0.042810883
73	0x3e143aba	0.14475527
74	0x3c590799	0.01324644
75	0x3d23fb7e	0.040034764
76	0x3d7cb4dc	0.06169592
77	0x3ce46f55	0.027885118
78	0x3baffe25	0.0053708726
79	0xbe0f8a2d	-0.14017554
80	0x3df6b349	0.12045915
81	0xbbf3754a	-0.0074297534
82	0xbd4ae5bd	-0.0495355
83	0x3db54595	0.08851162
84	0x3c0dc39b	0.008652593
85	0x3de6bd3b	0.112665616
86	0x3df66019	0.12030048
87	0xbd8ad5c5	-0.067790546
88	0x3cec437b	0.028840771
89	0x3d22ed6e	0.03977721
90	0x3c1f435a	0.009720648
91	0x3e0d8245	0.13819225
92	0xbd13c72c	-0.036078617
93	0x3e0acc32	0.13554457
94	0x3dc5dfc7	0.09661823
95	0x3d40d51b	0.047078233
96	0x3df818ac	0.12114081
97	0xbd6cce74	-0.057814077
98	0xbdafd785	-0.08586029
99	0xbcbd8949	-0.023136752
100	0xbd68b4b4	-0.056812957
101	0x3de2f76d	0.11082349
102	0xbccb2909	-0.02479984
103	0x3d8f42d9	0.06995172
104	0x3e102590	0.14076829
105	0xbccb5dcd	-0.024825001
106	0xbd5b58a5	-0.053551335
107	0x3d9742ef	0.073858134
108	0x3d9a0718	0.07520884
109	0x3de78f8c	0.11306676
110	0x3dfeb136	0.12436144
111	0xbd7931c0	-0.06083846
112	0xbdf485fe	-0.119396195
113	0xbcb600be	-0.02221715
114	0x3ccd7593	0.025080478
115	0x3dbd46bc	0.09242007
116	0x3ddf6945	0.109087504
117	0x3d5f7c80	0.05456209
118	0x3e0ad310	0.13557076
119	0xbd6dde94	-0.058073595
120	0xbd26d198	-0.040727228
121	0x3c8c7dc4	0.017149813
122	0x3e063a0a	0.13108078
123	0xbd391cd5	-0.045193512
124	0xbd50769c	-0.050894365
125	0xbd5ab65b	-0.053396564
126	0x3db4f367	0.08835488
127	0xbd02d073	-0.031937074

action_model._continuous_distribution.log_sigma f4 [1, 2]
0	0x3c6a7a57	0.014311395
1	0xbcfff40c	-0.0312443

action_model._continuous_distribution.mu.weight f4 [2, 128]
0	0xbb60d4c7	-0.0034306513
1	0x3bacc0ee	0.0052720224
2	0x3c68eec6	0.014217084
3	0x3cdd08b6	0.026981693
4	0xbd11ff28	-0.035643727
5	0xbd19e8a5	-0.037575383
6	0x3c3f5392	0.01167764
7	0xb98fb253	-0.00027407947
8	0x3bdd13f8	0.006746765
9	0x3c7372cf	0.0148589155
10	0xbcdbaf1c	-0.026816897
11	0xbc99ee51	-0.018790396
12	0x3d2c9e15	0.042142946
13	0xbd58b0bd	-0.052902926
14	0xbdb28ee0	-0.087186575
15	0x3b34f9d5	0.0027614732
16	0xbb4f1959	-0.0031600802
17	0xbd100695	-0.035162527
18	0xbc3e29b7	-0.011606625
19	0xbdbb88a5	-0.09156922
20	0x3c8ae63f	0.016955493
21	0xbda7188e	-0.0815898
22	0x3ca5f153	0.020256674
23	0x3cc7f0cf	0.024406819
24	0xbc547e07	-0.0129695
25	0xbd07f257	-0.033190098
26	0xbd9b0272	-0.07568826
27	0x3d294b02	0.0413313
28	0x3c879f9c	0.0165556
29	0x3cb4c8fb	0.022068491
30	0xbc6f4e34	-0.014606047
31	0xbc3850c3	-0.011249724
32	0x3b28804f	0.0025711244
33	0x3bc0cbc9	0.005883668
34	0x3d3e48a4	0.046455994
35	0x3cbb4eae	0.022864666
36	0x3cda5c15	0.026655236
37	0x3d0fc161	0.03509653
38	0xbd15766a	-0.03648988
39	0xbdaa554e	-0.08317052
40	0xba8c2408	-0.001069189
41	0xbd6733ef	-0.056446012
42	0x3c7a3a0a	0.015272627
43	0x3d0a6b6b	0.033793848
44	0xbc3cec9f	-0.011531024
45	0x3c2686c5	0.0101639675
46	0xbd35971a	-0.044333555
47	0xbc0a93c4	-0.008458082
48	0x3c95a6be	0.018267985
49	0xbd815adc	-0.06316158
50	0xbd246337	-0.04013368
51	0x3ca9c10b	0.020721933
52	0xbc961c9c	-0.018324189
53	0x3c9a9611	0.018870385
54	0xbd0e489e	-0.034737222
55	0x3d1f369b	0.038870435
56	0xbd18ee25	-0.037336487
57	0x3ce939eb	0.02847
58	0x3bbb7120	0.0057202727
59	0x3d0ebc7a	0.034847714
60	0xbd9d88e1	-0.07692123
61	0xbd06a7e6	-0.032874964
62	0x3da765f3	0.08173742
63	0xbd7e916a	-0.062150396
64	0x3d0f1dcb	0.034940522
65	0xbd475ecc	-0.04867439
66	0xbd310fb6	-0.043227874
67	0x3dae6c72	0.08516778
68	0xbc345936	-0.011007598
69	0xbd304a3d	-0.04303955
70	0xba21c1f6	-0.0006170565
71	0x3d14f88f	0.036369856
72	0x3ccb47ce	0.024814513
73	0xbd6ef4cb	-0.05833892
74	0x3cc2c5ff	0.023776053
75	0x3caf8d5e	0.021429714
76	0xbd5b587b	-0.05355118
77	0xbd59f9d6	-0.053216778
78	0x3c8426d3	0.016131794
79	0x3cbc8a49	0.023015158
80	0xbd3a3bf6	-0.04546734
81	0xbbb914a5	-0.005648213
82	0x3c774ac9	0.015093514
83	0x3caf6b6f	0.021413533
84	0xbdb71877	-0.08940213
85	0xbd6ed476	-0.058308087
86	0x3c425889	0.011861929
87	0xbd14f8b3	-0.03636999
88	0x3c5afef5	0.013366451
89	0x3d8d643a	0.06903882
90	0x3caea63c	0.021319501
91	0xbdb33fa8	-0.08752376
92	0xbcce8149	-0.025208132
93	0xbcf81470	-0.030283183
94	0xbdb9baae	-0.090688094
95	0x3b7a6160	0.0038205013
96	0xbd875c2e	-0.06609379
97	0xbcc9bdb2	-0.024626587
98	0x3c343a80	0.011000276
99	0x3d98587d	0.07438753
100	0xbc07f21a	-0.008297468
101	0xbd8d1241	-0.06888247
102	0x3cd61d73	0.02613709
103	0x3cbbc30a	0.02292015
104	0xbda2b702	-0.07945062
105	0xbc75fde8	-0.015014149
106	0x3c7f0217	0.015564463
107	0xbd10258e	-0.035192065
108	0xbc927015	-0.01787571
109	0xbd620f9f	-0.05519068
110	0xbd04ffeb	-0.032470625
111	0xbcf84b12	-0.030309234
112	0x3cc84485	0.024446735
113	0x3d4ed474	0.05049558
114	0x3d04251b	0.03226195
115	0x3d1f08f0	0.038826883
116	0xbd32702b	-0.043564003
117	0xbc008de3	-0.007846328
118	0xbd5318d8	-0.051537365
119	0xbbae6efa	-0.005323288
120	0x3d20c266	0.039247893
121	0xbcdf590c	-0.02726414
122	0xbd932bcb	-0.07186087
123	0xbca0c5fe	-0.01962566
124	0xbc2c6b2c	-0.010523599
125	0x3d0f33bc	0.034961447
126	0x3cd076d7	0.025447292
127	0x3d513e7d	0.051084984
128	0xbd9c2ec2	-0.07626106
129	0xbd6b532a	-0.05745236
130	0x3caa091f	0.020756302
131	0xbcd89b5e	-0.026441272
132	0x3b06a03e	0.002054229
133	0x3d71b210	0.059007704
134	0x3d2c05c1	0.041997675
135	0xbc7249bc	-0.014788087
136	0xbc62ba59	-0.013838374
137	0xbc6c22aa	-0.014412561
138	0x3a4de57b	0.00078543246
139	0x3d257661	0.040396098
140	0xbcf2a034	-0.029617406
141	0xbcb7d41e	-0.022440013
142	0x3d8982a0	0.06714368
143	0xbd1a39fe	-0.037652962
144	0xbd959d28	-0.07305366
145	0x3c9bd3a3	0.019021815
146	0xbd5f7e52	-0.054563828
147	0x3dc0c5a4	0.09412697
148	0xbc91bf66	-0.017791461
149	0x3d2d563e	0.042318575
150	0x3bf1f7dc	0.0073842835
151	0xbd898973	-0.067156695
152	0xbdd2fd20	-0.10302186
153	0xbd4de8d7	-0.05027088
154	0x3c986aad	0.018605554
155	0xbce5fcb6	-0.028074604
156	0xbc43a9e8	-0.011942364
157	0x3cb837f9	0.022487627
158	0xbc193fa8	-0.009353556
159	0xbbb2a332	-0.0054515833
160	0xbd731914	-0.05935009
161	0xbd7b3eff	-0.061339375
162	0xbc51bab9	-0.012800866
163	0x3cd0d43a	0.025491823
164	0xbcbaeb2f	-0.022817222
165	0xbc957faf	-0.01824936
166	0xbd242e6d	-0.040083338
167	0x3dae70e5	0.08517627
168	0x3ce27f83	0.027648693
169	0xbc99c0c7	-0.018768681
170	0x3d620778	0.055182904
171	0xbd0619d6	-0.032739483
172	0x3d4f3be4	0.050594226
173	0xbcd8e800	-0.026477814
174	0x3d758f44	0.059951082
175	0x3b8f6b7c	0.004376827
176	0x3d6c4362	0.05768145
177	0x3de147d8	0.11000031
178	0xbc629834	-0.013830233
179	0xbcbb518a	-0.02286603
180	0xbcca96fe	-0.024730202
181	0x3c5283ef	0.012848838
182	0x3cbd508d	0.023109699
183	0xbd8e1a7e	-0.06938647
184	0xbd4410fe	-0.047867768
185	0xbcbc4e67	-0.022986604
186	0x3cb63ed4	0.022246756
187	0x3cdc59f9	0.026898371
188	0x3d88ffe3	0.066894315
189	0xbc4e9baa	-0.012610355
190	0xbc050266	-0.008118248
191	0x3d60610b	0.054780047
192	0xba937a4a	-0.0011251655
193	0xbcfda618	-0.030962989
194	0xbd470827	-0.04859176
195	0x3b081642	0.002076522
196	0xbb4780d5	-0.003044178
197	0x3d308099	0.04309139
198	0x3d1310af	0.035904583
199	0x3d0c1210	0.034196913
200	0x3cba579f	0.02274686
201	0x3da5cc64	0.08095625
202	0x3cd1ca11	0.025609048
203	0x3c97d5ee	0.018534627
204	0x3c7bdc73	0.015372383
205	0xbc9b8f77	-0.018989308
206	0x3b50c384	0.0031854818
207	0xbd94b81c	-0.072616786
208	0x3cb91a81	0.022595646
209	0xbb18ff9c	-0.0023345714
210	0xbd136e89	-0.035994086
211	0x3d8a22a3	0.06744888
212	0xbd059e1e	-0.032621495
213	0x3cb84683	0.02249456
214	0x3d5f3184	0.05449058
215	0xbd664495	-0.05621775
216	0x3c0e85a0	0.008698851
217	0x3d25c22b	0.040468376
218	0x3b9c105b	0.004762692
219	0x3da16bd4	0.07881895
220	0xbcc4154b	-0.023935935
221	0x3d832e35	0.06405298
222	0x3d6b3e01	0.05743218
223	0x3c86bf35	0.016448596
224	0x3d3682b8	0.044558257
225	0xbd94d2bc	-0.07266757
226	0xbd9d0185	-0.076663055
227	0xbc8e948e	-0.01740482
228	0xbcd5fda5	-0.026121924
229	0x3d1ba5ca	0.037999906
230	0xbbdc8f34	-0.0067309383
231	0x3d7d6264	0.06186141
232	0x3d8f66d2	0.07002033
233	0xbc47f90f	-0.012205376
234	0xbc8c5f93	-0.017135417
235	0x3cdcb624	0.02694232
236	0x3caa2c3b	0.020773044
237	0x3ca0f34d	0.019647265
238	0x3db3cab6	0.087788984
239	0xbda1f2f1	-0.079076655
240	0xbd8b6046	-0.06805472
241	0xbbe79c01	-0.0070681577
242	0x3cb3465c	0.021884136
243	0x3d5fc0b8	0.05462715
244	0x3d214d23	0.039380204
245	0x3c4eceba	0.01262253
246	0x3d91d255	0.07120196
247	0xbd234d10	-0.039868414
248	0xbcc618ea	-0.024181802
249	0xbc6b9540	-0.014378846
250	0x3d83ad83	0.06429579
251	0xbd1639d1	-0.03667623
252	0xbd3b4b49	-0.045726094
253	0xbd05416c	-0.032533094
254	0x3d183e3c	0.037168726
255	0xbca6ab75	-0.020345429

action_model._continuous_distribution.mu.bias f4 [2]
0	0xbcd07bee	-0.02544972
1	0x3d9f9772	0.07792558

exp_avg f4 [128, 3]
0	0xb9e85896	-0.0004431649
1	0xb807181c	-3.220896e-05
2	0x39d9b3b3	0.00041523352
3	0x3a04db83	0.000506811
4	0xb77cd8f8	-1.50708875e-05
5	0x38f4ed56	0.00011679034
6	0xb9fca451	-0.0004818761
7	0xb78c6eb7	-1.6740856e-05
8	0x3957a776	0.00020566382
9	0x3674f11a	3.6499173e-06
10	0x37583629	1.2887213e-05
11	0xb737d542	-1.0957303e-05
12	0x390e5530	0.0001357391
13	0x379fcaa1	1.9048633e-05
14	0xb9612e7d	-0.0002147499
15	0xb940254c	-0.00018324441
16	0xb76e79b7	-1.4214244e-05
17	0x391a4f1c	0.00014716055
18	0x39667bac	0.0002198058
19	0x38100720	3.433891e-05
20	0xb9da1229	-0.0004159373
21	0x37eee42c	2.8478062e-05
22	0xb78d0ef6	-1.6815477e-05
23	0x394f138c	0.0001974834
24	0x37d7b298	2.5713161e-05
25	0x37249546	9.809917e-06
26	0xb8984c74	-7.262165e-05
27	0x388f75ef	6.840738e-05
28	0x36fc45a9	7.5182948e-06
29	0xb8f4556b	-0.00011650737
30	0x3a73d7a9	0.000930185
31	0xb72ab867	-1.0175724e-05
32	0x38b3d309	8.5746935e-05
33	0x39a13044	0.00030744274
34	0x381f6e0e	3.801105e-05
35	0xb9eb2453	-0.00044849757
36	0x3a70e3ff	0.00091892475
37	0x37b191dd	2.1167967e-05
38	0xb9a74908	-0.00031907135
39	0x3661252f	3.3549256e-06
40	0x370b7424	8.312087e-06
41	0xb802e5b1	-3.1208332e-05
42	0x39fab509	0.00047818598
43	0x386d2bc6	5.654597e-05
44	0xba2cc6d5	-0.00065909076
45	0x380de55e	3.3830634e-05
46	0x36a39e52	4.8762095e-06
47	0xb867a45f	-5.5227774e-05
48	0x37c8ef48	2.3953282e-05
49	0x377e0d01	1.51426075e-05
50	0xb8b0924b	-8.419583e-05
51	0x39f6f01c	0.00047099672
52	0x37a33985	1.9457899e-05
53	0xb9a94413	-0.0003228491
54	0x397ab1a5	0.00023908036
55	0xb74b1825	-1.21053645e-05
56	0x38ed1e8a	0.00011306729
57	0x38a4c5f4	7.857001e-05
58	0x379a6107	1.8403412e-05
59	0xb918b98a	-0.00014564968
60	0x374adea7	1.20919785e-05
61	0xb512ef7e	-5.4737745e-07
62	0xb7959adb	-1.7834294e-05
63	0xba080869	-0.00051892415
64	0x3610f8a9	2.1602411e-06
65	0x374b7581	1.2127101e-05
66	0xb86dae31	-5.666743e-05
67	0xb64b4bd5	-3.0293497e-06
68	0xb7cf2ab5	-2.469621e-05
69	0x3a5e413b	0.0008478348
70	0x362b8102	2.5556078e-06
71	0xb8105a55	-3.4416404e-05
72	0xba0f0abc	-0.00054566166
73	0xb7fc5043	-3.0078116e-05
74	0x39ea14c7	0.00044647438
75	0xb90127b8	-0.00012317195
76	0xb846f7f6	-4.743781e-05
77	0x3a2695ab	0.00063547
78	0xba8ede3a	-0.0010899969
79	0x38bd67bc	9.031544e-05
80	0xba6aec83	-0.00089616346
81	0x3a30d060	0.00067449175
82	0xb74e7a2b	-1.2307001e-05
83	0x38fe999e	0.00012140277
84	0x3922f66f	0.00015541328
85	0x3872e2ca	5.790851e-05
86	0xba216ec4	-0.0006158168
87	0x39516159	0.00019968058
88	0x37e2299a	2.6960672e-05
89	0xb9957ecb	-0.00028513963
90	0x3a4d3db8	0.0007829326
91	0xb7702a7d	-1.4315007e-05
92	0x38d5bd0e	0.00010191846
93	0x3a43b5f1	0.0007465771
94	0xb8065a0b	-3.203195e-05
95	0x39ac3026	0.0003284227
96	0x38aa7761	8.128468e-05
97	0x378da758	1.6886435e-05
98	0xb920f4b1	-0.00015349944
99	0xba82e885	-0.0009987509
100	0xb71ee86e	-9.471651e-06
101	0x38698736	5.5677454e-05
102	0x38e9d85e	0.00011150607
103	0xb762dfa6	-1.3522722e-05
104	0x390ffd48	0.00013731897
105	0x3725474f	9.851369e-06
106	0xb5d92612	-1.617884e-06
107	0xb822a20b	-3.8774724e-05
108	0x3a414132	0.00073720806
109	0x37bdbd53	2.2618717e-05
110	0xb9cb7f15	-0.0003881386
111	0xb9fe2ac3	-0.00048478515
112	0xb806bd20	-3.2124226e-05
113	0x39ce8f15	0.00039397986
114	0x3a827d5f	0.0009955576
115	0x373ec7c0	1.137139e-05
116	0xb915df90	-0.00014293031
117	0x3955b6d8	0.00020381378
118	0x37a4b91e	1.9636525e-05
119	0xb99a2f5c	-0.00029408454
120	0x3a15a5e4	0.00057086186
121	0x388be1f2	6.670122e-05
122	0xba50b58c	-0.0007961623
123	0xba6467da	-0.0008712985
124	0xb77a2229	-1.4909115e-05
125	0x39568326	0.00020457487
126	0x3808fd63	3.266091e-05
127	0x36cbc939	6.073297e-06
128	0xb83982a0	-4.422909e-05
129	0xb6bdb020	-5.6531426e-06
130	0xb4a2193f	-3.019322e-07
131	0xb7d702a3	-2.5631225e-05
132	0x39d5aa57	0.0004075344
133	0x384bcbc1	4.8588732e-05
134	0xba177cb5	-0.00057787757
135	0x3a397b22	0.0007075538
136	0x38a57068	7.8887504e-05
137	0xba6a1eec	-0.00089309993
138	0xb92a77b1	-0.00016257052
139	0xb73f97ae	-1.1419803e-05
140	0x38ba9c86	8.898326e-05
141	0xb9bdd349	-0.0003620631
142	0xb75a0776	-1.299555e-05
143	0x3939f68b	0.00017734819
144	0x3a2df42d	0.00066358113
145	0x3740642d	1.1467416e-05
146	0xb92729f7	-0.00015941994
147	0x37d39876	2.5224155e-05
148	0x379d0a52	1.8720664e-05
149	0xb887e191	-6.479317e-05
150	0xb9918971	-0.00027758957
151	0x3709227d	8.173866e-06
152	0xb8c96ad4	-9.604325e-05
153	0xba342025	-0.0006871245
154	0x33d088d2	9.710642e-08
155	0x36223503	2.4170738e-06
156	0xb882c285	-6.235115e-05
157	0xb68476a3	-3.9477177e-06
158	0xb6c27905	-5.795739e-06
159	0x3a12d725	0.0005601517
160	0x3887acac	6.469464e-05
161	0xba584062	-0.000824934
162	0xb76705a5	-1.3769987e-05
163	0xb5590edc	-8.086042e-07
164	0xb7ca260c	-2.4097993e-05
165	0x39e44beb	0.00043544112
166	0x3852ead9	5.028662e-05
167	0xba1a730a	-0.0005891776
168	0x3a9489e1	0.0011332595
169	0x35976e24	1.1282432e-06
170	0xb89971eb	-7.3168274e-05
171	0x37ed46a5	2.8285498e-05
172	0xb7d05243	-2.4833838e-05
173	0x39777dc9	0.00023602614
174	0x39449d12	0.0001875053
175	0x37c32682	2.3263743e-05
176	0xb9991d7a	-0.00029204396
177	0x39916ed0	0.00027739117
178	0xb7d45a4d	-2.5314419e-05
179	0x3988b896	0.0002607747
180	0x3a1909e5	0.0005837961
181	0x3769cbc7	1.3935328e-05
182	0xb9902eab	-0.0002750059
183	0xb8cbcfde	-9.7185126e-05
184	0xb789cb6e	-1.6426402e-05
185	0x390b3ba4	0.00013278291
186	0x3a19f649	0.0005873186
187	0x388eb669	6.805064e-05
188	0xba48cbf3	-0.00076597853
189	0x39c17317	0.00036897577
190	0x38428d07	4.6384546e-05
191	0xba092c42	-0.000523273
192	0x3a993fc0	0.0011691973
193	0x38183880	3.6292244e-05
194	0xba0d367f	-0.00053868437
195	0xb652b6fa	-3.1398945e-06
196	0xb60918e1	-2.0429072e-06
197	0xb7ac7721	-2.0559472e-05
198	0x39c22cda	0.0003703598
199	0xb71afd0c	-9.238032e-06
200	0x38a3d34b	7.811802e-05
201	0x38c65cb8	9.458646e-05
202	0xb6a69662	-4.9646924e-06
203	0x389bc2ea	7.4272815e-05
204	0xb91d38c7	-0.00014993838
205	0x37253d59	9.84905e-06
206	0xb909f0e1	-0.00013155073
207	0xb8e61e30	-0.000109728775
208	0xb794bd95	-1.7731256e-05
209	0x39569cf0	0.00020467094
210	0x3ae07ebc	0.0017127614
211	0x37ded8ec	2.6565474e-05
212	0xb9e9e563	-0.0004461213
213	0x3583fe59	9.834285e-07
214	0xb7e612e2	-2.742693e-05
215	0x39aa4122	0.00032473454
216	0x39b5099e	0.00034530176
217	0x3838b643	4.4038763e-05
218	0xb9ee0654	-0.00045399612
219	0x39c0d8d8	0.00036782655
220	0x383bddd7	4.479088e-05
221	0xb9fd4af9	-0.0004831178
222	0x39528312	0.00020075988
223	0x37a98cd9	2.0211957e-05
224	0xb9687e4a	-0.0002217229
225	0xba02e8aa	-0.0004993776
226	0xb7349561	-1.0763616e-05
227	0x38727b17	5.7811932e-05
228	0x39fc2f1d	0.00048100288
229	0x385a48a6	5.204291e-05
230	0xba1dd10b	-0.00060202245
231	0x390aa079	0.00013220486
232	0x37bcb9f2	2.2497934e-05
233	0xb9a9189c	-0.00032252527
234	0x398a1166	0.00026334374
235	0xb7260263	-9.894927e-06
236	0x390ea6bb	0.00013604287
237	0xba15f972	-0.0005721069
238	0xb7dc335c	-2.624996e-05
239	0x39b1fc4a	0.0003394804
240	0x38b7ebca	8.770039e-05
241	0x375b8279	1.3083795e-05
242	0xb91b99b0	-0.00014839205
243	0xb98724d4	-0.00025776646
244	0xb75c1671	-1.3118247e-05
245	0x393b9447	0.00017888947
246	0xba98854b	-0.0011636404
247	0xb66e1e5e	-3.548244e-06
248	0x38953090	7.113919e-05
249	0x3a89d133	0.0010514617
250	0x363f9f43	2.855392e-06
251	0xb8c2e7c9	-9.293814e-05
252	0x3975d543	0.00023444467
253	0x37a3d5eb	1.9530728e-05
254	0xb99903ed	-0.0002918536
255	0xb9168dc8	-0.00014357932

exp_avg_sq f4 [128, 3]
0	0x3594d318	1.1088296e-06
1	0x310dffdb	2.0663637e-09
2	0x3482f6d0	2.4393967e-07
3	0x355a4a6b	8.131962e-07
4	0x3075250b	8.918312e-10
5	0x3403d47a	1.2277624e-07
6	0x34eaf6db	4.3765507e-07
7	0x2fa582d3	3.010628e-10
8	0x33556adc	4.9690115e-08
9	0x32b1282d	2.0623782e-08
10	0x30b383f4	1.3061467e-09
11	0x333e511e	4.4311598e-08
12	0x337492ab	5.694407e-08
13	0x30a44f4b	1.1955107e-09
14	0x341fa5dd	1.486837e-07
15	0x3522df2d	6.0674466e-07
16	0x30654746	8.3411e-10
17	0x340cbc1b	1.3106948e-07
18	0x344a7965	1.8856879e-07
19	0x30bacf6d	1.3592235e-09
20	0x341ff22a	1.4896128e-07
21	0x3408fdf2	1.2758372e-07
22	0x2fee4731	4.3342532e-10
23	0x334a65d0	4.7124388e-08
24	0x35b1d4d9	1.3249474e-06
25	0x31113157	2.1128324e-09
26	0x3485a261	2.4891327e-07
27	0x3300b918	2.9970664e-08
28	0x2f9edd65	2.8897343e-10
29	0x32e34e9c	2.6462025e-08
30	0x3594917a	1.1069199e-06
31	0x30926289	1.0650903e-09
32	0x33f84f46	1.156282e-07
33	0x33f2c1a0	1.1304223e-07
34	0x3109c9b2	2.0050774e-09
35	0x349b334a	2.8908318e-07
36	0x35f7c37a	1.8459825e-06
37	0x30b6c8ec	1.3299348e-09
38	0x3480a36b	2.396076e-07
39	0x32426cd7	1.13170335e-08
40	0x300f1491	5.2052324e-10
41	0x32f4f9e6	2.851898e-08
42	0x34c6fa43	3.7062463e-07
43	0x31968d0b	4.3816093e-09
44	0x350b2ac9	5.1843796e-07
45	0x321eb178	9.237162e-09
46	0x2f40e60a	1.7544025e-10
47	0x3285c1f2	1.5571434e-08
48	0x336c5a41	5.5030117e-08
49	0x30c0261a	1.3980668e-09
50	0x3381dc23	6.047073e-08
51	0x35a640b3	1.2386794e-06
52	0x314ac585	2.9507146e-09
53	0x34f2dba0	4.523581e-07
54	0x34356298	1.6892807e-07
55	0x303ead29	6.936767e-10
56	0x33cc8c34	9.524993e-08
57	0x33768d72	5.7404982e-08
58	0x30c160ae	1.4070076e-09
59	0x33dd9aad	1.031925e-07
60	0x32abe88e	2.0012774e-08
61	0x2eb2cf3c	8.131315e-11
62	0x3233751c	1.0445799e-08
63	0x3517c8ca	5.654407e-07
64	0x30a105c2	1.1715928e-09
65	0x33eceb96	1.1032459e-07
66	0x3419bf5e	1.4318854e-07
67	0x2f5e8420	2.0237723e-10
68	0x32444e63	1.1426525e-08
69	0x361a901f	2.3031678e-06
70	0x30e77a40	1.6842208e-09
71	0x349b3678	2.891063e-07
72	0x363eabb5	2.8412153e-06
73	0x318c8167	4.0892476e-09
74	0x35028b6d	4.8631665e-07
75	0x368b945b	4.1597937e-06
76	0x3203137c	7.629634e-09
77	0x35812bd5	9.624006e-07
78	0x36e830bc	6.919812e-06
79	0x32eedc4f	2.7807031e-08
80	0x36445674	2.9256598e-06
81	0x36456546	2.9414236e-06
82	0x3189a3cd	4.0058468e-09
83	0x352b546b	6.382531e-07
84	0x3520f038	5.995421e-07
85	0x31c87fad	5.835281e-09
86	0x3528d129	6.2889245e-07
87	0x340d67c0	1.3169392e-07
88	0x30fa2e16	1.8202992e-09
89	0x343f569e	1.7819772e-07
90	0x3606caa8	2.0085517e-06
91	0x318f8fe1	4.178205e-09
92	0x3527c5a4	6.2499953e-07
93	0x35fe3000	1.8938445e-06
94	0x31a17849	4.6993915e-09
95	0x35274584	6.2313507e-07
96	0x336a1485	5.4501033e-08
97	0x30a6c6bc	1.2134573e-09
98	0x33c84f13	9.327609e-08
99	0x35bad319	1.3919517e-06
100	0x301b5a98	5.6517413e-10
101	0x331b5e8c	3.617474e-08
102	0x34315f59	1.6519097e-07
103	0x3060b468	8.17471e-10
104	0x33e6069a	1.07114104e-07
105	0x33361087	4.239021e-08
106	0x2f5145f4	1.9033292e-10
107	0x320c4805	8.165448e-09
108	0x35e47960	1.7022649e-06
109	0x31063e24	1.953489e-09
110	0x34b0a437	3.2902037e-07
111	0x34bf6c82	3.5655472e-07
112	0x30b09428	1.2847794e-09
113	0x342067c5	1.4938912e-07
114	0x362b09bf	2.5486659e-06
115	0x311019ca	2.0969417e-09
116	0x34bc968a	3.512726e-07
117	0x34e4baf1	4.2604327e-07
118	0x30f2bdfe	1.7661816e-09
119	0x348cabb2	2.6201957e-07
120	0x34db74d7	4.087694e-07
121	0x31e2237f	6.581501e-09
122	0x35715367	8.990086e-07
123	0x36077b9b	2.0188515e-06
124	0x30acd9d1	1.2576554e-09
125	0x3463651e	2.1177809e-07
126	0x32ed5716	2.7630033e-08
127	0x3001dd67	4.724456e-10
128	0x3253cd40	1.2328485e-08
129	0x324f12a9	1.2053229e-08
130	0x2eccae09	9.307761e-11
131	0x31a7e57d	4.8864295e-09
132	0x349d3da3	2.9288375e-07
133	0x31460aa0	2.8818832e-09
134	0x34a77bd0	3.119626e-07
135	0x3515411d	5.560158e-07
136	0x3210e57f	8.4340845e-09
137	0x3585528f	9.9333e-07
138	0x33513f73	4.871931e-08
139	0x2fda2370	3.967915e-10
140	0x330f23ba	3.3327275e-08
141	0x3492b2b5	2.7324646e-07
142	0x2fb45635	3.2803063e-10
143	0x337b95eb	5.857684e-08
144	0x34c23370	3.6172742e-07
145	0x2f8af5f6	2.527682e-10
146	0x3318e91a	3.5602262e-08
147	0x3338fde9	4.307177e-08
148	0x311e89d6	2.3070377e-09
149	0x343512d2	1.6863785e-07
150	0x3520d335	5.991199e-07
151	0x3035366f	6.592477e-10
152	0x33cc8e46	9.52537e-08
153	0x35210295	5.998093e-07
154	0x302d4c80	6.3045746e-10
155	0x32eb94e1	2.7425303e-08
156	0x334b29e2	4.7302713e-08
157	0x2f93a0c2	2.685337e-10
158	0x32da7220	2.5430438e-08
159	0x35b25c60	1.3288918e-06
160	0x31be522e	5.5390705e-09
161	0x3556919b	7.9933096e-07
162	0x333f43e8	4.4532413e-08
163	0x2f75f030	2.2367952e-10
164	0x328908e1	1.5952937e-08
165	0x348f0bf8	2.6644534e-07
166	0x317e55e6	3.7010692e-09
167	0x34ec0955	4.3965215e-07
168	0x35f28ae3	1.8070826e-06
169	0x30d5128e	1.5503063e-09
170	0x3482991e	2.4325794e-07
171	0x35004b65	4.779343e-07
172	0x312cda0b	2.5153237e-09
173	0x349b4c71	2.8926618e-07
174	0x33da49f6	1.01648695e-07
175	0x30d9e10c	1.585279e-09
176	0x345dde13	2.0663019e-07
177	0x3517c58d	5.653936e-07
178	0x30d47f64	1.5461237e-09
179	0x344f89ed	1.9328554e-07
180	0x3635fb25	2.7117287e-06
181	0x3179d882	3.635734e-09
182	0x352ff3e0	6.5547465e-07
183	0x33f96118	1.1612627e-07
184	0x306aa25e	8.535944e-10
185	0x338cb961	6.552978e-08
186	0x3501b4a8	4.8319134e-07
187	0x31f3eb43	7.098977e-09
188	0x35507d06	7.766797e-07
189	0x34919a4f	2.712063e-07
190	0x3194dc27	4.3323953e-09
191	0x35106f2a	5.3805945e-07
192	0x363dbc40	2.827277e-06
193	0x314b5347	2.9587726e-09
194	0x350eb958	5.3168833e-07
195	0x32e51939	2.6670579e-08
196	0x2f2d9e5c	1.5790519e-10
197	0x31c7eb6c	5.8184266e-09
198	0x3493d6f2	2.7537277e-07
199	0x30045c8e	4.815285e-10
200	0x33232057	3.7980808e-08
201	0x353173c1	6.610608e-07
202	0x30334d69	6.5229827e-10
203	0x3405fcf9	1.2478621e-07
204	0x34bb03b7	3.4834167e-07
205	0x308b1f4f	1.012248e-09
206	0x33ca7173	9.426994e-08
207	0x343181e7	1.6531668e-07
208	0x302a4171	6.193864e-10
209	0x33b074f9	8.216916e-08
210	0x36d6a50a	6.39691e-06
211	0x31aa2eaa	4.9529563e-09
212	0x3568dd5f	8.674887e-07
213	0x351aa181	5.760449e-07
214	0x30c36171	1.4215812e-09
215	0x34384059	1.7159745e-07
216	0x3495deeb	2.7915607e-07
217	0x318b57dc	4.055421e-09
218	0x34cbd04f	3.796326e-07
219	0x34825e8c	2.428318e-07
220	0x317075a3	3.4991465e-09
221	0x34be5e40	3.5458834e-07
222	0x3400aa1b	1.1982813e-07
223	0x30c3d341	1.4248159e-09
224	0x33dda6e3	1.0321471e-07
225	0x351dd15f	5.879173e-07
226	0x2f9b53d1	2.825389e-10
227	0x3316b36f	3.508779e-08
228	0x34b60f31	3.3911195e-07
229	0x31a1ab98	4.7052247e-09
230	0x3513327f	5.483525e-07
231	0x34c14497	3.5998957e-07
232	0x30e9898c	1.6992074e-09
233	0x346b9893	2.1941587e-07
234	0x358ff89c	1.0726685e-06
235	0x3045fe6e	7.202975e-10
236	0x33e0db23	1.04706736e-07
237	0x3529a41e	6.319623e-07
238	0x308d9c9b	1.030361e-09
239	0x34268693	1.5508913e-07
240	0x33680723	5.40232e-08
241	0x301d8083	5.7298893e-10
242	0x33560e74	4.9838903e-08
243	0x344af0ca	1.8900315e-07
244	0x30151212	5.4231564e-10
245	0x339b9049	7.243995e-08
246	0x3603a36a	1.961564e-06
247	0x308fcf44	1.0463528e-09
248	0x341c6043	1.4563652e-07
249	0x3640ff22	2.8758736e-06
250	0x31219a15	2.351617e-09
251	0x34d73a5a	4.0089327e-07
252	0x353406e6	6.7065264e-07
253	0x3119147a	2.227607e-09
254	0x34ae21ad	3.2434528e-07
255	0x3510e978	5.398392e-07

exp_avg f4 [128]
0	0x39e295be	0.00043217646
1	0x394a5100	0.00019294396
2	0x39718bdd	0.00023035654
3	0xb9358dfe	-0.00017314401
4	0xb9862b33	-0.00025590658
5	0x394d61b6	0.00019586724
6	0xb9f1511b	-0.0004602753
7	0x3968c016	0.00022196802
8	0xb90a2b15	-0.00013176755
9	0xb8d3ae1d	-0.00010093695
10	0x38f3495d	0.00011600808
11	0xba05c95d	-0.0005103553
12	0xb998ff12	-0.0002918174
13	0xb8ea1b94	-0.00011163126
14	0xba4719b9	-0.00075950805
15	0xb8899610	-6.5606204e-05
16	0xb955f6bc	-0.00020405179
17	0xb98ba21f	-0.00026632936
18	0x3925ee08	0.000158243
19	0xb981d134	-0.00024760666
20	0x36e89154	6.931057e-06
21	0xb7845091	-1.5773143e-05
22	0x383433e7	4.2963682e-05
23	0xb85e4c1c	-5.2999807e-05
24	0x39d408ea	0.00040442433
25	0x3a23feca	0.0006255923
26	0xba9a1150	-0.0011754427
27	0x391c7e1f	0.00014924303
28	0xba4a1d03	-0.00077100116
29	0xb9be2974	-0.0003627051
30	0x393a9391	0.00017793315
31	0x39d6a560	0.00040940475
32	0xb96dd082	-0.00022679757
33	0x391b55da	0.00014813934
34	0x393b84ef	0.00017883231
35	0x37bbb392	2.2375756e-05
36	0xb9a2fb89	-0.00031086456
37	0x39e54807	0.00043731948
38	0xb93a806c	-0.00017786183
39	0xb98b9197	-0.0002662062
40	0xba6addb9	-0.0008959431
41	0x39618a3c	0.00021509168
42	0xb8ad6bc7	-8.269358e-05
43	0x36948836	4.4266008e-06
44	0xba2b60fd	-0.00065375847
45	0xba8b01fa	-0.0010605447
46	0x39225c16	0.00015483829
47	0x393c5728	0.00017961545
48	0xb929fac5	-0.00016210515
49	0xb983ce69	-0.00025140055
50	0xb8d2dfb2	-0.00010055247
51	0x376e6b07	1.4210825e-05
52	0x3862a1d4	5.4033313e-05
53	0xba64bc06	-0.00087255274
54	0x3726e926	9.948655e-06
55	0xba314431	-0.00067621755
56	0xb80efb84	-3.408968e-05
57	0x39aca3f6	0.00032928557
58	0xb9a3d8f5	-0.00031251428
59	0x39ad670f	0.00033073916
60	0xb94e626d	-0.00019682357
61	0x39640fce	0.00021749662
62	0xba6ff144	-0.0009153078
63	0xba236c2e	-0.00062340766
64	0xba010cea	-0.0004922884
65	0x37e39934	2.713185e-05
66	0x38e9a0db	0.000111402675
67	0x38807d0d	6.126808e-05
68	0xb9039b46	-0.00012550977
69	0x3979d84c	0.00023827067
70	0xb9c24889	-0.00037056606
71	0x39bd83c8	0.00036147074
72	0xba1b45c5	-0.0005923177
73	0xba1df0d2	-0.000602496
74	0xb98eecdc	-0.00027260825
75	0x3923924b	0.0001559939
76	0xba378e8a	-0.0007002136
77	0xb99eeda3	-0.00030313162
78	0x390094e7	0.00012262502
79	0x39bc9a97	0.00035973333
80	0xb9384edb	-0.00017576983
81	0x3939d83f	0.00017723533
82	0x38972f4c	7.209051e-05
83	0xb86a8a61	-5.5918823e-05
84	0xb98b5755	-0.00026577213
85	0xb938f696	-0.00017639468
86	0xb982589c	-0.0002486155
87	0xba0a9999	-0.000528717
88	0xba5f7b8d	-0.00085251854
89	0xba854622	-0.0010167996
90	0x3a038956	0.0005017718
91	0xba52dd8f	-0.0008043879
92	0xba32b080	-0.00068164617
93	0xb90675ea	-0.00012823162
94	0xb79e684a	-1.8883631e-05
95	0x39df2bdd	0.00042566555
96	0xba5567cc	-0.0008140772
97	0xb96fc14d	-0.00022864826
98	0xb915ce56	-0.00014286613
99	0x38699c22	5.569694e-05
100	0x397ad1eb	0.00023920058
101	0xb96b8c2c	-0.00022463565
102	0xb68887cc	-4.0689247e-06
103	0x38e50ff4	0.000109225424
104	0xba16ae93	-0.00057480595
105	0x394bbb0d	0.0001942927
106	0x38f44a44	0.0001164866
107	0x39b77359	0.0003499042
108	0xb8956ca0	-7.125107e-05
109	0xb935301b	-0.00017279426
110	0x3804318a	3.151739e-05
111	0x3a1e727f	0.0006044283
112	0xb994e578	-0.00028399727
113	0x39c05be5	0.0003668956
114	0xb97eb838	-0.00024291954
115	0x399e4300	0.00030186027
116	0x37b62301	2.171239e-05
117	0xba69a53b	-0.0008912866
118	0xb7e95a78	-2.7817892e-05
119	0xb9ba3a9b	-0.0003552035
120	0x39c05629	0.00036685288
121	0xba707a6b	-0.0009173515
122	0xb9cb7586	-0.0003880674
123	0x398ff7fc	0.00027459848
124	0x3930b1b1	0.00016850863
125	0x3920c07b	0.00015330494
126	0x39fd88a3	0.00048357723
127	0x382a671b	4.0627183e-05

exp_avg_sq f4 [128]
0	0x34c8904f	3.73579e-07
1	0x342db445	1.6177462e-07
2	0x336bcf85	5.490394e-08
3	0x347cb62c	2.3535603e-07
4	0x346752bf	2.1543654e-07
5	0x34218585	1.5042868e-07
6	0x34836174	2.4471558e-07
7	0x33a7bcc9	7.810883e-08
8	0x34cc426a	3.8046284e-07
9	0x335fb797	5.2088208e-08
10	0x34517459	1.9506969e-07
11	0x34c1fd89	3.6133522e-07
12	0x3481a418	2.4147516e-07
13	0x33c96693	9.37845e-08
14	0x3553d81e	7.891812e-07
15	0x3307c922	3.1615066e-08
16	0x34873faa	2.519203e-07
17	0x350ef785	5.325931e-07
18	0x34067252	1.2521312e-07
19	0x34881c4f	2.535257e-07
20	0x327bd216	1.4657891e-08
21	0x34645a93	2.1267105e-07
22	0x332030ad	3.7297173e-08
23	0x34a5f3ff	3.0911175e-07
24	0x35466733	7.391092e-07
25	0x35b8bf60	1.3764766e-06
26	0x36a878a9	5.020837e-06
27	0x35422f5c	7.233955e-07
28	0x358d2680	1.0516524e-06
29	0x34b0163b	3.279873e-07
30	0x354adc03	7.5571023e-07
31	0x35645d4f	8.50724e-07
32	0x346abb70	2.1861138e-07
33	0x33e42276	1.0623346e-07
34	0x341e7731	1.4758258e-07
35	0x33136a60	3.4322852e-08
36	0x34bdcf9e	3.5355055e-07
37	0x3478d5db	2.31746e-07
38	0x34ce2fb8	3.840521e-07
39	0x34aaeb97	3.1836382e-07
40	0x359f308a	1.186055e-06
41	0x3475c2a1	2.2888209e-07
42	0x33b6bcab	8.509354e-08
43	0x32901178	1.677175e-08
44	0x350b4f23	5.1896694e-07
45	0x35cbfc90	1.5198184e-06
46	0x3399a198	7.1540114e-08
47	0x337f509c	5.9445128e-08
48	0x33460664	4.610628e-08
49	0x34df2b44	4.1568467e-07
50	0x3400c08d	1.1990979e-07
51	0x33f99a52	1.1623037e-07
52	0x3350066c	4.8434615e-08
53	0x3585ef6f	9.978957e-07
54	0x332d5c01	4.036338e-08
55	0x353302a6	6.668655e-07
56	0x3497e54a	2.8292772e-07
57	0x34f37a61	4.535132e-07
58	0x34996165	2.8569335e-07
59	0x3495d820	2.7910664e-07
60	0x3530480a	6.566994e-07
61	0x3424fb1a	1.536504e-07
62	0x35aba9e9	1.2789943e-06
63	0x355190c2	7.806922e-07
64	0x35100144	5.364602e-07
65	0x32f49113	2.847131e-08
66	0x33bc3091	8.7632664e-08
67	0x33ff0708	1.1875642e-07
68	0x3444d749	1.8332243e-07
69	0x33ef8c84	1.11548644e-07
70	0x3571e1cc	9.0108074e-07
71	0x3489bcbe	2.5655567e-07
72	0x35441711	7.3049256e-07
73	0x352932b1	6.303117e-07
74	0x3489dea5	2.5680234e-07
75	0x335ee1f1	5.1893895e-08
76	0x35639ebb	8.4795073e-07
77	0x34a47d67	3.0638623e-07
78	0x340d35a8	1.3151168e-07
79	0x34480ae4	1.8630413e-07
80	0x33ddb2c8	1.03236346e-07
81	0x33d28219	9.802552e-08
82	0x344f1e39	1.9289372e-07
83	0x34e53a14	4.269683e-07
84	0x34d7a32b	4.016559e-07
85	0x347ea2c5	2.3714809e-07
86	0x34854c81	2.4828844e-07
87	0x35003f3d	4.777574e-07
88	0x356f6500	8.918141e-07
89	0x35d42263	1.5805239e-06
90	0x358150ba	9.634743e-07
91	0x355b6e7d	8.174464e-07
92	0x35112ade	5.407909e-07
93	0x33b71aa4	8.5264475e-08
94	0x34037b12	1.2245098e-07
95	0x34d86c26	4.0311824e-07
96	0x3580314b	9.551089e-07
97	0x359a0153	1.147428e-06
98	0x342c3a14	1.6039877e-07
99	0x31d19ca2	6.1005077e-09
100	0x34970db3	2.813591e-07
101	0x345ad4a2	2.0380187e-07
102	0x344d73c3	1.9134227e-07
103	0x339cff88	7.310797e-08
104	0x34ed96ed	4.4254503e-07
105	0x34fa8e49	4.6669655e-07
106	0x33695513	5.4326915e-08
107	0x348dc304	2.640519e-07
108	0x33a71e9e	7.782113e-08
109	0x33b955bc	8.630329e-08
110	0x33c7aff8	9.298668e-08
111	0x353548fa	6.753395e-07
112	0x348f809b	2.6729398e-07
113	0x350e0061	5.2899674e-07
114	0x3482ae0a	2.4341017e-07
115	0x34ce6aed	3.844829e-07
116	0x33ea5d8e	1.09134916e-07
117	0x356af12f	8.752276e-07
118	0x33681e7e	5.4044442e-08
119	0x34530422	1.965241e-07
120	0x34bf01f9	3.5577958e-07
121	0x3592dd93	1.0942334e-06
122	0x35350578	6.743571e-07
123	0x3489a50b	2.5638323e-07
124	0x3388f863	6.378175e-08
125	0x34322d93	1.6594122e-07
126	0x35479fa6	7.4365596e-07
127	0x32b68812	2.1249466e-08
