results/Test2/Test2/Test2-35852.onnx (onnx, 72639 bytes, 7 tensors)

action_model._continuous_distribution.log_sigma f4 [1, 2]
0	0xbbc1779e	-0.005904152
1	0xbb9dd18d	-0.00481624

action_model._continuous_distribution.mu.bias f4 [2]
0	0x3c418b74	0.011813033
1	0xbb34ab58	-0.002756795

action_model._continuous_distribution.mu.weight f4 [2, 128]
0	0xbcfda392	-0.030961785
1	0xbbec7d14	-0.007217059
2	0x3af4cc74	0.0018676654
3	0xbcf71ab4	-0.0301641
4	0xbbfa2033	-0.007633233
5	0xbc8b7128	-0.01702173
6	0xbc1ab532	-0.009442614
7	0xbcff8f7e	-0.031196352
8	0xbc6ce20b	-0.01445819
9	0x3c59b27a	0.013287181
10	0xbbd04135	-0.0063554295
11	0xbd3df258	-0.046373695
12	0xbc041041	-0.008060516
13	0x3c4aeadf	0.012385099
14	0x3cebd9c3	0.02879036
15	0x3d198450	0.0374797
16	0xbca1a5df	-0.019732414
17	0xbc4920a6	-0.01227585
18	0x3bcc8a2a	0.0062420564
19	0x3d1603c0	0.03662467
20	0xbd0f15a7	-0.03493276
21	0x3a79c211	0.00095275143
22	0x3cf4f8ac	0.029903732
23	0x3c96eadf	0.018422542
24	0xbd1b20c9	-0.037873063
25	0xbd044282	-0.03228999
26	0xbcb3f54c	-0.021967553
27	0x3b96c79a	0.004601431
28	0xbc67017d	-0.014099476
29	0xbd21dfa9	-0.03951994
30	0xbd091428	-0.033466488
31	0xbcee20fd	-0.029068464
32	0xbccc4208	-0.02493383
33	0x3ca65a67	0.02030678
34	0xbb9276df	-0.004469737
35	0x3cd3a855	0.025837103
36	0xbc8f4bf4	-0.017492272
37	0xbcd205bb	-0.025637498
38	0xbc02168e	-0.007939948
39	0x3c5cf1ef	0.013485416
40	0xbb543eef	-0.0032386144
41	0x3c969315	0.018380681
42	0xbc9df614	-0.019282378
43	0x3cd62a47	0.026143206
44	0xbd23611d	-0.039887536
45	0x3c15ffdc	0.00915524
46	0xbca8bd21	-0.020597996
47	0xbc0af5a4	-0.008481417
48	0xbd1bfafb	-0.03808115
49	0xbce9bd3c	-0.028532617
50	0x3c1e7ba2	0.009673031
51	0x3c52ee01	0.012874127
52	0xba9c2b4c	-0.0011914759
53	0xbc267ee2	-0.010162087
54	0xbad5b59c	-0.0016304734
55	0x3b9b1254	0.0047324095
56	0x3c8d016c	0.017212592
57	0xbcd0e9ae	-0.025502052
58	0xbb16e505	-0.002302469
59	0xbce98a53	-0.028508341
60	0x3c33d513	0.010976094
61	0xbc5cec19	-0.013484024
62	0xbc497bce	-0.012297584
63	0xbbae7196	-0.005323599
64	0x3b80ba96	0.003928493
65	0xbc29ef01	-0.010371924
66	0xbc76a3e0	-0.015053719
67	0xbad42937	-0.0016186599
68	0x3d03f351	0.032214466
69	0xba28d562	-0.0006440488
70	0x3cde7930	0.027157396
71	0x3cb8a37b	0.022538891
72	0x3c945c38	0.01811038
73	0xbb6fa5e8	-0.0036567394
74	0xbb5f0ee8	-0.0034035984
75	0xbc066616	-0.00820305
76	0x3c788a8c	0.015169751
77	0x3cc3ae12	0.023886714
78	0xbc08ccff	-0.008349656
79	0x3af0992a	0.0018356193
80	0x3b23daa8	0.0025002155
81	0x3ccc9c50	0.02497688
82	0x3b95dc58	0.004573386
83	0x3c81200e	0.015762355
84	0xbc8ec93f	-0.017429946
85	0x3cf3ec3b	0.02977573
86	0x3c387390	0.011258021
87	0xbceea995	-0.029133597
88	0xbb0f57cc	-0.00218724
89	0xbd0c806f	-0.03430217
90	0xbce5c489	-0.028047817
91	0x3d0ab969	0.033868227
92	0xbca196ff	-0.01972532
93	0x3b952443	0.004551442
94	0x3b08c86d	0.0020871416
95	0xba69d667	-0.0008920193
96	0xbd092ecc	-0.033491895
97	0xbc9d95be	-0.019236442
98	0xbb5669c9	-0.0032716861
99	0x3d0f8cd4	0.035046414
100	0xbcfedf0d	-0.031112218
101	0x3d6b3656	0.057424866
102	0xbb6fc8f9	-0.0036588295
103	0xbce7c1f5	-0.028290728
104	0xbcc9f897	-0.02465467
105	0x3c5508c3	0.013002577
106	0xbca93ba2	-0.020658318
107	0xbcd5d756	-0.026103657
108	0x3bb8bc7f	0.005637705
109	0xbaccc16d	-0.001562161
110	0x3b732bc0	0.0037104934
111	0x3cdf2746	0.027240407
112	0xbc1b18c1	-0.009466351
113	0xbc6ce087	-0.014457828
114	0x3b9f8daa	0.0048691826
115	0x3c96d805	0.018413553
116	0xbc71e23d	-0.014763412
117	0xbbc29290	-0.005937882
118	0xbb1dd0a7	-0.0024080665
119	0xbccefe6c	-0.025267802
120	0x3bb07418	0.005384933
121	0xbc99a6f2	-0.018756364
122	0xbc9af839	-0.01891719
123	0xbcc97f09	-0.024596708
124	0xbcc0fe13	-0.023558652
125	0xbc94d92c	-0.018169962
126	0xbc9d4133	-0.019196128
127	0xbb4bec63	-0.003111624
128	0xbcd1548e	-0.025553014
129	0xbd0427f7	-0.032264676
130	0xbc4601b2	-0.012085365
131	0x3c8e4999	0.017369078
132	0x3c8e388e	0.017360952
133	0x3c20f6fc	0.009824511
134	0x3c3163b5	0.010826995
135	0xbd6378ab	-0.055535
136	0x3c17aeb6	0.009257963
137	0x3b9b6466	0.004742193
138	0xbcc25da7	-0.023726298
139	0x3c57e199	0.013176345
140	0x3a1f044f	0.00060660107
141	0xbc2f7c0d	-0.010710728
142	0xbcbb8b14	-0.022893466
143	0x3d19d45e	0.037556045
144	0x3c014a70	0.007891282
145	0xba94f2ab	-0.0011363825
146	0x3c9ff29e	0.019524869
147	0x3c4000e6	0.011718964
148	0xbc08b37a	-0.008343572
149	0xbc5d33b0	-0.013501093
150	0xbb1e88ce	-0.0024190429
151	0xbc208eef	-0.009799703
152	0x3cdb1373	0.026742673
153	0xbab335ae	-0.0013672614
154	0x3bf89f69	0.0075873625
155	0xbbac72f6	-0.005262728
156	0x3d56713b	0.05235408
157	0xbc7aa81f	-0.015298872
158	0xbbab4595	-0.0052268007
159	0x3ccdc5bc	0.025118701
160	0xbc172641	-0.009225429
161	0x3b335b0b	0.0027367498
162	0xbc428c65	-0.011874293
163	0x3c8b6701	0.01701689
164	0xbc7be903	-0.015375379
165	0x3c4dc128	0.012558259
166	0xbcaa44f6	-0.020784836
167	0x3ce6e2ae	0.028184261
168	0xbb3d6e4a	-0.0028904849
169	0xbc11c3e9	-0.008896806
170	0xbcd5692b	-0.026051125
171	0x3d162450	0.036655724
172	0x3beb2e4b	0.0071771494
173	0xbc051e63	-0.008124921
174	0x3ccb2fef	0.02480313
175	0xbb6fd4ab	-0.0036595266
176	0xbc125528	-0.008931436
177	0x3c892c6b	0.016744813
178	0x3c82c33a	0.015962232
179	0xbca403eb	-0.0200214
180	0xbc974af0	-0.01846835
181	0xbc807ec1	-0.015685441
182	0x3d0b8d12	0.034070082
183	0xbc73cb68	-0.014880039
184	0x3bb339d8	0.005469542
185	0xbc6f9ed2	-0.014625268
186	0xbcacb27b	-0.0210812
187	0xbc9bddff	-0.019026754
188	0xbb6e5e0d	-0.0036371977
189	0xbd328e62	-0.043592818
190	0x3b09e05c	0.002103827
191	0x3cca6b13	0.02470926
192	0xbcacd128	-0.021095827
193	0x3c6d9208	0.014500149
194	0x3b5e3a1c	0.0033909148
195	0xbd3d1cd6	-0.04617008
196	0x3bd10171	0.0063783457
197	0x3d1c1d8f	0.038114127
198	0x3c14ae89	0.009074816
199	0x3c2a4145	0.010391538
200	0x3d5fce83	0.054640304
201	0x3c9eb542	0.01937354
202	0xbca3ee37	-0.02001105
203	0x39477828	0.0001902288
204	0xbd01f1c7	-0.031724717
205	0x3c3c9dd9	0.011512243
206	0x3b48eb35	0.0030657772
207	0x3b9ae8d9	0.0047274646
208	0xbc334153	-0.0109408675
209	0xbc0ccf91	-0.00859441
210	0x3c8bc750	0.017062813
211	0x3bc7b02f	0.006094001
212	0xbc8c4ebd	-0.01712739
213	0xbb79366a	-0.0038026818
214	0xbbad3655	-0.005286018
215	0xbc71f296	-0.01476731
216	0x3c65a3cf	0.014016106
217	0x3ad3698b	0.0016129477
218	0x3bb66fa0	0.005567506
219	0xbb93e4ce	-0.0045133596
220	0x3ca0c312	0.019624267
221	0x3c9bab0a	0.019002456
222	0x3a58eac0	0.00082747266
223	0x3c6234b9	0.013806515
224	0x3c10e0c7	0.008842654
225	0xbd17c06f	-0.037048753
226	0x3d2584ba	0.04040978
227	0xbbab1ad2	-0.005221703
228	0x3cd4d7f9	0.02598189
229	0x3ce313d3	0.027719414
230	0x3bf0bdcb	0.007346844
231	0x3bad242e	0.005283854
232	0x39836759	0.00025063267
233	0xbc972e1b	-0.018454602
234	0xbcf2cbca	-0.02963819
235	0xbc2d1731	-0.010564611
236	0xbc37b57b	-0.011212702
237	0x3c2a04c6	0.010377115
238	0x3c574e3c	0.013141211
239	0xba9c8920	-0.0011942722
240	0x3ce03b1c	0.027371936
241	0xbbc9849a	-0.0061498405
242	0x3c961910	0.018322498
243	0xbcea6165	-0.028610894
244	0x3d2957fe	0.04134368
245	0xbd027939	-0.03185389
246	0xbc02bce4	-0.007979605
247	0xbcb35521	-0.021891179
248	0xb917d6c6	-0.00014480492
249	0xbb742026	-0.0037250607
250	0x3b09033d	0.0020906471
251	0xbc22f304	-0.009945635
252	0x3c676974	0.014124263
253	0xbb7397a7	-0.003716925
254	0xbc898d6e	-0.016791072
255	0x3cd63fca	0.026153464

network_body._body_endoder.seq_layers.0.bias f4 [128]
0	0x3c513f3a	0.012771422
1	0x3c54ae59	0.012981021
2	0xbb63e75e	-0.0034775357
3	0xbc695db1	-0.014243529
4	0xbba04677	-0.0048912126
5	0xbbcd8082	-0.006271423
6	0x3bf12443	0.007359059
7	0x3c108678	0.008821122
8	0xbbf9faf4	-0.007628793
9	0x3c65958c	0.014012706
10	0xbc0cdfa2	-0.00859824
11	0x3ae4f397	0.0017467615
12	0x3c3b88d1	0.011446194
13	0xbc28d733	-0.010305214
14	0xbbf49918	-0.0074645393
15	0xbb4a86a2	-0.0030903001
16	0xbbbc1ed9	-0.005740982
17	0x3c616a9b	0.013758327
18	0x3bb899ec	0.0056335833
19	0x3bcdba58	0.0062783174
20	0x3bd4596b	0.006480386
21	0xbb8496dd	-0.0040463046
22	0xbc607687	-0.013700134
23	0xbc023c91	-0.0079490105
24	0x3bb148ae	0.0054102754
25	0xbc073b8c	-0.008253943
26	0x3b679410	0.0035336055
27	0xbc2cf82f	-0.010557218
28	0x3c2ba29c	0.010475781
29	0xbb97c399	-0.0046314714
30	0x3b426001	0.0029659274
31	0x3c378b28	0.011202611
32	0x3c1b9627	0.009496248
33	0xbb874a89	-0.0041287583
34	0x3bfcf137	0.0077191847
35	0x3c3b987a	0.011449927
36	0x3bf9093d	0.0075999782
37	0xbc49eccd	-0.012324524
38	0x3b88d2dc	0.004175527
39	0xbc32bd3c	-0.010909375
40	0xbc0aa514	-0.008462209
41	0xbbc11f95	-0.0058936574
42	0xbc12e086	-0.008964663
43	0xba8bcdb2	-0.001066616
44	0xbc27a68b	-0.010232578
45	0x3bcb457e	0.0062033525
46	0x3b8e7f1d	0.004348649
47	0x3bb8d4b7	0.005640592
48	0xbc210b78	-0.0098293945
49	0xbc577bb7	-0.0131520545
50	0xbc17ded2	-0.009269433
51	0xbb5d8325	-0.0033800092
52	0xbb38d694	-0.002820407
53	0xbc0e7196	-0.008694073
54	0xbc3bbfdc	-0.011459317
55	0x3bc51ab0	0.0060151443
56	0xbbb39841	-0.0054807966
57	0xbaa218e3	-0.0012367036
58	0xbc328a74	-0.010897268
59	0x3c0e98b9	0.008703404
60	0x3c4049d9	0.011736357
61	0xbbd29c92	-0.006427356
62	0xbb339409	-0.0027401468
63	0x3c907cdd	0.017637664
64	0xba48ad27	-0.0007655196
65	0xbbb8c5cd	-0.005638814
66	0xbb9801fe	-0.0046389094
67	0x3bd6ee18	0.0065591447
68	0xbb557366	-0.0032570004
69	0x3c02808b	0.007965217
70	0xbc00c5c0	-0.007859647
71	0x3bc83e41	0.006110937
72	0x3b18b04c	0.002329844
73	0x3bdc0923	0.0067149564
74	0x3a0a91dd	0.00052860175
75	0xbc9f997a	-0.019482363
76	0xb7e62bd0	-2.7438538e-05
77	0xbbcd0f94	-0.0062579606
78	0x3c28162d	0.010259193
79	0x3c22ebb9	0.009943896
80	0xbc21ea98	-0.009882592
81	0xbc44b222	-0.012005361
82	0xbba5929a	-0.0050528767
83	0xbbc25f37	-0.0059317607
84	0xbb35c725	-0.0027737108
85	0xbb1e1af3	-0.002412495
86	0xbbdd95db	-0.006762249
87	0xbb532d67	-0.0032223107
88	0xbc19d071	-0.009388075
89	0xbade625d	-0.001696657
90	0xbc4a8044	-0.0123596825
91	0xb9ac5a03	-0.0003287346
92	0xbb38c1d3	-0.00281917
93	0xbc4707c1	-0.012147845
94	0xbc202e5f	-0.009776681
95	0xba39a031	-0.00070810603
96	0xbbfd9086	-0.007738176
97	0xbb97a6aa	-0.004628022
98	0x3b411320	0.0029460862
99	0xbb88a6ba	-0.004170266
100	0xbbf8192a	-0.007571359
101	0x3c6eb282	0.014568927
102	0x3a074c36	0.00051611976
103	0xbbefdd75	-0.007320101
104	0xbb668389	-0.0035173616
105	0xbba24dd3	-0.004953125
106	0xbb1f2e76	-0.0024289167
107	0xbbf11312	-0.0073570097
108	0xb9b0da2d	-0.0003373189
109	0xbc1cef3e	-0.009578524
110	0x3c29c8d8	0.010362826
111	0xbc5303e2	-0.012879344
112	0xbc5ffc07	-0.013670928
113	0xbc4c5a8d	-0.012472761
114	0xbc08e53a	-0.008355433
115	0x3b4e3a4a	0.0031467848
116	0x3c347e46	0.011016434
117	0xbc022fc4	-0.0079459585
118	0x3bc83e2b	0.0061109266
119	0x3c14fc13	0.009093302
120	0x3c92958f	0.01789358
121	0x3b612533	0.0034354448
122	0xbc4e7f71	-0.012603627
123	0xbc38dc25	-0.011282955
124	0x3b579cca	0.003289985
125	0x38e48c8e	0.000108980676
126	0x3bfec395	0.00777478
127	0xbc04d7e2	-0.008108111

network_body._body_endoder.seq_layers.0.weight f4 [128, 6]
0	0x3eda4fcd	0.42639008
1	0xbeb636db	-0.35588726
2	0x3f081bff	0.5316772
3	0xbcd4bf96	-0.025970262
4	0x3f7c53f0	0.9856558
5	0xbf7baddb	-0.9831216
6	0xbf1b6dec	-0.607146
7	0xbf9e35d1	-1.2360173
8	0x3d98b411	0.0745622
9	0x3eab8342	0.3349858
10	0xbeb09730	-0.34490347
11	0x3eec65a9	0.4617131
12	0x3ec924d1	0.392859
13	0xbe9cede9	-0.3065026
14	0x3e8ed96d	0.27900258
15	0x3b0ea422	0.0021765311
16	0xbe722f22	-0.23650792
17	0x3e0a1579	0.13484754
18	0xbf747e7d	-0.95505506
19	0x3ea50b2d	0.3223509
20	0xbef2fc91	-0.47458318
21	0x3e76f2a5	0.24115999
22	0xbf3b560f	-0.7317819
23	0xbf472238	-0.7778659
24	0xbe270d98	-0.1631378
25	0x3e8597e7	0.26092455
26	0x3ec34eb3	0.3814598
27	0xbd0f63a0	-0.03500712
28	0xbe18843b	-0.14894192
29	0xbf3f4e04	-0.7472842
30	0xbf2817f5	-0.65661556
31	0xbf17ea8e	-0.5934228
32	0x3db9cb94	0.090720326
33	0x3f099d71	0.5375586
34	0x3ecb0792	0.39654213
35	0x3ebeae03	0.37242135
36	0xbbebc9de	-0.0071956953
37	0xbe2537b8	-0.16134536
38	0xbc21392e	-0.009840293
39	0x3ecd0978	0.40046287
40	0xbcb38f79	-0.021918999
41	0xbe85d513	-0.26139125
42	0xbe3ce90f	-0.1844828
43	0xbe9de47b	-0.3083838
44	0x3ec3585f	0.3815336
45	0xbe5dfa75	-0.21677573
46	0xbbeb2c7b	-0.0071769333
47	0x3deafb33	0.11473694
48	0x3e9431a9	0.28944138
49	0xbf10643e	-0.5640296
50	0xbf713eca	-0.94236434
51	0xbe8edba4	-0.27901947
52	0x3e4e220e	0.20130178
53	0x3db1a746	0.08674483
54	0xbe58a5de	-0.21157023
55	0xbeb47c87	-0.35251257
56	0x3f085c78	0.53266096
57	0xbec2e85d	-0.38067904
58	0x3ecfdd6d	0.40598622
59	0xbe991e7c	-0.2990607
60	0xbee321eb	-0.44361815
61	0x3e148377	0.14503275
62	0xbdc2221e	-0.094791636
63	0x3e67c848	0.22634995
64	0xbf34fdff	-0.7070007
65	0xbe164bd2	-0.1467736
66	0xbe8220d9	-0.25415686
67	0x3f29cb33	0.6632568
68	0x3f22288d	0.63343126
69	0xbe398a6d	-0.18119211
70	0xbe72e03d	-0.23718353
71	0x3e05a52b	0.13051288
72	0x3f442b79	0.76628834
73	0xbeda0ab6	-0.42586297
74	0xbecd0df8	-0.4004972
75	0x3dfad8cd	0.12248383
76	0x3e64cf4f	0.22344707
77	0x3f1ab82d	0.6043728
78	0xbef17c9f	-0.4716539
79	0xbd1d6415	-0.038425524
80	0x3da9abee	0.08284746
81	0x3f3781f3	0.7168266
82	0x3e380bb5	0.17973216
83	0xbedaf361	-0.42763808
84	0x3e151884	0.14560133
85	0x3f3c7a59	0.7362419
86	0xbe5d21b5	-0.2159489
87	0xbe853553	-0.26017246
88	0x3e9bcc5e	0.30429357
89	0x3d3083dd	0.043094505
90	0x3f08be7e	0.5341567
91	0x3f0ce87d	0.5504225
92	0x3f3793ec	0.71710086
93	0xba588ec2	-0.00082610187
94	0xbee38fbc	-0.44445598
95	0x3f10b8e4	0.5653212
96	0xbeb0b0bc	-0.34509838
97	0x3d86a95f	0.06575274
98	0xbf0084e8	-0.502028
99	0xbda931b4	-0.08261433
100	0xbddefeba	-0.10888429
101	0x3f258508	0.64656115
102	0x3e8758ef	0.26435038
103	0x3e5cb475	0.21553214
104	0xbe7751f1	-0.24152352
105	0x3ed980bd	0.42481032
106	0xbdca235d	-0.09870026
107	0xbe306a5d	-0.17228074
108	0xbece74e4	-0.40323555
109	0x3e6c56a1	0.23079921
110	0xbf52b0ee	-0.82301223
111	0xbe08ab14	-0.13346511
112	0xbd221c4a	-0.03957776
113	0xbea6b857	-0.32562515
114	0xbe941951	-0.28925565
115	0xbe2e3fa6	-0.17016467
116	0x3e63e69a	0.22255936
117	0xbea63380	-0.32461166
118	0xbf08bdfa	-0.5341488
119	0x3eee2af3	0.46517143
120	0x3ed9bb89	0.4252589
121	0x3f2158f2	0.63026345
122	0xbe928ae9	-0.28621605
123	0xbf1d5d06	-0.6147007
124	0x3e7b9368	0.2456795
125	0x3dd71492	0.1050197
126	0xbf4f20e0	-0.8090954
127	0xbe9a1235	-0.30092016
128	0xbe998ad8	-0.29988742
129	0x3b305718	0.002690738
130	0xbde455fc	-0.11149213
131	0xbd5d2113	-0.05398662
132	0x3e29e127	0.16589795
133	0xbf685874	-0.9075997
134	0x3f6e41ae	0.9306897
135	0x3e17efe6	0.14837608
136	0x3f514515	0.81746036
137	0x3f2e8099	0.68164974
138	0x3eba6d60	0.36411572
139	0xbe7aa68f	-0.244776
140	0xbdb13985	-0.08653549
141	0xbf08a902	-0.53382885
142	0x3eedaf71	0.46422914
143	0xbeb29df5	-0.34886137
144	0x3f4362b6	0.76322496
145	0x3e1a351d	0.15059324
146	0x3eb177b1	0.3466163
147	0x3f1a7d91	0.6034785
148	0x3e580cec	0.2109868
149	0xbec3550a	-0.38150817
150	0xbe6788b0	-0.22610736
151	0xbf1512ae	-0.5823163
152	0x3ed690ff	0.41907498
153	0xbec2793f	-0.37983128
154	0xbd3ae5e8	-0.045629412
155	0xbeca6b1e	-0.3953485
156	0x3e004c59	0.12529124
157	0x3ed3466e	0.4126467
158	0x3df693f8	0.120399415
159	0x3ef82758	0.48467517
160	0x3e62d3c9	0.22151102
161	0xbeae68b0	-0.34064245
162	0x3e489e27	0.1959158
163	0xbea35dd7	-0.31907532
164	0x3e86738e	0.26260036
165	0xbecf1380	-0.40444565
166	0x3df70be6	0.12062816
167	0xbe1b60ce	-0.15173647
168	0x3dc62c6a	0.0967644
169	0xbe804056	-0.25049084
170	0x3f0bc458	0.5459647
171	0x3ed1f03e	0.41003603
172	0xbdd0b3de	-0.10190557
173	0xbed3c7cf	-0.4136338
174	0x3ebca63a	0.3684557
175	0x3f16e1fc	0.58938575
176	0x3e9dc8d6	0.30817288
177	0xbdef2455	-0.11676852
178	0x3dd7baf4	0.10533705
179	0xbee495ea	-0.44645625
180	0xbc27770a	-0.010221252
181	0x3d9fc8ab	0.07801946
182	0xbda316ee	-0.07963358
183	0xbea202db	-0.31642804
184	0xbe9bd7c7	-0.30438063
185	0x3c4b495b	0.012407626
186	0xbf5c5c9c	-0.8607881
187	0x3ec6f5a3	0.3885928
188	0x3f1bd5ca	0.6087309
189	0xbda23538	-0.07920307
190	0xbe5e8409	-0.21730055
191	0x3d7410e9	0.05958644
192	0x3edacbf5	0.42733732
193	0x3e41a4ec	0.18910569
194	0x3ee3b41d	0.44473353
195	0x3d2e8240	0.042604685
196	0xbeb5c46a	-0.35501415
197	0x3e232d21	0.15935184
198	0xbdc6f39b	-0.09714433
199	0xbe56012a	-0.20898882
200	0xbf26ccb2	-0.6515609
201	0xbec8cb5f	-0.3921766
202	0x3e353c61	0.17698814
203	0x3c17d2e3	0.009266588
204	0x3f4680b8	0.7754016
205	0xbe173c1d	-0.14769025
206	0x3e4a98ee	0.197849
207	0xbd815cf1	-0.06316555
208	0xbe86b157	-0.26307175
209	0xbf483735	-0.7820924
210	0x3d2dcfa2	0.042434342
211	0xbf12b54b	-0.5730788
212	0xbe1a5174	-0.15070134
213	0xbcb04714	-0.021518268
214	0xbe2450bc	-0.16046423
215	0x3ef5e38b	0.48025164
216	0xbe64dce3	-0.22349887
217	0xbe2f7bb2	-0.1713703
218	0xbeadcd75	-0.33945814
219	0xba04a654	-0.0005060185
220	0x3f80e7f8	1.0070791
221	0x3da213f0	0.07913959
222	0x3ca1e1c5	0.019760976
223	0x3ee509c2	0.44734007
224	0x3d9b6cbf	0.07589101
225	0x3e96cbd3	0.2945238
226	0xbf6ac229	-0.91702515
227	0x3f193614	0.5984814
228	0xbeb032b5	-0.34413686
229	0xbe1bdfd6	-0.15222105
230	0x3e19d587	0.1502286
231	0xbd92d458	-0.071694076
232	0x3e8c800a	0.27441436
233	0x3edc02ec	0.4297098
234	0xbe7da15c	-0.24768585
235	0xbe210d9c	-0.15727848
236	0x3f5482ac	0.8301189
237	0x3f2d8ed8	0.6779609
238	0xbea29bfd	-0.31759635
239	0x3ee379bb	0.4442881
240	0xbf232c4d	-0.6373947
241	0x3f99c402	1.2012942
242	0xbe8f88ce	-0.2803406
243	0x3f6af07d	0.91773206
244	0xbe7e51bf	-0.24835871
245	0x3eac41c6	0.3364393
246	0xbe584180	-0.21118736
247	0xbe974609	-0.2954562
248	0xbe7607b2	-0.24026373
249	0xbd6ce44a	-0.0578349
250	0xbe836647	-0.2566397
251	0xbe9252a7	-0.28578684
252	0xbf5dc6d6	-0.86631525
253	0x3e4f07a0	0.20217752
254	0xbc230475	-0.009949793
255	0x3b5056a5	0.0031789925

network_body._body_endoder.seq_layers.2.bias f4 [128]
0	0x3bbe8666	0.0058143614
1	0xbab162eb	-0.0013533508
2	0x3c28bb93	0.010298627
3	0x39e8809d	0.00044346313
4	0xbb1f8d8a	-0.0024345838
5	0xbc35f6c2	-0.011106195
6	0xbbd935f2	-0.0066287452
7	0x3bda9410	0.0066704825
8	0xbbe81c71	-0.0070834686
9	0x3c55787a	0.013029212
10	0xbb3cfaf4	-0.0028836103
11	0xbc42d46a	-0.011891464
12	0xbc0e56bb	-0.00868767
13	0x3bc9f21a	0.006162894
14	0x3c35b5b0	0.011090681
15	0x3c46b8a2	0.012128981
16	0xbc3d746b	-0.011563401
17	0xbbf73a86	-0.0075448183
18	0x3b7c3ca7	0.00384883
19	0x3c6f34cf	0.014599993
20	0xbc64f3b6	-0.013974121
21	0x3b48d34b	0.0030643519
22	0x3c90c1e1	0.017670574
23	0x3ba5bd5a	0.005057973
24	0xbc0915ea	-0.008367041
25	0xbc41c42d	-0.011826557
26	0x3b9b2d2b	0.004735609
27	0x3bba5836	0.005686785
28	0xbb3b3284	-0.0028564045
29	0xbc4d4644	-0.01252896
30	0xbc5253c7	-0.012837357
31	0xbc2ff767	-0.010740138
32	0xbb9784f0	-0.0046240017
33	0x3c3e74be	0.011624513
34	0xbbf2984e	-0.00740341
35	0x3c1c1849	0.009527274
36	0xbb9e39e2	-0.0048286775
37	0xbbd39eff	-0.006458163
38	0xbb967c1d	-0.004592432
39	0x3bff44a5	0.0077901655
40	0xbc228714	-0.0099199
41	0x3bb05d58	0.005382221
42	0xbc1ee45d	-0.009698001
43	0x3bed0c1b	0.007234109
44	0x3b4f8ad4	0.0031668441
45	0x3ba5fc2e	0.0050654626
46	0xbba95974	-0.0051681343
47	0xbc3ca436	-0.01151376
48	0xbc0ca80f	-0.00858499
49	0xbc3db648	-0.011579104
50	0x3c0a65d6	0.008447131
51	0x3b8577ca	0.004073118
52	0x3aa2a09d	0.0012407486
53	0xbc0bdedf	-0.008537023
54	0xbb0d3ebd	-0.0021552288
55	0x3b8b20ad	0.0042458386
56	0x3c1e985d	0.009679881
57	0xbc1947c0	-0.009355485
58	0x3a7912b7	0.0009501385
59	0xbc10b045	-0.008831088
60	0x3c4bf83e	0.012449322
61	0xbb204174	-0.0024453076
62	0xbc1835e8	-0.009290196
63	0xbbd93dd0	-0.006629683
64	0xbb995d6d	-0.0046803267
65	0xbb72b3aa	-0.0037033358
66	0xbc26e9c0	-0.010187566
67	0xb9fab5c6	-0.00047819148
68	0x3c5fb180	0.013653159
69	0xbb1bf4fa	-0.002379714
70	0x3c5428f3	0.012949216
71	0x3c951dc4	0.01820267
72	0x3b29cbb2	0.0025908765
73	0xbbd51ab4	-0.0065034274
74	0xb8e33a70	-0.00010835088
75	0xbc23c64b	-0.009996007
76	0x3bae4d13	0.0053192466
77	0x3c422a04	0.011850838
78	0xbc26e637	-0.010186723
79	0xb98178c0	-0.00024694763
80	0x3ab1bd93	0.0013560526
81	0x3c0e361b	0.008679892
82	0x3b06ab28	0.0020548794
83	0x3c89ce24	0.016821928
84	0xbc1009d6	-0.008791408
85	0x3c4b3c3e	0.0124045
86	0x3c2d5519	0.010579371
87	0xbba5f04a	-0.005064045
88	0x3bcc8bd3	0.0062422543
89	0x3b3aad60	0.0028484687
90	0xbbe879a2	-0.007094578
91	0x3c44fc97	0.012023113
92	0xbc2532eb	-0.010082941
93	0x3b12c578	0.0022395533
94	0x3bc77173	0.0060865222
95	0x3b80881c	0.0039224755
96	0xbc4360bb	-0.011924918
97	0xbbad8ea7	-0.0052965465
98	0xbba5deca	-0.005061959
99	0x3c85aed6	0.01631872
100	0xbc60da11	-0.013723866
101	0x3c75fe5e	0.015014259
102	0xbc0223d5	-0.007943113
103	0xbbce1468	-0.0062890537
104	0xbad01e07	-0.001587809
105	0x3b75ee66	0.003752613
106	0xbb08d36b	-0.0020877968
107	0x3bdaf48f	0.0066819857
108	0x3c0609ca	0.008181045
109	0xbaa85847	-0.0012843692
110	0xbb2b0195	-0.0026093472
111	0x3c8dedf5	0.01732538
112	0xbbcfa8c2	-0.006337256
113	0xbc5463ec	-0.012963276
114	0x3b1f4dad	0.0024307773
115	0x3c98d8e2	0.018658105
116	0xbb26f8ef	-0.0025477966
117	0x38b1864f	8.4650346e-05
118	0xb9b87976	-0.0003518571
119	0xbaf62a89	-0.0018780987
120	0x3c3c106e	0.0114785265
121	0xbc029023	-0.007968935
122	0xbc669691	-0.014073984
123	0xbc42022b	-0.011841337
124	0xba98ddab	-0.0011662742
125	0xbc41a4ce	-0.011819078
126	0x3b74479a	0.0037274123
127	0x3ad1aa43	0.0015996177

network_body._body_endoder.seq_layers.2.weight f4 [128, 128]
0	0xbd75cfb9	-0.060012553
1	0x3d82c834	0.06385842
2	0xbd931294	-0.07181278
3	0xbcb9ea54	-0.022694744
4	0xbc9ab69d	-0.018885905
5	0xbd7fb6bd	-0.062430132
6	0xbda3fbc7	-0.08007007
7	0xbd0da7ee	-0.03458398
8	0xbdea4759	-0.1143939
9	0xbd2ad95b	-0.041711193
10	0xbe1f695e	-0.15567538
11	0x3ced6974	0.028980948
12	0x3db47861	0.08812023
13	0x3df4fe0f	0.1196252
14	0xbcd14538	-0.025545701
15	0xbda960e6	-0.08270435
16	0x3a97a577	0.0011569698
17	0xbb555cd8	-0.003255656
18	0xbd4d2018	-0.050079435
19	0x3e0b3721	0.13595249
20	0x3e0ea289	0.1392919
21	0xbc773ee7	-0.015090681
22	0x3ca1d3fd	0.019754404
23	0x3da811b9	0.08206505
24	0x3d58f2b8	0.05296585
25	0xbe0341c1	-0.12818052
26	0xbd159036	-0.036514483
27	0x3dcf2d4d	0.10116062
28	0xbd88395c	-0.066515654
29	0xbdc92131	-0.09820784
30	0xbd2d8ab9	-0.042368624
31	0xbbd294aa	-0.0064264135
32	0x3bf9b6d4	0.0076206718
33	0xbe3a429b	-0.1818947
34	0x3ca6a5f8	0.020342812
35	0xbd0b0c5c	-0.033947334
36	0xbc149234	-0.009068061
37	0xbdadc3d0	-0.08484614
38	0x3d83d8c9	0.06437833
39	0x3d468b1b	0.048472505
40	0xbd823964	-0.06358603
41	0xbcc946ae	-0.024569836
42	0xbb2d93b8	-0.0026485752
43	0x3d2ad810	0.04170996
44	0xbcd1fd48	-0.02563347
45	0xbc3bc472	-0.01146041
46	0x3d03efd5	0.032211144
47	0x3bf73db3	0.007545197
48	0x3d5da62c	0.054113552
49	0xbce8e553	-0.028429663
50	0xbe0ffc35	-0.14061053
51	0xbd9f4781	-0.0777731
52	0x3d926f86	0.07150178
53	0x3dbdf498	0.09275168
54	0xbdd31c43	-0.10308125
55	0xbdb4b083	-0.088227294
56	0xbdd0fcfa	-0.102045015
57	0x3dd878b3	0.105698965
58	0xbcddc03f	-0.02706921
59	0xbd71c15c	-0.059022292
60	0xbcc52e52	-0.024069939
61	0xbe21a5d2	-0.15785912
62	0x3d26646b	0.04062311
63	0xbbd08209	-0.0063631576
64	0x3e0bdd03	0.13658528
65	0xbd7f0395	-0.062259275
66	0xbe0b847b	-0.13624756
67	0xbdfd6f49	-0.123747416
68	0xbe2fa0c8	-0.17151177
69	0xbd44b32a	-0.048022427
70	0x3c0d9964	0.008642528
71	0x3d743474	0.059620336
72	0xbd799221	-0.060930375
73	0xbd205cc6	-0.039150976
74	0x3e93cc30	0.2886672
75	0x3dc8dd22	0.09807803
76	0x3e05a2c3	0.1305037
77	0xbd056cd1	-0.03257448
78	0x3d23b5bc	0.039968237
79	0x3c9e1571	0.019297333
80	0x3dac1c5d	0.08403847
81	0x3dbc28f5	0.091874994
82	0x3d0bb151	0.03410465
83	0xbdecf373	-0.11569872
84	0x3d77f0ea	0.060532488
85	0xbe3b04dc	-0.18263572
86	0x3dbbe74f	0.09174978
87	0xbda598e1	-0.080858
88	0xbd9c3752	-0.07627739
89	0xbdd13ea8	-0.10217029
90	0xbdeb5246	-0.11490302
91	0xbde1572c	-0.11002955
92	0xbcfb11ca	-0.03064813
93	0xbc8d9d3a	-0.017286886
94	0xbdd122ed	-0.1021174
95	0x3de9d266	0.114170834
96	0x3cfa6882	0.030567411
97	0xbe754aaf	-0.23954271
98	0x3dbc83cb	0.09204825
99	0xbdb79791	-0.08964456
100	0xbcdfe4ab	-0.027330717
101	0x3e4c4672	0.19948748
102	0x3dc3595b	0.095385276
103	0xbdb2406a	-0.08703692
104	0xbe0bf621	-0.1366811
105	0x3d8c5d22	0.06853701
106	0xbe1636a6	-0.14669284
107	0xbe838e61	-0.25694564
108	0x3d8c883c	0.06861922
109	0x3cde33e5	0.027124355
110	0x3ce9bfa8	0.028533772
111	0x3c45836f	0.012055262
112	0x3ca8d4d9	0.020609306
113	0x3dcee02c	0.10101351
114	0x3d90f267	0.070774846
115	0x3d8e636e	0.069525585
116	0xbd891cdc	-0.066949576
117	0xbcbaa565	-0.022783944
118	0xbd9422b4	-0.072331816
119	0x3dba8d55	0.09108988
120	0xbcd2d987	-0.02573849
121	0xbd8763b8	-0.06610817
122	0xbd244b31	-0.04011077
123	0x3e143113	0.14471845
124	0xbcea015d	-0.028565103
125	0x3dfe5dc7	0.1242023
126	0xbe1668c0	-0.14688396
127	0xbd9df35d	-0.077124335
128	0xbdd294c0	-0.10282278
129	0xbcfaf972	-0.030636523
130	0x3d9a4539	0.075327344
131	0xbd996135	-0.07489244
132	0x3d0a9d6a	0.033841528
133	0x3d087e3c	0.03332351
134	0xbd88e79d	-0.06684802
135	0x3e0ed177	0.13947092
136	0xbe398e8c	-0.18120784
137	0x3cdc9994	0.0269287
138	0x3da85d2f	0.08220898
139	0x3ccba77f	0.024860142
140	0x3d6525fb	0.055944424
141	0x3caaa711	0.020831617
142	0x3d80ce0f	0.062893026
143	0x3da6a7e4	0.08137491
144	0xbcf12fbb	-0.029441705
145	0x3da89a1a	0.082325175
146	0xbc32019c	-0.0108646415
147	0xbd8cfe9d	-0.06884501
148	0xbc91720d	-0.017754579
149	0x3d07b738	0.033133715
150	0x3d0a2bd2	0.033733197
151	0x3d5bbac2	0.053644903
152	0x3c9e453b	0.019320121
153	0xbc7f903e	-0.015598355
154	0xbcc22a28	-0.023701742
155	0x3dbb9bfa	0.091606095
156	0xbcef652f	-0.029223053
157	0x392d13a2	0.0001650588
158	0x3d661e0a	0.05618099
159	0x3d0c3f86	0.03424027
160	0xbb25b47b	-0.0025284577
161	0xbd0c6494	-0.034275606
162	0x3e24bf74	0.16088659
163	0x3caa427d	0.020783657
164	0x3caf1e61	0.02137679
165	0xbd688a1b	-0.056772333
166	0x3e306e56	0.1722959
167	0xbc45f5fa	-0.012082571
168	0x3ce35788	0.0277517
169	0xbd574a6f	-0.05256122
170	0x3c2acb88	0.010424502
171	0xbd6ee1b8	-0.05832073
172	0xbe4a4610	-0.19753289
173	0xbda9fc74	-0.08300105
174	0xbd9bd40e	-0.076088056
175	0x3d018012	0.031616278
176	0x3e037ed2	0.12841347
177	0x3e5d0b6c	0.21586388
178	0xbba9e9f7	-0.0051853615
179	0x3d9838f1	0.07432736
180	0xbb5aade9	-0.0033367819
181	0xbd8277d8	-0.06370515
182	0x3d86c7b8	0.06581062
183	0x3e1c15ba	0.15242663
184	0xbc0aac1e	-0.0084638875
185	0xbb7ece2a	-0.0038880208
186	0xbdaf1185	-0.085482635
187	0xbc9aa150	-0.018875748
188	0x3d1d0109	0.038331065
189	0xbe27e1e9	-0.16394772
190	0x3d9f02ad	0.07764182
191	0x3dd423e0	0.10358405
192	0x3c705402	0.0146684665
193	0xba4d024f	-0.00078204734
194	0x3e359ba9	0.17735161
195	0xbd628fa1	-0.055312756
196	0xbde7aecc	-0.11312637
197	0x3e0b3276	0.13593468
198	0xbd18840b	-0.0372353
199	0xbd567499	-0.05235729
200	0x3e5786da	0.21047536
201	0x3cdc56b6	0.026896816
202	0xbe0e0e0e	-0.13872549
203	0xbc92f932	-0.017941091
204	0x3db16956	0.08662669
205	0x3dd881db	0.10571643
206	0x3caeaafb	0.021321764
207	0x3d519a9c	0.051172838
208	0x3c5ee193	0.013603586
209	0x3dc926ad	0.0982183
210	0x3e0689b6	0.1313847
211	0x3c99a6d9	0.018756317
212	0xbd8b96c3	-0.06815865
213	0x3c914371	0.017732354
214	0x3d802a55	0.06258074
215	0x3c7d89c3	0.0154747395
216	0xbbf11eba	-0.007358399
217	0xbdfc2160	-0.12311053
218	0x3cb4c027	0.022064282
219	0x3db34ec1	0.087552555
220	0x3c6fdeb9	0.014640504
221	0x3d3762ea	0.044772066
222	0xbd815994	-0.06315914
223	0xbd0c3b6a	-0.03423635
224	0x3b4b3456	0.0031006536
225	0x3dc324bc	0.09528491
226	0xbcf93b24	-0.030423708
227	0x3a99198e	0.001168059
228	0xbd187c06	-0.037227653
229	0x3cab3aab	0.020901999
230	0xbc32379d	-0.010877517
231	0xbd6e2625	-0.058141846
232	0xbe13fb23	-0.1445127
233	0x3cbed8b5	0.023296693
234	0xbd06ee8d	-0.032942344
235	0xbc29d780	-0.010366321
236	0x3d634a85	0.05549099
237	0xbd6213ca	-0.055194654
238	0x3de0b901	0.10972787
239	0x3d14bd0c	0.0363131
240	0x3db6ba8c	0.089223
241	0x3db98a75	0.09059612
242	0x3d6f0069	0.05835
243	0xbcf2dada	-0.029645372
244	0x3d987b16	0.07445352
245	0x3d93e0ae	0.072205886
246	0x3da80b9e	0.08205341
247	0xbd9e9d31	-0.07744826
248	0x3dba9a78	0.09111494
249	0xbe046d05	-0.12932213
250	0x3d92ef45	0.07174543
251	0x3d01f2c7	0.03172567
252	0x3d85b736	0.06529085
253	0xbd7312a9	-0.059343968
254	0x3df81212	0.12112822
255	0xbd241266	-0.04005661
