results/Test2/Test2/Test2-90087.pt (torch, 429919 bytes, 36 tensors)

network_body._body_endoder.seq_layers.0.weight f4 [128, 3]
00000000: b7da 353f af62 7d3e 9dd8 673e e3fa 10bf
00000010: c051 dcbe a7f3 bcbf f358 be3e 201e 2f3f
00000020: 915b 8a3e 112a e9be bad9 7ebf dca1 c23d
00000030: 5559 d8be 1b66 9a3e 1faf 453e 56d7 d5be
00000040: ba3d 54bf 9e60 06bf 7164 d8be d4bf ef3b
00000050: f33f bcbe e5bc 7a3e 1494 9b3c 9180 2d3e
00000060: f633 f9bd a8da 313f 1406 0dbe 009e 043f
00000070: fb53 003f bd21 b23a cabf 7d3f 1dd7 0c3f
00000080: eb85 80bd a0ae c43e 9dfd 7f3f 993d 08be
00000090: ac26 3f3f c174 5abe 9465 573e 9aca aebe
000000a0: 9094 a4be 01c8 aa3e 1866 4e3e c527 9a3f
000000b0: e98b dc3e b80a 84be 82a7 11be e7d2 54bf
000000c0: 4042 e13d eb83 713f 9fb5 9dbf 4603 b6bd
000000d0: 1a20 de3e c6f8 463e 5071 89bd eaf1 35be
000000e0: b0be 443e 696f 013f 260d 323d a1f3 cfbd
000000f0: 3552 81be c228 9abf ea51 7d3d af41 743f
00000100: f203 9e3e 7da7 e73d caad 87be d996 d33e
00000110: 9a98 a3bc f1d4 e6bd 70ea 8fbe 81ba 7c3e
00000120: b8f6 62bf 750e 1e3e bbce 46be 3623 86bf
00000130: f040 373f 1019 783e 4abc a93f d249 653e
00000140: e069 b73c 11e3 33bf 6296 f93c 01c5 b63e
00000150: e12a cabf d18e 62bf f427 e0be 71b6 853d
00000160: 28ec be3e f134 7b3f b3a1 91bd 0306 aabf
00000170: 4d12 50bf 6ed9 33be 8cdd 43bd 1059 933f
00000180: 6a97 cc3c 2d7d 60bf 0a06 833f 6517 143e
00000190: 43d1 c3be 9cfa 3c3f 2d99 82be 2f07 32bf
000001a0: bf9a 0abf 9b14 a5be 0f6e 2d3f d080 20bf
000001b0: 0f70 943f 73d7 783f 025e f03e f06a 243f
000001c0: a5d6 05bd 68a2 d1be 257c 23bf 4abc 573d
000001d0: fcac 9b3e 2f8c 14bf c20c 103f 7c22 dcbe
000001e0: a77f b7bc ea72 db3d 9939 7dbe df4f e5bf
000001f0: 4636 ebbd 1164 42bb a6c7 30bf 37d4 9bbe
00000200: 96e8 343f b337 b43e 3859 253f e590 be3f
00000210: 7b92 163e 96a9 193f 5188 7fbc e7bd 1cbe
00000220: 5fbd 703f edc6 43bf 1946 a2bd 136f 4f3e
00000230: 2764 ab3d 1bae a6bd 2b23 a9be 1907 313f
00000240: c837 363f 92f3 51be 46b8 3abf 84d8 b1be
00000250: 7c0f 0f3e dd5f a43f aa5e a1be 9393 133f
00000260: c795 2b3e 65ac f3be a443 143f 184a 21bf
00000270: 41f1 08bf f73e 99be 3477 5bbe 64d0 43bf
00000280: b394 d3be 3e30 dfbd 75ca fb3e 268d 25bf
00000290: 08cc a23d bed4 293f 575b 1a3f a130 3ebd
000002a0: 7352 083d 1ce7 573f 7c76 d93d a562 1bbf
000002b0: 996e ca3e 14f7 043e e03f af3e e6f1 62bf
000002c0: 95c5 aebe 13e6 8b3f 65bf 673e c6ac 7c3f
000002d0: 3f01 ffbe 64e8 16be 8cf8 85bf a6db 673f
000002e0: 60f8 0d3e 1e00 28be 16af 16bf 3181 813d
000002f0: 8cc5 7dbf cb49 463f 7355 9e3e 8c43 ecbd
00000300: 3f46 58be eb78 22bf 6730 1f3e a24c 38be
00000310: d88b e1bc d056 3cbe 2c35 983c 374c 09bf
00000320: 19cd 083d 9613 a13e cd82 9ebf 544a 873e
00000330: 7851 d83e 7440 ea3e 0fd9 4dbf d869 bfbe
00000340: 4d9d f63e e95f a33e a5f4 36bd 0f4a 4cbf
00000350: 56bf ddbe d0e2 043f 8c06 1f3e 8451 123f
00000360: 2623 ac3f a062 753e 14a6 8bbe 2d3c c0be
00000370: a0d2 dfbe 491d 13bf a650 fa3d f3c6 11bb
00000380: 8cdb afbe 27a4 38be 142e 5f3f 5150 fabd
00000390: b590 4e3f 887c 2dbe 207a d63e b46f 0d3f
000003a0: 5dc6 673f 5659 e9be f630 1ebe d654 6a3e
000003b0: 9b97 fabe a7b3 babe f7ff 3f3f d19a 23be
000003c0: 8595 4f3f a7fb 5abf 64ee 983e 8e93 00bf
000003d0: 0407 a83d d0fb b2bd f431 debd fabc 43bf
000003e0: cbf6 c03e f09c acbe 2a64 f5be 6d78 6ebd
000003f0: 0336 0b3f 5f72 9dbe 0b07 533f b616 a83e
0.7103686 0.24744676 0.22641225 -0.5663282 -0.4303112 -1.4761857 0.37177238 0.6840534
0.27022985 -0.45539907 -0.99550974 0.095035285 -0.42255655 0.30156025 0.19305085 -0.4176585
-0.8290669 -0.52491176 -0.4226413 0.007316569 -0.3676754 0.2448612 0.018991508 0.16943575
-0.12168114 0.6947427 -0.1377185 0.5180359 0.50128144 0.0013590377 0.9912077 0.55015737
-0.06275543 0.38414478 0.9999636 -0.13304748 0.74668384 -0.213336 0.21034843 -0.34138948
-0.32144594 0.33355716 0.20156133 1.2043387 0.43075493 -0.25789428 -0.14224055 -0.8313431
0.10998964 0.94341916 -1.2321051 -0.08887343 0.43383867 0.19430837 -0.06711066 -0.17768064
0.19213367 0.50560623 0.04346957 -0.101538904 -0.2525803 -1.2043688 0.061845697 0.95412725
0.30862385 0.11311243 -0.26499778 0.41326025 -0.019970227 -0.11271084 -0.2810855 0.2468052
-0.8865771 0.15435202 -0.19414799 -1.0479496 0.7158346 0.2422831 1.3260586 0.22391441
0.022389352 -0.7026835 0.030467216 0.35697177 -1.5794336 -0.8849917 -0.43780482 0.065289386
0.37289548 0.9812766 -0.0711092 -1.3283085 -0.81277925 -0.17563412 -0.047818705 1.1511555
0.024974544 -0.87691003 1.0236218 0.1446205 -0.38245592 0.738199 -0.2550749 -0.6954221
-0.54142374 -0.32242283 0.6774606 -0.6269655 1.1596698 0.9720375 0.46946722 0.64225674
-0.032675404 -0.4094422 -0.63861305 0.0526698 0.30405414 -0.58026403 0.56269467 -0.4299506
-0.022399737 0.107152775 -0.24729003 -1.7915 -0.11484961 -0.0029661695 -0.6905464 -0.30435345
0.706674 0.35198745 0.6458926 1.4887968 0.14704315 0.6002439 -0.015596465 -0.15306817
0.9403896 -0.7647541 -0.07923526 0.20257215 0.08368712 -0.08138677 -0.33034644 0.69151455
0.71178865 -0.20503071 -0.7293743 -0.347355 0.1397075 1.2841755 -0.31517535 0.57647055
0.16756354 -0.47592464 0.5791571 -0.63003683 -0.53493124 -0.2993085 -0.21432191 -0.76489854
-0.41324386 -0.10897873 0.491779 -0.646685 0.07949072 0.66340244 0.60295624 -0.046433095
0.033281755 0.8433702 0.10618302 -0.60697395 0.39537504 0.12984878 0.3422842 -0.8865036
-0.34135118 1.0929588 0.22631605 0.9870113 -0.49805638 -0.14737087 -1.0466475 0.9056953
0.13864279 -0.16406295 -0.5886091 0.063234694 -0.9912956 0.7745635 0.30924568 -0.11536321
-0.21120547 -0.63465756 0.15545808 -0.17997983 -0.027532503 -0.18392491 0.018580042 -0.5363192
0.03339872 0.31460255 -1.2383667 0.26423895 0.42249656 0.457523 -0.8040933 -0.3738544
0.48166886 0.3190911 -0.044666905 -0.79800504 -0.4331004 0.5190859 0.15529841 0.5715563
1.3448226 0.23963404 -0.27275145 -0.3754591 -0.43715382 -0.5746656 0.12222414 -0.0022243827
-0.34347188 -0.18031369 0.87179685 -0.122223504 0.80689555 -0.16942036 0.4189005 0.5524857
0.90537053 -0.4557597 -0.15448365 0.22883925 -0.4894379 -0.3646519 0.74999946 -0.15977027
0.81087524 -0.8554024 0.29869378 -0.5022515 0.08204463 -0.08739436 -0.108493716 -0.7646023
0.37688288 -0.33713484 -0.47927982 -0.058220316 0.5437929 -0.3075132 0.8243262 0.32829827

network_body._body_endoder.seq_layers.0.bias f4 [128]
00000000: cf7e eebb 4ac8 8d3c dba9 153d 95b5 9abc
00000010: 30e6 cfba d5ad 533c 38ad 97bc bf17 d13c
00000020: a0af 92bc c88b 703d e907 9ebd 4f06 863d
00000030: 9a93 813d 5e52 d639 9a6b 0c3c fc85 febb
00000040: caab 77bc b361 d0ba 1835 983c a9b5 08bd
00000050: b4bd 8dbb 3f9f 983c a274 c23b aea6 1f3b
00000060: da19 fabb 338d e2bc e61b 74bd b9fa 33bc
00000070: 497f 113d c175 cbbb 39d2 6ebc a398 eb3c
00000080: 0dea 073c 903e f63c c3fb 57bc fe08 973c
00000090: 6076 8abd 3995 253d 19a5 cc39 aa01 fdb9
000000a0: 9f03 23b8 af06 a9bc 22db a9bc 07cf 843b
000000b0: 7e90 13bd 24dd c6bc db04 44bb cf09 bcbb
000000c0: 3906 8a3d 1039 283b 68eb 4bbc aaee b3bc
000000d0: 4e4f 56bc 9559 fbbc b1e7 863d 6266 7dbd
000000e0: 2490 9e3b dc24 febb 28da f53c d25b 743c
000000f0: 3ca3 103d b733 643c 9fce 603c c7ea 1c3d
00000100: e47c f0b9 5791 223c 64c5 073d 4399 1f3d
00000110: c13d 7cbd c899 5eb7 924d cfbc a8c0 533d
00000120: d7f1 c93c 612a 8b3c 1ff2 643c 77dd 003d
00000130: 69af 833d 6033 023c 5c96 f63c 9ff3 ba3b
00000140: 671b 883d 5e1e 30bd 78a3 393c 4bf9 a83b
00000150: 6877 cd3c 290e 05bd 95a4 573d bc7e 93bc
00000160: 0be2 afbc 3401 bbbb 60ec 84bd d3d5 243d
00000170: 47c4 773c f740 163d 326e d1bc c536 60bd
00000180: 3e77 b539 a000 2dbd d864 1fbc 41f4 403b
00000190: dcfd 5b38 9dd3 e33c e46d 8e3b 8421 cb3c
000001a0: dd94 2cbd 391d 513c fda3 ecbc 7e69 a13d
000001b0: 8cc3 363b 27db 443d da96 363d 8eb2 1f3d
000001c0: f13e 1dbc d074 40bc 9405 893d 57a9 fe3c
000001d0: f9fa 6c3c d18e 903c 4b6e b9bb 92f5 43bc
000001e0: 0d66 7cbc d6f0 9c3d d89a 2d3d fd70 8c3c
000001f0: 935a 3bbd 60e0 653c 1b15 773d 39bd d9bc
-0.0072783004 0.01730742 0.03653894 -0.018885413 -0.0015861448 0.012919863 -0.018515214 0.025524018
-0.01790601 0.058727056 -0.077163525 0.06544172 0.06326981 0.0004087863 0.008570576 -0.007767437
-0.015116641 -0.0015898257 0.018580005 -0.03337637 -0.004325593 0.018630622 0.005934314 0.0024360823
-0.0076324763 -0.02765522 -0.05959692 -0.01098507 0.03552178 -0.0062091057 -0.014576488 0.028759306
0.008295548 0.030059129 -0.013182583 0.018436905 -0.067608595 0.040425513 0.0003903292 -0.0004825716
-3.88656e-05 -0.02063307 -0.020734373 0.004053 -0.03602647 -0.02427537 -0.002991012 -0.005738474
0.06739468 0.0025668778 -0.012446262 -0.02196439 -0.013080431 -0.030682364 0.065871604 -0.061865218
0.0048389602 -0.007755859 0.030011252 0.01491447 0.035311922 0.013928345 0.013721137 0.03830984
-0.00045869418 0.009922347 0.03314723 0.03896452 -0.06158233 -1.3268036e-05 -0.025305543 0.051697403
0.024651451 0.016987981 0.013973742 0.031461205 0.06429941 0.007946819 0.030100994 0.0057053114
0.066458516 -0.04299771 0.011330478 0.005156671 0.025081351 -0.032484207 0.052647192 -0.018004768
-0.02147009 -0.0057069305 -0.064903975 0.04024298 0.01512248 0.03668305 -0.02556524 -0.054739732
0.00034611853 -0.042236924 -0.009728633 0.0029442462 5.2450094e-05 0.027810866 0.004346596 0.024796255
-0.042134155 0.012763315 -0.02888679 0.07881449 0.002788755 0.048060562 0.044577457 0.038988642
-0.009597526 -0.0117466 0.06690517 0.031086607 0.014464133 0.017646225 -0.0056589 -0.011960404
-0.01540519 0.07663123 0.042384 0.01714372 -0.045740675 0.014030546 0.060322862 -0.026579486

network_body._body_endoder.seq_layers.2.weight f4 [128, 128]
00000000: c007 513d bf5a 673d f918 ed3c 80f6 52bd
00000010: 1600 ffbb 4aff e03d 14e1 e2bd 73ec 4d3d
00000020: d424 dc3c 35ad 183c b05b 623e c2c4 b13d
00000030: 7ac5 1c3e 7dae 2e3b 47cb 8bbd f283 833d
00000040: b5dd d73c 0318 933c 9dbc 363c 1124 99bc
00000050: 0c1b 19bd d8be 0a3e 9cdc a4bd cb6d 393d
00000060: 3135 363d 9661 1cbd 332c e63d 4b28 99bd
00000070: 912b bbbd 2feb 343e 3dc6 fc3c b1a1 df3b
00000080: b011 3cbe 2b0a 833a dbd3 423d dfb7 c5bd
00000090: 41b2 2cbd b079 9e3d df66 65bd 7d51 293e
000000a0: 99a7 ee3d 965c 693d ce29 7b3d 75e4 04bd
000000b0: d5cb 51be a413 bebd f4b6 bd3d e268 5d37
000000c0: 4df0 5a3e 942a 1fbd 1648 253d 8020 adbd
000000d0: 7e74 14bb 240b 84bd d40d 523d a89d 043e
000000e0: b23b 09be c50d a83c 8bd6 c93d f1f7 5f3d
000000f0: 7c6c 82bc 5ce6 143d f2d0 b43d a294 273d
00000100: 95ea d03d 6bb1 633c cbda d43d f1dc dbbc
00000110: 4215 a63d 896e 0fbe 67d6 a8bc 9351 37bc
00000120: e72b b93d d5b8 42bd a5f1 e03c 4179 053d
00000130: 89f4 153e ba3e 333d 7450 2b3e ea8e 19bd
00000140: 0d52 b2bd 1ec2 7abd 5761 eabc 7f13 bc3d
00000150: 2150 363e 817b cb3d 5910 c63d 4fad 3f3d
00000160: f9cb 01be 64d1 1fbe 045c 5b3d bbc9 d93c
00000170: bba2 383e d683 a83c 91ce a03d 546d a93d
00000180: 014c 483d 2b3c cebd 0ae8 a13c 96cd 3d3e
00000190: dabb 8abd 35bc 243e e6a8 353d 5873 373e
000001a0: 9463 18be 032c af3d 609c 11bd 2383 4c3e
000001b0: bb7f ca3d 773d 863e e6e9 073e 382b bf3d
000001c0: 8384 74bd 80c1 963d 4b5b 013e 6579 373d
000001d0: c8d0 f43c b9d1 203e 3408 83bd 5a70 90bd
000001e0: 7d57 293d 9ce6 2abd 8af8 a939 4d70 09bd
000001f0: 922d 953d 595c 113d 8207 d13d 77c1 b7bd
00000200: 5718 02be 0a27 f1bc 1d46 cf3d c06d 8b3d
00000210: ebae 8c3d 6b71 903d f8dc c23d 418e 1b3d
00000220: 0855 dabd d4b9 7fbd 9c1d 13bd da81 2bbe
00000230: 0401 123c 9478 4fbd 8e3f 0a3d 6ac8 42bd
00000240: 80e6 10be 6997 aabb aff2 173d 3c53 ba3d
00000250: 9615 babd 3412 58be b025 5abc ec80 ccbd
00000260: 8316 70bd 8e8a 263e 09ec d03c 31b5 cebc
00000270: 6984 ca3c 99f7 b3bd f734 e8bb a60b 223d
00000280: dbc7 49be e9ff a2bd a205 d9bb c0d0 013e
00000290: 78da 5d3d ac0f 513d 0f80 423c 3750 82bd
000002a0: 94f3 38bc a8b7 963d dc53 d93d 16ac aebc
000002b0: ef66 c6bd 1eee 5b3c 577c 823c 990f 1f3e
000002c0: 5f51 f33c 77d9 cfbd 7bb9 03be c127 e63d
000002d0: 2807 8abc c70c 37bd 9a0e a1bd 0d9f 0abd
000002e0: cf20 49bd 673d c7bd 3953 e3bc 230f 453d
000002f0: 00ea e0bd 86d8 a43d 1df5 95bd afaa 38bd
00000300: 14de 9ebd b81d 983c 5392 a93c 025f e2bd
00000310: 4ceb 0fbe 5862 09bc ccf7 93bd 7e7d 6f3c
00000320: 5cc6 0d3d ca9f 983d cdf4 df3d 90c7 dbbd
00000330: 4524 173e de6b 28be 7950 713e fac0 5a3e
00000340: eae8 983c 351e c8bd 5179 09bc 33cb a03d
00000350: dc30 4cbe d44e 01be f1dd e9bd 1b2b adbb
00000360: 5ee2 eabb 19cb cfbd d190 a23c 13ad 5cbd
00000370: d90c 8ebd 0cdd 3a3d 89eb 683d bc8a f7bd
00000380: 9128 acbd cffb ec3d 6d48 253e 0711 433d
00000390: 6899 063e f747 4a3d c382 1bbd f99d b6bc
000003a0: 0acf 25be 3401 9a3d 42cb f0bd 314e bfbc
000003b0: fbec d53c 4764 6bbe d13d 0b3d 68b6 09bc
000003c0: 5b1f 473d 3393 afbb 2a57 243d 2501 1fbc
000003d0: bef1 ffbd 6bad e03d aac6 90bd 18d0 493e
000003e0: 9428 343e 336b a0bd 8773 38bc 0c61 1ebd
000003f0: 36f4 38be a265 a7bd bc57 38bd 1bd4 fc3d
0.05103278 0.056483027 0.028942572 -0.051504612 -0.0077819927 0.109861925 -0.110780865 0.050274324
0.02687303 0.0093186395 0.22105289 0.08680107 0.15309706 0.0026654296 -0.068258815 0.06421651
0.026350835 0.017955786 0.011153367 -0.018693956 -0.03737931 0.13549364 -0.080498904 0.045270722
0.04448432 -0.038179003 0.11238899 -0.074783884 -0.09139169 0.1766784 0.030856246 0.006824695
-0.18366122 0.0009997537 0.047565322 -0.09654211 -0.042162184 0.07738054 -0.05600631 0.16534992
0.116530605 0.056973062 0.061319165 -0.032444436 -0.20487912 -0.0928109 0.09263411 1.3197046e-05
0.2138073 -0.038858965 0.04035195 -0.084534645 -0.0022652443 -0.064474374 0.05128272 0.12950766
-0.13401678 0.020514378 0.09855374 0.054679815 -0.01592087 0.0363525 0.08828916 0.04091323
0.10200993 0.01389728 0.10393294 -0.026838752 0.08109523 -0.1400701 -0.020610048 -0.011188882
0.09041577 -0.04753955 0.027458975 0.03258634 0.14644064 0.043760993 0.16729909 -0.03748981
-0.08707056 -0.06122028 -0.028610868 0.09183406 0.17804004 0.09935666 0.09671087 0.04679614
-0.12675466 -0.1560722 0.05355455 0.02658545 0.18030827 0.020570677 0.078518994 0.08272806
0.048900608 -0.1007007 0.019763965 0.18535456 -0.06774111 0.1608742 0.044350527 0.17915094
-0.14881736 0.085533164 -0.03554952 0.199719 0.09887644 0.2621877 0.13272819 0.09334415
-0.059696686 0.07361126 0.12632482 0.044793505 0.02988471 0.15705003 -0.06398049 -0.07052679
0.0413432 -0.041723832 0.00032419368 -0.033554364 0.072840825 0.03548846 0.1020651 -0.08972447
-0.12704597 -0.02943756 0.10120795 0.068080425 0.068693005 0.07052883 0.09514803 0.03797746
-0.1066075 -0.06243308 -0.03591691 -0.16748753 0.008911375 -0.0506521 0.033752017 -0.04755441
-0.14150429 -0.005206038 0.037096675 0.09097907 -0.090861484 -0.21100694 -0.013314649 -0.099855274
-0.05861522 0.16263792 0.025503175 -0.025232883 0.024721341 -0.0878746 -0.007086392 0.03956189
-0.19705145 -0.07958967 -0.006622986 0.12677288 0.054163426 0.051040336 0.011871352 -0.06362956
-0.011288542 0.073592484 0.10611698 -0.021322291 -0.09687602 0.013423471 0.01592843 0.15533294
0.029701887 -0.101489 -0.12863724 0.11238051 -0.016849115 -0.04468992 -0.07864113 -0.03384309
-0.049103554 -0.097285084 -0.027749645 0.04811014 -0.10982132 0.08049111 -0.07322142 -0.04508465
-0.07757202 0.018568859 0.020699656 -0.110532776 -0.14054602 -0.008385263 -0.07224998 0.014617322
0.034613 0.07452352 0.10935364 -0.10731423 0.1475993 -0.16447398 0.23565854 0.21362677
0.01866575 -0.097713865 -0.0083907405 0.07851257 -0.19940513 -0.12627727 -0.11419285 -0.0052846796
-0.0071680984 -0.1014616 0.019844444 -0.053875994 -0.06936044 0.045620963 0.05686525 -0.12087008
-0.08406175 0.11571466 0.1614091 0.04762366 0.13144457 0.049385037 -0.0379665 -0.022292124
-0.1619226 0.07519761 -0.11757518 -0.023352714 0.026113978 -0.22987472 0.0339945 -0.008405305
0.048613887 -0.0053581237 0.04012219 -0.009704863 -0.124972805 0.10970577 -0.07069142 0.19708288
0.17593604 -0.07832947 -0.011258013 -0.03866677 -0.18061909 -0.08173682 -0.045005545 0.123451434

network_body._body_endoder.seq_layers.2.bias f4 [128]
00000000: ec01 243d 401f 263b 9819 6abb adf2 fbbb
00000010: 8653 78bb 53ce 843c bf95 4ebb 73fa 5e3d
00000020: 6359 ec3c 3270 523c c62d c83c c6dd 333a
00000030: 67f0 403d b861 70bb 163c 303d 8535 523c
00000040: 6718 8cbc a16f 5e3d 46d1 543d a7c9 9b3c
00000050: f1af 4b3d 9191 253c fb07 84bb a16b 18bc
00000060: 11b1 0b3b 1c61 4dbc 93bf 583c 5894 5bbc
00000070: e59c 923c 6112 37bc be0a 0f3d a367 5ebb
00000080: 446b 453b 86fc 2abc 8f77 493c 620d a83c
00000090: 8fe0 b43b 22e2 503d 3727 5d3b 4c79 163c
000000a0: a9cc 93bb 53c8 b83c c010 153c 6401 4b3c
000000b0: e816 95bd a85d a23b fbba 9a3c 9802 07bc
000000c0: 2df6 7abd acb8 24bc 9bfe f33b 0281 443a
000000d0: 7dd9 35bc 8fc6 683c f222 3b3c 397b 153d
000000e0: 4214 5d3d 35eb 2cbc 1157 f73b 1b06 823d
000000f0: 05d3 323d 89c4 2abc 1fd8 993d 9b8f 043d
00000100: ead8 303b e06f a639 4461 983c f1d1 83bd
00000110: 2cdb db3c f321 883b 35ff f2bc 92a0 3f38
00000120: a8a1 353c 70ab 3c3d 5270 eb3c 7e7f b73c
00000130: 9451 5a3c 9adf a23a df39 b6bc f489 61bc
00000140: 6ef1 cfbc ddaa b53c c992 633d ffd2 2a3d
00000150: 9b26 fa3c 4f4b 383c 5952 043d c592 2e3d
00000160: be40 35ba 7c61 49bd 6c0e 163c 1cab bfbc
00000170: d4a7 d63b 326e ba3c 71b4 193c 00c5 053d
00000180: 7c9b 99bc 6975 f9b9 401d f83c f244 ed3c
00000190: 67a2 893d 2c1c 91b6 73fb 1fbd dc26 87bd
000001a0: 9a44 753d 9d1b 373c 70e5 9cbc 3e52 32bd
000001b0: 7a8c 033d 1fec 853c af41 49bb 1151 4dbc
000001c0: 6312 53bc 679d 43bc 3a9f 9f3c c015 433c
000001d0: 067d ea3b b53f f9b9 e25b b0bc 7f55 78bc
000001e0: 92d0 1bbc d3ba dbbb 062d 393c 00fe b63c
000001f0: b03f 2dbc ef6c a33c 2abc acbb 46a6 e23c
0.040040895 0.0025348216 -0.0035720821 -0.0076888413 -0.003789158 0.016211664 -0.003152236 0.054438066
0.028851217 0.012844132 0.024435889 0.0006861355 0.047104266 -0.0036679339 0.043026052 0.012830143
-0.01710148 0.054305676 0.05195739 0.019017054 0.049728338 0.0101055065 -0.0040292717 -0.0093030045
0.0021315257 -0.01253536 0.013229269 -0.013402067 0.017897079 -0.0111738155 0.034922354 -0.0033936284
0.003012375 -0.010436183 0.012296571 0.020514194 0.0055199335 0.050996907 0.0033745298 0.009184193
-0.0045104814 0.02255646 0.009098232 0.012390468 -0.0727976 0.0049550124 0.018887987 -0.0082403645
-0.061269928 -0.010053795 0.007446123 0.00074960303 -0.0110992165 0.014207496 0.011421906 0.036494467
0.053974397 -0.010554125 0.007548221 0.06348821 0.043658275 -0.010422834 0.07511925 0.032363515
0.002698476 0.0003174534 0.018601067 -0.064365275 0.026837908 0.0041544377 -0.029662708 4.568749e-05
0.011085905 0.046061933 0.028740082 0.02239966 0.013325114 0.0012426258 -0.022244392 -0.013765801
-0.025383677 0.0221762 0.055559907 0.041705128 0.030535987 0.011248424 0.032305095 0.04262044
-0.00069142494 -0.049165234 0.009158712 -0.023397021 0.0065507684 0.022757623 0.0093813995 0.032658577
-0.018750899 -0.00047580458 0.030287385 0.02896354 0.06720429 -4.3246164e-06 -0.03905816 -0.06599209
0.059879877 0.011176017 -0.019152373 -0.043535464 0.03211639 0.016347943 -0.0030709316 -0.012531535
-0.012882802 -0.011939383 0.019485105 0.011907041 0.0071560172 -0.00047540446 -0.021528188 -0.015157103
-0.009510176 -0.006705621 0.011302238 0.022337914 -0.010574266 0.019949405 -0.0052714543 0.027667176

action_model._continuous_distribution.log_sigma f4 [1, 2]
00000000: 0709 cbbb 4fdd a2bc
-0.0061961445 -0.019880919

action_model._continuous_distribution.mu.weight f4 [2, 128]
00000000: 2511 b0bc 106b bd3c a794 2bbb e436 da3c
00000010: f871 623c ca88 aebc 88c9 9f3b 4038 6ebb
00000020: 8e61 063b 3f65 03bc 335d 1dbd d970 b03c
00000030: fa76 3fbd d936 93b9 cb13 88bc 3716 6fbc
00000040: cf35 063c 0a8c e9bc 2a99 3dbd 919b 15bc
00000050: b5de 2bbd 372b 9c3b f5e7 513c b6c6 bf3c
00000060: 1703 2bbd 2bcc dd3c 881c a3b8 2bf0 d63c
00000070: 63a2 07bd c037 2e3d c434 1cbd 51a0 ec3c
00000080: 2604 b4bc 1b03 a83c 68c1 14bb 1d93 91bb
00000090: b55c c43c 9b33 e1bc 9a3c e0bb 59f5 efbb
000000a0: 2f25 203c 9bdb dcbc 93f0 043d efc8 cfbc
000000b0: 4b09 0b3d 14cb 3cbc dcc1 0abd 13da 2ebb
000000c0: 24cf 4a3c 3271 7c3d 3448 09bc 9c43 35ba
000000d0: d1cd 3239 15ae 48ba 8b74 e2bc 8cfd d6bc
000000e0: d58a 0dbd dd52 d6bb 95ea b43c 01d1 c1bc
000000f0: 8af8 2dbd db8d 12bb 9230 bbbd 354a 173b
00000100: 45d4 f5ba 7fc1 18bd e57d 9939 9671 153d
00000110: 97a5 5e3c acf7 93bb b692 6e3c 39a9 5f3b
00000120: 02c0 a1bc 6508 29bd f1bf 1dbd c046 1fbd
00000130: 9796 af3c ed94 0ebd 170c 2f3c 1a9c 603c
00000140: 0a4c 203c 4b33 b8bc b06b 28bd b04d 04bd
00000150: e97c 5ebc 82e7 1fbc 6a9f eebc a132 b339
00000160: 33bf b6bc 6909 4b3c 6083 aebc 8090 acbc
00000170: 17cf 24bd 9b3a 03bd ac42 583c 2c68 45bd
00000180: 5e5d 6c3c e0b3 60bc 4421 e0bc a809 30bd
00000190: ad89 5cbd c09b 9fbc 3285 c53b c4ca 013d
000001a0: c970 22bd 47d1 85bc c00c a2ba 89e7 a53c
000001b0: 0dbe 913b 3d24 da3b abcb f8bb 4a14 573d
000001c0: 4823 853c f142 83bb 6012 86bc 40a9 63bb
000001d0: 10a2 13bd d181 4b3c 9eac 343c b0c5 8f3c
000001e0: 1ee2 213c cc6f ec3c eef3 003c 5588 ffbc
000001f0: aa43 9a3b 7743 923c 1234 003d 625a 22bd
00000200: 67ad 613b 34cf 363c f76b c8bc abf2 0dba
00000210: 3d00 7e3b 4846 ad3c e7bb d43b 58e9 ea3c
00000220: 8ff9 e23b 344b 223c 19f9 3b3c c3f1 763c
00000230: d7ce 4ebc e94c ddbc ccf5 2d3c 0169 093d
00000240: 6925 c5bc dacd 233d b4e8 d8bc 8652 093d
00000250: f122 ed3b 83d2 1d3c 1ea7 e93a 0d27 2cbc
00000260: 4d17 30bc 6b85 23bc fb75 323c df86 c73a
00000270: 4090 dabb cc27 a6bc 9b0c 873c 6ac0 883b
00000280: 7a83 fdbc c895 ccbc 01a9 ae3c 25aa 073c
00000290: 3f97 f93c e067 003c c0cc 8e39 496e 0c3c
000002a0: daaf ad3b 1b5f 503c 91a2 df3c 15b7 d43a
000002b0: ddf6 e2bc 7ca2 31bb c821 3c3b 3a11 abbb
000002c0: 68a7 30bc 6ee8 093a d537 7f3c 1b6e 013b
000002d0: 21d8 02bc 716e 563c 5558 0dbd 60dd ca3c
000002e0: 5d46 14bc c623 b6bc 32d9 cd3c a4b8 933b
000002f0: 85df 05bc 63fe 99bb 9fb9 e93c 1309 ff3c
00000300: 2b63 bf3a bcba 8cbc 882c 043c e0de dabc
00000310: 2d87 253d 2fa3 133b ae65 97bc 45ce 333b
00000320: 350f 0a3c 1e3c aa3c 9186 fcbc e09c 8b3c
00000330: fdc8 f03c aa93 7ebc cb8c c9bc 2fed d83b
00000340: 56fe acbc c8f3 983c 0782 8a3c 66ec 9a3c
00000350: 63f4 823c 4342 02bb dd0d 4fbc 64c1 c33c
00000360: 3929 ccbc a0bd e7bc f408 8b3c 5286 46bd
00000370: 2d5f ff3c 74d9 36bd d927 af3c e0fc 0ebb
00000380: 3ad0 55bb 0b47 c4bb e68f c33b 56c6 a4bb
00000390: 0c0c ea3c c423 e6bb 0562 bcbc 7d26 77bc
000003a0: e1dd 713c a50e 62bc 9ae7 0bbc 5508 ecbb
000003b0: 0b7b 993b 2ea2 353c 5398 9fbb 54ff 08bd
000003c0: cc9c 00bd 6f2b cabc e5df 19bc 4c73 ac3c
000003d0: 522f 663c 7223 933b 2a30 e0bc b091 0abb
000003e0: fa88 c639 5558 6a3c b164 c73c b3be b439
000003f0: 4dd5 2fb9 a363 603d 7599 443c 0868 6f3c
-0.02149255 0.02312234 -0.0026181133 0.026637502 0.013821118 -0.02130546 0.0048763193 -0.0036349446
0.0020504924 -0.008019744 -0.03841896 0.021538185 -0.046744324 -0.0002807889 -0.016611 -0.014592699
0.00819154 -0.028509159 -0.046288647 -0.009131328 -0.041960437 0.004765894 0.0128116505 0.023410182
-0.041750994 0.027074894 -7.77776e-05 0.026237568 -0.03311385 0.042533636 -0.03813626 0.028885039
-0.021974634 0.020509293 -0.0022698287 -0.004442586 0.023969987 -0.027490428 -0.006843162 -0.007322949
0.00977449 -0.026960185 0.032455992 -0.025364367 0.03394441 -0.011523027 -0.033876285 -0.0026680275
0.012378488 0.06163139 -0.008379031 -0.00069146766 0.00017052075 -0.0007655335 -0.027643463 -0.026243947
-0.03455623 -0.00654064 0.022084514 -0.023659231 -0.042473353 -0.0022362384 -0.091401234 0.0023085002
-0.0018755278 -0.037293907 0.00029276233 0.036485277 0.013589284 -0.004515609 0.014561346 0.0034127964
-0.019744877 -0.04126777 -0.038513128 -0.03888583 0.021434112 -0.034809995 0.010684035 0.0137090925
0.009783754 -0.022485396 -0.041118324 -0.03230065 -0.013579586 -0.009759786 -0.029128749 0.00034179262
-0.022307968 0.01239238 -0.021302879 -0.021064997 -0.04023656 -0.032038312 0.01319949 -0.04819505
0.014426557 -0.013714761 -0.027359612 -0.04297796 -0.053842235 -0.019483447 0.006027841 0.031687513
-0.03965834 -0.016335143 -0.0012363419 0.020252006 0.0044477046 0.006657152 -0.0075926385 0.052509584
0.016252175 -0.004005783 -0.016366184 -0.0034738332 -0.036043227 0.012421087 0.011027483 0.01755032
0.009880571 0.028861903 0.007870657 -0.031192938 0.004707773 0.017854435 0.031299658 -0.039636977
0.0034435631 0.0111577995 -0.024465544 -0.00054148835 0.0038757466 0.021151677 0.0064921263 0.02867572
0.0069267224 0.009905625 0.011472964 0.015072289 -0.012622557 -0.027014213 0.010617685 0.033547405
-0.02406569 0.039991237 -0.026478149 0.033525966 0.0072368314 0.009632709 0.0017826294 -0.010507357
-0.010747743 -0.00998054 0.010892387 0.001522269 -0.006670028 -0.020282649 0.016485503 0.004173328
-0.030946482 -0.024973765 0.021320822 0.008280312 0.030467628 0.007837266 0.000272369 0.008571216
0.005300504 0.012717987 0.027299197 0.0016228879 -0.027705604 -0.0027104905 0.0028706659 -0.0052205594
-0.0107821 0.000526077 0.015577276 0.0019749466 -0.007986099 0.013087855 -0.034508068 0.024763763
-0.009049979 -0.022233855 0.02512798 0.004508095 -0.008170967 -0.0046995147 0.028530894 0.031132257
0.0014601698 -0.017178886 0.008067258 -0.026717603 0.040412117 0.0022527685 -0.018481102 0.0027436179
0.008426477 0.02078062 -0.030825885 0.017042577 0.029392714 -0.015538136 -0.024603268 0.0066200714
-0.02111737 0.018670931 0.016907705 0.018911552 0.015985673 -0.001987592 -0.012637583 0.023895927
-0.024922 -0.028288662 0.016972043 -0.04846794 0.031173313 -0.044640973 0.021381306 -0.0021818206
-0.0032625333 -0.0059899143 0.0059680818 -0.0050285263 0.028570198 -0.0070233066 -0.022995958 -0.01508486
0.014762373 -0.013797437 -0.008539105 -0.0072031417 0.0046838573 0.01108603 -0.0048704534 -0.033446625
-0.031399533 -0.024678914 -0.0093917595 0.021051072 0.014049368 0.0044903094 -0.027366716 -0.0021143965
0.00037867558 0.014303287 0.024340006 0.00034474357 -0.00016768761 0.05478252 0.011999478 0.014612205

action_model._continuous_distribution.mu.bias f4 [2]
00000000: a6b9 74bc 8842 8c3c
-0.01493684 0.017121568

exp_avg f4 [128, 3]
00000000: 8ad2 cfb6 069c 33b7 e0bf 9436 057f 58b9
00000010: 8993 fd37 475b f238 84df 97b8 082c 5637
00000020: de28 9338 448a 8239 2daf 23b7 7987 89b9
00000030: 4b5d c838 fb6a 6636 eeee beb7 e965 69b9
00000040: 6e73 8237 ce2f 1e39 8129 2cb8 e566 28b5
00000050: 9f88 8137 8026 68b8 5d54 2e37 6004 1738
00000060: 525f b4b7 2a55 3fb7 5e92 dfb7 81fe 1eb8
00000070: d5dd 0f36 bb87 2d37 d02d 2db8 e0bf 15b8
00000080: a1e7 6a38 d940 0ab8 7faa 9d36 0f74 d737
00000090: 2d8e 4536 7068 4e37 6a32 3937 8c64 8b37
000000a0: 540c fb36 a0b5 45b8 fa73 0d39 33af ddb6
000000b0: 88ab fdb8 cef4 19b9 372e 3235 434d 8438
000000c0: 4d1d 00b9 3427 31b7 6adf dd38 ed0c 5539
000000d0: e7e6 7135 3a55 fdb8 d19a 28b9 6eaa 6f37
000000e0: ae81 1a39 cfaf 8bb8 f514 c3b7 233d 0b38
000000f0: 21c1 4fb8 def3 cc35 97c5 4e38 1c88 8cb8
00000100: 079c 0bb7 c811 8538 2fa7 93b9 b962 1837
00000110: b587 fe38 b5c4 b139 c2fb a236 5d06 30b9
00000120: 45e4 ba38 a725 1bb5 3918 eeb8 b7dd e538
00000130: fc29 0ab7 94d1 bdb8 2809 2ab8 cbb3 b4b7
00000140: 5f93 ac38 826f 533a 32eb 99b7 0f03 29ba
00000150: 23e5 cab9 df43 fd37 43a4 d039 71f9 b039
00000160: c975 7836 74ef 44b9 0b68 0eb9 ac7a 07b7
00000170: 8c03 ea37 a559 d8b8 ad85 cd37 65c6 1c39
00000180: 7fad 5e38 7b49 6036 88bd 8638 3b11 82b8
00000190: b5e7 7537 19ab c338 6ccd 2637 3925 3ab7
000001a0: f075 06b8 9a76 51b9 2fa9 3e37 3617 0439
000001b0: 3bb1 09b8 3ac9 c0b7 9dc2 9d38 f8ea 41b9
000001c0: 1b53 54b7 8f69 0d39 f74c 7639 4757 6135
000001d0: 2eb2 42b9 213c 8638 29c9 6fb4 84ad 2cb8
000001e0: 767a d338 5282 ed36 3694 adb7 5851 b539
000001f0: 9a8b 8bb6 6245 9eb9 375c 4b3a 2b37 58b7
00000200: e9f8 19ba b551 5c39 8697 c0b6 02dd 07b9
00000210: 74f1 6738 ef9e 8cb7 8dbf a2b8 572c c838
00000220: 4f6c 03b8 811d 9837 dcc3 1b39 9df8 dab4
00000230: 16a5 4cb8 e8e1 47b9 2ba5 e6b5 58be d038
00000240: 5e54 0db8 9c49 9837 3c04 4038 e568 9939
00000250: 1c59 1d37 19ff d4b8 79a0 2d3a 32cf 10b7
00000260: 0f17 10ba ceac 01b9 95a6 d1b7 d8c1 67b8
00000270: 90b6 5bb9 ab26 ebb6 0868 8e38 7727 9c39
00000280: d532 31b7 5cf1 b3b9 8d0d 3ab8 40be a037
00000290: 099b 0038 4843 a6b8 9cdf b9b7 1a0b 9438
000002a0: c66e 89b7 7b92 a2b6 9c79 5137 8d56 9cb8
000002b0: 8d47 5935 569b a638 1321 05b8 3396 fc35
000002c0: cad6 8137 cac1 beb8 ce49 1b37 7fcc 8838
000002d0: 24c0 91b8 b10f a737 6041 8638 0734 e4b8
000002e0: 7338 69b7 5fd5 a538 a4cc 07b9 4eff e936
000002f0: cc23 b838 8b16 d3b8 0901 25b7 f752 ac38
00000300: e8c4 b6b7 695c cb36 6255 a4b6 5690 f1b9
00000310: bcc0 8237 829d 8a39 7f5f 95b9 aa3f f137
00000320: dee3 5c39 488d 8ab9 d447 3238 02e1 8139
00000330: 45b3 56b9 0b1e 1eb8 387e ff38 030d 613a
00000340: f7da a836 4614 eab9 c109 84b8 869e 74b7
00000350: 6f81 9e36 2144 23b8 e1fe 2237 a9b4 3838
00000360: 6fe4 d4b8 8b5e 8bb6 a749 9c38 e3f6 5ab9
00000370: 4df3 9837 14f5 0439 ce59 8fb7 fe60 9db3
00000380: 8f03 0038 1f57 11b9 218f e336 8fa1 9738
00000390: 94e3 05b8 c83b ba37 5be6 8c38 f0ae 93b8
000003a0: 23d8 81b7 8604 0038 4ab5 50b9 43b5 e837
000003b0: e01d e038 c698 b038 a8f7 cb36 d05d 5db8
000003c0: 0451 8eb7 27b8 8137 4be7 5237 73b4 9639
000003d0: 08d7 8fb7 6a03 85b9 7764 1239 b93d 1937
000003e0: 1fcb f2b7 1999 9fb9 933f 0337 3b41 4539
000003f0: 090d edb6 4c48 9835 e301 2637 7f66 05b9
-6.1935907e-06 -1.0705558e-05 4.433081e-06 -0.00020646684 3.0228652e-05 0.00011556461 -7.241874e-05 1.2765646e-05
7.017118e-05 0.00024898548 -9.756343e-06 -0.0002623161 9.55412e-05 3.4334942e-06 -2.2761025e-05 -0.00022258576
1.5550959e-05 0.00015085863 -4.104665e-05 -6.273461e-07 1.5441618e-05 -5.5348966e-05 1.0390851e-05 3.600528e-05
-2.150206e-05 -1.1404316e-05 -2.665183e-05 -3.790716e-05 2.1437784e-06 1.0343206e-05 -4.128908e-05 -3.5703066e-05
5.600567e-05 -3.2962158e-05 4.698813e-06 2.5684041e-05 2.9438045e-06 1.2302873e-05 1.1038597e-05 1.6616912e-05
7.481818e-06 -4.713761e-05 0.00013490012 -6.606709e-06 -0.0001209593 -0.00014682414 6.637742e-07 6.3086416e-05
-0.00012217947 -1.055915e-05 0.00010579715 0.00020318078 9.0115503e-07 -0.00012079855 -0.00016079402 1.4285191e-05
0.00014734894 -6.6607834e-05 -2.325557e-05 3.319712e-05 -4.953251e-05 1.5270159e-06 4.9298247e-05 -6.7010726e-05
-8.321374e-06 6.345246e-05 -0.00028162586 9.082892e-06 0.00012136941 0.0003390663 4.8572847e-06 -0.00016787038
8.91169e-05 -5.779679e-07 -0.00011353236 0.000109608685 -8.235216e-06 -9.051259e-05 -4.0539686e-05 -2.1541395e-05
8.229049e-05 0.0008065627 -1.8348543e-05 -0.0006447294 -0.00038699163 3.0191555e-05 0.00039795236 0.00033755184
3.702344e-06 -0.0001878122 -0.00013580934 -8.075189e-06 2.7896625e-05 -0.0001031638 2.4500152e-05 0.00014951227
5.3090505e-05 3.3421372e-06 6.424921e-05 -6.2020925e-05 1.46570865e-05 9.330194e-05 9.9421995e-06 -1.10951305e-05
-3.2057927e-05 -0.00019975976 1.1364274e-05 0.00012597148 -3.2828404e-05 -2.2981887e-05 7.522593e-05 -0.00018493447
-1.2655534e-05 0.00013486132 0.0002348906 8.3946037e-07 -0.00018567659 6.400818e-05 -2.2331791e-07 -4.1169595e-05
0.00010084074 7.0783217e-06 -2.0692223e-05 0.00034583616 -4.1587746e-06 -0.00030187803 0.00077575765 -1.2887448e-05
-0.00058735773 0.00021011273 -5.7396855e-06 -0.00012956935 5.5299563e-05 -1.676331e-05 -7.760441e-05 9.545002e-05
-3.1333704e-05 1.813355e-05 0.00014854915 -4.0786554e-07 -4.879114e-05 -0.00019062276 -1.7184406e-06 9.953667e-05
-3.3695593e-05 1.8154089e-05 4.578031e-05 0.00029260587 9.378677e-06 -0.000101564634 0.00066233386 -8.63131e-06
-0.00054966 -0.00012366773 -2.4992312e-05 -5.5255223e-05 -0.00020953477 -7.0080473e-06 6.790465e-05 0.00029784042
-1.0561857e-05 -0.00034321367 -4.4358476e-05 1.9162078e-05 3.0661966e-05 -7.928029e-05 -2.2157845e-05 7.059258e-05
-1.6383256e-05 -4.845029e-06 1.2485685e-05 -7.454781e-05 8.094292e-07 7.9444304e-05 -3.1740474e-05 1.8819177e-06
1.5478017e-05 -9.096002e-05 9.255904e-06 6.523076e-05 -6.949928e-05 1.9915258e-05 6.401795e-05 -0.00010881578
-1.3901025e-05 7.9075566e-05 -0.00012950838 6.9736625e-06 8.7804714e-05 -0.00010065463 -9.835007e-06 8.2170525e-05
-2.1787782e-05 6.0606294e-06 -4.8975207e-06 -0.0004607464 1.5586957e-05 0.00026438764 -0.00028490645 2.8759085e-05
0.00021065722 -0.00026426674 4.2505402e-05 0.0002477244 -0.00020475413 -3.7698115e-05 0.000121828576 0.0008585008
5.032281e-06 -0.00044647063 -6.296067e-05 -1.4580442e-05 4.723835e-06 -3.892568e-05 9.715296e-06 4.403727e-05
-0.00010151497 -4.153529e-06 7.4523785e-05 -0.00020882073 1.8233108e-05 0.000126798 -1.7088747e-05 -7.328525e-08
3.0520892e-05 -0.00013860733 6.7817896e-06 7.230334e-05 -3.192162e-05 2.2200766e-05 6.718627e-05 -7.042091e-05
-1.5478645e-05 3.052179e-05 -0.00019903961 2.7740962e-05 0.00010686717 8.42079e-05 6.0787024e-06 -5.2777876e-05
-1.6965445e-05 1.5463751e-05 1.25708275e-05 0.00028744675 -1.714706e-05 -0.0002537028 0.00013961071 9.133882e-06
-2.8943234e-05 -0.0003044091 7.8230105e-06 0.00018811684 -7.064668e-06 1.1345924e-06 9.89481e-06 -0.00012722051

exp_avg_sq f4 [128, 3]
00000000: ced4 1f31 4478 b92c 8859 0630 1d51 2035
00000010: 0113 142f bd17 2f32 5408 e131 af6f b02e
00000020: 58cf 3432 7048 1636 da6d aa2f b156 8f33
00000030: c943 8d35 e7e6 352f 17d4 ca33 edd5 3f35
00000040: 0d8e 062f 8a62 f432 fe4d 2e34 cf73 d22d
00000050: f8d9 f831 0885 1c31 6732 df2d 6415 0d31
00000060: b4fd af34 c7a6 632e 9f9c a032 34d7 fc30
00000070: d8d3 3f2d 433a 9f2f 1120 7430 e34a 862e
00000080: 5f86 5b30 6b25 6031 7520 ee2d 1608 1130
00000090: 4656 8031 fba8 2f2e b457 3331 c2fb 7335
000000a0: 5ce0 eb2e fc2f 6833 3b3b a833 b67a a32e
000000b0: 05fc 2e33 a92d f434 404c 422e 0064 e431
000000c0: ba86 1532 cae4 bf2c bb92 9430 e7cc 8934
000000d0: b08d 132e 7a64 9b32 babc 5e34 cda4 902e
000000e0: db5d 8232 90d9 3a31 828d 022e 3314 5630
000000f0: 2891 1535 88cc 732e d473 d932 17cc 0c30
00000100: e8a5 b92c d569 a12f 81d2 a035 0ac6 1b2f
00000110: 3971 2033 6d40 5435 c3d4 e42e ddde 4833
00000120: 05dd 5935 eb63 da2e ed14 1833 278b 6334
00000130: 2609 862e c2e9 aa32 1490 5c2f fd55 8c2d
00000140: b088 bd2f 7b65 b935 dea4 2a30 ac53 5d34
00000150: 5889 5034 dfe6 7d2f 7baf 1933 fd7c 4934
00000160: 8ba4 2a2e b90c b332 1bea b134 79f9 0d2e
00000170: b49b c031 22fb 2935 136b 802f 0c0a 8733
00000180: c2c1 9534 33e4 682f e831 e433 577d 3934
00000190: f92f 912e 72c3 fa32 4afa 0935 6e68 a22e
000001a0: 887b 8832 8287 b034 d9e4 9a2e 1ce9 8832
000001b0: f085 bf30 97ae d72d 835c f430 195b 4d31
000001c0: 5b2d 202d e793 ad30 f593 9f36 6926 0d30
000001d0: d982 2234 1d4c 8334 ed5c 032e af33 ac32
000001e0: 7bb2 1635 f8cb 642e 71ce 0e32 bd1a 0b34
000001f0: 5232 1e2f c6cc 2033 23f5 6935 a278 ea2f
00000200: d158 d833 7e98 b634 e2e8 702f 39d8 0b34
00000210: 4a0a 9031 337c 082e e79d 6931 d436 2635
00000220: 3ace 222f e460 1532 79c0 2435 0f18 b42e
00000230: c73f 0133 7528 b235 fa1c 6c2f 47eb 0b34
00000240: 3c39 6130 0af6 2a2e 077c 6930 1626 b035
00000250: 7eb5 042f ae90 d932 679d 5435 13cc ac2f
00000260: 3d62 0b34 f57c 0136 9550 842f 78eb f532
00000270: f5d5 5935 4b28 002f 68d2 8033 c06d 7435
00000280: 4a63 6d2f 0f0f ff32 e2af 1a32 200c ae2e
00000290: ae79 e831 a6d4 9430 5f36 c22d d07d 5c30
000002a0: ce53 c334 b769 892e f14f 0933 2f34 6a34
000002b0: 4193 272e f121 ac32 c1eb 0331 cf7c b92b
000002c0: 45be 8c2e 149b 7f31 062d fc2d 7190 1332
000002d0: c797 8f34 07c3 c32e f273 3b32 b6ca a230
000002e0: 1bfa 0b2d b489 1830 e0e2 a633 eb1e a12d
000002f0: 52b2 7531 3303 9630 b4a8 e62c c4b7 0630
00000300: 999c 7c35 0878 052f 2abf 7033 db50 de35
00000310: 7ae1 9c2f 71c3 a733 5607 5533 106e 9c2e
00000320: ea66 1032 88f7 0433 cffa a22f e03d 1a33
00000330: f60e e931 ebc1 a02e ca3a ad30 593a 1b36
00000340: 06db d52f 2e64 4f34 d5c9 0b35 5c01 a42e
00000350: ede3 a131 7eab f631 fc54 df2d fc0a c331
00000360: 387a 4f30 6c07 2c2c cad4 bb2f 69b1 1034
00000370: d8f0 a72e dff0 8032 8745 7332 42bf 712c
00000380: 0ea0 3930 1607 8b33 3085 b92d 7fa6 b831
00000390: 4aeb 1132 24d8 052f f892 3f32 bf30 ad30
000003a0: 21cf 1b2d c646 d82f 4af1 8634 909c 092f
000003b0: 0806 ca31 6073 8433 9a3e 6b2d a345 7e31
000003c0: 4967 8e31 2c81 502e 33da 7431 2220 1034
000003d0: 9da2 f12e f07c a532 9664 d534 48f4 f92e
000003e0: d5d0 8733 1b35 0036 6601 862f 102f d233
000003f0: ae46 8732 2475 1e2e 1c9e 8a32 4896 cc31
2.325851e-09 5.2713684e-12 4.887615e-10 5.972268e-07 1.3467273e-10 1.0191738e-08 6.5493087e-09 8.0233924e-11
1.05245235e-08 2.2393906e-06 3.1000874e-10 6.6747255e-08 1.0525047e-06 1.6543887e-10 9.444937e-08 7.146435e-07
1.2237696e-10 2.8450149e-08 1.6233386e-07 2.3925665e-11 7.24253e-09 2.2776607e-09 2.5374548e-11 2.053036e-09
3.2780883e-07 5.1761952e-11 1.8697675e-08 1.8396578e-09 1.0904132e-11 2.896333e-10 8.881225e-10 6.106917e-11
7.986269e-10 3.261756e-09 2.7071881e-11 5.2762184e-10 3.7350985e-09 3.9940478e-11 2.6097782e-09 9.089091e-07
1.0726417e-10 5.406035e-08 7.8338836e-08 7.43418e-11 4.0741742e-08 4.5481764e-07 4.4178217e-11 6.647042e-09
8.703575e-09 5.453947e-12 1.0810121e-09 2.5667325e-07 3.3549774e-11 1.8090066e-08 2.074402e-07 6.5776364e-11
1.5176672e-08 2.7190232e-09 2.9684262e-11 7.788145e-10 5.5718056e-07 5.5433463e-11 2.5314797e-08 5.122173e-10
5.2764355e-12 2.9360928e-10 1.1982194e-06 1.4167525e-10 3.735588e-08 7.9069906e-07 1.0406034e-10 4.676882e-08
8.1160425e-07 9.931241e-11 3.540929e-08 2.1191646e-07 6.0952396e-11 1.9896905e-08 2.006007e-10 1.5954344e-11
3.4476022e-10 1.3813109e-06 6.207993e-10 2.0612669e-07 1.9421475e-07 2.3092238e-10 3.5782687e-08 1.8765054e-07
3.879967e-11 2.0844128e-08 3.3139153e-07 3.2281264e-11 5.605637e-09 6.332285e-07 2.3359145e-10 6.288255e-08
2.789439e-07 2.118135e-10 1.0626155e-07 1.7275066e-07 6.602358e-11 2.9192709e-08 5.1400696e-07 7.3854575e-11
1.588866e-08 3.288115e-07 7.043761e-11 1.593849e-08 1.3935146e-09 2.4520204e-11 1.777963e-09 2.988321e-09
9.105018e-12 1.2629443e-09 4.7557937e-06 5.1350085e-10 1.5135028e-07 2.445603e-07 2.9868486e-11 2.0046938e-08
5.613908e-07 5.202236e-11 8.312427e-09 1.2955111e-07 1.4387894e-10 3.7439143e-08 8.7155985e-07 4.2650067e-10
1.00744394e-07 3.4011094e-07 2.191061e-10 1.3024045e-07 4.1921213e-09 3.103313e-11 3.399572e-09 6.1919604e-07
1.480708e-10 8.694972e-09 6.1374845e-07 8.189726e-11 3.0093158e-08 1.3273808e-06 2.147437e-10 1.3030977e-07
8.193586e-10 3.887205e-11 8.494116e-10 1.3124106e-06 1.2069809e-10 2.5327918e-08 7.9205205e-07 3.143162e-10
1.2981123e-07 1.9295233e-06 2.4067917e-10 2.8628833e-08 8.115015e-07 1.1655847e-10 5.998737e-08 9.105679e-07
2.1590299e-10 2.9692755e-08 9.003971e-09 7.914758e-11 6.765922e-09 1.0828856e-09 2.2079392e-11 8.0214324e-10
3.6382556e-07 6.2488174e-11 3.1970504e-08 2.1811933e-07 3.810219e-11 2.003887e-08 1.919702e-09 1.3179682e-12
6.4002616e-11 3.7195536e-09 2.8669078e-11 8.589368e-09 2.6746258e-07 8.902217e-11 1.09111955e-08 1.1844665e-09
7.95677e-12 5.5492966e-10 7.771246e-08 1.8317311e-11 3.5753556e-09 1.0914846e-09 6.555723e-12 4.901006e-10
9.4105195e-07 1.2138923e-10 5.6053217e-08 1.6563821e-06 2.8536445e-10 7.812094e-08 4.95996e-08 7.11361e-11
8.405303e-09 3.0958773e-08 2.9645839e-10 3.5912194e-08 6.7828934e-09 7.3104044e-11 1.2604116e-09 2.3130763e-06
3.89001e-10 1.9314822e-07 5.207524e-07 7.458098e-11 4.711629e-09 7.1790387e-09 2.5389905e-11 5.6764957e-09
7.5479845e-10 2.444679e-12 3.4166298e-10 1.3475587e-07 7.637063e-11 1.5010697e-08 1.416027e-08 3.435433e-12
6.753006e-10 6.473981e-08 2.1091212e-11 5.374033e-09 8.493609e-09 1.2173068e-10 1.115108e-08 1.2601261e-09
8.856722e-12 3.934046e-10 2.5135006e-07 1.25157e-10 5.8796594e-09 6.1677156e-08 1.3372104e-11 3.7001449e-09
4.144486e-09 4.7408452e-11 3.5630705e-09 1.3422735e-07 1.0988297e-10 1.9265343e-08 3.9747528e-07 1.1366602e-10
6.324414e-08 1.9104398e-06 2.4375452e-10 9.787448e-08 1.574821e-08 3.6029082e-11 1.6137214e-08 5.9542664e-09

exp_avg f4 [128]
00000000: 1abd 1639 39c4 d4b9 7378 33b9 7662 0639
00000010: 4628 34b8 7861 59b9 bb32 1437 5942 12b9
00000020: dd6d 1e39 c0ef edb7 453e fb39 87ab 83b8
00000030: e0dd 2cb9 a93a cfb8 a9e0 b738 73c9 1eb7
00000040: 1cdd 1439 6e42 55b7 2e47 4ab9 47d2 a339
00000050: b9a3 b2b7 8a4e ea38 6498 01b9 107b 83b8
00000060: 383c ef36 695f e738 1098 9739 0f17 8339
00000070: 2f1c d4b9 f93e 51b8 ae05 e438 3d07 acb9
00000080: 6196 47b8 3bcb 4db9 236f 1e39 d425 1fb9
00000090: b4b3 a139 d362 3239 5ed9 0db7 d63a 7536
000000a0: 577c c9b8 7939 7038 5570 3639 ce86 9d38
000000b0: b7e7 6b39 2af8 dc39 a2dc 7336 6b3a af37
000000c0: d264 7fb9 3e2c 03b9 d54a f238 e230 ae39
000000d0: efe8 c138 9210 1339 8a8f 86b9 2ff1 9b39
000000e0: b6a8 8838 649d 42b7 3998 d2b7 d82c 02b9
000000f0: 6737 8bb9 b1a4 4339 6c07 c4b8 fd88 0a39
00000100: 077c adb8 089c 5eb9 4072 cab9 2d8b 15ba
00000110: 95a4 043a 3884 8cb8 deff 4c39 ed45 08b9
00000120: 5acd 6938 7910 80b9 727e 6135 51f3 bcb8
00000130: 5a11 9cb9 0a12 5a39 54fd c2b9 45d4 a8b8
00000140: 305f 59b9 ed19 6f39 1dda 02b9 b7e0 dab8
00000150: f7d5 79b7 46dc 3939 d38f 09b9 b1ed 8738
00000160: ff68 8bb7 b00d 97b8 15bb 7e39 e3df 5c38
00000170: ed86 8d38 9791 41b9 5563 8e39 acf1 6439
00000180: 8d0e 8ab8 1441 ab39 69df fcb7 adfe cb37
00000190: 22ca a6b8 6cc5 62b8 4c46 00b9 3a54 77b8
000001a0: 356a 3739 4842 21b9 1efb 4239 9da8 33b9
000001b0: 25c7 58b9 ed92 99b9 701c f3b9 7991 d8b8
000001c0: 3255 7139 7e48 9538 b1c3 d4b7 9bfa a0b8
000001d0: b78f 3eb8 cd08 f837 adaf 5b38 7acd 8f38
000001e0: 0372 b339 5943 a1b9 b30a 9638 f64c 97b9
000001f0: ad07 3639 c0db 5bb9 e1d7 dbb8 b42c e537
0.0001437556 -0.00040581988 -0.00017115641 0.00012815915 -4.295285e-05 -0.00020731043 8.833299e-06 -0.00013948361
0.00015108981 -2.8364244e-05 0.00047920845 -6.278516e-05 -0.00016485853 -9.8814555e-05 8.767966e-05 -9.464437e-06
0.0001419675 -1.2711256e-05 -0.00019290738 0.00031246452 -2.1295493e-05 0.000111726185 -0.00012359169 -6.269489e-05
7.1297654e-06 0.0001103271 0.0002891426 0.00025003447 -0.0004045679 -4.988813e-05 0.00010872945 -0.0003281179
-4.758535e-05 -0.00019626033 0.00015109456 -0.00015177514 0.00030842202 0.00017012218 -8.454865e-06 3.6542092e-06
-9.607587e-05 5.7273985e-05 0.0001739872 7.511453e-05 0.00022497667 0.00042146567 3.6338247e-06 2.0888829e-05
-0.00024356254 -0.00012509615 0.00011553398 0.00033224287 9.2463444e-05 0.00014025185 -0.00025665417 0.000297436
6.51641e-05 -1.1599946e-05 -2.5104835e-05 -0.00012414472 -0.00026553424 0.00018658001 -9.347391e-05 0.00013211738
-8.272385e-05 -0.00021229696 -0.00038613565 -0.0005704638 0.0005059925 -6.700348e-05 0.00019550274 -0.0001299602
5.5742777e-05 -0.00024426336 8.4003034e-07 -9.00986e-05 -0.00029767567 0.0002079682 -0.00037191308 -8.0504025e-05
-0.00020730193 0.00022802474 -0.0001247902 -0.000104369065 -1.4891374e-05 0.00017725033 -0.00013118917 6.481575e-05
-1.6618984e-05 -7.2027906e-05 0.00024293021 5.2660598e-05 6.748536e-05 -0.00018460151 0.0002715836 0.00021833804
-6.583063e-05 0.0003266415 -3.0144774e-05 2.4318078e-05 -7.953147e-05 -5.4066462e-05 -0.00012233219 -5.896783e-05
0.00017491805 -0.00015378848 0.0001859483 -0.00017133584 -0.00020673552 -0.00029291902 -0.0004636976 -0.00010326779
0.00023015289 7.1183764e-05 -2.5363495e-05 -7.6760734e-05 -4.5433375e-05 2.9568002e-05 5.237728e-05 6.857044e-05
0.00034226486 -0.0003075849 7.15455e-05 -0.00028858305 0.00017359732 -0.00020967331 -0.00010482944 2.7319744e-05

exp_avg_sq f4 [128]
00000000: a4e8 8230 493b d732 0371 7832 b33f 7b33
00000010: 2446 0233 1710 c232 e18a 9c31 e22d 9d31
00000020: ac19 2332 c95c 0731 7406 3d32 94d3 a731
00000030: 7256 f731 ec1f a832 887f 6632 3d3e 1232
00000040: e537 8a30 9263 d531 f064 4d32 e601 b831
00000050: dd1d 2f32 50b4 8230 2f31 e632 3848 a632
00000060: 863a 9e32 81f5 3d32 7f88 4531 5560 f233
00000070: ab91 3233 9e7b f231 9605 dc31 3b60 3633
00000080: fe82 2433 040e 4d32 9f33 6a32 c817 5b32
00000090: 47c3 9731 4a4c e230 5078 cd33 e315 bc31
000000a0: 325f 2932 649e df32 2c0a a633 3cd1 2933
000000b0: 0612 c031 960d eb32 a0ff 8132 e6eb 2733
000000c0: 69bb f031 fa8e c232 f0e6 7333 ea5e 4233
000000d0: acba b832 7bab 2a33 9802 7532 19b3 8831
000000e0: 7cff 4232 7576 ef31 5b4e 832f 9272 b131
000000f0: 8209 8b32 ed17 c530 dc79 6931 5487 a230
00000100: c069 c232 9eb0 6333 a26d 5c32 d67e 6533
00000110: a46c 6232 79a7 9933 e0d1 6f32 5410 9d31
00000120: 5122 f22f a44f 6d32 47bb 3130 a967 8431
00000130: 4c62 bc32 72d6 db30 c7c2 c232 b38a 2a31
00000140: 6ebc 1232 f94b aa32 5571 b132 3d62 4133
00000150: f006 df31 7ea2 ba30 393a cc31 9609 a031
00000160: 2f2e 8c32 1b50 a932 0615 1e31 25c4 b230
00000170: 929b 6330 dea6 ad32 6f2e 8931 f194 c831
00000180: 1543 3433 69fe 4d32 1c30 7632 2ce1 2833
00000190: b042 2432 c87f 0531 1265 b532 1b1a 9330
000001a0: 7b38 f030 d660 1733 9e2d 3d33 e418 0132
000001b0: 712f 3434 ae20 3032 792c 5c33 b737 1c33
000001c0: 186f 2d33 405e 6a32 a560 0f31 3ca5 b830
000001d0: cf2a a830 2195 0333 5d57 6530 1fe6 9a30
000001e0: da7d 1a32 97cc 8432 d4ef 7530 f160 8533
000001f0: 8ba8 5431 fef3 9032 7ea5 b931 a17b 1732
9.524865e-10 2.5056254e-08 1.4461196e-08 5.8498426e-08 3.0331776e-08 2.259189e-08 4.5559863e-09 4.5745177e-09
9.493686e-09 1.9697828e-09 1.1002715e-08 4.8843933e-09 7.198474e-09 1.957229e-08 1.3416759e-08 8.51247e-09
1.0056708e-09 6.2104357e-09 1.1955521e-08 5.3553206e-09 1.0193131e-08 9.509993e-10 2.679789e-08 1.9357785e-08
1.8420234e-08 1.1057069e-08 2.8744862e-09 1.1286526e-07 4.157634e-08 7.0571806e-09 6.4034777e-09 4.24627e-08
3.8303362e-08 1.1935757e-08 1.363233e-08 1.2752885e-08 4.416879e-09 1.6465347e-09 9.567941e-08 5.4740084e-09
9.85874e-09 2.6032644e-08 7.7318276e-08 3.9538676e-08 5.5899845e-09 2.7363779e-08 1.5133821e-08 3.9097266e-08
7.0062254e-09 2.264959e-08 5.6787883e-08 4.525547e-08 2.1505308e-08 3.973717e-08 1.4261467e-08 3.978482e-09
1.1350377e-08 6.9692825e-09 2.3884436e-10 5.164403e-09 1.6186053e-08 1.4340437e-09 3.3975232e-09 1.1825514e-09
2.2632662e-08 5.301319e-08 1.2830613e-08 5.3433574e-08 1.3179633e-08 7.155081e-08 1.3959351e-08 4.5711577e-09
4.4043927e-10 1.3813324e-08 6.465836e-10 3.8534904e-09 2.193078e-08 1.5995296e-09 2.2673147e-08 2.4817097e-09
8.541162e-09 1.9825153e-08 2.065705e-08 4.502566e-08 6.490943e-09 1.3579464e-09 5.9438006e-09 4.6577027e-09
1.6319147e-08 1.9710617e-08 2.3003977e-09 1.3006952e-09 8.28032e-10 2.0215733e-08 3.9925037e-09 5.8376988e-09
4.1970527e-08 1.1990417e-08 1.4330023e-08 3.932034e-08 9.561219e-09 1.9426682e-09 2.1117135e-08 1.0703077e-09
1.7478351e-09 3.52455e-08 4.404648e-08 7.514448e-09 1.6781065e-07 1.0251979e-08 5.126319e-08 3.6372253e-08
4.038074e-08 1.3642023e-08 2.0864175e-09 1.3434724e-09 1.2235776e-09 3.0636446e-08 8.3433865e-10 1.1270379e-09
8.992595e-09 1.545986e-08 8.9471297e-10 6.210929e-08 3.0945866e-09 1.6874761e-08 5.403023e-09 8.817467e-09
