results/Test2/Test2/Test2-126501.pt (torch, 429983 bytes, 36 tensors)

network_body._body_endoder.seq_layers.0.weight f4 [128, 3]
-0.7028876 0.838643 0.63979673 0.6852934 -0.2590658 -1.03825 0.47310895 -0.250669
-0.609664 -0.015870174 0.028507741 -0.52315235 0.52097905 -0.11228463 -0.63597584 -0.32032368
0.6398471 -0.083801605 -1.1493189 0.068011455 -0.36225697 0.46285957 -0.3029789 -0.368486
0.7061701 -0.02368273 0.059177395 0.5027092 0.40622887 0.317061 -0.258072 -0.9978346
-0.10687033 0.7312713 -0.9291148 0.8257929 0.13337724 -0.19016382 -1.0756667 0.6465006
-0.013013415 -0.309625 1.0239754 -0.06069505 1.0521809 -0.93976194 -0.3559965 0.092403844
-0.055073526 -0.016952949 0.5740322 0.57988906 -1.4206365 0.33521613 -0.5157462 0.35313597
0.14023542 -0.029557217 -0.24430054 -0.15389806 -0.6555646 0.7192273 -0.23662664 0.4906002
0.26706794 0.39758626 -0.92835826 0.24493799 0.009061804 0.8781939 -0.1957008 0.6899335
0.03139944 0.43332896 0.52251893 -0.18807484 0.9680569 -0.7402575 -0.8768272 0.5869617
0.27378786 0.1942935 0.21523233 -0.33016992 0.0045289393 0.84438324 -0.7271123 0.04648674
0.35643926 -0.34333876 0.12175299 -0.14960723 -0.48447293 0.5113812 -0.24873932 0.610316
0.09946378 -0.24702364 -0.66850626 0.70565844 -0.008483698 -0.34273556 0.7799106 0.5701867
-0.897919 -0.17538355 1.256 -0.43925107 -0.19628651 -0.17704195 0.75572634 0.7484309
-0.19395477 0.3231339 -0.26345283 0.0077087255 0.06758952 -0.63875276 0.51679003 -0.9515819
0.09247777 -0.8163183 0.13711108 0.5906943 0.08128268 -0.909694 -0.9453404 0.19598958
0.1633613 -0.53705907 -0.8283896 -0.13417126 -0.5517592 -0.10794758 -0.053541113 -0.12045356
-0.018053446 0.77042073 0.21198234 0.7340453 0.4802987 -0.054623976 0.29072383 0.68600684
0.009342854 -0.30141208 -0.2489266 -0.9796824 -0.44024035 -0.12119131 0.9524337 0.21292542
-0.054697264 -0.400036 -0.84443915 -0.9025063 -0.37821776 0.8519035 -0.67150736 -0.1735179
0.28175548 0.27521017 0.021691756 0.7089614 -0.16044463 -0.14882693 0.60991913 0.5584449
0.09661528 -0.8505987 0.17196345 0.11852703 0.10118387 0.17769653 -0.46561953 -1.0058211
-0.51725906 -0.6863908 0.6727678 -0.5168938 -1.7751006 0.7542169 0.3405053 0.5182091
0.592423 0.686682 0.086953126 0.12371256 -0.15372545 0.27381414 -1.1238863 0.8381519
-0.47034556 0.5233838 -0.052826393 0.45209888 -0.11541662 0.42337728 -0.035861447 -0.4065125
-0.4266168 -0.49734882 -0.5624367 -0.95587134 0.23982614 -0.5850144 0.016380813 0.8129527
-0.4194572 0.40109047 -0.7502168 -0.08151753 0.4157648 0.75530946 -0.4531669 -0.74262136
0.28837475 -0.12613131 0.21687554 -0.5567395 0.5220158 -0.60782886 -0.50104517 0.68961287
0.20124668 0.17245358 0.11974189 -0.7810721 0.31782925 0.9048196 0.22827287 0.70817965
0.1860732 0.037480775 -0.85163635 0.5947813 -1.2466857 -0.31705284 0.33771223 0.08603163
-0.71374696 0.59926486 1.1032153 0.89626145 -0.07141733 -0.22543237 0.046795312 -0.0029328044
-0.87694746 -0.23355466 -0.046174698 -0.107761934 -0.26940665 -0.69953024 -0.47494903 0.56788033
00000000: 71f0 33bf 4fb1 563f b8c9 233f 636f 2f3f
00000010: 46a4 84be 60e5 84bf 563b f23e b057 80be
00000020: f112 1cbf 2b02 82bc 1189 e93c 50ed 05bf
00000030: e25e 053f 7cf5 e5bd 50cf 22bf 7701 a4be
00000040: 05cd 233f 2da0 abbd e21c 93bf 9749 8b3d
00000050: bf79 b9be eefb ec3e 0d20 9bbe 32aa bcbe
00000060: 90c7 343f 4902 c2bc ff63 723d 8db1 003f
00000070: 3bfd cf3e d255 a23e 0322 84be 1772 7fbf
00000080: d5de dabd 9934 3b3f 78da 6dbf 2a67 533f
00000090: 0b94 083e 4eba 42be 72af 89bf 1081 253f
000000a0: 3836 55bc 2b87 9ebe a011 833f 5f9b 78bd
000000b0: ddad 863f 3d94 70bf 2c45 b6be 3a3e bd3d
000000c0: c794 61bd e9e0 8abc c6f3 123f 9c73 143f
000000d0: 6bd7 b5bf 73a1 ab3e f107 04bf 3dce b43e
000000e0: e099 0f3e fa21 f2bc ec29 7abe 7497 1dbe
000000f0: 15d3 27bf 481f 383f 414e 72be f32f fb3e
00000100: 21bd 883e 6d90 cb3e e3a8 6dbf 06d1 7a3e
00000110: f677 143c 51d1 603f ca65 48be 7b9f 303f
00000120: b39c 003d 4bdd dd3e cdc3 053f b196 40be
00000130: 94d2 773f 8481 3dbf bf77 60bf 1f43 163f
00000140: ec2d 8c3e e0f4 463e dd65 5c3e 080c a9be
00000150: 7f67 943b 8029 583f 0824 3abf e168 3e3d
00000160: 357f b63e 19ca afbe a259 f93d a332 19be
00000170: d60c f8be e1e9 023f 85b5 7ebe ab3d 1c3f
00000180: abb3 cb3d c4f3 7cbe 3a23 2bbf 08a6 343f
00000190: 35ff 0abc 097b afbe 39a8 473f c1f7 113f
000001a0: 05de 65bf bf97 33be 9cc4 a03f 84e5 e0be
000001b0: 55ff 48be 7c4a 35be 4877 413f 2b99 3f3f
000001c0: 149c 46be ce71 a53e 4ae3 86be 7a99 fc3b
000001d0: 606c 8a3d 4d85 23bf 5a4c 043f df9a 73bf
000001e0: fc64 bd3d 3cfa 50bf d966 0c3e be37 173f
000001f0: 8977 a63d b5e1 68bf d401 72bf 7eb1 483e
00000200: 2f48 273e b47c 09bf 5711 54bf 3164 09be
00000210: 1740 0dbf 9f13 ddbd ed4d 5bbd 5bb0 f6bd
00000220: d2e4 93bc 4b3a 453f e611 593e 65ea 3b3f
00000230: b6e9 f53e 64bd 5fbd c1d9 943e 259e 2f3f
00000240: c512 193c af52 9abe 9de6 7ebe 77cc 7abf
00000250: 2f67 e1be 2633 f8bd b2d2 733f 1f09 5a3e
00000260: 3d0a 60bd 85d1 ccbe 2a2d 58bf a70a 67bf
00000270: c2a5 c1be 5916 5a3f e8e7 2bbf adae 31be
00000280: 4142 903e 59e8 8c3e e9b2 b13c 7f7e 353f
00000290: 994b 24be 1666 18be a923 1c3f 3ff6 0e3f
000002a0: 3bde c53d d6c0 59bf 3017 303e 4dbe f23d
000002b0: 7d39 cf3d 14f6 353e af65 eebe bfbe 80bf
000002c0: 176b 04bf 4fb7 2fbf 833a 2c3f 2753 04bf
000002d0: 7f36 e3bf 5c14 413f b656 ae3e 5aa9 043f
000002e0: 09a9 173f 64ca 2f3f 7b14 b23d 035d fd3d
000002f0: 346a 1dbe 5e31 8c3e 82db 8fbf 1f91 563f
00000300: 22d1 f0be 7bfc 053f 7d60 58bd 8179 e73e
00000310: 8d5f ecbd e8c4 d83e 74e3 12bd 6822 d0be
00000320: 846d dabe 81a4 febe dafb 0fbf fcb3 74bf
00000330: fc94 753e 81c3 15bf 0e31 863c ab1d 503f
00000340: 18c3 d6be bb5b cd3e 350e 40bf aaf2 a6bd
00000350: 20df d43e f65b 413f 7e05 e8be 6f1c 3ebf
00000360: dba5 933e 9128 01be 9f14 5e3e 7b86 0ebf
00000370: d4a2 053f ac9a 1bbf 7f44 00bf 788a 303f
00000380: 9c13 4e3e ac97 303e 3c3b f53d 57f4 47bf
00000390: 84ba a23e 42a2 673f 5dc0 693e 434b 353f
000003a0: f989 3e3e 7185 193d d704 5abf 9643 183f
000003b0: 6693 9fbf c054 a2be 9ee8 ac3e 5a31 b03d
000003c0: 1fb8 36bf 6c69 193f 2936 8d3f 6471 653f
000003d0: 4043 92bd bed7 66be 71ac 3f3d 4b34 40bb
000003e0: a17f 60bf f428 6fbe ae21 3dbd 4ab2 dcbd
000003f0: abef 89be 6a14 33bf 852c f3be 9b60 113f

network_body._body_endoder.seq_layers.0.bias f4 [128]
0.015912523 0.062511735 0.000766239 0.018942041 0.045063674 -0.0011224994 -0.0052779964 0.044554092
0.049075533 0.022628093 0.005638525 0.024045102 0.038831927 -0.024361923 0.018101014 -0.021355527
-0.002804034 0.055806678 0.0062015317 0.014322825 -0.0027079154 0.017222095 0.0026615104 -0.0014012991
-0.021312203 -0.014722597 -0.015893616 0.046279732 -0.0057600047 0.043544296 0.059812605 0.01108182
-0.0035082516 0.006269533 0.019936299 0.029612657 -0.0143227205 0.019531453 -0.010423523 0.0022238276
0.021688018 -0.022099197 -0.0061422125 -0.0029733365 -0.0014359307 0.006220997 -0.02063359 -0.0036883405
0.027335405 -0.009444421 0.056055013 0.025924515 0.015313952 0.0047251196 0.009836552 0.03546708
0.035443373 0.025952974 0.01107272 -0.0013761839 0.0014765322 -0.037451137 -0.036984704 0.030319935
-0.021487635 -0.017322011 0.020690942 -0.0054489328 -0.036451407 0.0462962 -0.0022580917 0.00914387
-0.03919728 0.0047252215 -0.005850039 -0.0073406654 0.040132314 0.043724623 -0.0022116161 -0.0036577068
-0.010563036 -0.025156135 0.048756056 -0.004716688 0.012128545 0.018422158 -0.016721236 0.018242212
-0.024523988 -0.0014327328 0.027004458 0.004555284 0.0045371703 -0.035280924 0.020187084 -0.00016918626
0.019488543 -0.0018042801 0.0032587706 0.0073715625 -0.07764741 0.010929598 -0.0031328774 -0.035379756
0.011676622 -0.018923959 0.06069718 0.027266951 -0.01592114 0.03719942 0.063842885 -0.007198611
0.038588133 -0.0062794094 0.03108381 -0.010260557 -0.0038301782 0.05790696 0.020005193 0.033335656
0.0013618773 0.0052138087 -0.007282452 -0.008353579 -0.010954478 0.011357945 0.017943248 -0.0072049084
00000000: fb5a 823c 2706 803d 6edd 483a 572c 9b3c
00000010: b094 383d d420 93ba 0bf3 acbb 5a7e 363d
00000020: 6d03 493d 8d5e b93c 60c3 b83b 3cfa c43c
00000030: 3a0e 1f3d a892 c7bc 9448 943c c9f1 aebc
00000040: e2c3 37bb 8b95 643d 3836 cb3b 48aa 6a3c
00000050: 4877 31bb 5a15 8d3c bc6c 2e3b ccab b7ba
00000060: ee96 aebc 0c37 71bc 5433 82bc d18f 3d3d
00000070: 6cbe bcbb 815b 323d 10fe 743d 8690 353c
00000080: b2ea 65bb a870 cd3b 7351 a33c 3e96 f23c
00000090: d8a9 6abc 6d00 a03c 6dc7 2abc a3bd 113b
000000a0: 12ab b13c 6009 b5bc 9d44 c9bb 4fdc 42bb
000000b0: d735 bcba 81d9 cb3b c607 a9bc 16b8 71bb
000000c0: 80ee df3c c6bc 1abc f199 653d a65f d43c
000000d0: 5fe7 7a3c 2dd5 9a3b 7d29 213c ee45 113d
000000e0: 122d 113d 559b d43c 5b6a 353c 1261 b4ba
000000f0: 3388 c13a 5d66 19bd 467d 17bd 8361 f83c
00000100: d606 b0bc e4e6 8dbc 0d80 a93c f68c b2bb
00000110: 124e 15bd 16a1 3d3d 7efc 13bb 2cd0 153c
00000120: 548d 20bd 08d6 9a3b afb1 bfbb f789 f0bb
00000130: c861 243d 9718 333d c3f0 10bb 23b6 6fbb
00000140: 9610 2dbc 3d14 cebc 6eb4 473d 728e 9abb
00000150: ceb6 463c 11ea 963c f9fa 88bc b170 953c
00000160: 88e6 c8bc 89ca bbba 7438 dd3c 7e44 953b
00000170: 8bac 943b bb82 10bd 625f a53c 9767 31b9
00000180: 70a6 9f3c 987d ecba 1991 553b 268d f13b
00000190: 9b05 9fbd 0e12 333c f650 4dbb 5dea 10bd
000001a0: 4d4f 3f3c 6b06 9bbc 9b9d 783d f15e df3c
000001b0: 0d6d 82bc 6b5e 183d 0fc0 823d 53e2 ebbb
000001c0: 970e 1e3d 81c3 cdbb 79a3 fe3c e51b 28bc
000001d0: ba03 7bbb d92f 6d3d eee1 a33c f88a 083d
000001e0: 0581 b23a 99d8 aa3b a3a1 eebb 73dd 08bc
000001f0: 697a 33bc ad16 3a3c b8fd 923c 2717 ecbb

network_body._body_endoder.seq_layers.2.weight f4 [128, 128]
0.0022426674 -0.04765796 -0.11734404 0.12703806 -0.037800375 0.068265826 -0.10692194 -0.09920829
0.11187959 -0.013855976 -0.20040242 -0.063487604 0.10706707 0.010106752 0.014955159 -0.017680287
0.017799104 -0.053884525 0.21956189 0.17248279 -0.10670702 0.00686862 -0.12170113 -0.06443176
-0.080940746 0.17244868 0.04455248 0.06125883 -0.08665457 -0.09655757 0.035387047 0.07709196
-0.123867266 0.08949331 -0.06556953 -0.028414434 0.028421897 -0.1716263 0.22346638 0.07446491
0.027896117 -0.03891527 -0.025056286 -0.054368664 0.013922099 0.020914776 0.008550092 0.052458856
-0.054476853 -0.16395281 -0.08587723 0.008376952 0.15490393 -0.047996134 -0.030396549 -0.02335098
0.06955399 0.084801555 -0.10327074 0.0723988 -0.01796964 -0.072174415 0.0649517 -0.051693037
0.08985746 0.10258802 -0.060038313 0.1091772 -0.042291097 -0.08699833 0.13143875 -0.024906265
-0.020799585 -0.12503037 -0.053476095 0.085414365 0.111451656 -0.047694076 -0.00201426 -0.043567378
-0.002383882 -0.056843765 -0.12601084 -0.057448123 0.06606917 0.034226835 0.034603506 0.078013085
0.0021764478 -0.08722245 -0.017361099 0.16780756 0.016195167 -0.023726257 -0.12331508 -0.0366691
-0.0224898 -0.12371325 0.14219731 0.06762145 0.035513025 0.031878337 0.055212792 -0.04476067
0.034179416 0.09555437 0.068055026 -0.051271133 -0.01796634 -0.10810673 -0.116426975 0.007072517
0.009616404 0.028136384 -0.028961856 0.052847788 0.13351767 0.08112424 -0.05563763 0.0056557953
0.02254727 -0.019660508 0.07448943 -0.114244275 -0.1154092 -0.057391193 0.046626754 -0.05114959
-0.088039935 -0.110322386 0.099045746 -0.011233282 -0.08459563 0.0056065903 -0.013646775 -0.034230288
-0.009350679 0.013661291 0.05345847 0.016032297 0.065859035 0.026550848 -0.05019535 0.037050433
-0.030768266 0.0052952473 -0.15624985 0.033430744 0.037389126 0.15213512 0.020429289 0.099404335
-0.0054628896 0.07994585 -0.03522072 -0.09745915 0.13709027 0.11811675 -0.029792076 0.06799319
0.04283197 0.035697434 -0.005010243 0.022578157 -0.034132767 -0.024990622 1.6347001e-05 0.048434425
-0.07291302 -0.10875118 0.27060446 -0.061443947 0.08958625 0.1802773 0.06881837 0.011478884
-0.104669176 0.103017636 0.024145214 0.005311971 0.018491218 -0.061711222 -0.12156816 -0.029690597
0.07418949 0.11164976 -0.073906206 -0.07774263 0.03745668 -0.023761488 0.09817683 0.10988417
-0.013188845 -0.049637232 0.032379165 -0.029480834 -0.095176 -0.12831965 0.11397244 -0.05097446
0.012202472 0.13618898 -0.04610774 0.111243166 0.1256566 -0.09340186 -0.03635227 0.0417343
-0.0014531538 0.11598508 0.09713256 -0.032342587 -0.12867789 -0.0066409553 -0.026733575 0.044703055
0.029625896 0.04277549 0.10201097 0.038462654 -0.09502156 0.07307828 -0.09838907 0.06325683
-0.06686138 0.006925818 0.053052835 -0.024825854 -0.12615962 0.11016244 0.019399323 0.03256373
-0.09781063 0.034358785 0.094972074 0.11681148 0.05319289 0.086647876 0.11228733 0.0003668484
0.12467624 -0.032921012 -0.034031935 0.14522706 0.12564579 -0.03707656 -0.15542258 0.012896598
-0.1821721 -0.15434477 0.095235564 -0.13762279 -0.03673178 -0.12271472 0.017918231 0.11289381
00000000: b7f9 123b fe34 43bd 1252 f0bd 4416 023e
00000010: 91d4 1abd f4ce 8b3d e4f9 dabd b72d cbbd
00000020: 2021 e53d 2d04 63bc 4b36 4dbe ca05 82bd
00000030: fb45 db3d ca96 253c 7c06 753c 40d6 90bc
00000040: 6dcf 913c 05b6 5cbd d5d4 603e 549f 303e
00000050: 3689 dabd 2912 e13b 713e f9bd ccf4 83bd
00000060: 43c4 a5bd 6396 303e a97c 363d 8aea 7a3d
00000070: f477 b1bd fabf c5bd 02f2 103d 64e2 9d3d
00000080: 1fae fdbd 4548 b73d 5149 86bd 63c5 e8bc
00000090: 0ad5 e83c cebe 2fbe 5fd4 643e 0f81 983d
000000a0: 6686 e43c 9e65 1fbd d742 cdbc adb1 5ebd
000000b0: 8419 643c 7755 ab3c af15 0c3c 19df 563d
000000c0: 1f23 5fbd 3fe3 27be 67e0 afbd 7c3f 093c
000000d0: 239f 1e3e 9897 44bd 2f02 f9bc 8e4a bfbc
000000e0: 5372 8e3d 70ac ad3d 9c7f d3bd d245 943d
000000f0: 1135 93bc 2ed0 93bd 6605 853d 14bc 53bd
00000100: 3007 b83d ab19 d23d bcea 75bd 4c98 df3d
00000110: 6e39 2dbd 2e2c b2bd e197 063e 3908 ccbc
00000120: e463 aabc f607 00be c009 5bbd baed ae3d
00000130: c440 e43d dd5a 43bd ad01 04bb b573 32bd
00000140: e73a 1cbb 02d5 68bd fc08 01be b94e 6bbd
00000150: 464f 873d 7031 0c3d 68bc 0d3d 53c5 9f3d
00000160: bca2 0e3b afa1 b2bd dd38 8ebc bfd5 2b3e
00000170: baab 843c 915d c2bc 9e8c fcbd 5732 16bd
00000180: 873c b8bc 5f5d fdbd 2c9c 113e 1d7d 8a3d
00000190: 1b76 113d dc92 023d cf26 623d f756 37bd
000001a0: b7ff 0b3d 02b2 c33d 6f60 8b3d ae01 52bd
000001b0: 252e 93bc 1067 ddbd 4471 eebd 93c0 e73b
000001c0: 1f8e 1d3c 467e e63c 6a41 edbc ec76 583d
000001d0: dbb8 083e 7724 a63d 49e4 63bd 4054 b93b
000001e0: 0db5 b83c 130f a1bc ea8d 983d e7f8 e9bd
000001f0: a95b ecbd 0713 6bbd b2fb 3e3d 3c82 51bd
00000200: 484e b4bd b4f0 e1bd 7fd8 ca3d cd0b 38bc
00000210: 7940 adbd 7db7 b73b b996 5fbc 0f35 0cbd
00000220: 9733 19bc 9cd3 5f3c 45f7 5a3d 2a56 833c
00000230: 1ae1 863d 2a81 d93c a499 4dbd 32c2 173d
00000240: bb0d fcbc c183 ad3b f6ff 1fbe adee 083d
00000250: 5725 193d 4fc9 1b3e 535b a73c 8094 cb3d
00000260: 0a02 b3bb a6ba a33d 9a43 10bd aa98 c7bd
00000270: 6461 0c3e 32e7 f13d 830e f4bc 0340 8b3d
00000280: 9370 2f3d 7937 123d f72c a4bb d4f5 b83c
00000290: cdce 0bbd 22b9 ccbc eb20 8937 2d63 463d
000002a0: 6c53 95bd f0b8 debd ab8c 8a3e a6ac 7bbd
000002b0: ff78 b73d 9d9a 383e a5f0 8c3d ee11 3c3c
000002c0: cb5c d6bd e9fa d23d 2fcc c53c 0b10 ae3b
000002d0: e57a 973c e8c4 7cbd baf8 f8bd b239 f3bc
000002e0: a9f0 973d a1a8 e43d 235c 97bd 8737 9fbd
000002f0: 2d6c 193d 74a7 c2bc ef10 c93d f40a e13d
00000300: 0616 58bc 6950 4bbd 04a0 043d ca81 f1bc
00000310: a2eb c2bd 3a66 03be 626a e93d 98ca 50bd
00000320: e1ec 473c 2075 0b3e 78db 3cbd 75d3 e33d
00000330: 20ac 003e 7949 bfbd 1ee6 14bd 96f1 2a3d
00000340: c077 beba 9689 ed3d 70ed c63d a979 04bd
00000350: 23c4 03be 5f9c d9bb 5f00 dbbc 8d1a 373d
00000360: 02b2 f23c 5a35 2f3d 21eb d03d 048b 1d3d
00000370: aa9a c2bd 11aa 953d 3580 c9bd cc8c 813d
00000380: 9fee 88bd f9f1 e23b ee4d 593d 975f cbbc
00000390: fd2f 01be d89c e13d 54eb 9e3c 8c61 053d
000003a0: f150 c8bd ccbb 0c3d b880 c23d db3a ef3d
000003b0: cae0 593d 7174 b13d e6f6 e53d 8f55 c039
000003c0: 4256 ff3d 2fd8 06bd 1265 0bbd 67b6 143e
000003d0: 4aa9 003e 97dd 17bd 1927 1fbe 414c 533c
000003e0: 538b 3abe 8e0c 1ebe dd0a c33d fdec 0cbe
000003f0: 1074 16bd db51 fbbd 41c9 923c df34 e73d

network_body._body_endoder.seq_layers.2.bias f4 [128]
-0.004322294 -0.020914529 -0.00580426 -0.004932646 -0.006766324 -0.0087708905 -0.014151279 -0.040199324
0.026744796 0.041091617 0.018945234 0.0029394845 -0.0027181678 0.034179535 0.036151856 -0.022920143
-0.00898202 0.029167563 0.047187652 0.0054292926 -0.022344334 0.037118323 0.017202022 -0.030128773
-0.05295333 0.047179855 0.027585 0.0025538818 -0.016779974 -0.0013873489 -0.007104177 -0.0012236296
0.0155117735 -0.020519998 -0.014206324 0.04302914 -0.0024012136 0.010650779 -0.016603392 0.03117043
-0.06261971 0.033191424 0.0074915597 -0.0100545725 0.016417263 0.023154711 0.05408395 -0.023413006
-0.0024717564 -0.022757597 -0.011257509 0.017610298 -0.045363795 -0.0135083115 -0.020442482 0.0025893059
-0.0072490447 0.026070863 -0.020588418 -0.022172838 0.017666744 0.03545509 0.0046071988 0.041319627
0.01672675 0.035832345 0.0066117384 0.0143345 0.032312833 -0.035688892 -0.026856352 0.0050425637
-0.002790638 0.038266193 0.015930504 0.02862345 -0.020924902 0.017791077 -0.01781636 0.048987575
0.009656962 -0.012284161 -0.0032023035 -0.018587692 0.009152674 -0.058315556 0.014793009 -0.020029526
-0.035513565 -0.016221335 0.016817655 0.01840099 0.003961825 0.016216073 0.010280328 0.027218375
0.03419678 -0.042953018 -0.051940575 0.0058963983 0.018559953 -0.004273291 0.01299501 0.0070347805
0.0064183096 0.009700439 0.009881536 -0.018622888 0.013392979 -0.022316268 0.018298395 0.027430227
-0.0035682272 -0.01680153 0.004728843 0.0298551 0.020075688 -0.015169809 0.002277793 0.009632065
-0.03665589 0.035147335 0.022912584 -0.009801942 -0.002221595 -0.013998408 0.04141347 0.009506106
00000000: 08a2 8dbb f254 abbc a931 bebb 09a2 a1bb
00000010: 0ab8 ddbb c8b3 0fbc c4da 67bc 0ca8 24bd
00000020: e717 db3c af4f 283d 0933 9b3c 5ea4 403b
00000030: 4a23 32bb d7ff 0b3d f813 143d 06c3 bbbc
00000040: 5329 13bc d0f0 ee3c d747 413d 35e8 b13b
00000050: 770b b7bc 6209 183d 41eb 8c3c 9ed0 f6bc
00000060: 97e5 58bd aa3f 413d f0f9 e13c 075f 273b
00000070: 2876 89bc b4d7 b5ba 28ca e8bb 3262 a0ba
00000080: 1825 7e3c 8e19 a8bc a4c1 68bc 533f 303d
00000090: ae5d 1dbb 9b80 2e3c d603 88bc 2159 ff3c
000000a0: c33e 80bd bbf3 073d c27b f53b efbb 24bc
000000b0: 7f7d 863c f3ae bd3c 2287 5d3d a2cc bfbc
000000c0: 31fd 21bb 246e babc 6a71 38bc 7943 903c
000000d0: 63cf 39bd f751 5dbc fe76 a7bc 58b1 293b
000000e0: 6589 edbb 9092 d53c 0ba9 a8bc d0a3 b5bc
000000f0: d9b9 903c 5b39 113d fcf7 963b c53e 293d
00000100: 8a06 893c f0c4 123d 48a7 d83b 40db 6a3c
00000110: 765a 043d 842e 12bd da01 dcbc 173c a53b
00000120: 23e3 36bb 03bd 1c3d b080 823c ba7b ea3c
00000130: b36a abbc 98be 913c 9df3 91bc 32a7 483d
00000140: 3c38 1e3c 8143 49bc bddd 51bb 3745 98bc
00000150: 19f5 153c 4bdc 6ebd 605e 723c f614 a4bc
00000160: ac76 11bd 9be2 84bc 2ec5 893c acbd 963c
00000170: 32d2 813b 92d7 843c d26e 283c 12f9 de3c
00000180: ec11 0c3d 81ef 2fbd a4bf 54bd 9336 c13b
00000190: 0b0b 983c f706 8cbb 06e9 543c 0484 e63b
000001a0: af50 d23b 97ee 1e3c 2ae6 213c 078f 98bc
000001b0: 3a6e 5b3c 9bd0 b6bc 84e6 953c 5bb5 e03c
000001c0: ebd8 69bb 5da3 89bc 69f4 9a3b af92 f43c
000001d0: c575 a43c ca8a 78bc 0647 153b cfcf 1d3c
000001e0: 7d24 16bd a7f6 0f3d 2cb3 bb3c 5398 20bc
000001f0: 2e98 11bb 9459 65bc 2ca1 293d 80bf 1b3c

action_model._continuous_distribution.log_sigma f4 [1, 2]
0.008310721 -0.007824105
00000000: b129 083c ad30 00bc

action_model._continuous_distribution.mu.weight f4 [2, 128]
-0.01991372 -0.001960394 -0.03469573 -0.024981061 0.021115448 -0.012110167 -0.006726728 0.018869728
-0.020634886 -0.0064335777 0.0056618582 -0.044223376 0.042450443 -0.06591582 -0.024146097 -0.0050363485
-0.0018197338 -0.011017254 -0.006237027 -0.028247438 0.0069139814 -0.046212047 0.01915318 -0.002136723
0.014056983 -0.03138867 -0.025361756 0.032563638 0.015090014 0.018742483 0.028065912 0.01388365
0.005272588 0.011470201 -0.008575984 -0.043595694 -0.017480807 -0.028604444 0.00076123537 -0.0049450123
0.04120524 -0.017854905 -0.012404691 -0.018317016 -0.047692858 -0.047948316 -0.036999702 -0.008521048
-0.03730973 0.018519582 0.01778821 -0.02375299 0.021351982 -0.00036733295 0.017951718 0.024908291
0.016520107 -0.010616942 0.006949981 0.00056194444 -0.0056652054 -0.015989615 -0.010958373 -0.023618096
-0.021466693 -0.042045955 -0.029847695 -0.02939199 -0.014746984 0.013307606 0.00018508775 0.01652247
-0.016631017 -0.027804151 0.010872969 -0.026540896 0.025922352 0.0051408946 -0.0035408016 -0.043496005
0.014109903 0.016558448 -0.011804555 0.0006673126 0.01760776 0.03369642 0.009026155 0.015180135
-0.00038455817 0.021424776 -0.0075849015 0.0017912597 -0.045196768 0.005557537 -0.03658502 -0.057052597
-0.01723532 0.0040956363 0.024461405 -0.013899175 -0.011399897 0.015400923 0.01634398 0.01908436
-0.04505345 0.012521741 -0.020563848 0.013671271 -0.018956818 0.014573332 0.008101514 -0.0005685659
-0.017397568 0.03283966 -0.03589888 -0.017592292 -0.0040849936 0.027599523 0.01739806 -0.03092801
0.012463633 -0.05603835 0.0012972725 -0.018508762 0.010193999 -0.006252563 -0.024222666 0.0055607944
-0.0214435 -0.031917863 -0.0201975 -0.04654086 -0.00036760163 -0.010443323 -0.024611918 -0.050076146
-0.014454131 0.013539916 0.033779807 -0.0025976726 0.007465967 -0.017810449 0.0286563 -0.02888769
-0.022775417 0.02556554 0.0033728853 -0.0070795715 -0.016795913 0.004669356 0.030660614 -0.07155658
-0.022120146 -0.0022026675 -0.034034807 0.010030554 -0.010000857 0.0028243489 -0.005125058 0.0041966303
0.01321931 -0.02233245 -0.02345332 -0.02500583 -0.011529573 -0.032392986 -0.023282485 0.016147899
-0.032747447 0.015243645 0.005186649 -0.0072744363 -0.030202469 -0.035508666 -0.012070252 -0.012911925
-0.013821636 -0.032956306 -0.006388008 -0.022386769 -0.021678075 -0.004654801 -0.021049755 0.0068209665
-0.00242184 0.007611116 -0.053284917 -0.026100243 0.014659291 -0.0027707785 0.00015573013 0.0014020794
0.027131148 -0.026515588 0.0040279455 0.0117872385 0.0045141284 -0.039308377 -0.020071024 0.021372804
-0.0070769 0.020816777 0.024721064 -0.00035658802 -0.03062386 0.010668379 -0.009937628 -0.010114321
0.020254625 -0.00482791 -0.008078463 -0.035629958 0.016953161 -0.024188846 0.02551439 -0.03311792
-0.0219923 -0.015735263 0.015035972 0.009884653 -0.026144875 0.017005466 -0.021669475 -0.036339443
0.0032748722 -0.04205342 -0.0614359 -0.007315914 0.015074259 -0.00033180043 0.036121555 0.0052234884
-0.010039197 0.014507997 0.005269946 -0.03396014 0.015328281 -0.0085174935 0.038432974 -0.0037604866
-0.010680394 -0.01612746 -0.026669713 0.027242735 0.018988742 -0.017477365 0.0071179573 -0.031526867
-0.04267269 -0.015320675 0.011514437 -0.034280278 0.0029494865 -0.021873178 0.011425987 0.0051893527
00000000: 1922 a3bc f479 00bb 1c1d 0ebd 15a5 ccbc
00000010: 4efa ac3c b969 46bc e26b dcbb b094 9a3c
00000020: 7e0a a9bc c3d0 d2bb 1c87 b93b 9223 35bd
00000030: 84e0 2d3d e0fe 86bd 09ce c5bc f407 a5bb
00000040: 2284 eeba b681 34bc f95f ccbb 2c67 e7bc
00000050: ae8e e23b d848 3dbd 21e7 9c3c 4308 0cbb
00000060: 434f 663c 6891 00bd 75c3 cfbc 7361 053d
00000070: 1b3c 773c d689 993c 7cea e53c 4078 633c
00000080: adc5 ac3b 83ed 3b3c 4982 0cbc 6691 32bd
00000090: e933 8fbc de53 eabc a48d 473a c509 a2bb
000000a0: d3c6 283d 7344 92bc 0c3d 4bbc 910d 96bc
000000b0: 9659 43bd 7465 44bd 008d 17bd de9b 0bbc
000000c0: 16d2 18bd 61b6 973c 95b8 913c a195 c2bc
000000d0: 5aea ae3c 9896 c0b9 7b0f 933c 790c cc3c
000000e0: 2d55 873c aff2 2dbc abbc e33b 744f 133a
000000f0: 30a3 b9bb a7fc 82bc bf8a 33bc bd7a c1bc
00000100: ebda afbc 6138 2cbd 2783 f4bc 78c7 f0bc
00000110: 559d 71bc 2508 5a3c 1d14 4239 225a 873c
00000120: c53d 88bc 88c5 e3bc 8a24 323c 4b6c d9bc
00000130: 1d5b d43c f374 a83b cb0c 68bb de28 32bd
00000140: 392d 673c 95a5 873c e467 41bc 97ee 2e3a
00000150: 263e 903c 4205 0a3d 70e2 133c 1ab6 783c
00000160: 869e c9b9 0383 af3c c48a f8bb b4c8 ea3a
00000170: 3f20 39bd 001c b63b 2dda 15bd fcaf 69bd
00000180: 1631 8dbc b034 863b 4963 c83c 5eb9 63bc
00000190: a2c6 3abc 2754 7c3c cfe3 853c ce56 9c3c
000001a0: f789 38bd fd27 4d3c 8475 a8bc 77fd 5f3c
000001b0: 544b 9bbc fcc4 6e3c 36bc 043c d00b 15ba
000001c0: 5885 8ebc e182 063d b40a 13bd b61d 90bc
000001d0: 69db 85bb 6518 e23c 6086 8e3c bd5c fdbc
000001e0: 4434 4c3c 7888 65bd 3e09 aa3a b09f 97bc
000001f0: bb04 273c 4de2 ccbb 9d6e c6bc 5337 b63b
00000200: 47aa afbc 4ebc 02bd 3a75 a5bc a1a1 3ebd
00000210: a8ba c0b9 791a 2bbc ef9e c9bc a51c 4dbd
00000220: 05d1 6cbc 86d6 5d3c b25c 0a3d b73d 2abb
00000230: 12a5 f43b 38e7 91bc 9ec0 ea3c e0a5 ecbc
00000240: 8393 babc d36e d13c a00b 5d3b c0fb e7bb
00000250: 9597 89bc 6601 993b f82b fb3c 428c 92bd
00000260: 4f35 b5bc a15a 10bb 1568 0bbd 3157 243c
00000270: a2da 23bc b618 393b 1af0 a7bb e383 893b
00000280: ce95 583c 8bf2 b6bc 2d21 c0bc 07d9 ccbc
00000290: 89e6 3cbc 82ae 04bd e9ba bebc 9948 843c
000002a0: 3022 06bd 7bc0 793c c4f4 a93b 655e eebb
000002b0: 2b6b f7bc 8971 11bd 4ec2 45bc 8a8c 53bc
000002c0: 2574 62bc 31fd 06bd 7f52 d1bb 7564 b7bc
000002d0: 3896 b1bc 4d87 98bb 8970 acbc 6a82 df3b
000002e0: bcb7 1ebb ab66 f93b 4941 5abd 2dd0 d5bc
000002f0: 862d 703c f395 35bb 7d4b 2339 fac5 b73a
00000300: 2442 de3c 3837 d9bc dbfc 833b 431f 413c
00000310: 41eb 933b d201 21bd fd6b a4bc 0516 af3c
00000320: 57e5 e7bb f287 aa3c d483 ca3c 6ff4 bab9
00000330: e4de fabc 6dca 2e3c 6fd1 22bc 89b6 25bc
00000340: 07ed a53c 7233 9ebb 885b 04bc b8f0 11bd
00000350: 5be1 8a3c b027 c6bc 8e03 d13c a8a6 07bd
00000360: 3229 b4bc 3de7 80bc 7059 763c 3df3 213c
00000370: c72d d6bc 0c4f 8b3c 2f84 b1bc abd8 14bd
00000380: 3d9f 563b 3540 2cbd 36a4 7bbd 56ba efbb
00000390: 06fa 763c 80f5 adb9 32f4 133d cc29 ab3b
000003a0: 727b 24bc f3b2 6d3c 83af ac3b ca19 0bbd
000003b0: 7823 7b3c f58c 0bbc e56b 1d3d 7f72 76bb
000003c0: d2fc 2ebc bc1d 84bc 717a dabc 282c df3c
000003d0: 478e 9b3c b12c 8fbc c13d e93b 5122 01bd
000003e0: 8fc9 2ebd 9203 7bbc 0da7 3c3c 7a69 0cbd
000003f0: 2c4c 413b 612f b3bc 1034 3b3c 720b aa3b

action_model._continuous_distribution.mu.bias f4 [2]
-0.013303772 0.026873333
00000000: 10f8 59bc 7725 dc3c

exp_avg f4 [128, 3]
-0.0002091472 -5.0703834e-06 0.00013618026 -1.038759e-06 2.1757533e-07 -1.551657e-06 -6.822169e-06 4.2846315e-07
1.82034e-06 0.00022847782 3.4292614e-06 2.1565535e-05 -8.863371e-06 2.0462741e-07 4.4957255e-06 0.00056917605
1.1371606e-05 -0.0005314934 0.0005295082 1.1628632e-05 -0.00037430876 -1.995404e-05 2.0875922e-07 -3.452644e-06
-1.8451654e-05 -5.1165856e-08 8.385934e-06 -7.715688e-05 -3.394979e-06 7.96377e-05 0.0001049277 3.5157266e-06
-0.00013123773 5.2487844e-06 -1.6109398e-06 6.7095316e-05 2.090165e-05 8.667896e-07 -1.1325203e-05 -2.8194901e-05
5.306832e-07 5.614359e-06 1.17792e-05 -1.5752464e-06 5.1270392e-05 0.0002025936 5.7132986e-08 -0.00016534259
0.00023379267 -4.209252e-07 -0.0001446929 -2.0812215e-06 -4.7742888e-06 0.00011594055 2.2839868e-07 3.0655613e-06
-0.000101867416 0.00027265237 8.088348e-06 -8.51588e-05 -0.00042554358 -5.159372e-06 0.00032819778 1.10206865e-05
-5.569323e-07 2.2602624e-05 0.00031387777 5.3953418e-06 -0.00019436062 5.037256e-07 5.8568514e-08 -1.0879778e-05
-0.00029453513 -1.0938459e-05 0.0002939755 -0.00019334929 -1.927735e-06 -5.517687e-05 0.00021430639 4.8605284e-06
-0.00026198264 2.6959777e-05 1.150497e-06 -4.503626e-06 -3.970738e-05 -4.0434526e-07 3.2746254e-06 6.41847e-05
2.1471697e-06 -1.5580332e-05 2.316963e-05 9.41074e-07 -6.526433e-07 -0.00012959458 -4.7282642e-06 0.00012240747
-0.000111221925 -2.177341e-06 3.153976e-05 -2.0803587e-05 4.9813883e-07 9.277823e-06 7.762579e-06 5.5351313e-07
-3.954604e-07 -8.241248e-05 -2.4315713e-07 2.8933084e-05 0.00033382387 7.372236e-07 -0.00016036158 -2.172342e-05
-9.3108497e-07 3.414035e-05 -0.00045039342 -1.853166e-05 0.00039369948 0.00014873083 2.3994992e-06 -2.3355484e-05
-0.00022374759 -4.069633e-06 0.00012524349 6.3829293e-06 4.3754798e-07 5.2710952e-06 7.095663e-05 4.26917e-06
-0.0001863667 0.00014932094 2.838071e-06 -7.376579e-05 4.527788e-06 -1.8831776e-07 0.00013866207 -0.00040321331
-1.4241142e-05 0.00036675573 4.8251277e-05 -1.6414534e-06 2.7377468e-05 -0.00036424087 -8.564209e-06 0.00021487643
5.6711684e-05 4.354957e-06 -2.3154269e-05 0.0003884203 5.2608743e-06 -0.00021539896 2.2830396e-05 1.1109558e-06
-1.0195652e-05 2.4881523e-05 3.6630122e-06 0.00012733665 -0.00022301583 7.770394e-07 0.00011061328 2.028063e-05
-4.4719863e-07 3.4703993e-07 1.9174554e-06 2.7723665e-06 -5.6463865e-05 -0.0003937134 -1.37974985e-05 0.00040601636
-0.000121211866 -2.0146335e-06 8.4109226e-05 -6.717282e-05 3.2398412e-07 3.6164107e-05 -4.173071e-06 2.1286796e-06
-1.6686356e-05 0.0002899703 2.4321844e-06 -0.00016479376 0.00012156279 3.4786572e-06 -4.140573e-05 -4.2083768e-05
-2.6963023e-06 7.808199e-05 -1.6263968e-05 -9.3191295e-07 -2.4218176e-05 -0.00097527605 -2.4856769e-05 0.0006445408
4.510419e-06 -8.3258857e-07 -2.6764083e-05 -4.858013e-05 -2.200837e-06 3.9482347e-05 8.040154e-05 4.2380175e-06
-1.7564462e-05 0.00019853331 3.6165745e-06 -5.8573587e-05 -3.0945816e-05 -2.4131512e-07 -5.540627e-06 4.2321062e-05
3.9770458e-07 -3.690376e-06 5.337114e-05 -1.4992418e-06 -6.7679175e-06 1.48698955e-05 1.3250311e-06 -7.92e-06
5.6382138e-05 1.2127308e-06 -4.2424275e-05 0.0003028421 6.690654e-06 -0.000111636895 0.00028924627 2.935615e-06
-0.00024080073 -4.6367854e-06 9.06863e-10 -9.613125e-06 -5.1149756e-05 -1.4363237e-06 3.6452602e-05 -1.9463467e-05
5.4129536e-08 7.798301e-06 -0.00050385174 -7.994426e-06 0.00040375747 0.00029310933 3.6507856e-06 -5.698579e-05
-0.00019663831 -9.384217e-06 6.338897e-05 4.181723e-06 1.6046132e-06 -6.595759e-06 0.00015088558 2.8665997e-06
-1.1616087e-05 9.942586e-05 6.6356677e-07 -3.220737e-05 9.9114215e-05 3.2013495e-06 3.193729e-05 -2.0325365e-06
00000000: 864e 5bb9 4322 aab6 9ccb 0e39 7d6b 8bb5
00000010: a79e 6934 8742 d0b5 fce9 e4b6 8707 e634
00000020: 6852 f435 8c93 6f39 4322 6636 a2e7 b437
00000030: e3b3 14b7 8eb7 5b34 fdd9 9636 c234 153a
00000040: adc8 3e37 eb53 0bba b2ce 0a3a 9818 4337
00000050: df3e c4b9 fa62 a7b7 4c27 6034 f9b3 67b6
00000060: a0c8 9ab7 74c1 5bb3 50b1 0c37 49cf a1b8
00000070: 4cd5 63b6 2a03 a738 a10c dc38 b9ef 6b36
00000080: dc9c 09b9 b71e b036 7837 d8b5 86b5 8c38
00000090: f455 af37 54ad 6835 6001 3eb7 1784 ecb7
000000a0: 4674 0e35 fa62 bc36 479f 4537 0e6d d3b5
000000b0: 2a0b 5738 4e6f 5439 6262 7533 d05f 2db9
000000c0: 3e26 7539 85fb e1b4 b4b8 17b9 1dab 0bb6
000000d0: d432 a0b6 1c25 f338 c03d 7534 f1b9 4d36
000000e0: a7a1 d5b8 c8f2 8e39 31b3 0737 4897 b2b8
000000f0: 7e1b dfb9 ab1e adb6 f611 ac39 7de5 3837
00000100: 1980 15b5 c49a bd37 f68f a439 a209 b536
00000110: 48cd 4bb9 c237 0735 c38c 7b33 4a88 36b7
00000120: d66b 9ab9 5384 37b7 b920 9a39 cebd 4ab9
00000130: 3c5e 01b6 b76d 67b8 6fb7 6039 9f17 a336
00000140: b75a 89b9 ae27 e237 c76a 9a35 da1d 97b6
00000150: 7a8b 26b8 ca14 d9b4 a3c1 5b36 e69a 8638
00000160: 1818 1036 82b2 82b7 675c c237 1d9e 7c35
00000170: 4e31 2fb5 c8e3 07b9 7ba7 9eb6 815a 0039
00000180: d13f e9b8 6f1e 12b6 8f49 0438 5d83 aeb7
00000190: d7b7 0535 f2a7 1b37 063c 0237 2295 1435
000001a0: aa4f d4b4 ddd4 acb8 438b 82b4 53b5 f237
000001b0: 1505 af39 9fe5 4535 bc26 28b9 b03a b6b7
000001c0: acef 79b5 ec31 0f38 c822 ecb9 7074 9bb7
000001d0: 7369 ce39 a1f4 1b39 1507 2136 85eb c3b7
000001e0: c99d 6ab9 e28d 88b6 cb53 0339 f22c d636
000001f0: 23e8 ea34 5dde b036 8dce 9438 e43f 8f36
00000200: 6e6b 43b9 0993 1c39 b075 3e36 b5b2 9ab8
00000210: 67ed 9736 6434 4ab4 d165 1139 6066 d3b9
00000220: 3ded 6eb7 1f49 c039 6a61 4a38 e94f dcb5
00000230: aaa8 e537 95f7 beb9 ffae 0fb7 7450 6139
00000240: b5dd 6d38 cc20 9236 6a3b c2b7 e4a4 cb39
00000250: 9186 b036 b8dc 61b9 e783 bf37 271c 9535
00000260: fe0d 2bb7 aab8 d037 12d2 7536 ac85 0539
00000270: 5bd9 69b9 be95 5035 0df9 e738 5220 aa37
00000280: 8316 f0b4 ce50 ba34 a2ad 0036 e50c 3a36
00000290: 9dd3 6cb8 516b ceb9 ce7b 67b7 98de d439
000002a0: 2033 feb8 2433 07b6 cc63 b038 22df 8cb8
000002b0: 0af0 ad34 eaae 1738 6806 8cb6 70da 0e36
000002c0: adf9 8bb7 2807 9839 9c38 2336 7dcc 2cb9
000002d0: 87ef fe38 e072 6936 10ab 2db8 1a83 30b8
000002e0: 1ff2 34b6 f3bf a338 9b6e 88b7 9228 7ab5
000002f0: 2328 cbb7 aba9 7fba 8183 d0b7 67f6 283a
00000300: 3458 9736 0d7f 5fb5 6e83 e0b7 84c2 4bb8
00000310: 17b2 13b6 d999 2538 409d a838 4b34 8e36
00000320: 6557 93b7 612d 5039 47b4 7236 e9ac 75b8
00000330: d1cb 01b8 198e 81b4 a0e9 b9b6 e581 3138
00000340: 1a84 d534 2da8 77b6 d3da 5f38 8e39 c9b5
00000350: f817 e3b6 b779 7937 b9d7 b135 24e0 04b7
00000360: dc7b 6c38 1dc5 a235 b8f0 31b8 c7c6 9e39
00000370: 4880 e036 9a1e eab8 faa5 9739 7b01 4536
00000380: 747f 7cb9 af95 9bb6 cf46 7930 0f48 21b7
00000390: a289 56b8 b5c7 c0b5 afe4 1838 7a45 a3b7
000003a0: 0e7c 6833 73d5 0237 eb14 04ba cc1f 06b7
000003b0: 69af d339 78ac 9939 0500 7536 0704 6fb8
000003c0: b230 4eb9 e870 1db7 b2ef 8438 ba50 8c36
000003d0: 175e d735 2351 ddb6 0a37 1e39 cf5f 4036
000003e0: b7e2 42b7 da82 d038 f61f 3235 6616 07b8
000003f0: 8adb cf38 c4d6 5636 67f4 0538 b666 08b6

exp_avg_sq f4 [128, 3]
1.1480304e-06 1.1730077e-10 2.5594133e-08 1.5967416e-09 2.4578298e-11 4.1606193e-10 3.6061134e-09 1.524619e-12
2.8225722e-10 7.15174e-07 1.06278174e-10 1.4070249e-08 4.149894e-09 1.8822431e-11 3.4057793e-10 5.4985744e-06
9.0667435e-10 1.622185e-07 4.1758952e-07 2.0123392e-10 7.5958745e-08 5.434763e-09 8.470532e-12 3.7299716e-10
3.1490914e-09 1.1589956e-11 9.49401e-10 5.516352e-09 1.383384e-11 4.5559214e-09 1.6526283e-06 1.9626295e-10
2.9130472e-08 9.83939e-09 2.73165e-11 8.764857e-09 3.7464304e-08 1.296911e-11 2.2712425e-09 3.6430234e-09
2.5115656e-12 4.0332443e-10 4.776241e-09 1.8702337e-11 6.4109362e-09 2.3462894e-06 3.111198e-10 5.720931e-08
2.1610076e-06 4.916351e-10 9.404799e-08 7.760644e-08 2.2207469e-10 3.9455404e-08 1.505558e-06 1.9298975e-10
3.790899e-08 5.461034e-07 1.2638662e-10 3.2953405e-08 4.5217885e-06 7.63992e-10 1.236225e-07 9.119113e-09
5.5787714e-12 1.224825e-09 5.3259635e-07 1.2016727e-10 2.6991483e-08 4.1222976e-09 5.353474e-12 1.4212858e-09
3.0495994e-07 1.25637e-10 4.7777814e-08 1.8845244e-06 1.9845368e-10 2.7755085e-08 9.408288e-07 1.7139196e-10
4.1177e-08 8.3266025e-09 5.8939134e-12 6.09176e-10 1.6660128e-07 1.5209157e-11 3.8702948e-09 2.576284e-08
2.355632e-11 1.5042066e-09 6.24599e-09 1.1692226e-11 4.5012705e-10 1.2000278e-08 1.6357051e-11 6.9074546e-09
1.5099562e-07 1.7359586e-11 6.269317e-09 9.280076e-10 4.426389e-12 3.330825e-10 7.616549e-10 2.6555318e-12
2.2287261e-10 1.2471406e-07 2.4908832e-11 2.3414075e-09 9.913947e-07 2.666734e-10 6.821679e-08 9.462109e-09
1.958896e-11 4.8112265e-09 9.871123e-06 1.3594538e-09 3.2171903e-07 1.810065e-07 3.3046125e-11 7.0846755e-09
2.6312602e-08 2.1996682e-11 6.8503416e-09 4.3091113e-09 8.188989e-12 8.5144614e-10 9.945935e-07 1.6898158e-10
3.371955e-08 3.4761038e-07 4.6631893e-11 7.3165602e-09 2.2780637e-06 2.9177047e-10 4.3602476e-08 3.4419853e-07
1.5957712e-10 8.079104e-08 5.010793e-08 9.277041e-11 1.668581e-08 1.784461e-07 4.3196276e-11 1.1434815e-08
9.134859e-07 1.4022224e-10 2.709329e-08 2.3410212e-06 2.4379568e-10 4.402582e-08 2.9043878e-09 9.445343e-12
6.628621e-10 2.0272635e-06 3.5172934e-10 4.568779e-08 7.837726e-06 8.575898e-10 1.2648674e-07 1.1804719e-06
1.0343299e-10 2.0294687e-08 5.226459e-07 6.540668e-11 1.2063611e-08 1.901098e-07 1.5137923e-10 6.644292e-08
1.6259081e-08 8.557269e-12 2.3626323e-09 3.3188652e-08 1.19237085e-11 3.3673053e-09 1.1559137e-06 1.1130423e-10
1.6607736e-08 1.0568524e-06 1.7691376e-10 4.198066e-08 7.6501846e-07 1.369473e-10 2.5318046e-08 1.2489818e-08
1.5412043e-11 3.762105e-09 1.075653e-07 5.9683626e-11 6.683749e-09 3.3466233e-07 2.9871797e-10 1.5727592e-07
2.39591e-07 5.83579e-11 1.4917251e-08 9.340207e-09 5.595044e-12 1.855747e-09 5.83289e-07 7.968121e-11
1.5412647e-08 3.5812255e-07 4.0405485e-11 7.923038e-09 4.5195407e-09 2.7869007e-12 4.3549817e-10 6.3764647e-09
2.3868046e-11 3.2434284e-09 9.570259e-08 4.100741e-11 9.474406e-09 2.3424802e-09 1.3811934e-12 2.522863e-10
1.19670975e-08 3.326577e-11 3.6388401e-09 2.8045173e-07 4.6257474e-11 1.27248745e-08 1.7059666e-06 3.0047123e-10
5.341903e-08 1.0494911e-07 1.311676e-11 7.572557e-09 5.2435136e-09 2.1903616e-11 2.2553404e-09 2.1964004e-09
6.7622336e-12 5.8643407e-10 6.1939804e-06 9.646459e-10 1.435771e-07 3.2576145e-06 2.9773706e-10 4.6224915e-08
3.1800505e-06 4.683133e-10 9.888907e-08 9.2328556e-10 1.6721759e-12 2.9724323e-10 7.558421e-08 5.23103e-11
2.8966656e-09 4.803771e-07 5.0945918e-11 9.519577e-09 1.294029e-06 2.1396891e-10 3.328698e-08 1.34011655e-08
00000000: 0616 9a35 3bf9 002f 18da db32 5a74 db30
00000010: 6831 d82d 83bb e42f 6bcf 7731 3092 d62b
00000020: 2c2c 9b2f 62fa 3f35 4bb5 e92e 9cb9 7132
00000030: db96 8e31 5990 a52d 153c bb2f 6580 b836
00000040: 8939 7930 482e 2e34 1131 e034 5042 5d2f
00000050: c31e a333 aebc ba31 e203 152d af0e cd2f
00000060: 6767 5831 86e4 4b2d 147c 8230 588a bd31
00000070: 145e 732d 4f8a 9c31 e0cf dd35 1ccb 572f
00000080: 963a fa32 180a 2932 4a47 f02d 4094 1632
00000090: 70e8 2033 ae27 642d 1f14 1c31 bf58 7a31
000000a0: 58bc 302c deba dd2f 431c a431 eb81 a42d
000000b0: 3147 dc31 f274 1d36 380a ab2f 4db6 7533
000000c0: d405 1136 bf23 0730 6ef7 c933 97a8 a633
000000d0: 782c 742f ad75 2933 9412 ca35 c931 542f
000000e0: 60d1 2233 f197 1235 acf6 0a2f a788 0d33
000000f0: deb9 9736 2801 5230 18bd 0434 48aa 1c32
00000100: 1b49 c42c b356 a830 bef7 0e35 1420 042f
00000110: e6da e732 1da4 8d31 cf5b bc2c 0c57 c330
00000120: 60b9 a334 ac23 0a2f 4334 4d33 c4ef fc35
00000130: bf33 5a2f 146a ee32 438d 7c35 8c72 3c2f
00000140: 97da 3033 c90c 0f32 a75f cf2c f372 2730
00000150: 03e3 3234 fac7 852d 79fb 8431 164d dd32
00000160: 1e34 cf2d 91bc ce30 4f9c d631 1bb1 4d2d
00000170: c075 f72f c829 4e32 cee0 8f2d 9d56 ed31
00000180: 5c21 2234 50b2 982d 7f69 d731 bb16 7f30
00000190: 5ebd 9b2c 321d b72f b35c 5130 cfdd 3a2c
000001a0: 100d 752f 24e9 0534 b419 db2d 7ae6 2031
000001b0: 1010 8535 f29a 922f 947e 9233 cc8e 2232
000001c0: 6b4e ac2d ff4f a531 279c 2537 87d7 ba30
000001d0: bab8 ac34 b05a 4234 a156 112e 776d f331
000001e0: 0606 e232 207c c12d 3e60 eb31 580f 9431
000001f0: ee0f 102d 320b 6a30 f97d 8535 16cc 392f
00000200: 0ad3 1033 359f ba34 d816 4d2e 2565 fb31
00000210: d6e0 1836 0b67 a02f 6e45 3b33 49ca b834
00000220: f774 2f2f 587f ad33 4036 5733 1901 cc2e
00000230: 7c54 8f32 e49a 3f34 affa 3d2e d972 4432
00000240: 4636 7535 0d2d 1a2f c6ba e832 701a 1d36
00000250: 3107 862f e716 3d33 8896 4731 0b2a 262d
00000260: c634 3630 1f0c 0836 815d c12f 423a 4433
00000270: c77e 0337 84bb 6b30 69d0 0734 b570 9e35
00000280: 9973 e32e 7d54 ae32 f44b 0c35 b0d4 8f2e
00000290: 5340 4f32 fc20 4c34 7771 262f 62af 8e33
000002a0: 19aa 8b32 838a 162d de5b 2231 4f8b 0e33
000002b0: 9cc3 512d 4366 6731 e424 9b35 b6c2 f42e
000002c0: cca8 8e32 2cd9 8d35 cc84 422f 394e 3433
000002d0: ab5b 4d35 3d93 162f f97a d932 cd92 5632
000002e0: d690 872d d343 8131 a6fe e633 e53e 832e
000002f0: e1a6 e531 a4ab b334 d138 a42f addf 2834
00000300: 23a1 8034 9454 802e 6223 8032 aa76 2032
00000310: addb c42c 4b0d ff30 5193 1c35 8938 af2e
00000320: c564 8432 fd43 c034 88b4 312e e41d 0832
00000330: 4d4a 9b31 571c 442c eb6a ef2f fa17 db31
00000340: 10f2 d12d ffe2 5e31 0e85 cd33 3d5a 342e
00000350: e1c4 2232 59f9 2031 bd62 c22b 24b2 8a2f
00000360: da97 4d32 ed4d 122e 270f 7a31 fe90 9634
00000370: 4971 4b2e 979c 5a32 91f8 e435 912f a52f
00000380: d86e 6533 6260 e133 a3c0 662d 7518 0232
00000390: 6f2a b431 8faa c02d 5efc 1a31 7cef 1631
000003a0: c9ec ed2c a132 2130 e3d5 cf36 7694 8430
000003b0: 2c2a 1a34 649d 5a36 c4ae a32f d588 4633
000003c0: da68 5536 9eba 0030 d75c d433 72ca 7d30
000003d0: 7c56 eb2b 4469 a32f dc50 a233 2910 662e
000003e0: ae0e 4731 43f3 0035 0110 602e 8b8b 2332
000003f0: 7fae ad35 e542 6b2f 6cf7 0e33 f33a 6632

exp_avg f4 [128]
6.729588e-05 -3.1883285e-06 -5.463053e-06 -4.059105e-05 -2.6410908e-06 -0.00016057646 -0.00015928988 -2.847029e-06
5.9623505e-07 4.5566845e-05 -4.872429e-05 2.1822707e-05 -5.856455e-06 -7.28636e-06 2.1125434e-05 -4.989666e-06
5.8230416e-06 6.393532e-05 -4.3183656e-05 -0.00010523648 7.2868046e-05 7.4557765e-06 -7.3131436e-05 -7.555756e-07
0.000145333 2.1752694e-05 -6.745903e-05 -1.681091e-05 7.4837867e-06 -2.7183782e-05 -1.1524442e-05 6.374563e-05
2.886627e-05 -6.664808e-06 -7.469743e-06 6.2643576e-06 -1.1365817e-05 1.2472373e-05 0.00024723203 -2.8912664e-05
5.4751847e-05 -5.3352624e-06 -6.0431546e-05 -3.8652684e-05 6.9815706e-06 0.00019109173 2.2033673e-05 0.00011528854
-5.7374888e-05 -7.193602e-05 -1.4912114e-05 -4.3974396e-05 -6.5982535e-06 6.37466e-06 -3.7988702e-05 0.00018754607
2.696874e-05 -4.2103775e-06 -2.802461e-05 -3.3951834e-05 -4.5384633e-05 3.6064954e-05 1.0960855e-05 0.0003344748
1.0694872e-05 2.9452702e-05 -5.6495148e-05 -4.6058885e-05 3.3369288e-06 -5.2653013e-06 1.8897244e-05 -1.7798551e-05
-1.6088925e-05 -8.824453e-05 -4.4215325e-05 3.85002e-06 1.8919709e-05 -8.061249e-07 0.00011684517 -4.536673e-05
0.00012228079 -2.1541022e-05 -3.2526827e-05 -8.1732005e-06 -3.7289927e-05 1.9660154e-06 -3.3324435e-05 -5.0472692e-05
-2.7487493e-05 2.0895313e-05 0.00018939594 0.00014052627 0.00010459817 -8.6156115e-06 -0.00017206701 -1.6140677e-05
6.292256e-05 -7.679863e-05 6.287093e-05 -8.618236e-05 -9.137004e-06 0.00015188233 -0.000121414 3.2614194e-06
-8.86262e-06 6.0406437e-05 0.00019168925 -7.334675e-06 1.13763335e-05 0.00014866165 -8.982166e-06 6.535834e-05
-7.809566e-06 3.083545e-05 5.8669148e-06 3.2663014e-05 9.1253634e-05 -2.105945e-06 -8.932364e-06 4.2642805e-05
4.524885e-06 -3.7761434e-05 5.189475e-05 7.353222e-05 6.8156856e-05 -9.580897e-05 -4.8822265e-05 0.00016055218
00000000: 3321 8d38 11f7 55b6 454f b7b6 4f40 2ab8
00000010: 983d 31b6 6a60 28b9 0d07 27b9 960f 3fb6
00000020: f60c 2035 071f 3f38 4f5d 4cb8 e80f b737
00000030: 9182 c4b6 5b7d f4b6 8636 b137 e86c a7b6
00000040: 8c63 c336 0315 8638 1920 35b8 68b2 dcb8
00000050: bcd0 9838 a22c fa36 245e 99b8 c3d2 4ab5
00000060: 8864 1839 8e79 b637 ca78 8db8 2805 8db7
00000070: 3d1d fb36 ba08 e4b7 1a59 41b7 2daf 8538
00000080: d825 f237 44a2 dfb6 9ba4 fab6 6c32 d236
00000090: d0af 3eb7 6f40 5137 ec9e 8139 7989 f2b7
000000a0: 59a5 6538 8e05 b3b6 e177 7db8 011f 22b8
000000b0: 3c43 ea36 cc5f 4839 f4d4 b837 10c7 f138
000000c0: d1a5 70b8 5bdc 96b8 0b2f 7ab7 2671 38b8
000000d0: 9166 ddb6 eae5 d536 0f56 1fb8 04a8 4439
000000e0: ee3a e237 de46 8db6 6416 ebb7 8167 0eb8
000000f0: 615b 3eb8 7344 1738 84e4 3737 735c af39
00000100: 206e 3337 3211 f737 34f5 6cb8 5a2f 41b8
00000110: 00f0 5f36 98ac b0b6 8685 9e37 194e 95b7
00000120: b4f6 86b7 ec0f b9b8 d873 39b8 6c2f 8136
00000130: c4b5 9e37 7b64 58b5 c60a f538 2848 3eb8
00000140: 8038 0039 feb2 b4b7 6a6d 08b8 a11f 09b7
00000150: c167 1cb8 e3ef 0336 d7c5 0bb8 a4b2 53b8
00000160: f194 e6b7 5848 af37 9698 4639 3c5a 1339
00000170: b75b db38 c58b 10b7 e36c 34b9 d765 87b7
00000180: 4bf5 8338 f30e a1b8 93d9 8338 cdbc b4b8
00000190: 224b 19b7 9a42 1f39 a59f feb8 c2de 5a36
000001a0: aab0 14b7 eb5c 7d38 3100 4939 611c f6b6
000001b0: fbdc 3e37 0fe2 1b39 1cb2 16b7 fe10 8938
000001c0: d505 03b7 5055 0138 6adc c436 a5ff 0838
000001d0: 6c5f bf38 dc53 0db6 36dc 15b7 5ddb 3238
000001e0: 77d4 9736 0862 1eb8 90a9 5938 4f35 9a38
000001f0: 6fef 8e38 0ded c8b8 82c6 4cb8 e659 2839

exp_avg_sq f4 [128]
2.1414271e-08 4.4353445e-09 2.7721692e-10 1.9301174e-08 3.3972902e-09 1.6591534e-07 3.6510034e-08 1.5336175e-09
2.0954167e-09 2.49569e-09 3.638556e-08 4.917988e-09 2.3429236e-09 4.5858706e-10 3.3692027e-09 5.7091206e-08
8.996168e-08 4.0078127e-08 3.5867043e-08 2.2866281e-08 1.4007358e-07 1.0167416e-09 2.1819632e-08 9.673284e-10
2.2906368e-08 3.5889705e-08 3.1011485e-08 1.0711831e-09 2.7726232e-09 4.2390966e-09 2.0931892e-09 2.9380676e-09
3.1962128e-09 7.9871826e-10 4.7942916e-10 4.5607575e-09 4.834435e-08 3.5391359e-09 2.5130316e-07 6.0056453e-09
3.976482e-09 1.4786647e-09 3.1062232e-08 8.602594e-09 5.383204e-08 2.8825776e-08 1.6737618e-08 7.878669e-09
2.5752573e-08 4.49472e-08 1.7065013e-09 6.448822e-08 1.5907824e-07 1.8753372e-08 1.2142472e-08 2.7103104e-08
1.5610245e-09 2.20065e-09 2.0718362e-08 3.2265582e-08 2.512231e-08 2.7937037e-09 1.0779265e-08 5.3650613e-08
1.0597628e-08 1.0152551e-09 1.4739151e-08 7.4010518e-09 5.03716e-10 4.3039017e-09 7.4207147e-09 2.5107236e-10
6.0082748e-09 8.511472e-09 5.4880182e-08 2.4022064e-09 3.9525014e-09 1.2218263e-09 1.7710502e-07 5.5212656e-08
8.564492e-08 3.0190853e-10 9.305057e-09 9.315754e-09 3.8952475e-08 1.1655609e-09 2.0875376e-08 1.295052e-08
1.1885549e-09 1.0520104e-07 2.3176643e-08 4.697171e-08 6.9822317e-09 4.934307e-09 7.928558e-08 1.7682181e-08
6.0047705e-09 1.0378931e-07 9.552762e-09 1.7955731e-08 1.0421943e-09 2.2592639e-08 1.9639897e-08 1.9606399e-09
2.4812579e-09 1.5890704e-08 5.7437646e-08 1.3204319e-09 1.5033379e-08 9.158796e-09 2.349111e-09 6.599524e-08
8.9759267e-10 4.3518856e-08 2.3823656e-09 1.043697e-08 1.7223517e-08 8.676409e-09 9.815343e-09 5.9581526e-09
2.6142441e-08 6.011294e-08 1.2617541e-08 9.85078e-09 3.910571e-08 6.635545e-08 8.4850036e-08 8.080516e-08
00000000: 7bf2 b732 b465 9831 d066 982f bbcb a532
00000010: c375 6931 7626 3234 35cf 1c33 5ec7 d230
00000020: f6fe 0f31 a580 2b31 5946 1c33 14fb a831
00000030: 2601 2131 641c fc2f a487 6731 7234 7533
00000040: f530 c133 5e22 2c33 3b0c 1a33 7c6b c432
00000050: 2267 1634 6abd 8b30 e16d bb32 d8f2 8430
00000060: a3c3 c432 2625 1a33 7d31 0533 e838 9330
00000070: 8188 3e31 7da7 9131 c6d7 0f31 08e7 4931
00000080: 5fa4 5b31 cd8c 5b30 d4c8 0330 d9b4 9c31
00000090: 2da3 4f33 2335 7331 d8ea 8634 375a ce31
000000a0: 81a1 8831 e439 cb30 4969 0533 9cca 1332
000000b0: f434 6733 8d9c f732 69c6 8f32 c15a 0732
000000c0: 8236 dd32 f80b 4133 2d8a ea30 c67c 8a33
000000d0: 18cf 2a34 1a17 a132 289b 5032 5bd0 e832
000000e0: ab8b d630 3f3a 1731 29f8 b132 6294 0a33
000000f0: 8bcc d732 5bfb 3f31 b52f 3932 796d 6633
00000100: dc10 3632 1d89 8b30 7937 7d32 574c fe31
00000110: dd75 0a30 85e1 9331 4cf9 fe31 4b07 8a2f
00000120: 5871 ce31 da39 1232 66b5 6b33 1014 2531
00000130: 92ce 8731 31ed a730 422a 3e34 f522 6d33
00000140: cbeb b733 d9f9 a52f 13dc 1f32 1f0b 2032
00000150: b34c 2733 8731 a030 7051 b332 fd7c 5e32
00000160: 8f5a a330 e2ea e133 fa15 c732 f1bd 4933
00000170: 5ce8 ef31 a08a a931 b543 aa33 87e3 9732
00000180: 8552 ce31 c7e2 de33 7e1d 2432 123d 9a32
00000190: f43c 8f30 bd11 c232 97b4 a832 f1bb 0631
000001a0: c082 2a31 0780 8832 5cb1 7633 917a b530
000001b0: c022 8132 d058 1d32 ff6d 2131 44b9 8d33
000001c0: 78ba 7630 7de9 3a33 05b7 2331 484e 3332
000001d0: eaf2 9332 400f 1532 56a0 2832 77b8 cc31
000001e0: d68f e032 7017 8133 88c4 5832 303c 2932
000001f0: 2ff5 2733 4b7f 8e33 cd36 b633 1b87 ad33
