results/Test2/Test2/Test2-5403.onnx (onnx, 72639 bytes, 7 tensors)

action_model._continuous_distribution.log_sigma f4 [1, 2]
000000 00 00 00 00 00 00 00 00
       0.0 0.0

action_model._continuous_distribution.mu.bias f4 [2]
000000 00 00 00 00 00 00 00 00
       0.0 0.0

action_model._continuous_distribution.mu.weight f4 [2, 128]
000000 28 09 9c 3b 85 fe da bb 8f db 4c bc 5d 0b db 3b
       0.0047618337 -0.006683173 -0.012503519 0.006684704
000010 41 c1 c5 bb 5a c5 97 3c 83 15 dd 3a 67 d5 47 bc
       -0.0060350006 0.018526722 0.0016867373 -0.012196875
000020 53 da 73 bc 1f 00 f3 3b c3 e8 86 bc ed 13 b7 3c
       -0.0148835955 0.007415786 -0.016468411 0.022348369
000030 bf 67 9a 3b 88 da f5 bc 3b b4 3b 3c 4b 31 15 3c
       0.0047120745 -0.03001143 0.0114565445 0.009105991
000040 9f e3 60 3c d8 74 b6 bb 9f 02 ce bb 07 ea 26 3c
       0.013726144 -0.005568128 -0.0062869336 0.010187632
000050 25 ac 1c bc 44 8c 00 bc f3 63 84 3b cb 45 05 3d
       -0.009562527 -0.007845942 0.004040235 0.032537263
000060 0a 5d 93 3c f3 32 84 3b 86 14 9b bc e8 46 d2 3b
       0.0179887 0.004034394 -0.018930685 0.006417144
000070 87 3a 9e bc cb d6 05 3c 83 4b ba 3c be a2 1a bd
       -0.019315017 0.008168886 0.022741085 -0.03775286
000080 9a e7 6a bc 07 37 05 bb 28 6e d4 3c cb 05 94 bb
       -0.014337445 -0.0020326988 0.025931433 -0.004517292
000090 34 9a 85 ba a3 8e 8b 3c 26 c6 01 bd 67 d1 86 3c
       -0.0010193051 0.017035788 -0.03168311 0.016457273
0000a0 43 32 85 bc af f3 22 bc e4 cb 98 bb 96 51 98 3c
       -0.016259318 -0.009945794 -0.0046629775 0.01859359
0000b0 23 9c cb 3c 42 06 8d 3a 7f 4e dd bb bc b5 9f ba
       0.024854725 0.0010759311 -0.006753742 -0.0012184898
0000c0 d1 03 96 bb 1b 2e 6e 3c 48 18 db ba 9b 8a a8 3c
       -0.0045780917 0.01453736 -0.001671561 0.020573905
0000d0 c7 2c 23 bb bf a3 9f 3c ff 3c 81 3c e2 4a ff bb
       -0.0024898516 0.01948726 0.015776156 -0.007790909
0000e0 38 af 65 bb bb 20 a3 3c f2 46 bc 3b 8f bc 3f 3c
       -0.0035047065 0.019913068 0.005745762 0.011702671
0000f0 79 e3 c0 3b fe 0b 48 3c a3 fa 06 3c 21 f2 c8 bb
       0.005886492 0.01220989 0.008238467 -0.0061323796
000100 b3 43 c9 bb 19 ab c1 bc 88 93 01 3c 7b 75 fc 3c
       -0.0061421036 -0.023641156 0.007908709 0.030817738
000110 25 d7 3e bc a7 39 44 3b 71 09 39 3a e3 bc c6 3c
       -0.011647974 0.002994159 0.0007058597 0.02425999
000120 a2 37 ec 3c 8a 08 4b 3c 6a ce 7d bb 3b f8 eb bb
       0.028835122 0.012392173 -0.0038727769 -0.0072012222
000130 53 ce 98 bc 17 17 32 3c 47 dc 54 3c c0 18 0a 3b
       -0.01865307 0.010869763 0.012991971 0.002107188
000140 2a 0a 3e 3b 4f 00 7f 3c 4b 8e 08 bd 2a b6 92 bb
       0.0028997757 0.015564038 -0.033338826 -0.004477282
000150 06 a4 24 3a e6 ab 8a 3c 6c 59 2a bc f7 e5 3b 3a
       0.0006280545 0.01692767 -0.010397296 0.00071677513
000160 73 71 a2 bb 30 b9 53 3c fa 5c a4 bc aa 65 6d bb
       -0.004957372 0.01292257 -0.020063866 -0.0036223927
000170 83 a7 ab 3b 0d 1e 5f bb a0 a1 f2 bb 51 3c 4a 3b
       0.005238475 -0.0034045011 -0.007404521 0.0030858705
000180 92 6d 69 3b 1a 48 50 bc 71 28 3f 3d ab 1b 44 3c
       0.0035618288 -0.012712503 0.046669427 0.011969487
000190 76 2a 18 3b 43 bb 25 bd 90 dd 96 bb a5 48 ce 3b
       0.0023218668 -0.04046179 -0.004604049 0.006295281
0001a0 48 8a 4f ba e2 98 68 3c bb bf 05 bd 0b 9d 60 bc
       -0.0007917029 0.014196606 -0.03265355 -0.013709317
0001b0 e7 7e 9a bc 02 a2 01 3d 11 61 92 3b 55 6e 05 bc
       -0.01885934 0.031648643 0.0044671376 -0.008143981
0001c0 43 90 6d bc 9c 37 2b bc 74 a4 3c bc 18 24 13 3d
       -0.014499727 -0.01045027 -0.011513818 0.035923094
0001d0 b7 a8 84 3c 1b fb 95 3b 99 97 07 3c 62 3d d9 3b
       0.01619373 0.0045770532 0.00827589 0.006629632
0001e0 9a fa 38 bc a3 02 95 bc 16 4b 88 bc 55 29 6b 3b
       -0.011290217 -0.018189734 -0.016637366 0.003588279
0001f0 b3 f4 5a bb e3 5a 09 bd 1c d2 9d bb d3 d0 b0 3c
       -0.0033410012 -0.033533942 -0.0048163068 0.02158395
000200 79 7f 20 bc 04 b0 90 bb 27 e5 b1 3b 8c e5 80 bc
       -0.009796017 -0.004415514 0.0054289284 -0.015734456
000210 57 9e 28 bc 24 75 81 bc d3 bd 13 3c 6d 01 42 bc
       -0.010291657 -0.015802927 0.009017426 -0.01184116
000220 a8 31 21 bd 50 c3 e1 39 a0 7a ec b9 3f 8e 0c 3c
       -0.039353997 0.00043060863 -0.0004510479 0.008578836
000230 c0 57 c7 3b e7 2f d0 ba 2b 83 5c 3c b3 bd 03 bc
       0.0060834587 -0.0015883417 0.013459007 -0.008040833
000240 a2 55 af ba 77 e7 02 3c d0 10 5a bb ff eb 3f 3c
       -0.0013376961 0.007989756 -0.0033274181 0.011713981
000250 5f 1b 5d bc 2a 4e 39 bb d3 e8 fb bb 1a 65 e1 bb
       -0.013495295 -0.002827535 -0.007687667 -0.0068785073
000260 85 15 69 bb 23 4e 2a 3d 72 e3 78 3c 4c 7e 2f bc
       -0.0035565805 0.041578423 0.015190946 -0.010711264
000270 68 10 a4 3c bf 04 ef 3b 93 cb 4f 3c 5f 7d d8 ba
       0.020027354 0.007294267 0.012682813 -0.0016516856
000280 07 c4 66 bb 13 0b 52 3c 62 8d 9e bc f2 a0 db bc
       -0.0035212056 0.012820023 -0.019354526 -0.026810143
000290 1d a9 3a bc 6e bd ac bc a3 1d e4 3c a6 74 08 3b
       -0.011392859 -0.02108642 0.027846163 0.002082148
0002a0 6a da 8a 3c 60 07 0a 3d 4c 65 b1 3b 12 e7 fd 3c
       0.016949851 0.03369844 0.005413687 0.030993972
0002b0 8f 9e eb bb 4b 6f f1 bc 3c b2 11 3d 6b f3 36 ba
       -0.0071905325 -0.029472014 0.03557037 -0.0006979021
0002c0 b6 48 94 3c 7d a9 e3 bc 2d dc 90 bc 63 42 bb bc
       0.018101078 -0.02779078 -0.017683113 -0.022858804
0002d0 9c 61 22 ba c2 f6 55 ba a0 d0 ef 3b 98 01 d3 3b
       -0.00061943545 -0.0008162075 0.007318571 0.006439399
0002e0 d3 f1 87 bc 29 33 16 3c ab 91 d1 3b bd 57 63 bb
       -0.016594803 0.009167471 0.006395539 -0.0034689747
0002f0 d0 99 4e 3c bc dd 3a 3a 0d 4c db 3b 07 71 81 3b
       0.012609914 0.0007128378 0.0066924156 0.0039502415
000300 8d f1 ee bb df e1 44 3c 87 55 80 3c 1e 84 9c bc
       -0.0072919787 0.0120167425 0.015665783 -0.019105967
000310 ff b1 10 bb fd 61 e6 3c e2 35 a9 3c 68 69 85 3c
       -0.002207875 0.028122896 0.020655576 0.016285613
000320 6e 1a 89 3b 90 2f c7 bc ea bb b4 3c 8d df c8 3c
       0.004184059 -0.024314672 0.02206226 0.02452066
000330 18 fc 66 bc c6 e7 45 3b 2e 77 44 3b 17 3f e9 3c
       -0.01409819 0.0030197962 0.0029978263 0.028472466
000340 cb d2 db bb 3f 59 e3 3b ef 6f 03 bc ce 45 35 3c
       -0.006708478 0.006938129 -0.0080222925 0.011064006
000350 18 66 4d 3c 65 5a 78 bc 28 a6 11 3d 37 dc 6e 3b
       0.012536548 -0.0151582705 0.03555885 0.0036447176
000360 c4 92 41 bc 07 f5 b9 bc c7 31 02 3d 7a 4a 65 bc
       -0.011814777 -0.022699846 0.031785753 -0.013994807
000370 32 87 fc 3b 2d cd c6 bb fb e3 56 bc f9 b2 81 3c
       0.007706546 -0.0060669393 -0.013115878 0.015832411
000380 3b ad 93 bb 6b bc 60 3c 78 13 1e bb 4d 09 84 3c
       -0.0045067347 0.013716797 -0.002412049 0.016117716
000390 43 90 10 3d 83 74 96 3c 05 05 0f 3c 9a 4d 72 bc
       0.03529383 0.018366104 0.008729224 -0.0147890095
0003a0 98 84 f5 3a 0f 91 79 3c e3 05 cf bb 47 b1 11 bd
       0.0018731533 0.015232339 -0.0063178404 -0.035569455
0003b0 f7 13 10 3c b2 07 e7 bc 60 4a 0a bd 9b fe 05 bd
       0.0087938225 -0.028201912 -0.033762336 -0.032713514
0003c0 36 76 82 3c 83 50 7a bb 4f 72 03 3c d0 07 4d 3c
       0.015925508 -0.0038194961 0.008022859 0.01251407
0003d0 31 93 06 3d 02 09 ec 3c 70 92 30 3b b6 37 11 bd
       0.032855216 0.028812889 0.0026942752 -0.03545352
0003e0 15 a6 d9 bc 59 dd b0 3c 1d fa 73 bc a3 f8 a8 3b
       -0.026568452 0.021589922 -0.014891175 0.005156593
0003f0 55 5b 60 bc af 08 f1 bc 4b c6 85 bb 07 e4 3d 3b
       -0.01369365 -0.029423086 -0.0040824763 0.0028975026

network_body._body_endoder.seq_layers.0.bias f4 [128]
000000 00 00 00 00 00 00 00 00 00 00 00 00 00 00 00 00
       0.0 0.0 0.0 0.0
000010 00 00 00 00 00 00 00 00 00 00 00 00 00 00 00 00
       0.0 0.0 0.0 0.0
000020 00 00 00 00 00 00 00 00 00 00 00 00 00 00 00 00
       0.0 0.0 0.0 0.0
000030 00 00 00 00 00 00 00 00 00 00 00 00 00 00 00 00
       0.0 0.0 0.0 0.0
000040 00 00 00 00 00 00 00 00 00 00 00 00 00 00 00 00
       0.0 0.0 0.0 0.0
000050 00 00 00 00 00 00 00 00 00 00 00 00 00 00 00 00
       0.0 0.0 0.0 0.0
000060 00 00 00 00 00 00 00 00 00 00 00 00 00 00 00 00
       0.0 0.0 0.0 0.0
000070 00 00 00 00 00 00 00 00 00 00 00 00 00 00 00 00
       0.0 0.0 0.0 0.0
000080 00 00 00 00 00 00 00 00 00 00 00 00 00 00 00 00
       0.0 0.0 0.0 0.0
000090 00 00 00 00 00 00 00 00 00 00 00 00 00 00 00 00
       0.0 0.0 0.0 0.0
0000a0 00 00 00 00 00 00 00 00 00 00 00 00 00 00 00 00
       0.0 0.0 0.0 0.0
0000b0 00 00 00 00 00 00 00 00 00 00 00 00 00 00 00 00
       0.0 0.0 0.0 0.0
0000c0 00 00 00 00 00 00 00 00 00 00 00 00 00 00 00 00
       0.0 0.0 0.0 0.0
0000d0 00 00 00 00 00 00 00 00 00 00 00 00 00 00 00 00
       0.0 0.0 0.0 0.0
0000e0 00 00 00 00 00 00 00 00 00 00 00 00 00 00 00 00
       0.0 0.0 0.0 0.0
0000f0 00 00 00 00 00 00 00 00 00 00 00 00 00 00 00 00
       0.0 0.0 0.0 0.0
000100 00 00 00 00 00 00 00 00 00 00 00 00 00 00 00 00
       0.0 0.0 0.0 0.0
000110 00 00 00 00 00 00 00 00 00 00 00 00 00 00 00 00
       0.0 0.0 0.0 0.0
000120 00 00 00 00 00 00 00 00 00 00 00 00 00 00 00 00
       0.0 0.0 0.0 0.0
000130 00 00 00 00 00 00 00 00 00 00 00 00 00 00 00 00
       0.0 0.0 0.0 0.0
000140 00 00 00 00 00 00 00 00 00 00 00 00 00 00 00 00
       0.0 0.0 0.0 0.0
000150 00 00 00 00 00 00 00 00 00 00 00 00 00 00 00 00
       0.0 0.0 0.0 0.0
000160 00 00 00 00 00 00 00 00 00 00 00 00 00 00 00 00
       0.0 0.0 0.0 0.0
000170 00 00 00 00 00 00 00 00 00 00 00 00 00 00 00 00
       0.0 0.0 0.0 0.0
000180 00 00 00 00 00 00 00 00 00 00 00 00 00 00 00 00
       0.0 0.0 0.0 0.0
000190 00 00 00 00 00 00 00 00 00 00 00 00 00 00 00 00
       0.0 0.0 0.0 0.0
0001a0 00 00 00 00 00 00 00 00 00 00 00 00 00 00 00 00
       0.0 0.0 0.0 0.0
0001b0 00 00 00 00 00 00 00 00 00 00 00 00 00 00 00 00
       0.0 0.0 0.0 0.0
0001c0 00 00 00 00 00 00 00 00 00 00 00 00 00 00 00 00
       0.0 0.0 0.0 0.0
0001d0 00 00 00 00 00 00 00 00 00 00 00 00 00 00 00 00
       0.0 0.0 0.0 0.0
0001e0 00 00 00 00 00 00 00 00 00 00 00 00 00 00 00 00
       0.0 0.0 0.0 0.0
0001f0 00 00 00 00 00 00 00 00 00 00 00 00 00 00 00 00
       0.0 0.0 0.0 0.0

network_body._body_endoder.seq_layers.0.weight f4 [128, 6]
000000 53 ce b1 be 42 38 f1 3d a4 b9 25 bc 3f 00 53 3d
       -0.34727725 0.117783085 -0.010115061 0.051513907
000010 ee 7b 54 bd 79 a6 99 3e b0 d4 b6 be 20 88 3e 3f
       -0.051876 0.3000982 -0.35709143 0.7442646
000020 be 53 ef bd fa 15 e1 bd 72 c6 55 bf 74 d1 68 3e
       -0.116858944 -0.1099052 -0.8350593 0.2273615
000030 42 dd e6 be 06 7d 1c be e1 ce d4 be 99 b5 c6 be
       -0.4509068 -0.15282068 -0.41564086 -0.38810423
000040 8d 33 3e 3f 60 85 45 bc eb a5 17 be 3b 23 92 be
       0.7429741 -0.012055725 -0.14809386 -0.28542504
000050 80 39 0c bf 45 15 5d be 09 b2 8f 3f 2b 12 ca bd
       -0.5477524 -0.21590145 1.1226207 -0.098667465
000060 a6 9b 7e bf b9 70 1c bf ef 16 09 3d 09 c5 6c 3e
       -0.9945625 -0.611095 0.033469137 0.23122038
000070 3b 02 be 3e 9d 32 68 be c6 9a 4b 3e 2b a5 11 bf
       0.37111077 -0.22675557 0.1988326 -0.5689265
000080 98 4a 23 3f 78 38 8c 3e 4d e9 1e be 46 de 85 be
       0.63785696 0.27386832 -0.15518685 -0.26146144
000090 78 93 7c be 85 ec d8 be bc 86 28 3f 23 1e 17 3f
       -0.2466563 -0.4236795 0.6583059 0.5903036
0000a0 59 f9 aa 3e 1d 10 43 3e d9 8d 86 bc 5e c4 76 3f
       0.33393362 0.19049115 -0.01642506 0.9639338
0000b0 11 8f 22 3f 04 28 ea be f3 54 63 3e a2 8f b8 be
       0.6349955 -0.45733654 0.22200374 -0.36047083
0000c0 0c a8 ab 3e eb 53 96 3e 45 0b c4 3d 11 50 bb 3e
       0.33526647 0.293609 0.09572462 0.36584523
0000d0 11 a5 09 bd e2 8d 00 3f 3c cf bd bd 9a e7 3f 3e
       -0.033604685 0.50216496 -0.092680424 0.18740693
0000e0 3d a5 05 be 1e dc ad 3e 6b bb 30 3f 4b 15 b2 bd
       -0.13051315 0.33957 0.6903598 -0.086954676
0000f0 47 e3 99 3e 2b 28 81 bb 40 17 f4 3e 2e e4 62 3f
       0.3005621 -0.003941556 0.47673988 0.88629425
000100 bc 0a 08 3e 68 79 86 be eb fa 88 3d 56 81 32 bd
       0.13285345 -0.262645 0.06688484 -0.043580376
000110 b6 4b 1a be f4 a1 a2 3c c4 aa e8 3e e0 f1 25 bf
       -0.15067944 0.019852616 0.45442784 -0.64822197
000120 f5 e7 da bd 73 5e 42 3f 27 c6 70 bf 37 53 b8 3d
       -0.106887735 0.7592537 -0.94052356 0.09000247
000130 94 35 8f 3e b6 bb a5 3e f7 87 8c be 94 19 33 bf
       0.27970564 0.32369775 -0.27447483 -0.69960904
000140 ef 99 84 3d c0 19 e5 be a3 9a 87 be f0 06 8a 3d
       0.06474673 -0.44746208 -0.26485166 0.067396045
000150 a5 35 f2 be 97 43 81 3e 09 2f 3a 3e 9e 0f cb bd
       -0.47306553 0.2524688 0.18182005 -0.09915088
000160 1b e3 09 3f a0 bd 07 bf 23 5c 2c bc b8 dd d8 be
       0.5386216 -0.5302372 -0.010520014 -0.42356658
000170 a5 53 8d bd e3 30 99 3d 69 e7 98 bc 3f 87 9c 3e
       -0.069007196 0.074800275 -0.018665032 0.30571935
000180 20 db e0 3b 6b d7 55 be b1 58 d2 3d c1 90 04 3f
       0.0068620592 -0.20882957 0.10270823 0.51783377
000190 7b f7 f2 3e 5b 1b da 3c c1 2d 5c 3e 29 29 5a 3e
       0.47454438 0.026624372 0.21501829 0.21304764
0001a0 02 b1 22 3e af 34 4e be 5a 2e 05 3f 6b 7f ed bc
       0.15887836 -0.20137285 0.5202385 -0.028991422
0001b0 dd 71 ed be ae 5f 94 be 57 47 4a be ed 93 5f 3d
       -0.46375933 -0.28979248 -0.19753776 0.054584432
0001c0 b5 50 92 3d c1 7b 0a bf 69 67 29 be bc a9 7b bd
       0.071443 -0.54095083 -0.16543354 -0.06144117
0001d0 d0 ed 31 bf 9c 65 32 3e 50 41 6e 3e 35 18 0d 3e
       -0.695035 0.17421573 0.23267102 0.13778765
0001e0 53 17 28 3f 7b 33 49 3f 8a eb c1 bd 52 a1 bb 3e
       0.6566059 0.7859418 -0.09468754 0.36646515
0001f0 85 fc 19 3f 0e d5 dd 3e db f5 49 3f a3 c7 0d be
       0.6015094 0.4332661 0.7889077 -0.13845687
000200 cd 82 26 3e ca 1e 1d bf f4 31 8e be f8 99 93 3e
       0.16260834 -0.61375105 -0.27772486 0.28828406
000210 5f 5d 48 3e 38 18 55 3e a5 09 2a 3f 7b 66 72 be
       0.19566868 0.2081002 0.66420966 -0.23671906
000220 21 0b 02 bf 48 8c cb be 5b 5e 91 3e 5a 9d f5 3d
       -0.5079823 -0.39755464 0.283923 0.11992903
000230 e6 0e de 3e cb 24 bf be 18 7a bc be cf 38 f5 3e
       0.43370742 -0.37332758 -0.368119 0.47894904
000240 22 02 aa 3e 26 18 8c bd f4 a0 0c 3e b4 db 78 bc
       0.33204752 -0.068405434 0.13733274 -0.0151891
000250 ea 52 1d bf 63 a7 28 3e 1f 48 22 be ab 17 51 3e
       -0.6145464 0.16470103 -0.15847825 0.20419185
000260 8c 92 3b be 57 42 3c 3e b8 28 1d be 97 98 86 be
       -0.18317622 0.18384682 -0.15347564 -0.26288292
000270 cf 97 c3 be 84 f7 24 3e 21 a6 0f bf 17 a0 1c bf
       -0.38201758 0.16110045 -0.5611287 -0.6118178
000280 5d aa 5e be 7c 1e 0e bf 24 e3 42 3e 3d fb f2 be
       -0.21744676 -0.55515265 0.1903196 -0.47457305
000290 5e 17 97 3c 03 59 01 3e a7 e2 25 3f e6 3d 72 be
       0.01844376 0.12631612 0.6479897 -0.23656425
0002a0 72 4a 93 be 4c 6e b4 be df e9 c3 be 79 ef c5 bd
       -0.28767735 -0.352404 -0.38264367 -0.096648164
0002b0 ee 6a 81 bd ef 3b 4a 3e 00 d2 b0 be 99 73 94 3e
       -0.06319223 0.19749425 -0.34535217 0.28994444
0002c0 62 c2 0d 3f db 5b 16 be ea d0 96 be e6 30 2a be
       0.5537473 -0.14683478 -0.29456264 -0.16620216
0002d0 fb 81 63 3f 34 a2 ca bd a6 ee 0f bf 3a 7a 1a bf
       0.8887021 -0.09894219 -0.56223524 -0.6034275
0002e0 72 3e a6 3d ae 0b 96 3e ab b4 04 3f ce f7 13 3f
       0.08117379 0.29305786 0.5183818 0.57799995
0002f0 b6 19 ad be 8e c7 ca be ad c9 a7 3e bb 34 3e bf
       -0.33808678 -0.39605373 0.32771054 -0.7429921
000300 7c 32 f8 bd aa 14 f8 be a1 f8 14 bf 9c ef 86 3f
       -0.12119004 -0.48453265 -0.5819188 1.0541873
000310 3e aa 81 be 8e c0 ba be 67 e1 f5 3e 29 de f3 be
       -0.25325197 -0.36475033 0.4802353 -0.47630432
000320 85 cd 38 3f 30 9a ea 3e 96 47 f3 3b 65 a4 10 3f
       0.721886 0.4582076 0.007424305 0.56500846
000330 5e 79 c0 3b 47 c8 88 3e 89 2b aa 3d 3d b5 0e 3e
       0.005873843 0.267153 0.08309085 0.13936324
000340 44 d1 1d bf b8 ff ec 3e c2 d7 e9 bd b6 94 21 bf
       -0.6164744 0.46288848 -0.11418106 -0.6311754
000350 2d 04 a9 bd 6a 8c bf be 13 95 96 3e 9a ae c6 be
       -0.082527496 -0.37411815 0.2941061 -0.38805085
000360 e9 3c f7 3e 53 78 0c 3f d9 1c d1 be 93 d6 7a 3e
       0.48288658 0.548711 -0.40842322 0.24495916
000370 ac ad cc 3d 7e a7 ec 3e 45 80 b8 3e 3f 90 11 bf
       0.09994063 0.46221536 0.36035362 -0.5686073
000380 65 e7 31 be 17 e3 83 3e 2e 04 ba be 1b b6 51 be
       -0.17373426 0.25759193 -0.36331314 -0.20479624
000390 c7 72 61 3f 39 7c b1 3e e2 a1 a9 3d b6 75 0a 3e
       0.8806576 0.34665087 0.0828283 0.13521466
0003a0 f3 2b 3d bf ff c0 3f 3f 40 95 5c 3f 66 70 d5 bd
       -0.73895186 0.74903864 0.8616524 -0.10421829
0003b0 09 e3 32 3f d8 64 3b 3f 10 89 28 3e ab 8e 12 3f
       0.6987768 0.7320075 0.16458535 0.57248944
0003c0 ed bd 10 bd 9d 48 25 3e 1d 9c 04 bf d7 e7 e9 bc
       -0.035337377 0.16140981 -0.5180071 -0.028552933
0003d0 09 f8 2c 3f cb cd bc be 5a 02 d2 be bd 06 c5 3e
       0.6756597 -0.36875758 -0.4101742 0.38481703
0003e0 db 2d e1 be 52 c3 9c be 6c 72 a6 be de 6c f2 3e
       -0.43980297 -0.30617768 -0.32509172 0.47348684
0003f0 79 3c 64 be 72 ac 19 3f 2c cd bc be f0 15 0f 3f
       -0.22288693 0.60028756 -0.36875284 0.5589285

network_body._body_endoder.seq_layers.2.bias f4 [128]
000000 00 00 00 00 00 00 00 00 00 00 00 00 00 00 00 00
       0.0 0.0 0.0 0.0
000010 00 00 00 00 00 00 00 00 00 00 00 00 00 00 00 00
       0.0 0.0 0.0 0.0
000020 00 00 00 00 00 00 00 00 00 00 00 00 00 00 00 00
       0.0 0.0 0.0 0.0
000030 00 00 00 00 00 00 00 00 00 00 00 00 00 00 00 00
       0.0 0.0 0.0 0.0
000040 00 00 00 00 00 00 00 00 00 00 00 00 00 00 00 00
       0.0 0.0 0.0 0.0
000050 00 00 00 00 00 00 00 00 00 00 00 00 00 00 00 00
       0.0 0.0 0.0 0.0
000060 00 00 00 00 00 00 00 00 00 00 00 00 00 00 00 00
       0.0 0.0 0.0 0.0
000070 00 00 00 00 00 00 00 00 00 00 00 00 00 00 00 00
       0.0 0.0 0.0 0.0
000080 00 00 00 00 00 00 00 00 00 00 00 00 00 00 00 00
       0.0 0.0 0.0 0.0
000090 00 00 00 00 00 00 00 00 00 00 00 00 00 00 00 00
       0.0 0.0 0.0 0.0
0000a0 00 00 00 00 00 00 00 00 00 00 00 00 00 00 00 00
       0.0 0.0 0.0 0.0
0000b0 00 00 00 00 00 00 00 00 00 00 00 00 00 00 00 00
       0.0 0.0 0.0 0.0
0000c0 00 00 00 00 00 00 00 00 00 00 00 00 00 00 00 00
       0.0 0.0 0.0 0.0
0000d0 00 00 00 00 00 00 00 00 00 00 00 00 00 00 00 00
       0.0 0.0 0.0 0.0
0000e0 00 00 00 00 00 00 00 00 00 00 00 00 00 00 00 00
       0.0 0.0 0.0 0.0
0000f0 00 00 00 00 00 00 00 00 00 00 00 00 00 00 00 00
       0.0 0.0 0.0 0.0
000100 00 00 00 00 00 00 00 00 00 00 00 00 00 00 00 00
       0.0 0.0 0.0 0.0
000110 00 00 00 00 00 00 00 00 00 00 00 00 00 00 00 00
       0.0 0.0 0.0 0.0
000120 00 00 00 00 00 00 00 00 00 00 00 00 00 00 00 00
       0.0 0.0 0.0 0.0
000130 00 00 00 00 00 00 00 00 00 00 00 00 00 00 00 00
       0.0 0.0 0.0 0.0
000140 00 00 00 00 00 00 00 00 00 00 00 00 00 00 00 00
       0.0 0.0 0.0 0.0
000150 00 00 00 00 00 00 00 00 00 00 00 00 00 00 00 00
       0.0 0.0 0.0 0.0
000160 00 00 00 00 00 00 00 00 00 00 00 00 00 00 00 00
       0.0 0.0 0.0 0.0
000170 00 00 00 00 00 00 00 00 00 00 00 00 00 00 00 00
       0.0 0.0 0.0 0.0
000180 00 00 00 00 00 00 00 00 00 00 00 00 00 00 00 00
       0.0 0.0 0.0 0.0
000190 00 00 00 00 00 00 00 00 00 00 00 00 00 00 00 00
       0.0 0.0 0.0 0.0
0001a0 00 00 00 00 00 00 00 00 00 00 00 00 00 00 00 00
       0.0 0.0 0.0 0.0
0001b0 00 00 00 00 00 00 00 00 00 00 00 00 00 00 00 00
       0.0 0.0 0.0 0.0
0001c0 00 00 00 00 00 00 00 00 00 00 00 00 00 00 00 00
       0.0 0.0 0.0 0.0
0001d0 00 00 00 00 00 00 00 00 00 00 00 00 00 00 00 00
       0.0 0.0 0.0 0.0
0001e0 00 00 00 00 00 00 00 00 00 00 00 00 00 00 00 00
       0.0 0.0 0.0 0.0
0001f0 00 00 00 00 00 00 00 00 00 00 00 00 00 00 00 00
       0.0 0.0 0.0 0.0

network_body._body_endoder.seq_layers.2.weight f4 [128, 128]
000000 b9 2c 7b 3c 56 6d de 3c 24 b2 9d ba d5 ed de 3d
       0.015330487 0.027151745 -0.001203124 0.108852066
000010 41 df fd bd 8b 77 e9 bd a9 5d 0d 3d ff b0 35 bd
       -0.12396098 -0.11399754 0.03451315 -0.04435825
000020 ad a1 50 bd 67 23 cf bd ef c6 55 bc ca 06 c8 3d
       -0.050935436 -0.10114174 -0.013047918 0.0976692
000030 33 8c 19 bc 5b b0 c7 3c 0b c0 2b bd b4 e2 9f 3d
       -0.009371805 0.024376085 -0.041931193 0.07806912
000040 a3 9f 92 bd 31 75 db 3d cc 5b 5a bd 30 56 49 3d
       -0.071593545 0.10715712 -0.0533102 0.04915446
000050 6c a5 d7 3d 2d 41 8b 3c 3d f0 0d bd d8 bf d8 bc
       0.105295986 0.016998852 -0.034652937 -0.026458666
000060 f4 02 bf 3d 78 fe 38 bd ad 01 05 be 3f 6a 8e bb
       0.09326735 -0.045164555 -0.1298892 -0.0043461616
000070 fe e4 b2 3d 88 62 8a 3d 54 c0 98 3c ff 76 b1 bd
       0.08735083 0.067570746 0.018646397 -0.08665275
000080 d5 dd 7f bc cb 92 7a 3d c5 65 4f bd 7c e7 b8 bd
       -0.015616854 0.06117515 -0.050634164 -0.09028527
000090 a8 32 16 bd 35 5d 1a be 41 e3 a9 bd 7d 4d c6 3d
       -0.036669403 -0.15074618 -0.08295298 0.096827485
0000a0 89 d4 8c bd 79 b6 29 bd 7a d9 d4 bc 1b e0 63 3d
       -0.06876475 -0.041433785 -0.025982607 0.055633646
0000b0 c8 49 35 bd 5f d2 41 be f7 90 e4 3c cb 35 82 bd
       -0.044259816 -0.18927906 0.027901156 -0.063579164
0000c0 ea e2 db bd 78 90 0d 3d 4d c9 20 be e0 98 d7 3d
       -0.1073664 0.034561604 -0.1570179 0.105272055
0000d0 8c 60 36 bd 43 f8 e9 3d c0 a4 62 3d 1e 4b da 3d
       -0.044525668 0.11424305 0.0553329 0.10658859
0000e0 91 eb 77 3d 4b 2a dc 3d 17 d3 c4 bd 99 75 8b 3c
       0.060527388 0.10750254 -0.09610575 0.017023848
0000f0 79 38 a0 bd ff ee 46 bb c0 ee 60 bc 43 a6 0d be
       -0.07823271 -0.0030354855 -0.013728797 -0.13832955
000100 5f 52 43 3d fc 50 6e 3d 87 f7 e4 bc 8a a5 b8 bd
       0.047685977 0.0581827 -0.027950061 -0.09015949
000110 44 1d 35 3c 70 54 73 3d 46 27 c2 bd c6 10 f9 b7
       0.011054341 0.059406698 -0.09480147 -2.9690924e-05
000120 4f 5b d8 3d 4d 99 f8 bc 9e 5e 02 bb a9 69 d5 bb
       0.10564291 -0.030346537 -0.0019892822 -0.00651284
000130 05 3a 03 3e 6b 13 87 3c 98 3e 6d 3c 93 92 4b 3d
       0.12815101 0.016488751 0.014480256 0.04970033
000140 28 67 0f 3e 89 b6 bd bd af 61 0c bd ef 78 e7 bd
       0.14004195 -0.092633314 -0.034272846 -0.11302363
000150 66 a7 3c bc 7a cc 86 3d 7e e6 5a bc bd 2a 02 3c
       -0.01151452 0.065819696 -0.013360618 0.00794476
000160 1e d1 98 3d 4a 8b 90 bd 4f 6a 0e bd ce 36 5a 3d
       0.07461761 -0.07057817 -0.034769353 0.053274922
000170 c6 64 c9 bd 05 50 89 be c3 8e 55 3d 09 ed 2e 3e
       -0.09833674 -0.26818863 0.0521381 0.17082609
000180 2e 64 b0 3d 85 82 48 3e 22 0c 91 bb b3 ab 47 3b
       0.08612858 0.19581039 -0.004426495 0.003046733
000190 46 f6 e2 bd 79 fa 9c 3c 31 98 40 be d9 22 26 3d
       -0.11082129 0.019162403 -0.18808056 0.040560577
0001a0 88 39 1e 3e ef 55 9e bd 3b ce 95 3c 11 d7 b3 3d
       0.15451634 -0.07731234 0.018286815 0.08781255
0001b0 a2 93 0f bd 90 ba 23 3e 7f 69 37 3c 08 e5 f6 bc
       -0.035052903 0.15989137 0.011194586 -0.030138507
0001c0 7a 3e 23 3d 21 b8 dd bd 2b 2a d1 3d 17 ee c9 3c
       0.039854504 -0.108261354 0.10213121 0.024649663
0001d0 61 96 b2 3d 28 3f 6f bd 8c 70 b0 bd 79 e8 3d 3e
       0.08720089 -0.05840984 -0.086152166 0.18545713
0001e0 a0 7d 7e 3d 94 af aa bd d2 b2 e0 3d fb fb b3 bd
       0.062131524 -0.0833427 0.10971607 -0.08788296
0001f0 06 0b 9a bd 46 4c e6 bd ca 49 e4 bd d2 48 df bd
       -0.07521634 -0.11245017 -0.11146887 -0.10902561
000200 3a fc 9c 3d 44 db d6 bd b9 34 dd bd 20 8a 90 3d
       0.07665296 -0.1049104 -0.10801072 0.07057595
000210 a1 2d a3 3d 3e 9c 71 3b 7f 1f a9 3c 50 5b 05 be
       0.079676874 0.003686681 0.020644901 -0.13023114
000220 b7 a3 45 3d 5c 08 11 be 5c e3 90 bd c4 cb 2a be
       0.048251834 -0.14163345 -0.07074615 -0.16679293
000230 4e 0e cd 3d bb d8 07 bd ba f4 0d bc dd ab e9 bb
       0.10012494 -0.033165675 -0.008664304 -0.0071310834
000240 9b 7c 05 3d 81 f8 e7 bd c6 5b 57 bd 4c 04 9a 3d
       0.032589536 -0.11326695 -0.052577756 0.07520351
000250 23 b9 87 3d 80 b6 7b 3d 68 9e 28 bd 4b 21 87 bd
       0.06627109 0.061453342 -0.041166693 -0.06598147
000260 59 d1 82 bd 59 6c 48 bd 17 89 f2 bc be 95 22 3e
       -0.06387586 -0.048931453 -0.029606385 0.15877435
000270 22 4c c0 bd 40 6b 0d 3e 80 01 d1 bc 7f 4e 08 be
       -0.09389521 0.13810444 -0.02551341 -0.13311194
000280 d9 1d fb bd ad a4 bf bd 46 e3 9c bd 9f 14 0a 3e
       -0.12261552 -0.09357581 -0.076605365 0.13484429
000290 28 6d 0e bd dd 9c b3 bd 42 6a 47 3d cc 1e 18 3e
       -0.03477207 -0.08770154 0.04868532 0.14855498
0002a0 88 d1 bd bd 2c 36 02 3d 90 7d d5 3d 96 cb 95 ba
       -0.092684805 0.031789944 0.1042434 -0.0011428471
0002b0 18 b5 26 3d 9c 63 72 3e dd de 9a 3d 33 14 00 be
       0.04070005 0.2367081 0.07562039 -0.12507705
0002c0 9a 6a 95 bc f5 8a 85 3d b0 76 fc 3d b6 40 ab bd
       -0.018239308 0.065206446 0.12327325 -0.08361952
0002d0 fe 88 eb bc d4 59 68 bd 8b 62 3b bd 2c a5 fa bd
       -0.028751846 -0.05672629 -0.045748275 -0.12238535
0002e0 c4 0b 11 be 99 35 a3 bb 79 10 84 bd a6 ca 68 3e
       -0.14164644 -0.0049807546 -0.064484544 0.22733554
0002f0 35 d6 2a bc 9d 50 a9 3d 73 bb 28 3c f4 0d cd bc
       -0.0104270475 0.08267329 0.010298598 -0.025031067
000300 58 bd dc 3c dc 0c cc b9 e9 1e 61 bd 0c f9 2b bd
       0.026945755 -0.00038919493 -0.05496112 -0.041985556
000310 7a 42 f1 3d 32 dd 98 3d 63 04 b8 bb 5c 20 c9 bd
       0.117802575 0.07464065 -0.0056157573 -0.09820625
000320 5a 33 9f 3d 61 b8 ba 3c 69 4f e2 bd 94 db 13 bd
       0.077734664 0.022792997 -0.110503025 -0.036098078
000330 25 bf 6b 3d a7 18 8b 3d 75 d0 5e 3c 42 63 58 bc
       0.057555337 0.067918114 0.013599505 -0.013207259
000340 b5 64 da bd 40 2a 32 be 22 50 86 3d e4 e8 43 be
       -0.106637396 -0.1739893 0.06558253 -0.1913181
000350 73 82 d6 3a 4a 1b cb 3c d3 4a be 3b c7 05 3a bd
       0.0016365781 0.024793286 0.0058072596 -0.045415666
000360 e7 56 61 bd 2c a1 16 bc 64 25 a5 3d ea 9f db 3d
       -0.055014517 -0.0091937 0.08063772 0.107238606
000370 2b de 1a 3d d0 4e de bd 4b 78 11 be 8d 6e dd bd
       0.037809532 -0.10854876 -0.14206044 -0.108121015
000380 27 48 c7 3d 76 6b 92 bd e7 04 c6 bd dd 03 44 3d
       0.09730559 -0.07149403 -0.09668904 0.047855247
000390 1c a9 11 bc f8 16 b7 bb bb d0 e9 bc 9d ee 82 bd
       -0.0088904165 -0.005587455 -0.028541913 -0.06393168
0003a0 4f 50 ce 3c 0f 10 a6 bd 6e 6a df bd f5 9b 7f bc
       0.025184778 -0.08108532 -0.10908972 -0.015601148
0003b0 e7 84 13 3d 0e 21 8a bc a3 d1 04 be 5d d5 36 3e
       0.036015417 -0.016861465 -0.12970595 0.17854829
0003c0 e5 11 2c 3e 59 c3 b8 bd 34 b6 a5 bd 19 51 9c 3d
       0.16803701 -0.090216346 -0.08091393 0.07632656
0003d0 26 c1 96 3d 5d e5 2b bc 62 07 bd bc de 8f f0 3c
       0.07361059 -0.010491696 -0.02307481 0.029365476
0003e0 a1 b9 39 bd 70 da 46 bd a8 4c e1 3d c4 0d c3 bd
       -0.045343045 -0.048548162 0.11000949 -0.0952411
0003f0 16 05 84 bd 08 e9 05 be 73 bf 10 be 3a 44 d0 bd
       -0.064462826 -0.13077176 -0.14135532 -0.10169263
