results/Test2/Test2/Test2-109675.pt (torch, 429983 bytes, 36 tensors)

network_body._body_endoder.seq_layers.0.weight f4 [128, 3]
00000000: 1840 39be 332e 2abe d4f8 cd3e 44d6 93bd
00000010: 7175 593f 248c f4bd 0704 e0bc 9d55 6bbf
00000020: 8d50 04bf f1c4 a3bf aac7 06bf a662 ab3f
00000030: ee34 89bf 9633 823e 94dd 3ebe 36e1 3bbf
00000040: 2def 0a3e b9ab 2bbf 1b40 9abf dbb4 eebe
00000050: bf6f ad3d a738 92bf 0b10 093d 0461 be3c
00000060: 6c02 9a3e 5a1c dfbe a87f 1abf 4672 363f
00000070: fde7 7dbc 2787 163e da40 b6be f2b5 e2be
00000080: 63bc 13bf 1e2e f5be 8636 713e 4e09 a4bc
00000090: 0395 bdbe 8ec6 2ebe c05e ccbd 0108 6a3f
000000a0: e310 343f 5076 6cbe 0a30 e6be 71e0 55be
000000b0: c61e 87bf abf3 b53e 2612 443e cb5d c6bd
000000c0: 2749 2b3f e7e8 333f 6ef8 6bbf 42e0 c7be
000000d0: 55cb bdbe eb9d 57bf f2ea e33d beae 493f
000000e0: 34ac 453f ae7f eebf c310 b4be 6a00 f7be
000000f0: b899 c53d 57f7 5f3f dc2a 03bf ce0c f4be
00000100: 981f 1b3f 824c b7be ed07 76bd 413f 263f
00000110: 9629 b8bd c3bd f2be 1fc4 e3be 5b2e 533f
00000120: 8108 b33e ee91 863f 42d0 7a3f 88ab c1be
00000130: f7f0 193f 6679 243f 4192 8c3e 8b3b 8abe
00000140: 8b09 783f 275e 8d3e 7e1a 343f 97fe 1a3f
00000150: b6f4 3dbe 3549 053f 19a0 353f 239e 9dbe
00000160: 9bb3 8ebe 6e1a edbe 902b bcbf 5598 24bf
00000170: 8adf bb3d 30a5 91bf 2d34 27bf e529 16bc
00000180: 9462 4b3f 1cfe 523f 2577 9dbf 477d 263f
00000190: 11b3 533e 2d1c 3ebf bcf1 903e 9288 2dbf
000001a0: 9684 4abf 919b 8f3e d691 143d 1aac 04bf
000001b0: e4c9 8fbe bd92 a93e d296 503f 26a2 7d3f
000001c0: b08c 9a3e df4a cc3d d4da 833e 2195 e0be
000001d0: d062 69bf d76e 44be 7d92 87bf 4a4c 2b3f
000001e0: 469e 1f3e bab7 953f f70d 7cbe 6260 6b3e
000001f0: a18a 0bbf 6a9d c53f 5888 26bf 0f83 87bd
00000200: efce a9bc 81cb 53bd 5e5b efbe f38a ecbd
00000210: f3b5 00be 378b 3c3e 2fd1 88be cecc 683e
00000220: a030 37bf 55f5 dc3d 98f3 683c 3ed5 0c3f
00000230: ef48 2c3f 2f63 bcbe bca5 453f 8b65 e93e
00000240: 7ad5 d13e fe1b 353e fa73 9abe 5431 873f
00000250: 8bce 23bf a05a 6e3f 6f22 a1be 78dc 053f
00000260: 7f20 813c 26a5 353f 666f 253f 5b8c a8be
00000270: 73ed dfbd c744 383f 20ba 87bf 7cf8 e6bd
00000280: 3936 f93d ccda 06bf d4dd 683e 56fa c3bd
00000290: 6f2d 983e 3ba3 c4bf db87 efbe 15e9 54bc
000002a0: fffd 943f 68db 0e3f e7f1 77bf 1976 473e
000002b0: 4da3 35bf fa6f e53d 8f91 c83e e8d6 963e
000002c0: cb7b 673f e898 d7be 7fdd b8be 9d2b b43f
000002d0: 28b0 073f 9a9e 083f 9f79 253f c5e4 b43e
000002e0: 1b97 4cbf f31f 41bf 2ce2 2e3e 8a6d c63f
000002f0: e011 c83e 8c15 67bf 8a0a febc 2c28 2bbe
00000300: 904c 41be 0a24 a2be ed01 06bd 570b 07bf
00000310: cd6a ce3e c8a8 71bf 30d3 203f 1b18 2f3f
00000320: 4853 403d b0d2 34bf ce3d 2fbf 8f91 1f3d
00000330: fb0b 0bbf 8418 0fbf 717d a7bf 440a bfbe
00000340: a960 cf3e fe11 7ebe 00bf 3abd 0c69 f13d
00000350: 760e 133e c639 af3e 2a0a ad3d 92ab 763d
00000360: 7db3 dc3d b3a5 033f 5609 51be a684 733e
00000370: b488 d7bd 8958 73bf 1622 8f3e fadd 833e
00000380: 7fee b5be d358 03bf ef23 d8be 4be3 3f3f
00000390: b007 62be 6be0 073f da7b 61bf d6b4 16bf
000003a0: a91b 313d dba8 643e 6ac2 263f 5f8f c3be
000003b0: dfd8 86be 6159 f73e 1d6b 413f cf96 9a3e
000003c0: a9d8 53be 71da 133f f3af a2be 4d0f 76bf
000003d0: 815a c3be 6550 253f d586 cebe fc82 08be
000003e0: f379 09bf 61d3 233f 2dcb 243d ba77 c7be
000003f0: 1ec3 2dbd dcb9 f33e ab2d ef3e 768d 00bf
-0.18090856 -0.16619186 0.40228903 -0.07218602 0.84944826 -0.11940792 -0.02734567 -0.9192751
-0.5168541 -1.2794477 -0.52648413 1.338948 -1.0719278 0.25429982 -0.18639213 -0.7339052
0.13567801 -0.670589 -1.2050813 -0.46622357 0.084685795 -1.1423539 0.033462565 0.02323962
0.30079973 -0.43576318 -0.6035104 0.7126812 -0.015497205 0.14699994 -0.35596353 -0.44279438
-0.5770933 -0.47886747 0.23555955 -0.020023968 -0.3702775 -0.1706793 -0.0997901 0.91418463
0.7033827 -0.23092008 -0.44958526 -0.20886399 -1.0556266 0.35537466 0.19147548 -0.09685858
0.66908497 0.70277256 -0.9217595 -0.39038283 -0.37069193 -0.8422534 0.11128797 0.7878226
0.77215886 -1.8632715 -0.35169038 -0.48242503 0.0964846 0.87486786 -0.51237273 -0.4766602
0.60595083 -0.35800558 -0.060066152 0.6494027 -0.08992307 -0.47410402 -0.44485566 0.8249261
0.34967425 1.0513284 0.97974026 -0.3782618 0.6013331 0.6424774 0.27455333 -0.26998553
0.9688956 0.27610895 0.70352924 0.60544723 -0.18550381 0.5206483 0.70947415 -0.3078471
-0.27871403 -0.46309227 -1.4700794 -0.6429494 0.09173496 -1.1378536 -0.6531399 -0.009165262
0.79447293 0.8241899 -1.2301985 0.6503491 0.20673777 -0.7426174 0.2830943 -0.67786515
-0.7910856 0.28048375 0.036271892 -0.51825106 -0.28083718 0.33119765 0.81480134 0.99075544
0.3018546 0.09975218 0.2575289 -0.43863776 -0.911664 -0.19182907 -1.059158 0.6691328
0.1558772 1.1696694 -0.24614702 0.22985986 -0.54508406 1.5438664 -0.65051794 -0.06616794
-0.020728556 -0.05170775 -0.46749395 -0.1154994 -0.12569408 0.18412481 -0.26722094 0.22734377
-0.7155857 0.10788981 0.0142182335 0.5501288 0.6729879 -0.3679442 0.77206016 0.45585284
0.40983182 0.1768646 -0.30166608 1.0561929 -0.63987035 0.9310703 -0.31471583 0.52289534
0.015762566 0.7095512 0.64623106 -0.32919583 -0.10933962 0.71979946 -1.0603676 -0.112778634
0.12168545 -0.5267761 0.2274087 -0.09569232 0.29722163 -1.5362314 -0.46783337 -0.012995024
1.1640013 0.5580354 -0.9685349 0.19478644 -0.709523 0.112029985 0.39173552 0.29460835
0.9042327 -0.42108846 -0.36106488 1.407581 0.5300317 0.53367007 0.64638704 0.35330787
-0.7991807 -0.75439376 0.17078465 1.5502179 0.39076138 -0.9026725 -0.031010885 -0.16714543
-0.18876863 -0.3166812 -0.03271668 -0.5275168 0.40315858 -0.94398165 0.62822247 0.6839616
0.046954423 -0.70633984 -0.6845368 0.038957175 -0.54315156 -0.5589678 -1.3085157 -0.3731252
0.40503433 -0.24811551 -0.045592308 0.11787614 0.14360985 0.34223765 0.08449204 0.060222216
0.10776422 0.5142471 -0.20413718 0.2378107 -0.10524121 -0.9505697 0.27955693 0.25755292
-0.3553352 -0.5130741 -0.42214915 0.74956197 -0.22073245 0.5307681 -0.8807961 -0.58869684
0.04323927 0.22330038 0.651404 -0.3819532 -0.26337335 0.48310378 0.75554067 0.30193183
-0.20688118 0.5775519 -0.31774864 -0.961171 -0.38154987 0.645758 -0.40337244 -0.13331217
-0.53701705 0.63994414 0.040232826 -0.38958532 -0.042422406 0.47602737 0.4671453 -0.5021585

network_body._body_endoder.seq_layers.0.bias f4 [128]
00000000: d845 58bb 3b95 1f3a fbaf ac3b 1e48 16bc
00000010: 3b15 cdbb a169 2a3a e471 dabb 90d2 0e3b
00000020: 3376 ddbb d4e9 0a3d ece3 4ebb 6bc9 c33b
00000030: 149b c53b 0e45 473d 62a2 07ba 5675 7c3b
00000040: 8bc5 27bb 09f0 e63b cfa6 69bb e393 8cbb
00000050: e3f8 a33c 9ab7 75ba 0c15 b3bb 635c 0fbb
00000060: eae6 1c3c a8d1 94b9 5775 0abc ab25 303c
00000070: 1f37 a7bb 2ffc 8dbb aa3a dd3a 492b 153b
00000080: e9aa 9e3a 8e93 973c e4e8 ed3c db35 863c
00000090: dd2d 15bc e235 473d d07a 933c 293c 2d3b
000000a0: 51cc 86bc 4b1d cb3a d952 c5bb 37e2 23bc
000000b0: d92e 87ba 32de 0bbd f90f 7ebb 8ee3 3f3a
000000c0: b9fd 483a 4a1e 1b3d b5ee 9bbb 2941 d33c
000000d0: 88da cf3b 5d65 303b 4c19 e6bc 5f5a 7dbb
000000e0: 6dcd 5a3d 4645 04bd 16a9 84bc 8f34 0cbb
000000f0: 8125 123c b072 8fbc 78b0 2bbc 97c4 a43b
00000100: 1707 03bc 1442 ed3a 9055 823c 50b9 bcb9
00000110: 6690 13bb 861c 103b a1cc 203a 3bf4 ab3a
00000120: 1ae7 953c f03c f43c 8a5e 3d3c 3ae5 143c
00000130: 3207 e73a 81bd 313b 6083 c83c 9f22 f3bb
00000140: eb97 25bc 6414 1c3b 72ec 42bb ae22 35bb
00000150: a928 713b a770 bc3b 29b1 f1bb 08dd 90ba
00000160: b51c 9bbb 1bc2 6a3c b3b8 c73c 73fe 1cbc
00000170: 3ece 6cbb bed9 393d bd7f 88ba 2b75 973c
00000180: ba28 823a 279c 363b f687 323b 35ab ebbb
00000190: 7806 373d 7c02 2cbb 5bb2 d5ba c578 42bc
000001a0: 9249 5abc 0da0 74bb 693f f2bc 4b38 933c
000001b0: b5d3 173d 08f3 c63b 8fd5 73bc a61f 163a
000001c0: eaf8 c2bc 4a8d 86bb 5aac 54bb 8834 9b3b
000001d0: 0b89 5a3c 3606 ef38 eb0d a0bb 4b14 733b
000001e0: 378d b4bb 953c 8b3b 9c19 3039 5cab 86bb
000001f0: 7287 d33b eef2 d83b e573 b2bb b834 0d3d
-0.0033000614 0.0006087606 0.005270002 -0.0091724675 -0.0062586344 0.0006500725 -0.006666409 0.0021792985
-0.006758475 0.033914402 -0.0031568957 0.0059749386 0.0060304496 0.04864984 -0.0005174038 0.0038522086
-0.0025599923 0.0070476574 -0.0035652404 -0.0042900904 0.02001614 -0.0009373367 -0.0054651555 -0.0021875135
0.009576539 -0.00028384966 -0.008450828 0.010751168 -0.0051030065 -0.004333041 0.0016878445 0.0022761396
0.0012105379 0.018502977 0.029041715 0.016383102 -0.009105173 0.04863537 0.018002898 0.0026433563
-0.016454848 0.0015496401 -0.006021839 -0.010002664 -0.0010313644 -0.03414745 -0.0038766845 0.000731998
0.0007667202 0.037870683 -0.0047586807 0.025787907 0.0063431896 0.0026915886 -0.028088234 -0.0038658602
0.053418566 -0.032292627 -0.016193908 -0.0021393632 0.008920074 -0.017510742 -0.010479085 0.005028318
-0.007997296 0.0018101358 0.01590994 -0.00035996223 -0.0022516488 0.0021989658 0.00061340077 0.0013119051
0.018298674 0.029814214 0.011558184 0.009087855 0.0017626046 0.002712101 0.024476707 -0.0074198986
-0.010107021 0.0023815865 -0.0029742983 -0.002763908 0.0036797917 0.005750734 -0.0073758555 -0.00110522
-0.0047336468 0.014328505 0.024380064 -0.00958215 -0.0036133672 0.04537367 -0.0010414046 0.018488487
0.000993035 0.002786407 0.0027241684 -0.0071920403 0.044683903 -0.0026246598 -0.0016303764 -0.011869614
-0.013323205 -0.0037326843 -0.029571252 0.017971179 0.037067134 0.006071452 -0.014882459 0.0005726762
-0.023800332 -0.0041061984 -0.0032451362 0.004736487 0.013338338 0.00011397565 -0.0048844717 0.0037090953
-0.005509998 0.0042491653 0.00016794208 -0.004109783 0.0064553553 0.0066207564 -0.0054459446 0.034474105

network_body._body_endoder.seq_layers.2.weight f4 [128, 128]
00000000: 5d26 893d fe19 a5bd c14d 84bd 06a1 6c3c
00000010: 25c9 cf3d 4879 55bd 9105 19be 5b24 a03d
00000020: 0484 78be d93a 863a 4c25 db3d 7222 dc3d
00000030: cd11 02be f9b1 263d 7579 37bd 9609 53bc
00000040: d837 093e 5e8f 2ebe ad7d d73d 76fa f23d
00000050: 6de2 17be 8390 24be db26 d93c e57b 943d
00000060: a2e7 80bd b06c b13d db11 f83c e58a cf3d
00000070: 2f9b dcbc 9a99 843c 006f 97bd 2c25 28bd
00000080: 2718 48be 008b 02be a940 0bbe 2565 8d3d
00000090: b751 aa3d bb5e b03d 69a4 473d b509 6abc
000000a0: 6a30 093d 17ad 013e 8a4d 7bbd 3119 383d
000000b0: 3e77 30bd 37c5 1b3e c33d ba3d 20e0 fe3c
000000c0: d428 82bc 72b9 f0bd a0e3 8fbd 9e2d e3bc
000000d0: 95c4 293e 8110 303d d247 d73d 8b18 83bc
000000e0: d6b4 c3bd cb24 9d3c 74ec 9dbe b48f 0e3d
000000f0: 638d 48be 4a5b 8a3d d86c 073e f0f5 44bd
00000100: 4521 62bd e2ec e73d bf67 b73d ebf5 003e
00000110: 88ae ed3d 2889 0ebd 48e3 25be 9b67 40be
00000120: 6381 e1bd 5819 9abd d214 db3d 5043 17bd
00000130: e48c 233e 1147 24be 21ab 12be 74c6 023e
00000140: bb33 cb3d c325 1d3e f129 29bc 0b60 6bbd
00000150: e7bc f3bc 5704 273e 4b95 5dbe 632b 833d
00000160: e72f 31be 0350 a1bd 5f92 093d 2d37 903d
00000170: 13d1 95be 39ac 9bbd c671 7d3d 0c27 823d
00000180: bc29 9abc 73c4 acbd 7b60 42bc 9b55 20be
00000190: 15ef b7bb 6e88 c7bc 535c d23c e14b 26bd
000001a0: 3766 c13d e08b c63c a0f2 e6bd 9aba 57bd
000001b0: f665 29bd 191c 423e 1165 1bbd 5db7 0cbd
000001c0: 7da0 3d3d 4c6c 053d df15 ed3c 8192 9d3d
000001d0: 7afd 93bd 1502 cf3c 8fe7 7abb e6e7 3ebd
000001e0: 23a5 ac3d 3634 c6bd cd03 cebc 7682 443d
000001f0: 1ccf 053c 4b58 94bd 648c 1bbd 936c 12bd
00000200: 0783 e4bd 8e4b 663b 6862 0b3e 006e 4b3e
00000210: 3212 b3bd ba73 563c e702 183e 4887 263c
00000220: 4eb0 b9bd b093 5ebd dcdb 19be 9a01 7c3d
00000230: 3dd8 b33c b56f 2dbd 79fd 3ebc cbda 0abd
00000240: 2c77 c63d a294 bc3c e0dd 5c3d 84fd 26be
00000250: 0669 9b3d beab dcbc d064 2f3d 62d7 17bb
00000260: ba31 343d 6e70 d63d 72d6 143e e151 6dbe
00000270: a3f8 ca3c 67c8 33bd ba19 ce3d e1bd f23d
00000280: 68da dc3b 57c9 1bbe 81cb 36be acd5 03bb
00000290: 50f7 6cbd df39 4b3d 98fc 1bbd 9685 b23d
000002a0: 1792 97bc 2ad1 bf3d 16cd 5abe 166e f13c
000002b0: 4e3f 5abc 2b37 693d c789 443d cf62 92bc
000002c0: fade 363d 8468 b2bc 1ee8 ae3c d179 80bc
000002d0: 2e14 563c bbc0 03be 5ee6 65bc f74f 02be
000002e0: 4db8 84bd 3c25 003d 4835 3f3d 69da 85bd
000002f0: b9d2 d7bd 4e50 9cbc e0b4 bbbd ca5c d93c
00000300: d3f1 9a3d 0926 ebbd af11 e23c 1a32 f0bc
00000310: 8ad1 1abe a7a3 f73d 1d66 a1bd 7612 433a
00000320: f9cf 0abe a649 7f3c 7cd5 793d 6aed 103d
00000330: 86b6 aebc 9468 67bc 926a d1bd e9e9 333d
00000340: 9251 ee3c 6e93 153b 7593 0a3d c63e e83d
00000350: 0fa5 2abd a283 f5bd 0857 223e 0f33 9cbc
00000360: a0d7 2f3d 6462 5a3d 8953 44be 8cd0 363d
00000370: f0cb ebbd d300 0ebd ab27 4e3d 38ae d9bc
00000380: 2146 66bc c21c 5bbc c786 a1bc 0fbd 25bd
00000390: bd49 633c 2e09 493d 3234 813d c04b 29bc
000003a0: 5e09 90ba 65d4 98bb c7aa 98bc 6109 00bd
000003b0: 8275 8e3d 2f1e f8bc 9169 603d c288 14be
000003c0: 51ba b0bd ddd0 a23d e220 523d 4378 a7bc
000003d0: 4331 6b3d 9320 0cbc c65f ae3d 5a7d d33c
000003e0: 84eb d0bc 49ab c6bd 6971 c23d c504 0abb
000003f0: 0f45 753d 5c9d cf3c d312 903c 2dfa cfbc
0.0669677 -0.08061598 -0.06460143 0.014442688 0.10145787 -0.052117616 -0.1494353 0.07819434
-0.2426911 0.0010240927 0.10700473 0.107487574 -0.12702103 0.04069707 -0.044793565 -0.012880703
0.13400209 -0.17046878 0.10522018 0.11864178 -0.14832468 -0.16070752 0.026507786 0.072501935
-0.062941805 0.086633086 0.030281952 0.10133914 -0.026929466 0.016186524 -0.073942184 -0.041051075
-0.19540463 -0.12748337 -0.13598885 0.069040574 0.08316367 0.086118184 0.048740778 -0.014284541
0.033493437 0.12663685 -0.061353244 0.0449459 -0.04308247 0.1521195 0.09093811 0.03111273
-0.015888609 -0.11754121 -0.07025838 -0.027731713 0.16578896 0.04298449 0.105117455 -0.016002914
-0.09555976 0.019182583 -0.30844462 0.034805015 -0.19585185 0.06755693 0.13225114 -0.048086107
-0.05520751 0.11324479 0.08955335 0.1259381 0.11605555 -0.03479877 -0.16199982 -0.18789522
-0.11011007 -0.07524365 0.106973305 -0.03692943 0.15971714 -0.16042735 -0.14323093 0.12771016
0.09921976 0.15346436 -0.010324941 -0.05746464 -0.029753162 0.1631025 -0.21638982 0.0640476
-0.1730343 -0.07876589 0.033586856 0.07041774 -0.29261073 -0.07601208 0.06187608 0.06355104
-0.018818729 -0.08435907 -0.011863823 -0.15657656 -0.0056132176 -0.024357047 0.02567879 -0.040599708
0.09443324 0.02423662 -0.11276746 -0.05266819 -0.041357003 0.18956031 -0.03793818 -0.034354556
0.04629563 0.032573983 0.028941093 0.07693959 -0.07226081 0.025269547 -0.0038284992 -0.046607874
0.08429935 -0.09677927 -0.025148297 0.04797598 0.0081670545 -0.07243403 -0.037975684 -0.035748076
-0.11157804 0.003514025 0.13611758 0.1986618 -0.08743705 0.013089115 0.14844857 0.0101640895
-0.090668306 -0.054340065 -0.15025276 0.061524965 0.021953696 -0.04234286 -0.011657112 -0.033900063
0.09690699 0.023020092 0.053922534 -0.16307646 0.07588391 -0.026937362 0.04282075 -0.002316915
0.043992735 0.10470663 0.1453493 -0.23175766 0.024776762 -0.04389229 0.10063501 0.11852623
0.0067399032 -0.15213524 -0.17851068 -0.0020116372 -0.057853043 0.049615737 -0.03808269 0.08716886
-0.018502278 0.09366067 -0.21367297 0.029471438 -0.013320757 0.056937378 0.047982957 -0.017869381
0.04464624 -0.021778353 0.021350916 -0.015683087 0.013066335 -0.1286649 -0.014031975 -0.12725817
-0.06480465 0.03128551 0.046681672 -0.06535799 -0.10538239 -0.019081261 -0.091653585 0.026533503
0.075656556 -0.11481864 0.027596323 -0.029320765 -0.15118995 0.12091761 -0.07880805 0.00074414106
-0.13555898 0.015581524 0.06099461 0.035382666 -0.021327268 -0.014124054 -0.10225405 0.043924246
0.02909163 0.002282347 0.033832032 0.11340098 -0.04166132 -0.119879976 0.15853512 -0.019067315
0.042930245 0.05331649 -0.19172491 0.04463248 -0.11513507 -0.034668755 0.0503308 -0.026572332
-0.014054806 -0.013373556 -0.019717587 -0.040463503 0.013872561 0.04908102 0.063087836 -0.010333002
-0.001098912 -0.0046639913 -0.01863612 -0.031258944 0.069560066 -0.03028783 0.054788176 -0.14505294
-0.08629287 0.07949994 0.05130089 -0.020443087 0.057420027 -0.008552688 0.08514361 0.025816608
-0.025502928 -0.09700639 0.094942875 -0.0021059972 0.059880313 0.02534359 0.017587101 -0.025387848

network_body._body_endoder.seq_layers.2.bias f4 [128]
00000000: d4cd 193c 47c5 9e3b f3fc 833b 8489 623c
00000010: 07fd bb3b e6fb d33b 9b29 17bc 33cb 833b
00000020: cc62 843b e4ec 273b 156d 84b9 b76c d83a
00000030: 3500 1abc 2053 08bc cc1c 333b be37 6ebb
00000040: 91eb a93a fe0f d039 6bab 133b 1020 20bb
00000050: 3720 cd3a be20 793c 0746 39bb 4284 25bc
00000060: f8f1 b7bb 7b50 96bb d66d 8dbb f5eb d53b
00000070: a43f 363c 36f6 3c3b 27b3 013c 804e b6ba
00000080: dea9 b4bb b50c 07ba 54b7 1cba 9142 493c
00000090: 720e 913c 7db6 b2bb 1f17 623c e170 823b
000000a0: 01af 09bb 5aae 883c 84d3 9b3b dfe0 7f3b
000000b0: a138 98bb f6ca bd3b 0dd5 ca3b 0ac0 1abc
000000c0: 6d7b 673b 9f1f e5bb d435 9dbb b776 523c
000000d0: 4e51 cd3a de5d 5c3c 82aa e1ba cbc4 ca3c
000000e0: eab1 a63b 8e7b 243c b77e a1bb 2450 c539
000000f0: f6fb 883b ef08 26ba 859a 26bb 8ac2 acba
00000100: a81a 5a3c 2956 233c 7231 cebb 1081 9b3b
00000110: ad2b 0e3c ea5a fb3a d59d 533a ebe4 0abc
00000120: 9843 1ebc 007d 11bb a145 c83b b67e f1bb
00000130: 5e51 f9bb b895 f3bb 94b3 013c 2793 49bc
00000140: 8ca9 1e3c f08d 82bb 8447 bc3b 598e 553b
00000150: 651f 473b 8ec5 793b c6e4 3bbc ee22 0ebc
00000160: 71f0 13bc f003 743b 01cc f2bb 9279 4cbb
00000170: 2011 4139 3f95 413c 533b 413c f5c0 bdbb
00000180: 1a74 1e3c e9fa 993b 4539 a43c 7283 973a
00000190: 0332 faba cc96 49bb 9e96 563b 8222 39bb
000001a0: b14a d03b 688b 99bb c735 c9bb 3a53 3e3b
000001b0: 6a8f 22ba a8ba 933a d1ae cdbb 13b1 a3ba
000001c0: a941 abba 01f9 38ba e177 7dba 3875 5bbb
000001d0: 4a43 6bbb 10f1 51bb 9380 a2bb abbf 623c
000001e0: 73ed f4bb 7fab e339 dcfb 4e39 dc94 883b
000001f0: 9e5c c13a 608b 123a 6a44 a83a feac 86bb
0.009387452 0.0048452946 0.0040279566 0.013826732 0.0057369503 0.0064692376 -0.009226228 0.004022026
0.004040098 0.0025623376 -0.00025258274 0.0016511892 -0.009399463 -0.0083206 0.0027330397 -0.0036349143
0.0012963881 0.00039684767 0.0022532593 -0.0024433173 0.001564986 0.01520556 -0.00282705 -0.0101023335
-0.0056135617 -0.0045872307 -0.004316072 0.0065283724 0.011123572 0.0028833277 0.007916248 -0.0013908893
-0.005513414 -0.0005151735 -0.0005978246 0.012283937 0.017707083 -0.005453883 0.013799458 0.0039807414
-0.0021008851 0.0166847 0.0047554392 0.0039043946 -0.0046454226 0.005792017 0.0061899484 -0.0094452
0.003532137 -0.006992295 -0.0047976766 0.012845687 0.001566449 0.013450114 -0.0017216953 0.024752041
0.005087127 0.010039223 -0.0049284357 0.00037634477 0.0041804267 -0.00063337287 -0.002542169 -0.0013180536
0.013312019 0.009969273 -0.0062925154 0.00474561 0.008677405 0.0019176875 0.000807253 -0.00847743
-0.00965967 -0.002219975 0.006111816 -0.0073698414 -0.0076085767 -0.0074336194 0.00791635 -0.01230315
0.009683978 -0.0039842054 0.00574583 0.0032586067 0.0030383703 0.0038112137 -0.011468118 -0.00867532
-0.009029494 0.0037233792 -0.007409573 -0.0031200391 0.00018412294 0.011815368 0.011793929 -0.0057908245
0.009671235 0.0046991003 0.02004684 0.001155956 -0.0019088391 -0.0030760048 0.0032743583 -0.0028249328
0.00635656 -0.004685808 -0.006140444 0.0029041306 -0.000620118 0.0011270838 -0.0062769433 -0.0012488685
-0.0013065833 -0.00070561474 -0.00096690474 -0.0033486616 -0.0035898262 -0.0032034554 -0.004959175 0.0138396425
-0.007474595 0.00043424589 0.00019739516 0.004168136 0.0014752334 0.00055902265 0.0012837772 -0.0041099777

action_model._continuous_distribution.log_sigma f4 [1, 2]
00000000: 67a4 06bc a1c1 4abc
-0.0082179075 -0.012375266

action_model._continuous_distribution.mu.weight f4 [2, 128]
00000000: 01e6 21bc 0dcf 14bd 83a4 3abc aa13 d23c
00000010: 520d f93c f5b1 8b3d 4642 353d d0a7 1fbd
00000020: 0488 d5bc ce02 493d 4035 ca3b bb60 86ba
00000030: 3830 193c 68a5 5c3c 0c12 113d 1cd3 0d3d
00000040: 2465 e13b 5283 193d 8943 62bb 612a d73c
00000050: e7aa cc3b 6693 093d e112 983b 3045 853c
00000060: d1ab 423d 54bd 923c c2ea 393c 29ba 40bd
00000070: e3e9 0abd 765c 613c 6aa2 463c 18a9 8d3c
00000080: 1a3b 5a3c 7425 3cbb 686b 85bb f7ef e5bc
00000090: 6c44 47bc 9620 2b3c fb00 bebc 9b1d e23c
000000a0: 81d7 18bb d1a8 ddbc c53e dc3c 63d4 b3bb
000000b0: 25eb 4e3c 0c41 63bd 8f4e 3ebb a88c a13c
000000c0: ee53 07bc a840 8e3c bf2d cc3c b576 b33c
000000d0: 710d 35bc 98c3 563d 18af 87ba abf3 543b
000000e0: 6965 ab3c 1075 bd3b adb2 343d 1fef 1c3d
000000f0: b7bc e13c e13c a539 6362 c23b ccf0 663c
00000100: d5f1 73bc 6e4a 46bc 8cc8 e23b 8afc b6bc
00000110: 6f74 183d 8977 adbb 76c4 85bb 1ec0 0a3d
00000120: 3b95 603c a842 dc3c 788b fbbc cca8 1f3d
00000130: 5755 393b ac26 0c3d 7bcd 5abb 375e ce3b
00000140: 445b 6d3d 8ebe e13c bd0e 5dbc dd49 21bd
00000150: 7867 94bc b163 af3c 3ea8 b9bb 1b7a 953c
00000160: c5e7 e73c f003 103d faad 973c a99b 033c
00000170: a94f e23a bf71 bbbc 5c68 b9bc 055b 223c
00000180: 2a00 bdbc 50ac 993c d8fc 1abd f84c e0bb
00000190: b53e 6d3c 5d8a 92bc 6fef acbb 84f8 213c
000001a0: 6257 fc3c 451a 5e3d c95f fe3c 159f 183d
000001b0: 318a 4d3c d56a 5a3c 02a6 f93c ad1f 783d
000001c0: b34e dd3c bf01 dd3c 342c 333c 9c51 043d
000001d0: 939c 0b3d 26e2 eb3c 840a 613c 9597 23bd
000001e0: b1db 193d fc3f 393c 4f93 5d3b 32bb b3bc
000001f0: 5f83 b23b 238b 063d 0916 973b 9235 473c
00000200: e0e5 96bc d3f6 61bc 1672 eebc b6b1 f03b
00000210: 528f 95bc 58ca adbb 1a55 e6bb b3e4 5b3c
00000220: 1de0 1e3c d985 e3bc f0d1 a4bc 8649 97bc
00000230: aa36 1538 f989 3fba 1555 c4bb 3acc b43c
00000240: d87c acbc d534 adbc d45c 89bc 27e3 51bc
00000250: d1cb ebbc b18b c93c 79f1 aa3c 661b 1abc
00000260: d5e8 3b3c e8cb b73c 7d56 2cba 999b a4bc
00000270: 2190 1abd c562 3bbd 88a9 26bd c2be f2bc
00000280: 8795 023c c2ac 453c 5a5a 8a3c df30 703c
00000290: f673 603b 4b47 343b f1de adbc 5fcd 39bc
000002a0: c661 eab9 9ad7 4bbc ceac 98bc c96f c6bb
000002b0: dfbe 9d3b de76 c0bc 8426 cd3a 09c0 0dbc
000002c0: 38b6 b53c 4a01 653c 2f5c e93c d8e3 bf3c
000002d0: ef43 883c 0748 57bc dc70 4d3b 1b9a 953c
000002e0: 4c6d 413d 23a7 79bc cc10 d93a 1e02 bb3b
000002f0: 82ad e93b 1088 febc cae9 883c 5693 d6ba
00000300: 5d61 8b3c d831 c439 91ad e93b 21fc 1d3c
00000310: e668 923b 5c96 a2bc f94e aebb 4f65 adbb
00000320: f979 a33a 2c06 abbc 37b9 20bc 62ce 983c
00000330: 604a 7f3b 8782 fa3a 0fdf 8cbc abf1 333c
00000340: 9214 d83c 0648 fc3b 86f9 a4bb 25d0 ea3b
00000350: 4de8 813c 8719 473c de3f 1a3c 84ba e1bc
00000360: 34bd 4d3c 7540 bfbb 501c 1f3c 0ca9 f53c
00000370: 55af 33bc 9383 16bc a015 37bd ff8b 16bb
00000380: 9708 c7bc 6cf1 0b3d 36fb ba3c a450 78bb
00000390: 6f4d 393d ad07 ab3c 4022 e7bb 0578 243d
000003a0: 382e 8fbc f5df 69bc 071f 9d3c 69ed a5bb
000003b0: 91ad 79bc c41a 883c 0f10 7fbc 70fc 5abb
000003c0: 71c4 23bd 1490 1bbd 5aae 41bc 4213 a23c
000003d0: 5792 e33b 9459 df3b a943 0cbb ca48 06bb
000003e0: 66c5 c4bc 4a76 d0bb 1aba 6cbc 7eb9 e2bb
000003f0: 45c0 a9bc afa4 8d3b 2672 073c 667b 14bc
-0.009881497 -0.03633027 -0.011391762 0.025644142 0.03040186 0.06821052 0.044252656 -0.038978398
-0.026065834 0.04907494 0.0061708987 -0.0010252217 0.009349875 0.01346717 0.0354176 0.034625158
0.006878512 0.037478752 -0.0034525117 0.026265325 0.006245959 0.033587836 0.0046409224 0.016268343
0.04752714 0.017912544 0.0113474745 -0.047052536 -0.033914458 0.013754955 0.0121236835 0.017292544
0.013319755 -0.0028708847 -0.0040716417 -0.028068526 -0.012162309 0.010444781 -0.023193827 0.027602008
-0.002332181 -0.027058037 0.0268854 -0.005487965 0.012629305 -0.055481955 -0.0029038524 0.01972039
-0.0082597565 0.017364815 0.024924157 0.02190719 -0.011050568 0.052432626 -0.0010351865 0.003249387
0.02092238 0.005781777 0.04411571 0.03831398 0.027555807 0.0003151661 0.0059321388 0.014095496
-0.0148892 -0.012102706 0.0069208797 -0.022337217 0.037220415 -0.0052937907 -0.004082258 0.033874623
0.013707454 0.026887253 -0.030706152 0.038979337 0.0028279626 0.034216568 -0.0033386636 0.0062978524
0.057948366 0.027556684 -0.013492283 -0.039377082 -0.018115744 0.021409841 -0.005665808 0.018246701
0.028308759 0.035160005 0.018515576 0.008032718 0.0017266172 -0.022881387 -0.02263277 0.009909396
-0.023071367 0.018758923 -0.037838787 -0.006845113 0.014480283 -0.017888242 -0.005277566 0.009885911
0.030803386 0.05422427 0.031051533 0.037261087 0.012545154 0.013331135 0.030474667 0.060577083
0.027015066 0.026978372 0.010935832 0.03230439 0.034084868 0.02879436 0.013735417 -0.03993948
0.03756303 0.011306759 0.0033809727 -0.021939848 0.0054477896 0.032847535 0.004610781 0.012158768
-0.01842016 -0.013791758 -0.029107135 0.0073454035 -0.018256817 -0.0053036623 -0.007029188 0.013421225
0.009696987 -0.027773784 -0.020119637 -0.018467676 3.5575278e-05 -0.00073066313 -0.005991588 0.022070039
-0.021055624 -0.021143356 -0.016767897 -0.012810505 -0.02878371 0.024602743 0.020867096 -0.009405946
0.011469086 0.022436097 -0.0006574167 -0.020093726 -0.03773511 -0.04574849 -0.04068902 -0.029631976
0.00797022 0.012065114 0.016888786 0.014660089 0.0034248806 0.0027508314 -0.02122447 -0.011340468
-0.00044704805 -0.01244154 -0.018637087 -0.0060558063 0.0048140134 -0.02349418 0.0015651737 -0.008651742
0.022181615 0.013977358 0.02848634 0.023424074 0.016633956 -0.013139731 0.0031347787 0.01826196
0.047223374 -0.015237602 0.0016560792 0.0057070395 0.0071312794 -0.031070739 0.016713042 -0.0016370814
0.0170142 0.0003742117 0.0071312864 0.009642632 0.0044680713 -0.019847088 -0.005319473 -0.005291618
0.0012472264 -0.020876966 -0.009809784 0.018653098 0.0038954243 0.0019112387 -0.017196206 0.010982911
0.026376996 0.0076990156 -0.0050346283 0.007165926 0.01585784 0.012152082 0.009414641 -0.027554758
0.012557317 -0.0058365413 0.00971134 0.029987834 -0.010967095 -0.009186643 -0.044698358 -0.0022971628
-0.024296088 0.034165785 0.022824865 -0.0037889862 0.045239862 0.020877684 -0.0070536435 0.040153522
-0.017478094 -0.014274587 0.019179834 -0.005063702 -0.015239135 0.016614325 -0.0155677935 -0.0033414625
-0.039982263 -0.0379792 -0.011821354 0.019784573 0.0069449353 0.0068160985 -0.0021402633 -0.0020490163
-0.024019908 -0.0063617574 -0.014448667 -0.006919085 -0.020721564 0.0043226103 0.008266961 -0.009062624

action_model._continuous_distribution.mu.bias f4 [2]
00000000: 3f65 c5bb b7d7 caba
-0.0060240324 -0.0015475665

exp_avg f4 [128, 3]
00000000: 2a89 4336 ad0c acb6 373e b7b7 ba2d 7039
00000010: 6233 8836 e907 42b8 4243 f838 11ce e036
00000020: 0c94 1c38 a213 4bb9 aec0 36b7 9654 adb7
00000030: ed1a 61b9 b83f 5fb6 c057 0538 e8d2 07ba
00000040: 6321 23b3 73eb 8339 2d7f 5fb9 e64a d6b6
00000050: 519c f637 20e7 4b39 73f2 d236 79cf 9eb7
00000060: 6747 8bb8 b25a e7b5 68be 0db5 52bd 9438
00000070: 9e99 0d36 0ae9 1537 1115 95b9 9dcc a4b6
00000080: 15c2 be37 df8a dfb7 2d21 cc36 6576 5438
00000090: 7427 e139 2636 fd36 e2cb e8b8 d357 f238
000000a0: c152 5336 5b64 ca36 99ec 90b8 f07a 8ab5
000000b0: 0ae0 2b37 30ca 9537 3285 2834 577f a6b7
000000c0: 9477 cf37 9a3c 6235 9892 68b6 0889 4fb9
000000d0: adc8 c636 0f25 3f39 56cb 52b7 f49e 24b4
000000e0: 480a dd36 dd89 f8b7 69a2 21b6 2d5e 24b8
000000f0: 169a 0a38 2a75 e535 3c5b 51b7 2adf 133a
00000100: d93a 1a36 aada 66b9 c307 08b8 11a0 a3b6
00000110: d029 0fb8 37fc 6239 5469 d135 947b ecb7
00000120: a12e 3c39 d4b4 3336 51b9 9ab8 b68c 023a
00000130: 5f5b d436 f3f9 e4b8 218a 3f39 d3b9 5036
00000140: 7026 86b8 0b98 3839 04af 1f36 5aae acb8
00000150: 91df 78b9 562a 9fb6 914c 3438 1658 b6b9
00000160: c8c5 1cb7 630b 0c38 4c86 c5b9 4369 8934
00000170: aece 3c39 63d5 3e3a fd88 3c37 3f0e 48b9
00000180: 301b 8b38 c822 0d36 21ed 2a35 7752 2838
00000190: 9d8c e935 8f95 a1b5 950f 8cb7 90f3 dcb4
000001a0: 4150 5cb7 6bca b2b7 37b6 57b5 e550 97b7
000001b0: f49a db38 0765 68b6 5d58 cfb8 b741 a238
000001c0: ffea 0e36 23a1 0a37 7a13 9b37 bb6d 2235
000001d0: 5339 41b7 63ff 1139 8dd6 2736 1f80 f636
000001e0: 9475 f7b8 b9c6 64b6 3cf2 8234 8502 4039
000001f0: febf 0e36 5944 89b8 2e40 fdb8 fe7f b3b6
00000200: e171 7cb7 895f 52b9 6dc2 00b7 b220 ad36
00000210: 5253 e039 3dcd 0e36 3ca8 3cb9 3443 1ab9
00000220: c0da 73b6 98e7 6fb7 37df 3db8 7fae 03b5
00000230: 2fc1 bb37 d6d1 85b7 794c af34 1119 8138
00000240: e9f1 9c37 a92e 7034 0591 78b7 6bf9 a538
00000250: ec26 1036 c651 8437 0398 7738 c03f 4ab6
00000260: 1f67 84b8 a29d 9338 c7fa 2f36 0ee5 2537
00000270: 91fa 5039 fd84 4837 34cb d5b7 3565 64b9
00000280: 9ef2 d6b5 e52d 0d38 6ba8 2db9 da97 97b6
00000290: be20 2db8 e4eb 7f39 75f5 77b6 8171 2eb9
000002a0: 3ded f438 af77 4c36 b53d 5436 9479 cfb8
000002b0: 1ddb 31b6 bd41 18b7 af93 1cb7 33ab 98b4
000002c0: 06fd 8036 29c3 6239 f5cb 3637 9f94 9238
000002d0: 365f 57b6 efe8 0235 45c9 9337 bbfe 00b9
000002e0: 3f60 16b6 09c6 ef37 2c32 0ab8 4c7a 4fb4
000002f0: 3275 fd37 dc60 4839 9239 1b36 d6dd 9bb8
00000300: 94a9 61b9 425a acb6 270e 3738 b7e7 05b8
00000310: 8e24 5c35 3ffd a636 e8b5 9638 9c42 fc35
00000320: cf9d ccb6 0098 ee38 4119 a6b5 d7d9 60b8
00000330: 2127 d7b9 3f37 0cb7 a9a6 0738 e4ff 92b9
00000340: 626b 88b5 829c e238 e2f3 5639 946a 8536
00000350: f484 9db8 d150 c735 d2e2 cd32 113d 19b7
00000360: 6ce4 5ab7 3b0b a335 ac85 c637 e7d7 5339
00000370: ca68 c436 d16d 91b8 50b7 e337 bd21 6935
00000380: e60b 3637 8d69 ca39 a69d cb36 53d2 11b9
00000390: 3fd3 86b9 0f02 dbb5 ac1c 6e38 6f56 873a
000003a0: a504 6637 dc3d 8db9 154c 3b38 fd19 0636
000003b0: d5fe ef36 2fc9 5cb5 eabb c033 96d5 6236
000003c0: eec5 33b9 27e8 6eb6 1096 c337 6eb4 de39
000003d0: 2cf9 a536 c5fb e8b8 93ed 42ba da82 1ab7
000003e0: 039d 7039 2ef6 e037 f0da 9235 3581 cc34
000003f0: b4bf 6a3a f903 7937 4412 6db9 63dd 7d39
2.9137104e-06 -5.127475e-06 -2.1844271e-05 0.00022905218 4.0590976e-06 -4.626057e-05 0.00011838089 6.6997095e-06
3.7331178e-05 -0.00019366902 -1.0892907e-05 -2.0662595e-05 -0.00021467703 -3.3266679e-06 3.1791395e-05 -0.0005181269
-3.798176e-08 0.0002516169 -0.00021314314 -6.3864163e-06 2.9398276e-05 0.0001944569 6.2867125e-06 -1.893168e-05
-6.641336e-05 -1.7237237e-06 -5.280367e-07 7.0924536e-05 2.1100054e-06 8.935351e-06 -0.0002843519 -4.911401e-06
2.2740142e-05 -2.6648338e-05 6.083536e-06 5.0655002e-05 0.0004294474 7.5462913e-06 -0.00011100598 0.00011555818
3.148962e-06 6.031752e-06 -6.910525e-05 -1.0317581e-06 1.0244557e-05 1.7856335e-05 1.5694675e-07 -1.984804e-05
2.4732006e-05 8.427975e-07 -3.4656023e-06 -0.00019792106 5.9242216e-06 0.00018228985 -1.2564318e-05 -1.5331517e-07
6.58751e-06 -2.9628101e-05 -2.4085405e-06 -3.9188355e-05 3.3045268e-05 1.7095929e-06 -1.2478613e-05 0.0005640859
2.2982042e-06 -0.00022015968 -3.2432155e-05 -4.8764127e-06 -3.4132798e-05 0.00021646997 1.5602368e-06 -2.8190938e-05
0.00017946448 2.6778334e-06 -7.37781e-05 0.0004980074 6.3287293e-06 -0.00010918444 0.00018266636 3.110258e-06
-6.3967775e-05 0.00017604248 2.3794719e-06 -8.2340746e-05 -0.00023734408 -4.743498e-06 4.2986652e-05 -0.00034779374
-9.344374e-06 3.3389206e-05 -0.00037674827 2.5594827e-07 0.00018006071 0.0007279722 1.1237568e-05 -0.00019078793
6.6331006e-05 2.1030883e-06 6.3675003e-07 4.0131123e-05 1.7400777e-06 -1.2038962e-06 -1.6696556e-05 -4.1155408e-07
-1.3131707e-05 -2.1313512e-05 -8.03589e-07 -1.8038272e-05 0.00010471596 -3.46295e-06 -9.886988e-05 7.737002e-05
2.1296435e-06 8.2629585e-06 1.848651e-05 6.050938e-07 -1.1517043e-05 0.00013923417 2.5009824e-06 7.3462866e-06
-0.000117997784 -3.409032e-06 2.4390636e-07 0.00018311485 2.1271403e-06 -6.5454e-05 -0.000120759345 -5.349516e-06
-1.5046885e-05 -0.0002006275 -7.674663e-06 5.159608e-06 0.00042786688 2.1279113e-06 -0.0001799175 -0.0001471162
-3.633715e-06 -1.4299432e-05 -4.5268996e-05 -4.905523e-07 2.2382095e-05 -1.5952548e-05 3.265193e-07 6.155868e-05
1.8709297e-05 2.2368717e-07 -1.4815717e-05 7.914271e-05 2.1480328e-06 1.5773705e-05 5.903096e-05 -3.0137453e-06
-6.313458e-05 7.0388676e-05 2.6223004e-06 9.888097e-06 0.00019929769 1.1951893e-05 -2.5486203e-05 -0.00021781477
-1.6014853e-06 3.3659762e-05 -0.00016561306 -4.5178285e-06 -4.1276908e-05 0.00024406571 -3.6948743e-06 -0.00016636217
0.00011679016 3.0468034e-06 3.162638e-06 -9.893175e-05 -2.6502596e-06 -9.075212e-06 -9.33271e-06 -2.843677e-07
3.844153e-06 0.00021625742 1.0895533e-05 6.989505e-05 -3.2092917e-06 4.8767737e-07 1.7617489e-05 -0.00012301926
-2.2407764e-06 2.8583238e-05 -3.294849e-05 -1.9322869e-07 3.0214524e-05 0.00019109569 2.313031e-06 -7.432296e-05
-0.00021520845 -5.136507e-06 4.364378e-05 -3.1925472e-05 8.200958e-07 4.9766672e-06 7.18644e-05 1.8794849e-06
-6.098045e-06 0.000113770366 -1.2375314e-06 -5.360864e-05 -0.0004103715 -8.357513e-06 3.2341723e-05 -0.00028037943
-1.0164042e-06 0.000108056716 0.00020499484 3.976116e-06 -7.511108e-05 1.4850176e-06 2.3968287e-08 -9.133729e-06
-1.3046996e-05 1.2147715e-06 2.3665685e-05 0.00020202958 5.8534542e-06 -6.934594e-05 2.714587e-05 8.684836e-07
1.0850816e-05 0.00038607084 6.068224e-06 -0.0001390663 -0.00025715862 -1.6317371e-06 5.6770325e-05 0.0010325442
1.371015e-05 -0.00026939705 4.465513e-05 1.9982683e-06 7.1524214e-06 -8.224915e-07 8.974878e-08 3.3800948e-06
-0.00017144505 -3.5599894e-06 2.331569e-05 0.0004247757 4.9463906e-06 -0.00011109518 -0.0007435914 -9.209582e-06
0.00022946675 2.6817517e-05 1.0941567e-06 3.8091972e-07 0.00089549576 1.48424815e-05 -0.00022608886 0.00024210433

exp_avg_sq f4 [128, 3]
00000000: b59a 3936 4673 702f 596f 6733 7d36 1a36
00000010: 2fcb 7d2f 5e29 c833 5c88 5535 1945 be2e
00000020: bd0e 1133 8af0 2b36 b163 9a2f 8581 0534
00000030: d232 4235 1967 852e 81bb b632 3391 ff36
00000040: a4fb 2930 3dc3 6a34 8fa9 5035 eec1 9b2e
00000050: ba26 f132 5aca 4036 a057 9d2f 54c3 da33
00000060: 6074 5b33 45fa 192d e4b0 0132 6c53 cf31
00000070: 9e3c fa2b f422 912f 29d6 0836 7513 822f
00000080: 4a07 af33 8d08 6a36 bed2 a32f e8fd f633
00000090: 7da7 f635 5b07 192f 1c2c 7d33 6e4a 8b31
000000a0: 4af2 002c 7947 7f2f 981b 9135 2aad 262f
000000b0: 0206 8433 be09 7a33 0d55 cc2c 2bd3 1e31
000000c0: 83d9 0131 0682 aa2a 54a4 262f 7baa 5036
000000d0: 6433 a52f 826f ce33 9514 7634 926e 912d
000000e0: da3f 5e32 d124 6f35 544b 912e 33c9 b132
000000f0: 9e1e ea33 2468 962d 184f 3832 ab86 6d37
00000100: 7ddc b230 1c20 cb34 ff41 0b36 057b 482f
00000110: fe6c 8733 a248 db35 e95c 712f de05 b933
00000120: c947 c832 b846 942c a71e f230 7e92 a035
00000130: 411f 0a2f ecb7 5533 193d 8632 60c2 ef2b
00000140: f745 d430 cd77 0c33 9ed5 632c 5894 0331
00000150: 692b f535 957b 2d2f 1779 1b33 5f60 a836
00000160: 9f55 1030 1220 8134 859b 2337 ec20 6130
00000170: 4091 8034 07bd 3437 cbf1 a430 013e f334
00000180: 46d3 2a32 9b2d 152c f405 a330 320a 6832
00000190: 917c 2c2c 5c29 a430 e1b6 0534 392a a12d
000001a0: 430e 8b32 363c 1734 8691 c92d e316 aa32
000001b0: 5531 9d34 c6d0 222e 4d07 4e32 b0d7 fd30
000001c0: 02cd 672b a596 e02e 56cb 2e34 5e28 d22d
000001d0: dcd1 a632 415a a035 59e6 f52e badb 2533
000001e0: 1896 ff33 a5f3 a62d ca58 5232 e9b5 c333
000001f0: 37ff 052d 9ac2 bd31 9f3b fa35 f0db 242f
00000200: 60ca 3733 6d16 9335 6644 e32e c6ae 3d33
00000210: fe23 c536 6603 f62f 2c7f 2234 4b38 6f32
00000220: 365f 2d2c 6130 3830 ffdd cd34 a8f4 e32d
00000230: 32af 5332 4c40 4235 98bd 802e dcc1 c532
00000240: 25c2 da32 ae1a 6b2c e9c3 ba30 5e1a c330
00000250: 48cf 4a2b 7540 9b2e 494c ac35 7519 132f
00000260: 2008 3033 a9c1 f831 99a5 222c 7430 0330
00000270: 069f 9b36 77e8 0230 af14 5934 6100 3c36
00000280: 7d9f c62f 3440 2634 71df 8f33 0e6e 1b2d
00000290: 3c9a 5e31 6fb8 a136 98e9 d82f 2b1a 0d34
000002a0: e571 6d31 fe1b dc2b 25fd 9e2f 1587 1532
000002b0: 4ad6 e52b 347e 7b2f ab87 2a32 e226 be2b
000002c0: 9776 0a30 3282 1236 951e 5d2f f0a2 1b33
000002d0: d13b e332 54ca 4e2c 09cb 5e30 131c a733
000002e0: 91ad 1f2d f75b f231 2627 e032 1a10 382c
000002f0: 32ee 2d31 515c 6335 2fe5 8f2e 8aa2 d432
00000300: 6471 2f35 4182 882e 7d26 0433 64cd 0035
00000310: 2a39 4b2e b43e 2233 35ef 8832 c46d 612c
00000320: d6e7 3c30 1cdf 1935 4209 7b2e 9423 f832
00000330: c07b a536 6a99 fc2f 9639 3934 dce0 5436
00000340: 0607 bd2f f326 e433 d9f3 5235 0ede 842e
00000350: c905 fc32 9691 1333 6c1e 662c 2e2f 9830
00000360: d0c2 6e33 4caa 482d 9b47 c531 a12d 5635
00000370: f7aa 142f e164 cf33 967e d832 3def 852c
00000380: 1b61 e830 82de 4835 c8aa 882e acb9 4333
00000390: 47b4 a235 1e87 102f e3aa 0f33 edbe 3437
000003a0: 7d78 8730 12de b934 a527 e432 2c3f b62c
000003b0: d993 f030 b982 4e31 7c5d 162b 6811 122f
000003c0: 163b 8a34 7094 bd2d a665 6732 cfb5 2636
000003d0: 927f 9d2f f786 d533 6006 0b37 333a 5930
000003e0: fc7e 7a34 244f 2f31 0e4f 2c2b bc5d 1b2f
000003f0: 525c 0f37 9508 3730 9ddc a234 4404 be36
2.76572e-06 2.1868826e-10 5.388515e-08 2.2979505e-06 2.3082401e-10 9.3207504e-08 7.954711e-07 8.652474e-11
3.3773848e-08 2.5620998e-06 2.8083272e-10 1.2433709e-07 7.2344585e-07 6.0664536e-11 2.1272855e-08 7.6164956e-06
6.1839445e-10 2.1863976e-07 7.773278e-07 7.083033e-11 2.8073703e-08 2.8728014e-06 2.8620395e-10 1.0186946e-07
5.1095753e-08 8.752614e-12 7.5490085e-09 6.033977e-09 1.7780393e-12 2.6400182e-10 2.0390237e-06 2.3660687e-10
8.1503984e-08 3.4873694e-06 2.9799269e-10 1.1501453e-07 1.8377174e-06 1.3917882e-10 5.894627e-08 4.053894e-09
1.8324391e-12 2.3217507e-10 1.0811373e-06 1.5159132e-10 6.147822e-08 5.821652e-08 5.8074713e-12 2.3112061e-09
1.8895612e-09 3.0288288e-13 1.5155993e-10 3.1093648e-06 3.004984e-10 9.612906e-08 2.2918023e-07 1.6533695e-11
1.2936619e-08 8.9088013e-07 6.6072176e-11 2.0697007e-08 1.09020434e-07 1.7099273e-11 1.07281934e-08 1.4157656e-05
1.3013871e-09 3.783506e-07 2.0751029e-06 1.82336e-10 6.306253e-08 1.633791e-06 2.195183e-10 8.615801e-08
2.3315708e-08 4.2142644e-12 1.7616529e-09 1.1963564e-06 1.256213e-10 4.9760203e-08 1.5627437e-08 1.7035921e-12
1.5444915e-09 3.270525e-08 3.2377222e-12 1.9147333e-09 1.8266556e-06 1.5778163e-10 3.619888e-08 5.0180092e-06
5.250857e-10 2.4051457e-07 9.751767e-06 8.190131e-10 2.394754e-07 1.0772847e-05 1.2001292e-09 4.530739e-07
9.94334e-09 2.119949e-12 1.1861503e-09 1.35064955e-08 2.4511818e-12 1.1944326e-09 1.2453121e-07 1.8322331e-11
1.6188215e-08 1.4084875e-07 2.291568e-11 1.9801012e-08 2.9279423e-07 3.7019963e-11 1.1992438e-08 1.8469475e-09
8.235219e-13 1.02131005e-10 1.6278986e-07 2.3892163e-11 1.9420376e-08 1.1947196e-06 1.1182228e-10 3.8616896e-08
1.1901665e-07 1.8980215e-11 1.2243797e-08 9.1134844e-08 7.616844e-12 5.5227476e-09 1.8643804e-06 1.499385e-10
4.2792067e-08 1.095888e-06 1.0334915e-10 4.4163947e-08 5.8752476e-06 4.4749554e-10 1.513369e-07 1.39244305e-08
2.4637631e-12 6.700756e-10 3.834575e-07 2.5915561e-11 1.2321651e-08 7.2364196e-07 5.854445e-11 2.3021975e-08
2.5466827e-08 3.3410319e-12 1.3588962e-09 1.4195611e-09 7.2052477e-13 7.060034e-11 1.28372e-06 1.3378616e-10
4.0985583e-08 7.2397666e-09 2.311351e-12 4.772638e-10 4.6378727e-06 4.7624077e-10 2.0217225e-07 2.8014404e-06
3.6129313e-10 1.5483312e-07 6.6996e-08 8.835167e-12 3.2392924e-09 4.819645e-06 3.945615e-10 1.3141168e-07
3.455278e-09 1.563971e-12 2.8919903e-10 8.703656e-09 1.6330906e-12 2.2873153e-10 9.92615e-09 1.3511104e-12
5.0372634e-10 2.183148e-06 2.0110698e-10 3.623694e-08 2.645348e-08 2.9386675e-12 8.105166e-10 7.78165e-08
9.076643e-12 7.053582e-09 2.6094835e-08 2.615691e-12 2.5310212e-09 8.469843e-07 6.543598e-11 2.4753962e-08
6.5357585e-07 6.207702e-11 3.076865e-08 4.79826e-07 4.6207628e-11 3.7775592e-08 1.5941263e-08 3.2035355e-12
6.872346e-10 5.732161e-07 5.7079015e-11 2.8887179e-08 4.9317896e-06 4.594754e-10 1.7250417e-07 3.1721347e-06
3.438389e-10 1.0624162e-07 7.858594e-07 6.04211e-11 2.9339292e-08 3.4358514e-08 3.2701853e-12 1.1072865e-09
5.5590874e-08 1.1406497e-11 5.741595e-09 7.978761e-07 1.352126e-10 9.6575384e-08 2.5203274e-08 3.806648e-12
1.6907821e-09 7.48296e-07 6.214901e-11 4.5570843e-08 1.2122408e-06 1.3144727e-10 3.3450203e-08 1.0773289e-05
9.856788e-10 3.4620513e-07 2.6560722e-08 5.1797646e-12 1.7504319e-09 3.0051253e-09 5.342044e-13 1.3284807e-10
2.5747494e-07 2.1552732e-11 1.3469082e-08 2.4841754e-06 2.8648778e-10 9.9431354e-08 8.28653e-06 7.9026846e-10
2.3329261e-07 2.5510838e-09 6.1216386e-13 1.4130469e-10 8.544959e-06 6.658721e-10 3.033537e-07 5.662938e-06

exp_avg f4 [128]
00000000: 486c 8f38 f609 68b8 376f bbb8 a0a3 1839
00000010: 46a0 3d38 19aa e535 ba8c b238 acb2 b1b8
00000020: 0018 c137 00d7 edb7 ccb6 8d38 5b7a a9b8
00000030: 7597 d4b8 a939 31b8 2fb9 7637 8921 11b6
00000040: d95e 3cb7 35f1 a3b8 a769 0136 688d 0938
00000050: 293b bdb7 4882 07b8 6a56 8838 befa bbb7
00000060: f170 15b8 b339 b5b8 2495 2eb8 484d 05b8
00000070: d09e 8638 41ba 0439 78a0 24b6 dcc6 1fb9
00000080: 67df ebb7 a5c2 c2b7 b0a3 b836 be2f 3337
00000090: 8f2c 4038 5ccf efb7 46f0 06b7 4f64 12b8
000000a0: 173c 3f38 31ce f0b7 828d 9738 0fab d738
000000b0: 119f f4b7 470a 4d38 92de cc36 9fd6 99b6
000000c0: e5e1 4db6 e210 f2b7 6a9d 2738 294a 13b8
000000d0: 0aad 25b9 eeb7 bf37 07a5 7f38 761a 4f38
000000e0: 5961 2bb8 117f 1538 c2bb 7f36 5c62 18b9
000000f0: 7f7b dcb6 a742 fc37 4d03 3036 b648 00b8
00000100: 68fb 9038 62af 27b7 921f d4b7 bcd1 8737
00000110: b2ef ef38 8ceb 7c37 b948 60b8 bcf1 bfb4
00000120: 3874 86b7 8d0e a3b8 8f9f 42b7 951d abb8
00000130: 06db c237 1c28 43b9 1ab3 e0b7 511f a9b5
00000140: d75e 4838 c2f4 8db8 1f1d 0339 1c80 75b7
00000150: aa9e 52b9 dca4 23b9 056d 1639 4140 60b8
00000160: aaf6 08b6 d9f3 41b9 52e3 bab7 a3a8 8e39
00000170: da81 3039 3007 7fb7 2264 0338 f82d 7db7
00000180: 800e b537 37f5 adb8 cbf7 d4b8 817a 3e38
00000190: 8c91 30b8 236f 96b6 3cd5 9a35 b939 d837
000001a0: 5bde ba37 5c4f 0838 ac7f 06b7 744e b036
000001b0: 2d18 03b8 1ee6 6636 4745 5a38 9ebd c038
000001c0: 5182 e437 481d 5339 9b31 b638 ade9 a0b8
000001d0: 91bd 8cb8 d375 f2b7 48c0 c338 e333 03b9
000001e0: e9a9 b638 bcf4 d3b8 d811 a3b8 2255 e337
000001f0: 6d40 dab8 410d d4b6 efda 8239 4da7 17b8
6.83894e-05 -5.5322387e-05 -8.93757e-05 0.00014556805 4.5210378e-05 1.7111335e-06 8.513914e-05 -8.473298e-05
2.3018569e-05 -2.8352719e-05 6.7574525e-05 -8.0813385e-05 -0.00010137159 -4.225379e-05 1.4705859e-05 -2.1626204e-06
-1.1227757e-05 -7.817374e-05 1.9283996e-06 3.279504e-05 -2.2558104e-05 -3.2307842e-05 6.501081e-05 -2.2408898e-05
-3.5629553e-05 -8.6415e-05 -4.162373e-05 -3.1781645e-05 6.419199e-05 0.00012657886 -2.453131e-06 -0.00015237503
-2.8118213e-05 -2.321724e-05 5.502683e-06 1.0680347e-05 4.5817866e-05 -2.858758e-05 -8.042965e-06 -3.4902532e-05
4.559391e-05 -2.8706245e-05 7.226599e-05 0.00010283861 -2.9161138e-05 4.888538e-05 6.1055844e-06 -4.5847405e-06
-3.0678868e-06 -2.885651e-05 3.9962506e-05 -3.5116598e-05 -0.00015800088 2.2854623e-05 6.095043e-05 4.937729e-05
-4.086024e-05 3.5642708e-05 3.810725e-06 -0.00014532491 -6.5708878e-06 3.0071778e-05 2.6227965e-06 -3.0585295e-05
6.913283e-05 -9.99481e-06 -2.528707e-05 1.619092e-05 0.00011441055 1.5075213e-05 -5.347349e-05 -3.5752407e-07
-1.6028163e-05 -7.775156e-05 -1.1600451e-05 -8.1594255e-05 2.3228593e-05 -0.00018611591 -2.6786282e-05 -1.2600595e-06
4.7772042e-05 -6.7689936e-05 0.00012503982 -1.4632966e-05 -0.00020086268 -0.00015606306 0.00014345728 -5.3465603e-05
-2.0409157e-06 -0.00018496755 -2.2278782e-05 0.00027209995 0.00016833041 -1.5200858e-05 3.132609e-05 -1.5090678e-05
2.1583633e-05 -8.294958e-05 -0.00010155103 4.541362e-05 -4.209722e-05 -4.4832864e-06 1.1535953e-06 2.5776086e-05
2.227647e-05 3.2498836e-05 -8.016748e-06 5.254342e-06 -3.125535e-05 3.4406617e-06 5.203977e-05 9.1905924e-05
2.7240401e-05 0.00020133436 8.687676e-05 -7.67292e-05 -6.71103e-05 -2.8903514e-05 9.33414e-05 -0.00012512463
8.7100845e-05 -0.000101068494 -7.775769e-05 2.7100152e-05 -0.0001040705 -6.3196353e-06 0.0002495865 -3.6157016e-05

exp_avg_sq f4 [128]
00000000: 8d53 2b33 ed7c 3333 1165 8632 a8ea 5933
00000010: 2ad2 3d32 2cbe f233 6194 5d32 5bd7 5e33
00000020: 1d1b d930 303c b02f 33f7 3733 700e 6933
00000030: 5147 da32 c18d b52f 82bd eb32 8d9a 9030
00000040: 97ff 6f2e e201 6b33 12fb 4f31 c48b 4f32
00000050: 5051 5531 c8d3 7e34 38ce 0e33 558b 2b33
00000060: ed0a 5030 dc83 c332 3d14 aa2f 70a2 2230
00000070: f990 f632 18c8 cb33 70aa 2034 cb68 6934
00000080: d581 d22f 191c f32f f29d 6431 4ea0 8e31
00000090: e5a4 e531 e934 232f 29f6 9431 1954 af32
000000a0: f3af 6c31 3c08 be30 1301 eb32 59fe a032
000000b0: 48a8 af33 ae06 f42f cc13 a331 6186 3732
000000c0: 0135 2630 b2e9 0e2f e5c2 d132 ba33 e52f
000000d0: da69 b933 c104 8d33 1d3d da30 97a9 9a33
000000e0: 0ee0 9a2f 6413 a22f 17ea 872f 5f63 1d33
000000f0: 5572 1330 bad9 e130 eb5c 0430 cf58 4d32
00000100: dd4d 4032 f401 1032 9db3 1e30 5455 3132
00000110: bcbb b233 0468 8633 671c 3d32 5d7f 2330
00000120: 40b7 0d31 d745 d232 c82e 3d30 fcdd 4132
00000130: d758 cd32 1319 4034 7997 8030 206b d42e
00000140: 6c7f 8631 7ce8 5e33 7f60 1a34 5551 f22e
00000150: f6b8 0134 f3bc bd33 21ec 1f33 dba1 bb33
00000160: 7314 2a30 4586 8033 23ef 502f 6555 dd33
00000170: e437 ed33 72a8 c82d b486 0233 015f f331
00000180: 5abc 0f31 17c6 9433 2ba0 4f33 a408 8830
00000190: 37ac d42f 63b5 c52e d47c 0234 5dfe 4e30
000001a0: 95d0 f52f f3d4 0532 dcfa d62d 621d 812f
000001b0: cfad 782f 0b7d 4e2f 8f38 9831 8273 ef33
000001c0: 11c6 1730 067d 8d34 3101 c333 3992 8532
000001d0: 7424 7133 c8e2 bd33 8207 d833 67de 0833
000001e0: c7ee 4b33 8d85 b933 3b40 c033 c3a5 1633
000001f0: 7c26 1e33 019d a62c c16e 7434 2b71 e42f
3.989003e-08 4.1790305e-08 1.5645613e-08 5.073767e-08 1.1049034e-08 1.1303595e-07 1.28976305e-08 5.1884268e-08
1.5796534e-09 3.205698e-10 4.2832834e-08 5.426267e-08 2.5410971e-08 3.302443e-10 2.7443779e-08 1.0521305e-09
5.4569318e-11 5.4716914e-08 3.0265181e-09 1.2080765e-08 3.10418e-09 2.3732639e-07 3.3249506e-08 3.9940762e-08
7.5685486e-10 2.276095e-08 3.09372e-10 5.9166094e-10 2.8704095e-08 9.489321e-08 1.4963166e-07 2.173794e-07
3.829103e-10 4.4221407e-10 3.3268148e-09 4.1509685e-09 6.6835235e-09 1.4843561e-10 4.335352e-09 2.0410925e-08
3.4442535e-09 1.382666e-09 2.735809e-08 1.8742115e-08 8.179683e-08 4.4388088e-10 4.746175e-09 1.0682556e-08
6.046577e-10 1.299785e-10 2.441943e-08 4.169161e-10 8.633988e-08 6.566689e-08 1.5878957e-09 7.202032e-08
2.8171637e-10 2.9481406e-10 2.4722688e-10 3.664479e-08 5.3640764e-10 1.6432786e-09 4.8153365e-10 1.1952763e-08
1.1193575e-08 8.382347e-09 5.773531e-10 1.0322157e-08 8.3229196e-08 6.2587816e-08 1.1007706e-08 5.948005e-10
2.0622366e-09 2.4478977e-08 6.882428e-10 1.1284552e-08 2.390554e-08 1.7890515e-07 9.356277e-10 9.659673e-11
3.9143995e-09 5.1899846e-08 1.4377473e-07 1.10193334e-10 1.208135e-07 8.835368e-08 3.723483e-08 8.7373074e-08
6.18747e-10 5.984888e-08 1.9002448e-10 1.03066476e-07 1.1046339e-07 2.2812172e-11 3.0390495e-08 7.0830315e-09
2.0916304e-09 6.9278194e-08 4.8341615e-08 9.897758e-10 3.868494e-10 8.9907436e-11 1.2152606e-07 7.5303835e-10
4.4713447e-10 7.790038e-09 2.4440387e-11 2.348584e-10 2.2617218e-10 1.8780015e-10 4.430212e-09 1.11503155e-07
5.521495e-10 2.6354263e-07 9.080612e-08 1.5549732e-08 5.614534e-08 8.8422496e-08 1.00596495e-07 3.186724e-08
4.7481787e-08 8.6390266e-08 8.95238e-08 3.5075356e-08 3.6822243e-08 4.7354347e-12 2.2764563e-07 4.155337e-10
