results/Test2/Test2/Test2-61773.onnx (onnx, 71103 bytes, 7 tensors)

action_model._continuous_distribution.log_sigma f4 [1, 2]
00000000: e51c 79bc b6d4 86bc
-0.015204643 -0.01645885

action_model._continuous_distribution.mu.bias f4 [2]
00000000: 95de faba e574 473c
-0.0019139821 0.012173866

action_model._continuous_distribution.mu.weight f4 [2, 128]
00000000: 7731 9338 4475 0bbd b955 03bc 3a0a 15bd
00000010: ecfc 2abb c475 05bd bfc9 103d be79 3bbc
00000020: 64d0 06bd e7aa abbb 335c cd3b 12b3 033c
00000030: 0d0d babc 1a3d 44bc 7fdd 443d 0a8a c93c
00000040: 21a7 c0bc 5b40 0e3c ee88 b93a e384 fcbc
00000050: 590c 94bc 44c2 91bc ddd7 cd3c 4f3b 33bc
00000060: 64c7 383c 4b8f b7bc 817d f1bb a7c4 4a3b
00000070: 4bbf 853c 6c0c 79bb 5527 c23b b94c ccb9
00000080: ff32 86bc c18e bcbc 9d3d 873c 9b8a 673d
00000090: f90f 17bc 3a01 7e3c d17b a13c b6e6 df3b
000000a0: 6194 87b9 5288 0eba 6f7e be3b 0ca1 a8ba
000000b0: fc00 8c3c 95f1 cc3c edeb b4bc de83 fabc
000000c0: c8aa 213c a8a1 3e39 b468 cc3c 3136 103d
000000d0: b311 333c 23f6 b03a 9f7f 6a3c 10f9 7bbc
000000e0: 98ab c5ba c065 f23c 58ef 05bc fbca 0fbd
000000f0: 0ad1 25bb 15fe debb a3a8 21bd 1117 0d3d
00000100: f1e8 bcbc d1aa 0b3b f229 cebb e79a 1f3c
00000110: b677 443c 9533 2b3d bce3 0ebc 5ab5 1e3c
00000120: 0bd0 15bd 04c6 e4bb 65bc 673c f62d 953c
00000130: 0788 293c 3533 87bc 16d0 99bc 7ff0 4b3c
00000140: f891 543c 0329 c3bb bd2f e13c 6c62 023c
00000150: fd9f d3bc 3ecd 953a 5daf d63b ae34 9339
00000160: a2db 203c 1e32 0b3c 4799 803c 8aed edbc
00000170: 3e6e a83c 6da9 993c a11b bf3c d2f5 1abb
00000180: 6b1f cc3b fe29 403c d790 2a3c 045b 60bb
00000190: d26a 013d 455b 07bc 2ff6 c7bc a706 acbb
000001a0: 2d8b 4cbc 2b29 c63b 6bc9 c73b 969f a03c
000001b0: e2a4 5fbc da6d d0bc d125 a0bc 8fc9 d6bb
000001c0: e559 883c a32c 013b 64ec c53c 45be aa3a
000001d0: be34 8d3c 7c02 d9bc ae78 dc3c 2d0b 8e3c
000001e0: ce18 063c 3259 3ebb 2c9f 033d f45c b8ba
000001f0: e84f 9b3b 8edc f4bc a9c6 073c c151 563b
00000200: 189c f8bc 87f6 d83c 0746 813c ccde b8bc
00000210: ae4c 1e3b 97e2 933c daad 363c 1d3c 09bd
00000220: b9ec 1abd c659 e9bc b97a 1d3c acd2 37bc
00000230: 630a c4bc ba90 9abb 7b2b 943c 3d29 c6bc
00000240: 30b7 043d 582a 3e3d 811c 50bc cd07 2b3c
00000250: 0179 7abc 4275 173c 1fdb 0dbc 16d2 a23c
00000260: 4bc4 64bc 1b22 cbbc 84ac 49bc d4b2 c33b
00000270: 959f bebc ed82 cdbc a86f 51bc 939b 463c
00000280: 8f2f 0dbc 467e f13b 8892 a2bb b0c1 8d3c
00000290: d093 c73b e1f3 373c 2ab2 26b9 1f63 30bd
000002a0: fc69 3c3b c59c a63b d5e0 10bd d574 33bc
000002b0: 2991 413d 5de2 0ebc 80f1 82bc 9e28 68bc
000002c0: c646 ec3a 16b3 3e3c 554b e83b 168b 683b
000002d0: ec03 18bc 4e32 143d a862 b83c 782c d5bc
000002e0: 03c1 c8ba f2c8 993c 4409 d9bc 6440 46bb
000002f0: 3992 f8bc f5e8 503c bb4d 9b3c 9cbe 59bc
00000300: 759f 00bd dcb3 d43c 0632 953c dd20 863c
00000310: c631 c2bb 3a3c 713c dff3 52bc 6ed1 eebc
00000320: 9137 8abb 9057 483b a342 223c 4c35 83bc
00000330: afaa fa3a acab 1a3d 59b8 e7bc adcc 7d3c
00000340: cc43 883b 5db3 b43a e63e 31bd 4049 a93a
00000350: 31e1 25bc e76b 1f3d 49a7 98bc da06 4a3a
00000360: f972 8cbc b7fd 03bd b847 6fbc 51be adbc
00000370: 4086 4f3c 8195 20bd d8a8 dfbc 7967 26bd
00000380: fc74 613c 9d2f b0bc a82f 5d3b 8aba 61bc
00000390: 31d2 02bd fa46 a73c ca03 2c3a a6a8 c7bc
000003a0: 96d9 db3c 9fa1 eabc e774 27bc a3a1 68b9
000003b0: 540d 74bc ac7c 9439 1c1c a5bc 1c7f ab3b
000003c0: 1641 cd3c aee5 1cbb 8a55 e1bc e62a 91b9
000003d0: 5a84 863c 898c 443b beed 8d3c 6287 083d
000003e0: d289 5a3a d7ea 163c 20d2 a03c 1603 123c
000003f0: b453 d93a 233a 8bba 4917 3d3c 8c1e 293c
7.01872e-05 -0.03404738 -0.008016043 -0.036386706 -0.0026090695 -0.032583013 0.03534865 -0.0114426
-0.03291358 -0.005238879 0.0062670945 0.008038299 -0.022711301 -0.011977458 0.048062798 0.024601955
-0.023517193 0.008682336 0.0014155188 -0.030825084 -0.018072294 -0.017792828 0.025127346 -0.010939433
0.011278007 -0.022407195 -0.0073696976 0.0030939968 0.016326567 -0.0038001789 0.005925099 -0.00038967075
-0.016381739 -0.02301729 0.016508872 0.05652867 -0.009220117 0.015503222 0.01971236 0.006832923
-0.00025859757 -0.00054371834 0.005813412 -0.0012865379 0.017090313 0.025017539 -0.022085154 -0.030580457
0.009867378 0.00018180034 0.02495227 0.03520793 0.010929513 0.0013501089 0.014312654 -0.015379205
-0.0015081046 0.029589534 -0.00817474 -0.035105687 -0.00253016 -0.0068051913 -0.039467465 0.034445826
-0.023060294 0.0021311531 -0.0062916214 0.009741521 0.011991432 0.04179724 -0.008721288 0.009686792
-0.03657536 -0.006981613 0.014144038 0.018210392 0.010347373 -0.01650391 -0.01877598 0.012447475
0.012974255 -0.0059558167 0.027488584 0.007958036 -0.025833124 0.0011428965 0.0065516667 0.00028077274
0.00981799 0.008495836 0.015698088 -0.029043932 0.02056038 0.018757546 0.023328604 -0.0023645055
0.0062293313 0.011728762 0.010410509 -0.0034233937 0.031596012 -0.008261506 -0.024409382 -0.0052498165
-0.012484354 0.006047388 0.006097009 0.019607347 -0.013650151 -0.025443006 -0.019549282 -0.0065547894
0.016644428 0.0019710443 0.024160571 0.0013026675 0.017237063 -0.026490442 0.026913013 0.017339313
0.008184625 -0.0029044864 0.03213422 -0.0014065788 0.00473975 -0.029890325 0.00828711 0.0032702538
-0.030347869 0.02648474 0.015780462 -0.022567175 0.0024154591 0.018052382 0.011149848 -0.033504594
-0.037823413 -0.02848519 0.009611779 -0.011219662 -0.023930734 -0.00471696 0.01808714 -0.024189586
0.032401264 0.0464271 -0.012702108 0.010438872 -0.015287639 0.009244265 -0.0086582 0.019875567
-0.0139628155 -0.024796536 -0.012309197 0.0059722457 -0.023269454 -0.025086844 -0.012782969 0.012122053
-0.008617296 0.0073697893 -0.0049613155 0.017304271 0.0060906187 0.011227579 -0.00015897365 -0.04306328
0.0028749695 0.0050846064 -0.035370667 -0.010953148 0.047257576 -0.008720961 -0.015984297 -0.01416984
0.0018026463 0.011639377 0.0070890584 0.0035483292 -0.009278279 0.036180787 0.02250798 -0.02602218
-0.0015316311 0.018772576 -0.026493676 -0.0030250782 -0.030343162 0.012750854 0.018957963 -0.013290074
-0.03140207 0.02596467 0.01821233 0.016373092 -0.0059263436 0.014723832 -0.012875526 -0.029152598
-0.00421805 0.003056977 0.009903583 -0.016016625 0.0019124354 0.037761375 -0.028286146 0.015490693
0.0041584726 0.0013786365 -0.043272875 0.0012915507 -0.010124491 0.038921263 -0.018634455 0.00077067094
-0.017144667 -0.032224383 -0.014604501 -0.021208914 0.012666285 -0.039205078 -0.02730219 -0.040626023
0.013760801 -0.021507079 0.003375033 -0.013777385 -0.031938735 0.020419586 0.0006561844 -0.02437241
0.026837151 -0.02864152 -0.010220743 -0.00022185459 -0.014895756 0.00028321648 -0.020155005 0.0052336585
0.02505545 -0.002394061 -0.027506609 -0.00027688517 0.016420532 0.0029990992 0.017325278 0.033332236
0.0008336577 0.009211264 0.019631445 0.008911869 0.0016580732 -0.0010622184 0.011541196 0.010322224

network_body._body_endoder.seq_layers.0.bias f4 [128]
00000000: 0e51 9a3c 5775 8d3b fb7c 14bc a372 c7bb
00000010: 5de5 4f3c c382 e33b d891 2b3d f586 823c
00000020: 1175 e9ba 11b4 54bc 6c6c dc3b 8f90 adbb
00000030: 58a3 193c 61a3 a637 3370 aebb 3ec1 c0bb
00000040: 4ab7 7d3b 868a 40bc d254 693a 30c7 ff3b
00000050: e88f 9bba 25aa dc3b 4db4 00bb a4a3 a13c
00000060: cfee 26bb 7861 a0bb 82e7 ed3b 2ed9 46bc
00000070: be20 6dba ed66 223b 4b54 9a3a 6a9b 34b9
00000080: 2119 f2bb 363e 083b 800a 123c b84b 3d3c
00000090: c2d5 99bb e208 243c 96f2 c13a a4ef b73c
000000a0: 6a47 67bb 5ac0 14bc 8e3d 043c 59e2 9f3b
000000b0: b038 ba3c 0418 69bc 4c8c 493c ed12 a83a
000000c0: 152d 54b8 b35d 2cbb 63d2 983c 84b6 a5bc
000000d0: 3680 30bc f92f bbbb dbe0 c53a 2ebb 09bd
000000e0: 6fd2 6f3c b0e6 b9b9 0922 f0bc 7ce9 51bb
000000f0: aa30 ea3b f297 fbbb d7bd ab3c ac42 e8bb
00000100: 5621 123a 53c2 ddbc 643a 703c be51 9f3c
00000110: 3309 c63c 68a7 b03b 0843 debb 5fa2 0dbc
00000120: fc75 cdbb 07a2 363c 5072 b0b9 52f9 eb3b
00000130: e6be fd3a ef22 74bb b2cf 963c 9240 93bc
00000140: 925b d6ba 2c97 12bb cbf5 583c cf2d 6f3c
00000150: 3d40 c93b eda0 3d3c ab08 ab3c 1107 6bba
00000160: cd7e 023c 9cc3 abbb 4a9b 3e3c 2c41 933c
00000170: 8981 1fba dc6f 843c eedf ecb9 6b3f 4bbb
00000180: 4915 20bc dbd6 c33c 6998 ae3b 1418 bd3c
00000190: a6ec 13bc 48c8 8d38 8991 4cbb e2a2 213a
000001a0: a6c5 acbb f1d0 183b 6a17 ddba b00e 723c
000001b0: 06df d13c 2aa6 fa3b d855 52ba ab32 c5bb
000001c0: ed6a c9bb bf54 873c 94a2 883b 8119 d53c
000001d0: 2ad0 6c3c 78ee 4a3c 45cd dabb b764 a4bb
000001e0: e849 49bc 4a5e 59bb a373 02bc 4f6b ca3c
000001f0: 8b9e 8f3c dd04 293b af74 cb3c 6d55 2d3b
0.018837478 0.0043169665 -0.009063001 -0.006086664 0.012688962 0.0069430782 0.041887134 0.015933493
-0.0017811378 -0.012982384 0.006726792 -0.0052967737 0.009377323 1.9864821e-05 -0.005323434 -0.0058824113
0.0038713985 -0.011751777 0.0008900884 0.0078057274 -0.0011868449 0.00673415 -0.0019638718 0.01973135
-0.002547193 -0.0048944317 0.007260264 -0.012136741 -0.00090457115 0.0024780587 0.0011774389 -0.00017224034
-0.0073882495 0.0020789034 0.008913636 0.011553697 -0.0046946714 0.010011883 0.0014797028 0.022453137
-0.0035290369 -0.009079063 0.008071316 0.0048792777 0.022732109 -0.014226917 0.012301516 0.0012823023
-5.0586725e-05 -0.0026300966 0.018655008 -0.020228632 -0.010772755 -0.005712506 0.0015096919 -0.033625774
0.014637574 -0.00035457825 -0.029313104 -0.0032030037 0.0071469145 -0.0076780254 0.020964546 -0.007088026
0.00055744254 -0.0270702 0.014662359 0.019448157 0.024174308 0.00539105 -0.006782893 -0.008644669
-0.0062701683 0.011147029 -0.00033654505 0.007201352 0.001935926 -0.0037252267 0.018409584 -0.017975125
-0.0016354194 -0.0022367937 0.013242195 0.014598324 0.006141691 0.011574012 0.020878157 -0.00089655916
0.007964802 -0.0052418243 0.0116337035 0.017975412 -0.0006084671 0.01616662 -0.00045180268 -0.0031013142
-0.0097707 0.023906162 0.0053282273 0.02308277 -0.009028589 6.760709e-05 -0.0031214675 0.0006165934
-0.005272585 0.0023317898 -0.001686794 0.01477401 0.025619041 0.007649203 -0.0008023656 -0.006018003
-0.0061467797 0.016519902 0.0041697714 0.026013138 0.014453927 0.012385957 -0.006677302 -0.005016889
-0.012285687 -0.0033167773 -0.00796214 0.024709372 0.017531654 0.0025790252 0.024835913 0.0026448623

network_body._body_endoder.seq_layers.0.weight f4 [128, 3]
00000000: ce87 2d3f 38a6 0ebf 67e3 03bf a7e1 f53e
00000010: e316 96bd f2b6 c8bf d396 08be 78f1 18bf
00000020: 69f6 ccbe 580a f6be 493e 0a3e e8a9 823e
00000030: 8af9 2abf 2b72 bcbe 7a16 76bf d1e8 b4be
00000040: 27ee ee3e 9c42 813f fd03 e23f 6ca5 37bf
00000050: 898b 91bf 7f61 883e 63be 3a3f 3cfc 3a3f
00000060: 28fe 2fbf 0776 8b3e a5ee 0e3f 37cd 0e3f
00000070: 87ff a03e 7fc2 6fbf 093d c4be 9ec7 853b
00000080: b82a 81bd 34b1 b73c 6a44 dd3e d416 983e
00000090: 4227 15bf a634 db3e 85ec a13e e0c7 883e
000000a0: 6dbd 2fbf 1b54 9d3f 6904 31bf b3b9 84bf
000000b0: 38ca 843e d32e e3be f294 87bd 3b44 fd3e
000000c0: c67f 8ebe e49d 263f 5ef0 98bf 7516 8abf
000000d0: f485 8f3e ce0c 38bf 58d6 12be 9e7b 133f
000000e0: 08cd 8a3e f745 723d b044 47bf b88e 283f
000000f0: e8ae 843e d987 b1bf b57e a23f 84c3 d23e
00000100: f382 d3be 26ff adbf a2fd cf3d ab7d 503f
00000110: 6f53 663f c98e 0e3f 363e 66bf d9cb d73e
00000120: 77eb a43d 8087 183f e32d 1dbe ac52 9abe
00000130: bdc9 5c3f d808 6fbd 8906 2fbe 2963 76bf
00000140: daba 45be d636 e9be 7560 803e 64fd 2dbe
00000150: 7584 923e 9ca0 82bf 23b2 b13e d902 a4be
00000160: 21d5 56bf b759 363e 9fef 943e ae3f 87bf
00000170: 59d7 fd3e d432 3fbf 7f41 42be 40e9 1ebf
00000180: 9b19 dabe ac86 cc3e d5df 4e3e b5f3 44be
00000190: 7d82 11bf a2c9 293f 0e9c 463f d1e4 4c3e
000001a0: efeb 00bf a8a4 debe b774 e7be eb56 63be
000001b0: 307a 11bf 3f14 14bf 7ece 693e ee53 563f
000001c0: 82ad 7abf 640f de3e 9b4a f6be 79e9 1d3e
000001d0: a735 873f d08a c03e c67f a43e 3419 3fbf
000001e0: 301b 04bd c628 85bd e999 a1be 3fa3 85be
000001f0: 4704 233f 67c7 dabe 4056 51bd 62da 3abf
00000200: 51fd 6bbf 0cfe 97bd 3627 cebe c08e 383f
00000210: 27ad bf3d f437 b5be e9c1 eabc e905 133f
00000220: 6396 b7be a86e 28bf 25ac e43e 6d2c c0be
00000230: 19bc 8c3e 087a 483f adb1 143c 10ce 923e
00000240: 7fd0 9d3b 3446 933e bffa d83e 2adc 77be
00000250: a3a7 943f c3e6 863e 110a 3a3f f8e6 a9be
00000260: 4bf6 893e 9565 623f 8b99 2ebe dac6 0b3e
00000270: 259e af3d 11c7 a33e cbaf b83e 90c6 31be
00000280: 7469 dc3e 506a dcbc c94a 133e 6e51 883d
00000290: f86c 873f c74e 713e b12e d43e 9a0d c5be
000002a0: 847e c03e f55c 11be 9d1b 8d3f 9fce 2dbf
000002b0: 3d15 9fbf 7c8d bdbe 2736 863e a5af adbf
000002c0: 8c24 41be 0e6b 29bf 26c6 8ebe f08f 443f
000002d0: ce8f 1d3f 27e1 8e3e fbd2 3dbf bf35 7d3e
000002e0: 3163 1dbe 13e0 d0bc 314c 583f a2a6 d43e
000002f0: d9fd d33e 409a b03f 2aad 8e3f abed 483f
00000300: b1b0 51bf 7113 49be 7163 823e 41b2 cc3e
00000310: e361 773e e933 aabe 1e7a 443f 6c02 47be
00000320: d653 293f a71e 023f e657 1abe a7ef 2ebe
00000330: 5af9 003e af78 09bf 998d 8cbe 8399 093f
00000340: e5f3 43bf abc3 8fbe 6e02 ad3e 526a d03d
00000350: ce85 0cbf 197c 7fbe 4f23 43be 4b4a bc3e
00000360: fffa c5be df45 a4bf 655f 383e 8a8b 313f
00000370: 4ccd 2abe be52 433e 3197 b5be f131 00bf
00000380: 8b3b 72be 8b3a 92be e5c8 e73d cc29 ab3e
00000390: be6a d7bd 3f3c 5b3e 5e4c 92be f21d 90be
000003a0: dbc6 c73f d051 2abf b842 4c3f 6ac2 86be
000003b0: 03f4 723f 7397 5e3f c5b6 a0be b6cf d73d
000003c0: 8c2d 863e a98f 963e 7870 d03e f6c0 223d
000003d0: 5ee6 69ba d954 b13e 488e 18bf aef7 38be
000003e0: c2e5 73bf 558d 20bd e78e 8abe 14c6 8ebe
000003f0: 804b b0bd ef8b 5b3f c252 c7be 5814 3cbf
0.67785347 -0.5572238 -0.51518863 0.48023722 -0.07328584 -1.568083 -0.13338785 -0.5974345
-0.40031746 -0.48054767 0.13500322 0.25520253 -0.66787016 -0.36805853 -0.96128047 -0.35333875
0.4666607 1.0098453 1.7657467 -0.7173679 -1.1370708 0.26636884 0.7294676 0.7304113
-0.68747187 0.27238485 0.5583289 0.55781883 0.31444952 -0.9365615 -0.38327816 0.004082634
-0.06306976 0.022423364 0.43216258 0.29704916 -0.5826303 0.42813605 0.31625763 0.26714993
-0.68648416 1.2291292 -0.69147354 -1.0369171 0.2593553 -0.44371662 -0.06620206 0.49466118
-0.27831858 0.6508467 -1.1948354 -1.0788103 0.28031886 -0.7189454 -0.14339578 0.576105
0.2710955 0.059148755 -0.77839184 0.6584277 0.25914693 -1.3869582 1.2694918 0.41164792
-0.41310844 -1.359349 0.101557985 0.81441754 0.8997106 0.5568662 -0.89938676 0.4214771
0.08052724 0.59581757 -0.15349536 -0.301412 0.8624533 -0.058358043 -0.17092337 -0.96245056
-0.1930956 -0.4554965 0.2507359 -0.16991192 0.28616682 -1.0205264 0.3470622 -0.32033423
-0.8391896 0.17807661 0.29089066 -1.0566308 0.4957836 -0.7468693 -0.18970297 -0.6207466
-0.4259766 0.39946496 0.20202573 -0.19233592 -0.56839734 0.6632329 0.7758187 0.20009162
-0.50360006 -0.43484998 -0.45206234 -0.22201125 -0.5682707 -0.57843393 0.22832677 0.83721817
-0.97921 0.43371117 -0.48103794 0.15421094 1.0563248 0.37605906 0.32128733 -0.7464783
-0.03225249 -0.065019175 -0.31562737 -0.2610111 0.636784 -0.42730257 -0.051107645 -0.72989476
-0.92183405 -0.074215025 -0.4026429 0.7209282 0.09359198 -0.3539425 -0.028656917 0.57430893
-0.35856923 -0.6579385 0.44662586 -0.37533894 0.27487257 0.78311205 0.009075564 0.28672838
0.0048161144 0.28764498 0.42378804 -0.2420508 1.1613659 0.26347932 0.7267161 -0.33184028
0.2694572 0.8843625 -0.1705076 0.13650075 0.085750856 0.31987813 0.3607162 -0.17360902
0.43049204 -0.026906163 0.14383997 0.066561565 1.058013 0.23565207 0.41441873 -0.3848694
0.37596524 -0.14195617 1.1024052 -0.67893404 -1.2428356 -0.37022007 0.2621319 -1.3569227
-0.18861598 -0.6617898 -0.2788555 0.7678213 0.61547554 0.27906153 -0.74150056 0.24727534
-0.1536987 -0.025497472 0.8449126 0.4153338 0.41404608 1.3797073 1.1146595 0.7848765
-0.81910235 -0.19636323 0.25466493 0.39979747 0.24158435 -0.3324273 0.76748836 -0.19434518
0.6614355 0.5082802 -0.15072593 -0.17083608 0.1259512 -0.53699774 -0.2745178 0.53749865
-0.7654403 -0.2807897 0.33790916 0.10176529 -0.5489167 -0.24949683 -0.19056438 0.3677543
-0.38668057 -1.2833823 0.1800514 0.69353545 -0.16679877 0.19074532 -0.35466912 -0.50076205
-0.23655526 -0.2856029 0.113176145 0.33430326 -0.10518406 0.21409701 -0.2857389 -0.28147846
1.5607561 -0.66531086 0.79789305 -0.263202 0.9490358 0.86949843 -0.31389442 0.105376646
0.26206625 0.2940648 0.40710807 0.039734803 -0.0008922572 0.34635046 -0.59592104 -0.18063232
-0.9527246 -0.039197285 -0.2706215 -0.27885497 -0.086081505 0.85760397 -0.38930327 -0.7346854

network_body._body_endoder.seq_layers.2.bias f4 [128]
00000000: 8892 cfbb a50e 383c c62f a33c 3466 393c
00000010: cfc6 c63b 64cc db3c 7d94 933b 6f28 13bb
00000020: 4fe0 a73c bfd6 8dbc 57c6 2c3c 9d78 2fbc
00000030: 6700 613c 34b9 80bb 37ff 793b 679b 51bb
00000040: d7aa 0c3c 1ca8 693c 86a6 23bc d0ae 933c
00000050: b1dd 813c c490 cf3a cdcc 2abb 13db 013c
00000060: 879b 01bc bda6 7d3c 146b 23bc 9ee0 1b3b
00000070: 0799 9cbb 0b4c 0dbc cbb2 40bc 5f3b 643c
00000080: 2789 58ba 2a35 6e3a 850c 41bb 6d23 aa3a
00000090: 4f87 c23c 46ee 49bc df5e 88bc f02b 9039
000000a0: 485f 253b 8d6f 823b 8b46 a0bc dc90 29bc
000000b0: 832f ab3c 1536 3ebc 85a3 7939 954d c93c
000000c0: 0f1b e638 8bff 363c 8ded d63a c6ff a63a
000000d0: abd3 93bb ab77 b73c acad 1c3c e738 ca3b
000000e0: 7d32 ca3a ebca ef3b 3fdd 05bc 95fa d73b
000000f0: 3e7d f0bb fff1 853c d54b 193c 0f01 2ebb
00000100: 503c e5bb b74f 9e3c 3f9d ac3c a2d5 8d3b
00000110: 1d4f 93bb 66c4 653b 4bc9 87bb 1425 b1bb
00000120: 1238 233c ba53 f63a fe50 3bbb 2ed3 cfbb
00000130: 2605 813a d80a 8e3c 0242 873c d486 9a3b
00000140: 56f7 1d3b 9ff4 97ba 24e2 07bc 66f3 70b9
00000150: d1a3 373c 0564 4e3c 1b26 02bc 3690 363a
00000160: eaad 13bc 72f3 b2bb 311e e7bb 6b66 383c
00000170: 5785 9b3b 9435 c1bc c387 f3bb 12ff a7bc
00000180: 5e9a 2a3c 8a95 d3bb f243 66bb 08b0 72bc
00000190: 926b 7cbb 3bdd b73c ebdf 203c f4ca 6abb
000001a0: 79de 153c bcd3 c0bb 8125 66bc f417 ceb9
000001b0: b268 ccbb a9a0 8cb9 9876 033b 4eb4 c23c
000001c0: 67b0 1d3c 5734 4dbc 9f15 c3bb 64d8 c3bb
000001d0: ea9e 2c3c b210 373b 33c1 b73b 3978 983c
000001e0: cfa6 cdb9 13ed 943b b93c 0c3b b530 8e3c
000001f0: 26e4 00bb 1fc2 cc3b e07b a83b fdfb 0e3c
-0.0063346066 0.01123396 0.019920241 0.011315871 0.0060661803 0.02683086 0.004503785 -0.002245452
0.0204927 -0.017314313 0.010545335 -0.010709909 0.013733006 -0.003928328 0.0038146505 -0.0031983496
0.008585653 0.014261272 -0.009988433 0.018027693 0.015852781 0.001583599 -0.0026062012 0.0079257665
-0.007910616 0.015481648 -0.00997426 0.0023785005 -0.0047789845 -0.008624087 -0.011761378 0.013930171
-0.00082601834 0.00090869016 -0.0029456925 0.0012980528 0.02374616 -0.012324875 -0.0166468 0.00027498556
0.0025233794 0.003980583 -0.019564888 -0.010349479 0.020896679 -0.011609574 0.00023807406 0.024573127
0.00010972295 0.011169325 0.00163977 0.0012741021 -0.004511317 0.02239593 0.009562891 0.006171334
0.0015426424 0.007317891 -0.008170425 0.006591151 -0.007339149 0.016350744 0.009356459 -0.0026550924
-0.006995715 0.01932512 0.021071075 0.0043284455 -0.004495515 0.003505969 -0.004143869 -0.0054060314
0.009962099 0.0018793263 -0.002858221 -0.0063423133 0.0009843453 0.017339155 0.016510967 0.00471578
0.0024103723 -0.0011593289 -0.008293662 -0.00022978857 0.0112084905 0.012597089 -0.007943655 0.0006964238
-0.009013632 -0.00546115 -0.0070531596 0.011254887 0.00474612 -0.023585118 -0.0074319555 -0.02050737
0.010412781 -0.0064570354 -0.0035135713 -0.014812477 -0.0038516265 0.022444358 0.009819011 -0.0035826536
0.00914728 -0.0058846157 -0.014047028 -0.00039309228 -0.0062380666 -0.00026822582 0.00200597 0.023767617
0.009624577 -0.012524686 -0.005953505 -0.0059767235 0.010535935 0.0027933535 0.005607748 0.018612014
-0.0003922493 0.004544863 0.0021398498 0.01735721 -0.0019667237 0.006248727 0.00514172 0.008727071

network_body._body_endoder.seq_layers.2.weight f4 [128, 128]
00000000: 715f 273c 9029 0c3e d114 17bd d3cd 89bd
00000010: 9767 3a3d 0edd 633e 4cee 153d 57af 483d
00000020: 9fa3 2ebd a5dd c1bd 2e56 d0bd b712 4b3e
00000030: 9d69 7fbd 1c68 c03d 7c84 2b3c 4af7 d2bc
00000040: cbca 9dbc ad01 113d 073f 453d 001b bd3d
00000050: aea4 3abd 9744 28bd 46e8 973d e9a3 25bc
00000060: 7cfe 82bd 78f3 d13c 5d5f fcbd af47 9b3d
00000070: 591f cf3d 85c2 fcbd af72 2a3d bbf7 2238
00000080: f06e 0c3d 1ce1 2d3e 2a15 23bd 22ec 3c3e
00000090: a768 8cbd 52c2 253d a36b b0bc 20c5 eabb
000000a0: fe8b 1c3d 3a64 66bd d452 ccbb 2222 bdbd
000000b0: 1707 48be c642 be3d b1c1 d0bd 980c 8f3c
000000c0: aad5 333d 51e8 81bd abe4 e7bd 03da 4b3e
000000d0: 6ae0 123e 27f0 c1bb 5a9d d23c b2ad caba
000000e0: 053e 483e 96f3 28bc bbd1 4b3d 69df da3d
000000f0: 057f 4bbd 3c3b 74bd d050 d4bc 0eae a8bd
00000100: c64c 783c da94 3bbe 284e b2bd 4e0e 4abd
00000110: 08a8 92bd 4bbc 9dbd 0034 833e 07a5 663d
00000120: d444 19be 4c7d 823e 8ac5 4a3d 7e79 c83c
00000130: 083a f8b8 2155 43bd dffb 633a 29c5 89bd
00000140: 43a7 d33d ea60 d9bd 00a9 303c a2de c8bc
00000150: b5ec 05bd 5a4c 193b b72d 94bd 2aac 9bbd
00000160: ecaf 243d e299 3f3d 6873 1cbd 3a70 eabd
00000170: 0cc6 86bd 556e 793d ae75 bebc 409c e33d
00000180: 438a 14bd 2cd2 043d ed88 07bb a1bf 86bd
00000190: d089 0cbe 3ec6 68bd 491f 3e3d 2dd8 203d
000001a0: c954 313d b694 edbd 75ab 853d 68a0 02be
000001b0: 629a 93bd 7c42 87bd bf2d b33d 9d75 a5bd
000001c0: 5619 cf3d 8b71 23be 9c1a 033d 1d81 72bd
000001d0: f707 a8bd ef6d 71bd a988 093d 0058 063e
000001e0: fb57 043e 89b6 cfbd 9a14 933d 5cfb 42be
000001f0: f883 503a f9b6 113e b396 573d 6d0a f93c
00000200: 6dc5 01be b0e4 00be 1e83 0f3c dd93 b939
00000210: fde3 af3d 9c92 ca3d 5d3f 033e 1930 19be
00000220: 1f54 6b3d fc82 3ebe 8782 6dbd 4465 89bd
00000230: 072b 0a3e 7cfd 883d 1557 813d 574c abbc
00000240: 0895 15bd 517f 293c f527 c8bd 4316 313d
00000250: 8302 8f3d d451 d03c f5fd 24bc 0255 c1bb
00000260: 65e5 11be 8319 3fbc 48fc 8abd ba3c 113c
00000270: 7393 be3d a30c 4c3d f9f8 38bd 8b33 2f3e
00000280: 941d c93d 38fd 66bc 7bdf 7ebd 10bd e5bd
00000290: 628e 1cbe 4eaf 45be 282b c9bd 1a16 bfbd
000002a0: b56d febd f873 1f3e f815 90bd c57b f73c
000002b0: ffbd 8f3c a0fe 803d 93f3 3e3d d1f9 1ebd
000002c0: ab75 71bc ebd9 5bbd 1011 8fbe d817 00be
000002d0: 7847 98bd 9fb3 cbbd b04c cebb 52c0 d63d
000002e0: bcfc 273d 8f2e 34bc 800c 153c bb21 b8bd
000002f0: 41bb 04be 233c ca3c bdb8 a13d 1efd b13d
00000300: 6fad 6cbd 4cd8 ffbd ea69 633d 842f 47bd
00000310: 3da2 163d c937 023d 83c9 4fbd c0a3 1fbd
00000320: 11ac 16bd 55ee 3dbe c370 d2bc 795f 153d
00000330: 7344 5e3c 0811 9d3d 052b da3c cd1c e2bd
00000340: ca56 163d 82e5 28bc fb4b b93c 2318 783e
00000350: 40b2 363d 22d2 88bd 0619 783b cdbb 28bb
00000360: 2428 bbbd 940e 47bd 24f5 9e3c 345b 42be
00000370: 71b1 e53d ece7 d3bb ccd8 883d 2273 693d
00000380: 15cb 23bd 8e06 433c 612a 11be ed68 aabb
00000390: 1190 f13c d355 66ba fd6e 22be 7fd9 c83b
000003a0: 7711 50bd 56a4 e6bd ab35 113e d694 8c3d
000003b0: 02c2 5b3e 990d 153e adf5 21be fd2b a6bc
000003c0: a006 cc3c c52a 863d 2fe6 c1bd fd3a a33d
000003d0: 9819 9fbd 8edc b33c 4f74 dcbc 72a0 87bc
000003e0: 3c9c a43c 1618 2d3d 8c98 e7bd ef07 983c
000003f0: 8b00 163e 322d 3f3d e02a d93d bda0 603c
0.010215626 0.1368773 -0.036885086 -0.06728711 0.045508947 0.22252294 0.03660421 0.048995342
-0.04263651 -0.094661035 -0.101726875 0.19831358 -0.06235658 0.09394857 0.010468598 -0.025752682
-0.019261738 0.03540199 0.04815581 0.092336655 -0.045567207 -0.041081037 0.074173495 -0.01010988
-0.06396195 0.02562879 -0.123228766 0.07582032 0.10113401 -0.12341789 0.041613277 3.8854527e-05
0.034285486 0.16980404 -0.039815105 0.18449453 -0.06855898 0.04046852 -0.0215357 -0.0071646124
0.038219444 -0.056247927 -0.00623546 -0.09235026 -0.19533955 0.0929008 -0.10193194 0.01746206
0.043904938 -0.06343139 -0.11322912 0.19907384 0.1434342 -0.005918521 0.025709797 -0.0015463142
0.19554909 -0.010311982 0.04976056 0.10687143 -0.049681682 -0.059626803 -0.02591744 -0.08236323
0.015155023 -0.18318501 -0.08706313 -0.04933005 -0.07160956 -0.0770193 0.2562561 0.056309726
-0.14967662 0.2548622 0.049504794 0.024471994 -0.00011836371 -0.047688607 0.00086968945 -0.067270584
0.10334637 -0.10614188 0.01078248 -0.024520222 -0.032696445 0.0023391456 -0.07235282 -0.07601197
0.040206835 0.046777613 -0.038195997 -0.11447187 -0.06580743 0.060896236 -0.023249473 0.11113787
-0.03626467 0.032426998 -0.002068098 -0.06579519 -0.13724446 -0.056829683 0.046416555 0.03926866
0.043293748 -0.1160063 0.065268435 -0.12756503 -0.072071806 -0.06604478 0.0874896 -0.080790736
0.10112254 -0.15961282 0.0320078 -0.059205163 -0.08204644 -0.05894273 0.033577595 0.13119507
0.12924187 -0.10142238 0.07181664 -0.19041198 0.0007954235 0.14229955 0.052633952 0.03040048
-0.12672968 -0.12587237 0.008759288 0.00035396116 0.08588407 0.09891245 0.1281714 -0.14959754
0.05745327 -0.18604654 -0.05798581 -0.06708768 0.13492976 0.06688973 0.06315438 -0.020910425
-0.03651908 0.010345296 -0.09773246 0.04323412 0.06982901 0.025429644 -0.010070314 -0.0059000263
-0.14247663 -0.011663797 -0.067864 0.008864576 0.093054675 0.04981674 -0.045159314 0.17109506
0.09820095 -0.014098458 -0.062224846 -0.112177014 -0.1528869 -0.19305155 -0.098226845 -0.093303874
-0.12423269 0.15571582 -0.0703544 0.030210385 0.017546652 0.06298566 0.04661901 -0.038812462
-0.014737527 -0.05367462 -0.27942705 -0.12509096 -0.074355066 -0.099463694 -0.006295763 0.10485901
0.04101251 -0.010997429 0.0090972185 -0.089908086 -0.12962057 0.024686879 0.07896564 0.086908564
-0.057782587 -0.12492427 0.05552093 -0.0486293 0.036775816 0.031791482 -0.050729286 -0.038974524
-0.03678519 -0.18547948 -0.025688535 0.036468003 0.013566124 0.07669264 0.026631841 -0.110406496
0.036703862 -0.010308625 0.022619238 0.24227957 0.044603586 -0.06680705 0.0037856712 -0.0025746704
-0.091385156 -0.048597887 0.019404002 -0.18980104 0.11215485 -0.006466856 0.06681976 0.056994565
-0.039988596 0.011903418 -0.14176323 -0.0052004964 0.029487642 -0.00087865925 -0.15862651 0.006129443
-0.050797906 -0.11261813 0.14180629 0.06864326 0.21460727 0.14555968 -0.15816374 -0.020284647
0.024905503 0.065511264 -0.09467732 0.079702355 -0.077685535 0.021955755 -0.026910929 -0.016555998
0.02009403 0.0422593 -0.11308393 0.01855847 0.14648645 0.04667396 0.10603881 0.013710198
