results/Test2/Test2/Test2-288040.pt (torch, 439199 bytes, 36 tensors)

network_body._body_endoder.seq_layers.0.weight f4 [128, 6]
0.6458709 -0.06133653 -0.48519155 -0.053312752 0.6749077 0.022288894 0.14816932 0.22998744
-0.63114566 0.26514694 0.20622216 -0.21691306 -0.6375151 0.5106778 0.11031067 -1.0859225
-0.34760746 0.936476 0.23179714 0.1795037 0.024301851 -0.26457238 -0.3280514 -0.15237203
-0.7870463 -0.45956323 0.66502714 0.19236429 0.52075815 0.47161308 0.051595327 -0.005332031
0.97059405 -0.58575076 -0.5134615 -0.29079172 -0.036713034 -0.17710264 0.267582 0.038596842
-0.24630752 -0.06855341 -0.33804432 0.118104406 -0.19199829 -0.3879516 0.43907866 0.5006685
-0.2710497 0.16618045 0.71330523 -0.2507036 -0.51017135 0.24042329 0.331451 -0.75495243
0.052834276 0.8405107 -0.12140691 0.01641843 -0.013195487 -0.19260262 0.04119206 -0.25942087
1.6312945 0.56408817 0.9260475 -0.57604635 -0.34017217 0.3546262 0.49684474 0.19309627
-0.9047743 0.5754873 0.5352497 -0.7727191 -0.48613405 0.31935862 -0.42503226 -0.34295052
-0.6090376 0.1848891 -0.412749 0.061935328 -0.19831672 0.63157207 0.888939 -0.09540494
-0.45937425 0.4408795 -0.212435 0.4762289 0.22880858 -0.37176618 -0.5905087 -0.71042436
0.5301514 -0.06819941 0.86799246 0.72036594 0.6723597 0.49803582 -0.20777369 -0.23701306
-0.17035745 0.5903562 -0.4207374 -0.28465 0.23018135 0.15691918 0.09155611 -0.13457683
0.054393947 -0.07583786 -0.56620204 0.46172002 -0.7074143 -0.46606258 0.20709114 0.13492973
-0.62456435 0.24326038 0.30501425 0.14987886 0.08648466 0.2331244 0.6628713 0.08643684
0.15812324 0.102872595 -0.43379337 0.07470981 0.34199715 -0.16165596 0.5644966 0.13220921
-0.57130927 -0.36391535 -0.5075908 -0.08825144 -0.6535525 -0.15755086 0.40391356 0.20075418
0.81935275 -0.00041264188 0.19008167 0.09967835 -0.053325873 0.41351214 0.3011093 -0.14816913
-0.028098179 -0.22896817 0.24907057 0.38648498 0.4564825 -0.01496652 0.3204971 -0.33041063
0.7812258 -0.169364 -0.7989065 -0.057988208 0.3673587 0.24847639 -0.16987588 0.86760914
0.29394972 0.3747079 -0.22253937 0.090024695 -0.23246552 -0.12766126 -0.027059684 -0.037856054
0.28539693 -0.2836721 0.22377221 -0.19979623 -0.43300238 0.6252817 -0.14370719 -0.40923738
-0.25469658 -0.020023292 0.4098574 0.016024549 0.2958863 -0.0015092228 0.27074513 0.13176687
0.05967738 -0.08363051 0.32679835 0.96262807 -0.6715089 -0.025037484 0.07780756 0.25091943
0.0039742584 0.4900637 -0.03405345 -0.23338243 0.6822185 -0.3535972 0.08467352 -0.19965072
-0.36983332 -0.09775265 -0.9709264 -1.0300994 0.6011439 0.35545856 -0.25655615 0.37677997
-0.25663438 -0.23290762 0.26336905 -0.10944307 -0.5880774 -0.12494152 0.6313481 -0.39270762
0.326215 -0.7201721 -0.008793134 0.18202111 0.22476406 -0.34956288 -0.27268365 -0.1924294
1.1159813 0.2949443 -0.29738963 0.1794224 0.197186 0.4601005 0.08617795 -0.23215102
0.67729026 0.29233077 -0.6622273 0.24606524 0.30929646 -0.44895577 0.129012 0.1689798
-0.32755542 0.029684706 -0.0278135 -0.0657733 -0.52364606 0.45185998 -0.04912526 0.81774336
00000000: cc57 253f 033c 7bbd 076b f8be 795e 5abd
00000010: c0c6 2c3f 3397 b63c b3b9 173e d481 6b3e
00000020: c392 21bf 57c1 873e e72b 533e 751e 5ebe
00000030: 3134 23bf c8bb 023f 90ea e13d 82ff 8abf
00000040: 9bf9 b1be e4bc 6f3f 3b5c 6d3e d1cf 373e
00000050: ad14 c73c 0876 87be 5af6 a7be 6a07 1cbe
00000060: de7b 49bf df4b ebbe 383f 2a3f 25fb 443e
00000070: 6850 053f 4577 f13e 9f55 533d 51b8 aebb
00000080: da78 783f c3f3 15bf 3672 03bf a7e2 94be
00000090: 6860 16bd 655a 35be 8200 893e b917 1e3d
000000a0: 0a38 7cbe bb65 8cbd 2514 adbe b9e0 f13d
000000b0: 339b 44be 98a1 c6be ebce e03e d02b 003f
000000c0: 07c7 8abe 352b 2a3e 2c9b 363f 395c 80be
000000d0: 979a 02bf 8631 763e f2b3 a93e 9044 41bf
000000e0: c168 583d b62b 573f 30a4 f8bd f17f 863c
000000f0: e231 58bc 9f39 45be 01b9 283d d0d2 84be
00000100: 42ce d03f 1568 103f 7311 6d3f c677 13bf
00000110: 0c2b aebe 9191 b53e 6f62 fe3e 07bb 453e
00000120: 4a9f 67bf 2353 133f 2006 093f ebd0 45bf
00000130: 90e6 f8be f982 a33e d49d d9be 3697 afbe
00000140: e3e9 1bbf 9153 3d3e d653 d3be e6af 7d3d
00000150: 8a13 4bbe b5ae 213f 8291 633f aa63 c3bd
00000160: 1a33 ebbe f5ba e13e 9088 59be 46d4 f33e
00000170: cc4c 6a3e 2358 bebe 942b 17bf 5fde 35bf
00000180: 01b8 073f 22ac 8bbd c134 5e3f e769 383f
00000190: c41f 2c3f 8dfe fe3e a0c2 54be 8db3 72be
000001a0: 2f72 2ebe 9521 173f e46a d7be a5bd 91be
000001b0: a9b4 6b3e 6caf 203e c581 bb3d 82ce 09be
000001c0: 30cc 5e3d e150 9bbd 9ef2 10bf 9166 ec3e
000001d0: 1b19 35bf c19f eebe b30f 543e 052b 0a3e
000001e0: 73e3 1fbf 4019 793e d42a 9c3e d879 193e
000001f0: df1e b13d 2ab8 6e3e efb1 293f cc05 b13d
00000200: 0feb 213e deae d23d 2a1a debe 7501 993d
00000210: 401a af3e 2489 25be d982 103f da61 073e
00000220: 5341 12bf 1d53 babe 78f1 01bf 2cbd b4bd
00000230: 374f 27bf 0355 21be c2cd ce3e 8192 4d3e
00000240: 1ac1 513f db57 d8b9 c5a4 423e 2a24 cc3d
00000250: 3b6c 5abd ddb7 d33e 002b 9a3e a6b9 17be
00000260: 272e e6bc a276 6abe 5b0c 7f3e 5ce1 c53e
00000270: 13b8 e93e 2236 75bc 3218 a43e 952b a9be
00000280: 6afe 473f c26d 2dbe 2385 4cbf 0b85 6dbd
00000290: 7116 bc3e 9870 7e3e f1f3 2dbe a21b 5e3f
000002a0: 9480 963e b7d9 bf3e 5ce1 63be de5e b83d
000002b0: 710b 6ebe a2b9 02be 45ac ddbc f30e 1bbd
000002c0: 8c1f 923e 783d 91be 8b24 653e 6297 4cbe
000002d0: 7db2 ddbe 7612 203f fa27 13be 9087 d1be
000002e0: 9767 82be e307 a4bc d4d8 d13e ea45 833c
000002f0: 697e 973e 1dd1 c5ba 1b9f 8a3e e5ed 063e
00000300: 4570 743d 7946 abbd 1d52 a73e cb6e 763f
00000310: 02e8 2bbf 691b cdbc 9259 9f3d 8378 803e
00000320: 7f3a 823b a1e9 fa3e a17b 0bbd cefb 6ebe
00000330: dfa5 2e3f b10a b5be 4f69 ad3d 3d71 4cbe
00000340: cb5a bdbe 8b32 c8bd a28e 78bf 4cda 83bf
00000350: 91e4 193f aafe b53e 545b 83be 4ee9 c03e
00000360: 9565 83be 567f 6ebe 4fd8 863e b023 e0bd
00000370: 3e8c 16bf 57e1 ffbd 07a0 213f f910 c9be
00000380: a705 a73e 335d 38bf 1411 10bc be63 3a3e
00000390: 8d28 663e e8f9 b2be 319d 8bbe 360c 45be
000003a0: 7ad8 8e3f f002 973e 7443 98be 81ba 373e
000003b0: 20eb 493e 4b92 eb3e 117e b03d ffb8 6dbe
000003c0: e562 2d3f 61ac 953e ba87 29bf 87f8 7b3e
000003d0: 1b5c 9e3e 88dd e5be b91b 043e 0a09 2d3e
000003e0: 58b5 a7be 572d f33c 23d9 e3bc 27b4 86bd
000003f0: ab0d 06bf 315a e73e 9237 49bd a157 513f

network_body._body_endoder.seq_layers.0.bias f4 [128]
-0.038368378 -0.022620346 0.04594285 0.013833479 -0.05504778 0.056324627 -0.0061471895 0.003046203
-0.06363212 0.13286649 -0.0758271 0.16593835 -0.02546094 0.064056054 -0.012835616 0.011640776
0.019279111 -0.08808486 -0.052739505 -0.017611029 0.02704487 0.088567056 0.0013635571 0.013793732
-0.030875241 -0.05329401 -0.021179102 -0.062127355 -0.17600876 -0.011504741 -0.040954366 -0.115281016
0.10371052 0.041569743 0.038012356 -0.07376702 -0.0350711 -0.034535956 -0.1170875 -0.055401087
0.11444723 -0.098455004 -0.06873499 0.12031177 -0.05205634 -0.042916935 0.09289886 0.14278671
0.16152775 0.0029863904 -0.10603092 -0.019267622 -0.034221213 0.12664458 -0.06086345 0.028666066
-0.00812572 -0.013839232 -0.085727304 -0.0110944 0.0056059305 0.07704525 -0.041437395 -0.09380512
-0.13908285 0.13196038 -0.04911822 -0.04636964 -0.059117854 -0.030899407 -0.0060069906 -0.024012849
0.042725854 0.0059927856 -0.08588758 0.0553174 -0.05508018 -0.024411554 0.0291817 -0.055099808
-0.03385461 0.06286339 -0.0021639783 -0.044139117 0.0012883318 -0.069400124 0.04215909 0.018906899
0.1294767 -0.07457023 0.005428015 -0.13743886 -0.033233635 0.09122076 -0.07956373 -0.12679598
-0.0044410275 -0.026392976 -0.031188484 -0.108754896 0.03980544 -0.03359569 -0.06605222 0.05956286
0.03153513 -0.11280913 0.02993306 -0.04490297 -0.009261308 0.020856425 0.11753563 0.032994896
-0.0522477 -0.06628373 0.04818503 0.009778944 -0.04780344 -0.0679161 0.07065003 -0.0042068902
-0.045696244 -0.0015788323 0.030982647 0.015749065 0.0072659976 -0.030446185 0.0562033 -0.092690915
00000000: 2928 1dbd 4e4e b9bc 922e 3c3d d1a5 623c
00000010: c879 61bd a7b4 663d 5d6e c9bb cea2 473b
00000020: 8f51 82bd 270e 083e 3d4b 9bbd beeb 293e
00000030: 7693 d0bc d22f 833d 7a4c 52bc f4b8 3e3c
00000040: 3aef 9d3c d665 b4bd 6105 58bd 0145 90bc
00000050: 348d dd3c a562 b53d 62b9 b23a 1bff 613c
00000060: 13ee fcbc d24a 5abd cc7f adbc 4179 7ebd
00000070: a43b 34be 627e 3cbc c4bf 27bd 7418 ecbd
00000080: 2e66 d43d 0945 2a3d d8b2 1b3d 2a13 97bd
00000090: b7a6 0fbd 9375 0dbd 92cb efbd 40ec 62bd
000000a0: 4f63 ea3d c7a2 c9bd eec4 8cbd 0466 f63d
000000b0: 0739 55bd abc9 2fbd c241 be3d ae36 123e
000000c0: 8867 253e 51b7 433b bd26 d9bd 22d7 9dbc
000000d0: 8b2b 0cbd 1eaf 013e f44b 79bd 19d5 ea3c
000000e0: bd21 05bc f2bd 62bc cc91 afbd 49c5 35bc
000000f0: f4b1 b73b e6c9 9d3d 42ba 29bd e61c c0bd
00000100: bc6b 0ebe 9f20 073e 3030 49bd 17ee 3dbd
00000110: 9025 72bd c120 fdbc 4ad6 c4bb 98b6 c4bc
00000120: 4e01 2f3d 215f c43b d4e5 afbd 7f94 623d
00000130: c19b 61bd bdfa c7bc 760e ef3c 56b0 61bd
00000140: 22ab 0abd 85be 803d 88d1 0dbb 38cb 34bd
00000150: 3edd a83a a721 8ebd 03af 2c3d a4e2 9a3c
00000160: 8a95 043e 47b8 98bd 7ddd b13b c6bc 0cbe
00000170: fe1f 08bd f3d1 ba3d 4ff2 a2bd ced6 01be
00000180: 0a86 91bb 1536 d8bc fe7e ffbc e3ba debd
00000190: 070b 233d a29b 09bd 6346 87bd 2ff8 733d
000001a0: fb2a 013d 7908 e7bd 2d36 f53c 2dec 37bd
000001b0: bebc 17bc 18db aa3c 85b6 f03d a825 073d
000001c0: af01 56bd c4bf 87bd ab5d 453d dd37 203c
000001d0: 8acd 43bd 9917 8bbd f7b0 903d f4d9 89bb
000001e0: fc2b 3bbd d2f0 ceba 52cf fd3c 2f04 813c
000001f0: 9b17 ee3b 476a f9bc 6e35 663d bcd4 bdbd

network_body._body_endoder.seq_layers.2.weight f4 [128, 128]
-0.2707099 -0.06876537 0.05413991 0.008341219 -0.078129664 -0.04529295 0.063219115 0.04323378
0.10513785 -0.16325536 -0.07052936 -0.06948735 0.10410672 0.06410091 -0.12554538 0.06353356
-0.03437203 -0.06259429 0.11366149 -0.106916346 -0.059302624 -0.14427434 -0.17658897 -0.03156815
-0.07257215 -0.03603009 -0.029541042 -0.057771362 -0.12956013 -0.05119194 0.0001589033 -0.10132205
-0.018252227 -0.15363538 -0.08197061 0.045561846 -0.06474473 -0.10616207 -0.019481719 -0.011320953
-0.30228463 -0.05590821 -0.09967341 -0.00032273703 0.05655557 -0.0079008015 -0.0049487036 -0.032590102
-0.006760979 0.06696737 -0.009893989 0.08784095 -0.0010458254 0.14374222 -0.10324102 0.10736202
-0.016862 -0.062780745 -0.14462633 -0.07281451 -0.09517274 -0.047329452 0.06650662 -0.0031315214
-0.08709793 -0.055637036 -0.031970445 -0.04766873 -0.011210078 0.05326962 -0.038133137 -0.2089326
0.058155082 -0.03570437 -0.02724936 -0.05644104 -0.10928764 -0.013836429 -0.07021441 -0.09134118
0.055793017 0.040340073 0.03962672 -0.010008262 -0.026449228 -0.16799968 0.10924075 -0.13587451
-0.12352486 0.052071705 0.034064814 0.12766016 -0.17541817 0.035911147 -0.05116322 0.0022028715
-0.1806434 0.15697712 0.051949028 -0.08645772 -0.0077531277 -0.16773531 -0.082362294 -0.18472946
0.047970224 -0.0037434697 -0.144762 -0.008650393 0.10232371 -0.03318694 -0.00079168647 0.09570446
0.020397043 -0.1409093 0.07937491 0.09720957 -0.11664527 -0.09340886 -0.06995167 0.011017945
-0.15594772 0.08326171 0.04678889 -0.117461875 -0.09588198 -0.011780482 0.1341241 0.07874921
0.0019587958 -0.07427033 0.1525936 0.0065565705 0.05585188 0.11249402 -0.006858476 -0.024971316
0.0015387752 -0.01451079 0.045659892 -0.07951459 -0.115305476 0.20709366 0.024322439 0.07044382
0.08013654 -0.04032414 -0.100001864 0.09150554 0.045004793 0.037985466 -0.06705269 0.013524195
-0.037931625 0.14897802 0.0046084384 -0.045320578 -0.14798972 -0.042646658 0.10566837 -0.08282157
-0.014776524 0.09139236 -0.03563335 -0.08857274 -0.081820995 -0.15970007 0.04965735 -0.06578763
-0.12466855 0.04600795 -0.10340287 0.051544555 0.104538724 0.038704835 -0.14735231 0.099954724
0.063504666 0.09993947 -0.042830396 -0.11985756 -0.0790354 0.02146822 0.04721869 0.029709589
-0.055721216 -0.10285648 -0.011194091 -0.033744503 0.04819559 0.030882498 -0.23129407 0.041587815
-0.17094935 0.083869204 0.010903246 -0.1677926 -0.006104068 -0.0047411676 -0.14988889 0.07705926
-0.060857683 -0.10134486 -0.103890195 -0.030761108 -0.21634538 -0.14435501 0.17161196 0.029453967
-0.04496537 -0.08868405 0.20543963 0.018760672 0.021148559 -0.08882445 0.06887903 -0.02506836
-0.02032523 -0.043920275 -0.08037585 0.012389411 0.0009804197 -0.017778229 -0.090572424 -0.028248638
-0.07160584 0.10990525 -0.11759568 0.029563766 -0.05657804 -0.022498015 -0.12578273 -0.17132607
0.016896056 -0.04586372 -0.07482293 -0.03153417 0.16276358 -0.0034590897 -0.0800384 -0.21237616
-0.20618689 -0.12633224 0.12541024 -0.07763464 0.06747418 -0.059152517 0.043205194 -0.0316863
-0.043690052 -0.13137874 -0.07210436 0.022712585 -0.10389632 0.14542696 0.1392641 -0.2391605
00000000: 7d9a 8abe dcd4 8cbd cfc1 5d3d 9ca9 083c
00000010: 7202 a0bd 1a85 39bd 0679 813d e715 313d
00000020: 8352 d73d 6a2c 27be b271 90bd 624f 8ebd
00000030: e735 d53d 5747 833d f88e 00be e21d 823d
00000040: b0c9 0cbd 6f31 80bd 5bc7 e83d f5f6 dabd
00000050: 4fe7 72bd a7bc 13be bdd3 34be 9b4d 01bd
00000060: b5a0 94bd 4a94 13bd 0e00 f2bc aaa1 6cbd
00000070: 69ab 04be a4ae 51bd 489f 2639 ef81 cfbd
00000080: b285 95bc 9852 1dbe 35e0 a7bd 0f9f 3a3d
00000090: e398 84bd 806b d9bd 2098 9fbc 857b 39bc
000000a0: 0dc5 9abe 0200 65bd 9321 ccbd 0835 a9b9
000000b0: d0a6 673d 5d72 01bc bc28 a2bb 337d 05bd
000000c0: 348b ddbb 3026 893d 661a 22bc f5e5 b33d
000000d0: 1414 89ba 2931 133e 0770 d3bd 9ee0 db3d
000000e0: 2d22 8abc 3193 80bd ed18 14be c61f 95bd
000000f0: ede9 c2bd 87dc 41bd 9f34 883d 363a 4dbb
00000100: 6660 b2bd a9e3 63bd 71f3 02bd 4940 43bd
00000110: 7aaa 37bc 3f31 5a3d 7e31 1cbd 6df2 55be
00000120: 0634 6e3d bf3e 12bd 0d3a dfbc b82e 67bd
00000130: 33d2 dfbd 31b2 62bc 93cc 8fbd 1611 bbbd
00000140: 3887 643d a23b 253d a14f 223d b1f9 23bc
00000150: 0dac d8bc 1c08 2cbe 9db9 df3d b022 0bbe
00000160: 9afa fcbd 2449 553d 8c87 0b3d 58b9 023e
00000170: d2a0 33be 9117 133d 8690 51bd 0d5e 103b
00000180: 95fa 38be 9cbe 203e 81c8 543d bf10 b1bd
00000190: f30d febb cec2 2bbe 90ad a8bd b829 3dbe
000001a0: 6d7c 443d 0055 75bb 7d3c 14be 61ba 0dbc
000001b0: 188f d13d 07ef 07bd 2e89 4fba b300 c43d
000001c0: b317 a73c 874a 10be 508f a23d d015 c73d
000001d0: b7e3 eebd 254d bfbd d242 8fbd 9c84 343c
000001e0: c2b0 1fbe 1e85 aa3d b5a5 3f3d da8f f0bd
000001f0: c65d c4bd ec02 41bc d457 093e 4447 a13d
00000200: 245f 003b 0b1b 98bd 7f41 1c3e 80d8 d63b
00000210: f1c4 643d 4463 e63d 11bd e0bb a590 ccbc
00000220: bab0 c93a aabe 6dbc de05 3b3d 8cd8 a2bd
00000230: 4725 ecbd 5c10 543e da3f c73c d944 903d
00000240: a01e a43d ed2a 25bd c7cd ccbd 4267 bb3d
00000250: f256 383d a696 1b3d ec52 89bd 9694 5d3c
00000260: 315e 1bbd b28d 183e 6202 973b 12a2 39bd
00000270: 9e8a 17be 43ae 2ebd a968 d83d 5b9e a9bd
00000280: 3c19 72bc eb2b bb3d 47f4 11bd a065 b5bd
00000290: c491 a7bd 6a88 23be 8165 4b3d aabb 86bd
000002a0: 3a52 ffbd d572 3c3d e2c4 d3bd 6220 533d
000002b0: 6618 d63d f688 1e3d 86e3 16be 10b5 cc3d
000002c0: bc0e 823d 11ad cc3d ed6e 2fbd e177 f5bd
000002d0: 50dd a1bd 1fde af3c 6368 413d 8661 f33c
000002e0: ee3b 64bd 6ba6 d2bd 6c67 37bc ad37 0abd
000002f0: bd68 453d 4bfd fc3c 5ad8 6cbe fc57 2a3d
00000300: 590d 2fbe 9ec3 ab3d 87a3 323c d3d1 2bbe
00000310: a204 c8bb cc5b 9bbb 797c 19be 3fd1 9d3d
00000320: e845 79bd e58d cfbd 62c4 d4bd b8fe fbbc
00000330: a589 5dbe cdd1 13be 0cbb 2f3e 7249 f13c
00000340: 9c2d 38bd fc9f b5bd c45e 523e fbaf 993c
00000350: be3f ad3c 98e9 b5bd 7310 8d3d 295c cdbc
00000360: 1981 a6bc bfe5 33bd 189c a4bd f5fc 4a3c
00000370: 6d81 803a a6a3 91bc 097e b9bd b069 e7bc
00000380: 15a6 92bd 0116 e13d 01d6 f0bd b62f f23c
00000390: 60be 67bd c24d b8bc 30cd 00be 1a70 2fbe
000003a0: 9969 8a3c 99db 3bbd c43c 99bd f929 01bd
000003b0: 7fab 263e e5b1 62bb 2ceb a3bd 2379 59be
000003c0: a822 53be 3d5d 01be 8b6b 003e e9fe 9ebd
000003d0: e72f 8a3d e949 72bd eef7 303d 7ec9 01bd
000003e0: 57f4 32bd 2688 06be 73ab 93bd be0f ba3c
000003f0: 98c7 d4bd ceea 143e 409b 0e3e 7de6 74be

network_body._body_endoder.seq_layers.2.bias f4 [128]
0.060788043 0.101833835 0.0108795175 0.13043788 -0.034890503 -0.04435029 -0.026490899 -0.05565006
-0.13408189 0.0166726 -0.0124165295 0.10234417 -0.039695963 0.12286867 -0.030623969 -0.00255745
-0.06223385 -0.018204244 -0.028678957 0.0050274874 0.09619557 -0.0020129862 -0.025063619 0.0037542924
0.0054262816 0.033000905 0.11897308 0.041008502 0.02158106 -0.04003211 0.12788585 -0.016173318
-0.107314624 0.0029767652 -0.03841491 0.07469766 -0.06142205 -0.02205776 -0.02704404 0.06623934
-0.03507122 0.030178515 0.021550495 0.053080246 0.021100212 0.11955792 0.0334455 0.06672805
0.1169482 0.006221725 0.052324727 -0.057841297 0.09028501 -0.038118344 -0.059430208 0.03346791
0.101976365 0.007121424 0.111174576 0.007869419 -0.027357275 0.019843621 0.0020815972 0.030251788
-0.0052672303 0.06413706 -0.005165401 0.020550916 0.05988322 0.0005151967 0.0037345113 0.08974296
-0.029708922 -0.023697915 0.07470163 0.109515496 -0.0733894 0.011426151 0.10466127 -0.054431416
-0.04439728 -0.037771 0.015308034 -0.018921075 -0.040908612 0.14978503 -0.023067396 -0.06852395
-0.016231043 0.111194775 0.1128944 -0.007269685 0.0031343284 0.016619366 -0.08265136 -0.027719209
-0.06600658 -0.05064705 0.038061313 0.14804867 -0.060996443 0.058239747 0.055304937 0.038465843
0.012070179 -0.037063316 -0.06832472 -0.10595553 0.10591799 -0.040436264 -0.0007122313 0.051171876
0.025568113 -0.051952858 0.026629044 -0.018034387 0.020856615 0.035776634 -0.043532092 0.014047908
0.032680497 -0.03435637 0.034101997 0.0018275365 0.044107627 -0.0127485 -0.06696023 0.08681731
00000000: e2fc 783d 428e d03d 0140 323c 8291 053e
00000010: 58e9 0ebd a6a8 35bd 7103 d9bc 51f1 63bd
00000020: c34c 09be fa94 883c b36e 4bbc d299 d13d
00000030: 3c98 22bd 92a2 fb3d 1edf fabc e49a 27bb
00000040: ece8 7ebd 1121 95bc 22f0 eabc 9fbd a43b
00000050: 2f02 c53d 4eec 03bb 3852 cdbc 930a 763b
00000060: f3ce b13b f52b 073d 28a8 f33d 88f8 273d
00000070: c3ca b03c b6f8 23bd 82f4 023e e87d 84bc
00000080: c5c7 dbbd d515 433b f458 1dbd 16fb 983d
00000090: b095 7bbd 7ab2 b4bc 768b ddbc 7ea8 873d
000000a0: d7a6 0fbd ef38 f73c aa8a b03c ac6a 593d
000000b0: 5ada ac3c c8da f43d 26fe 083d b7a8 883d
000000c0: 8a82 ef3d 9ddf cb3b 7452 563d ffea 6cbd
000000d0: 59e7 b83d fb21 1cbd 176d 73bd a615 093d
000000e0: fcd8 d03d d65a e93b 7faf e33d bcee 003c
000000f0: 5d1c e0bc 178f a23c 686b 083b 99d2 f73c
00000100: bb98 acbb 4a5a 833d 8642 a9bb 655a a83c
00000110: 1b48 753d 440e 073a b4be 743b 28cb b73d
00000120: 2060 f3bc 2122 c2bc 2bfd 983d a949 e03d
00000130: 2f4d 96bd c034 3b3c a658 d63d 7af3 5ebd
00000140: ecd9 35bd c4b5 1abd 8cce 7a3c 5f00 9bbc
00000150: ca8f 27bd 3f61 193e d6f7 bcbc 4956 8cbd
00000160: f7f6 84bc 16ba e33d 2e35 e73d 8a36 eebb
00000170: 4e69 4d3b 5625 883c 1e45 a9bd 6513 e3bc
00000180: 752e 87bd 4873 4fbd 2ee6 1b3d 129a 173e
00000190: 68d7 79bd cd8c 6e3d 6e87 623d 5c8e 1d3d
000001a0: 00c2 453c b4cf 17bd d5ed 8bbd 37ff d8bd
000001b0: 88eb d83d 7fa0 25bd 09b5 3aba 9a99 513d
000001c0: 3874 d13c 85cc 54bd 2725 da3c dabc 93bc
000001d0: 7edb aa3c 858a 123d b54e 32bd 3229 663c
000001e0: fcdb 053d 44b9 0cbd 89ae 0b3d f389 ef3a
000001f0: 33aa 343d 16df 50bc 7222 89bd 46cd b13d

action_model._continuous_distribution.log_sigma f4 [1, 2]
-0.036077153 -0.019502783
00000000: a3c5 13bd 4dc4 9fbc

action_model._continuous_distribution.mu.weight f4 [2, 128]
0.024852578 -0.023467768 0.0134676555 -0.06524238 -0.0049064066 0.0022478437 0.02878486 0.005364878
0.021282332 0.022833293 -0.018179705 -0.06316595 -0.008091303 -0.048537802 0.022839505 0.023239575
0.026071252 0.0063490253 -0.036186974 0.016235022 -0.016808836 0.03253457 0.037916824 -0.04448191
0.016167764 -0.009727598 -0.03362984 -0.04628209 -0.019610455 0.025155915 -0.0805695 -0.041995253
0.0054377005 0.041776676 0.02507782 -0.051283732 0.022190211 0.014101636 -0.018290887 0.02034316
0.01144876 -0.035362583 -0.04439387 -0.03371047 0.010635745 -0.015128302 -0.06761522 0.010708267
-0.05315729 -0.038432617 -0.047880255 0.003681141 0.0030341318 0.010213774 -0.0083249025 -0.026023751
-0.024761144 -0.025055677 -0.028362647 -0.0065724603 0.021988166 -0.019137451 0.017744862 0.01647688
-0.013134558 -0.07179068 0.023653768 -0.013173443 0.02979825 0.03418356 -0.051236436 -0.06591293
-0.023388205 -0.03257904 -0.065967575 -0.012183245 0.0043420815 -0.051076706 -0.021913655 0.02055839
0.008134746 0.0077824276 -0.022359913 0.04607213 -0.028545428 -0.10998323 -0.018020205 -0.008291321
0.028187392 -0.034347545 -0.05884576 -0.018339097 -0.030658852 0.032238208 -0.009961946 -0.012676271
0.020306043 -0.020298682 0.008241965 -0.045687202 0.016410742 -0.044006743 -0.03221937 -0.05910881
0.014448823 -0.0072564343 0.0028379562 0.008838337 -0.019723155 -0.04050473 0.03511397 -0.034882937
0.014462666 0.0013509602 -0.0043095825 -0.020203317 -0.049195223 0.0025028882 -0.013349602 -0.025130577
-2.9000203e-05 0.020334657 0.00036518517 -0.03658065 -0.045624025 0.021372713 0.029200358 -0.050275918
0.050467614 0.077081494 0.010404372 0.03579178 -0.014349462 -0.009582192 -0.005650378 -0.051483285
-0.0632894 0.020132449 -0.016990777 0.02606329 -0.020737158 0.0031432991 -0.020527843 0.0018890825
-0.02009167 5.7404064e-05 -0.039987687 0.0054902215 0.05311825 0.003930816 -0.023816647 -0.011725666
0.009859643 0.018133678 0.04223662 0.020137515 0.01291999 -0.021154651 0.04241637 -0.061117105
-0.0704556 0.009944275 -0.025626395 0.0023307991 -0.023640634 -0.005606715 -0.02943942 0.062020335
-0.013314326 -0.038546246 -0.028915318 0.023238203 0.009133364 0.04458894 -0.0411008 0.069308564
-0.022605078 -0.09241318 -0.004500666 -0.009216035 0.04765925 -0.056605224 -0.062227443 -0.01927898
0.067671485 -0.0037175822 0.045312352 0.00031542798 -0.02304121 0.008203862 0.005765338 0.020266687
-0.0054461155 -0.015931904 0.00077718217 0.0126975775 0.058666352 0.011166343 -0.01860078 -0.023560535
-0.04011098 -0.072358295 -0.022221163 0.06571976 -0.012084635 -0.010067242 0.061079375 -0.026299756
-0.016218768 -0.034291156 0.009077019 -0.005621213 -0.046312723 0.08348699 -0.03419529 -0.033668123
0.00079363666 -0.010669113 0.011152513 -0.008645882 -0.024797838 0.026174046 -0.0436358 -0.02014553
-0.032309946 -0.10039255 0.020607434 0.020028466 -0.054023467 -0.006404774 0.020305462 -0.023690835
0.008011129 -0.028332556 -0.05896381 -0.057433452 0.053401716 -0.089607894 0.015705662 -0.022252303
0.01812857 -0.035508946 0.019490935 -0.024423074 -0.043317936 0.041864946 -0.024197573 -0.029664846
0.02213786 -0.032758262 0.015714778 -0.042597637 -0.0331122 -0.00245906 -0.032382384 0.007262148
00000000: a297 cb3c 7a3f c0bc 71a7 5c3c cc9d 85bd
00000010: ecc5 a0bb 8f50 133b 3ace eb3c dccb af3b
00000020: 4958 ae3c e30c bb3c 9bed 94bc 265d 81bd
00000030: 6291 04bc 93cf 46bd ea19 bb3c ec60 be3c
00000040: 6193 d53c 7c0b d03b cb38 14bd 4fff 843c
00000050: afb2 89bc f842 053d ac4e 1b3d aa32 36bd
00000060: 4272 843c 8160 1fbc 71bf 09bd 4a92 3dbd
00000070: 1ba6 a0bc c713 ce3c 9f01 a5bd 3703 2cbd
00000080: bd2e b23b 051e 2b3d 0070 cd3c e40e 52bd
00000090: 3fc8 b53c 8c0a 673c c5d6 95bc b3a6 a63c
000000a0: 9493 3b3c 5bd8 10bd 59d6 35bd fd13 0abd
000000b0: 8c41 2e3c b3dc 77bc d979 8abd ba71 2f3c
000000c0: 75bb 59bd 856b 1dbd 161e 44bd 4c3f 713b
000000d0: 49d8 463b ac57 273c 2c65 08bc c32f d5bc
000000e0: e2d7 cabc 9041 cdbc c858 e8bc cb5d d7bb
000000f0: 8720 b43c 25c6 9cbc ac5d 913c 86fa 863c
00000100: 5432 57bc fe06 93bd 8cc5 c13c 6dd5 57bc
00000110: 761b f43c 1004 0c3d 4cdd 51bd 5cfd 86bd
00000120: 9f98 bfbc 9971 05bd 021a 87bd 3c9c 47bc
00000130: 0548 8e3b cf35 51bd 4484 b3bc 126a a83c
00000140: 9947 053c bc03 ff3b 232c b7bc 21b6 3c3d
00000150: 1ad8 e9bc e33e e1bd 1c9f 93bc 52d8 07bc
00000160: 3fe9 e63c 03b0 0cbd 4008 71bd e03b 96bc
00000170: 4628 fbbc 360c 043d 6e37 23bc 22b0 4fbc
00000180: dc58 a63c 6c49 a6bc 4f09 073c 8122 3bbd
00000190: d26f 863c 6a40 34bd 75f8 03bd 141c 72bd
000001a0: c2ba 6c3c 62c7 edbb 01fd 393b acce 103c
000001b0: 7492 a1bc 4ae8 25bd abd3 0f3d 69e1 0ebd
000001c0: d1f4 6c3c b412 b13a 6637 8dbb 6d81 a5bc
000001d0: ee80 49bd 7f07 243b 4ab8 5abc a4de cdbc
000001e0: 7645 f3b7 de94 a63c 5376 bf39 97d5 15bd
000001f0: 42e0 3abd d415 af3c 9735 ef3c 1fee 4dbd
00000200: 21b7 4e3d e7dc 9d3d 1977 2a3c 679a 123d
00000210: 021a 6bbc a0fe 1cbc ce26 b9bb 23e0 52bd
00000220: df9d 81bd ceec a43c 3e30 8bbc ae82 d53c
00000230: f9e0 a9bc cfff 4d3b 022a a8bc 179b f73a
00000240: 4997 a4bc 25c5 7038 21ca 23bd 51e7 b33b
00000250: 8692 593d 13ce 803b 211b c3bc 021d 40bc
00000260: 578a 213c 148d 943c 4e00 2d3d 6ef7 a43c
00000270: 5eae 533c 854c adbc cabc 2d3d ee55 7abd
00000280: 074b 90bd 50ed 223c 72ee d1bc 52c0 183b
00000290: 01aa c1bc 89b8 b7bb f02a f1bc 0909 7e3d
000002a0: 5524 5abc abe2 1dbd d1df ecbc 0b5e be3c
000002b0: 1ba4 153c e4a2 363d 5059 28bd a6f1 8d3d
000002c0: 492e b9bc 1f43 bdbd 537a 93bb dafe 16bc
000002d0: 5936 433d e1da 67bd 34e2 7ebd f4ee 9dbc
000002e0: 5997 8a3d aea2 73bb 7299 393d 0760 a539
000002f0: ebc0 bcbc 7e69 063c 29eb bc3b 5306 a63c
00000300: 5475 b2bb a083 82bc d0bb 4b3a 8009 503c
00000310: 214c 703d 0af3 363c aa60 98bc 0602 c1bc
00000320: 694b 24bd 9630 94bd 2809 b6bc 1598 863d
00000330: a2fe 45bc 13f1 24bc 5e2e 7a3d 9672 d7bc
00000340: 39dd 84bc e274 0cbd c7b7 143c 2732 b8bb
00000350: 69b2 3dbd 3afb aa3d 5c10 0cbd 96e7 09bd
00000360: 0e0c 503a 81cd 2ebc 08b9 363c 75a7 0dbc
00000370: d624 cbbc f46a d63c 74bb 32bd 3d08 a5bc
00000380: 6f57 04bd 9c9a cdbd ecd0 a83c bd12 a43c
00000390: b647 5dbd 23df d1bb a457 a63c 4813 c2bc
000003a0: 1c41 033c ad19 e8bc 0984 71bd 573f 6bbd
000003b0: c2bb 5a3d 5884 b7bd 29a9 803c 764a b6bc
000003c0: 5e82 943c d471 11bd 74ab 9f3c e612 c8bc
000003d0: 266e 31bd 947a 2b3d fd39 c6bc b103 f3bc
000003e0: 755a b53c 872d 06bd 47bc 803c dc7a 2ebd
000003f0: a9a0 07bd 2e28 21bb 64a3 04bd 50f7 ed3b

action_model._continuous_distribution.mu.bias f4 [2]
-0.023291616 0.056787375
00000000: 0fce bebc e199 683d

exp_avg f4 [128, 6]
3.8782473e-05 -1.130052e-05 1.7327375e-05 -0.00013746295 -1.2233399e-05 6.0956077e-06 8.9408786e-05 -1.244617e-05
4.0288647e-05 7.798218e-05 -1.2409017e-05 5.006901e-05 0.00021641988 9.047015e-06 9.706957e-05 0.0003227578
9.39099e-06 7.992951e-05 0.00023626277 3.013356e-06 1.7498525e-05 0.00028182354 3.7695413e-06 7.027306e-05
-0.00039977796 -1.2181397e-05 -0.000104562445 -0.00037952221 -1.0776092e-05 -6.50091e-05 0.00018349865 1.14298355e-05
-9.0548974e-07 0.00023687293 1.1108838e-05 -1.6875512e-05 6.3387284e-05 2.1223998e-06 3.9672905e-06 9.0860536e-05
2.6494035e-06 1.8215911e-05 -0.000100747326 -1.7646105e-06 9.892562e-06 -8.8138775e-05 -1.4157075e-06 -2.0711186e-05
-0.00025941595 -1.1313203e-05 -0.00013434116 -0.00042113618 -1.0629688e-05 -8.0404294e-05 -0.00018142187 3.1750387e-05
-0.00018299879 -0.00018330663 3.179915e-05 -0.00012314689 -0.0003574885 -1.7338478e-05 -5.2162126e-05 -0.00043521557
-1.5992975e-05 -3.2711734e-05 -7.45816e-05 1.792575e-05 -0.00013405799 -6.791884e-05 1.7985574e-05 -8.3868734e-05
6.450494e-05 -1.2409864e-06 -1.887729e-05 3.921054e-05 -1.3206828e-06 -1.9454343e-05 0.0005742701 1.9869576e-05
2.7587927e-05 0.00056411943 1.8584287e-05 3.180632e-05 -0.00017251237 -9.72345e-06 -0.00016655805 -0.00024797858
-7.821097e-06 -0.00011343992 9.544444e-05 2.8101024e-06 -2.7992799e-05 0.00013623384 2.452263e-06 -6.230715e-05
3.7818336e-05 1.0005593e-05 -5.005303e-05 2.0359641e-05 1.0067626e-05 2.5516538e-05 3.637639e-05 -1.0421873e-05
8.483969e-06 4.737949e-05 -1.0377264e-05 2.6408365e-05 -1.2554348e-05 -4.323926e-06 -4.122246e-06 -1.6102578e-05
-4.288021e-06 1.4081359e-05 -3.762166e-05 -2.3143743e-06 -1.3426533e-05 -4.2815504e-05 -1.5577912e-06 1.3138067e-05
0.00012630934 6.927383e-06 6.5224616e-05 0.00013884822 6.822566e-06 4.406025e-05 -6.936506e-05 1.7615585e-05
-0.00010730061 -8.770062e-05 1.7404456e-05 -8.14597e-05 2.6503623e-05 4.4051612e-06 -5.2302792e-05 -4.995627e-05
4.0261593e-06 -3.4091638e-05 3.7659735e-05 -7.5942376e-07 3.7599304e-05 5.6450957e-05 -2.2878501e-07 5.798058e-05
3.807085e-05 8.7781433e-07 -2.512237e-05 3.5481733e-06 6.547107e-07 1.3266496e-05 1.8530769e-05 -2.1290366e-06
-3.4610835e-05 -2.154967e-05 -1.9668087e-06 3.0393214e-06 -1.7869663e-05 -1.5857541e-06 5.9681256e-06 -2.3099195e-05
-1.4083178e-06 1.6981583e-05 -0.0003036449 -1.6578735e-05 -0.000232624 -0.000293611 -1.5362164e-05 -0.00017097422
8.503304e-05 -1.3713193e-05 3.3129312e-05 1.9843925e-05 -1.405295e-05 5.0079507e-05 0.00040164968 -7.717588e-06
-3.992783e-05 0.00042722182 -6.057631e-06 3.352042e-05 -0.00010493093 -7.0091237e-06 -2.7718734e-05 -0.00010558477
-5.996737e-06 -1.1586486e-05 0.00011398751 -2.3275745e-06 -6.9495014e-05 1.8232937e-05 -2.9254313e-06 -3.919135e-05
-6.4263746e-05 1.4895862e-05 -0.00010449252 -7.423775e-05 1.4974711e-05 -3.0430472e-05 5.366267e-05 -3.549697e-06
-5.6823057e-05 6.402869e-05 -3.3479926e-06 -1.3656889e-05 -7.1037366e-06 1.0097084e-05 -7.562257e-05 -0.00014300809
9.136333e-06 -8.770841e-05 -0.00024579576 -1.1282841e-05 -8.255713e-05 -0.00020195103 -9.859127e-06 -6.112024e-05
-0.0001539285 -1.1965413e-06 1.6810123e-05 -0.00013722794 -7.3786964e-07 9.639777e-06 -0.00019111631 -7.4707805e-06
-0.00010824319 -0.00024930612 -6.9571056e-06 -9.366498e-05 -8.828448e-05 -2.3657052e-05 8.121583e-06 -0.0003139261
-2.3674836e-05 5.2530828e-05 -6.12833e-05 -7.96542e-06 -1.1093647e-06 -4.753795e-05 -7.932427e-06 1.467059e-05
-2.106222e-05 -1.1384734e-05 1.747967e-05 -8.845748e-05 -1.1705119e-05 8.800708e-06 -2.5575835e-06 -7.181512e-06
2.330521e-05 -2.213475e-05 -7.310711e-06 2.0107702e-05 -5.790988e-05 -8.775782e-06 -1.4529473e-05 -4.262342e-05
00000000: 5daa 2238 5d97 3db7 415a 9137 ee23 10b9
00000010: 0c3e 4db7 df88 cc36 fa80 bb38 e5cf 50b7
00000020: 9bfb 2838 5d8a a338 5230 50b7 3101 5238
00000030: c5ee 6239 a2c8 1737 d491 cb38 d237 a939
00000040: ff8d 1d37 d49f a738 4ebd 7739 1039 4a36
00000050: ccc9 9237 b7c1 9339 3af8 7c36 905f 9338
00000060: 4a99 d1b9 b45e 4cb7 8948 dbb8 9cfa c6b9
00000070: f6ca 34b7 7f55 88b8 8b69 4039 c5c2 3f37
00000080: c810 73b5 1861 7839 1960 3a37 e38f 8db7
00000090: caee 8438 8d6e 0e36 c41e 8536 618c be38
000000a0: 68cc 3136 5fce 9837 4f48 d3b8 8ed7 ecb5
000000b0: 3bf8 2537 25d7 b8b8 5703 beb5 efbc adb7
000000c0: 3802 88b9 d6cd 3db7 eedd 0cb9 f1cb dcb9
000000d0: 2a56 32b7 ba9e a8b8 103c 3eb9 b82b 0538
000000e0: 5de3 3fb9 0036 40b9 1460 0538 fe20 01b9
000000f0: 4b6d bbb9 1972 91b7 a8c8 5ab8 a52d e4b9
00000100: a728 86b7 f533 09b8 b168 9cb8 415f 9637
00000110: eb91 0cb9 a66f 8eb8 badf 9637 afe2 afb8
00000120: d346 8738 f88f a6b5 ac5a 9eb7 ff75 2438
00000130: 5142 b1b5 e231 a3b7 9d8a 163a 97ad a637
00000140: 9f6c e737 6ae1 133a 74e5 9b37 c767 0538
00000150: 70e4 34b9 e621 23b7 16a6 2eb9 1f03 82b9
00000160: 5b37 03b7 98e6 edb8 5829 c838 3195 3c36
00000170: 14d2 eab7 fed9 0e39 8f91 2436 e5aa 82b8
00000180: 219f 1e38 b2dd 2737 08f0 51b8 ffc9 aa37
00000190: 20e8 2837 590c d637 da92 1838 9bd9 2eb7
000001a0: 5f56 0e37 57b9 4638 021a 2eb7 8887 dd37
000001b0: 84a0 52b7 3e16 91b6 d351 8ab6 0614 87b7
000001c0: d2e1 8fb6 fa3e 6c37 f3cb 1db8 a650 1bb6
000001d0: 8542 61b7 cc94 33b8 4c15 d1b5 916b 5c37
000001e0: e871 0439 c471 e836 33c9 8838 c997 1139
000001f0: 65ed e436 55cd 3838 1578 91b8 2ec5 9337
00000200: 9406 e1b8 e9eb b7b8 c9ff 9137 58d5 aab8
00000210: 1954 de37 0cd0 9336 b25f 5bb8 2388 51b8
00000220: 7218 8736 9efd 0eb8 d5f4 1d38 34db 4bb5
00000230: f2b3 1d38 c1c5 6c38 f2a7 75b4 2c30 7338
00000240: 44ae 1f38 f1a2 6b35 e1bd d2b7 271d 6e36
00000250: 60bf 2f35 2b93 5e37 8672 9b37 92e0 0eb6
00000260: 1a2b 11b8 90c5 b4b7 84fd 03b6 25f7 4b36
00000270: cfe6 95b7 19d6 d4b5 cf41 c836 25c5 c1b7
00000280: 6e05 bdb5 ac73 8e37 8732 9fb9 9012 8bb7
00000290: 88ec 73b9 cdef 99b9 ffdd 80b7 8b47 33b9
000002a0: c453 b238 b711 66b7 54f4 0a38 8176 a637
000002b0: f6c4 6bb7 760c 5238 8294 d239 ca7a 01b7
000002c0: 2e78 27b8 befc df39 a742 cbb6 4798 0c38
000002d0: 5d0e dcb8 ea2f ebb6 8785 e8b7 646d ddb8
000002e0: 9437 c9b6 9463 42b7 940c ef38 6d33 1cb6
000002f0: dabd 91b8 eff2 9837 8752 44b6 6461 24b8
00000300: 56c5 86b8 3de9 7937 ff22 dbb8 17b0 9bb8
00000310: e53b 7b37 f144 ffb7 da13 6138 5537 6eb6
00000320: 4b55 6eb8 2447 8638 13ae 60b6 e41f 65b7
00000330: a25c eeb6 a566 2937 8f97 9eb8 71f4 15b9
00000340: 4048 1937 18f0 b7b8 26de 80b9 6f4b 3db7
00000350: 8622 adb8 d1c2 53b9 a168 25b7 ae2d 80b8
00000360: de67 21b9 d998 a0b5 7703 8d37 d8e4 0fb9
00000370: 0412 46b5 87ba 2137 6566 48b9 84ad fab6
00000380: 9f00 e3b8 4db5 82b9 1571 e9b6 016e c4b8
00000390: 5f25 b9b8 2273 c6b7 ef41 0837 7396 a4b9
000003a0: 5399 c6b7 8c54 5c38 3985 80b8 38a3 05b7
000003b0: 7be5 94b5 7c63 47b8 8415 05b7 b421 7637
000003c0: c6ae b0b7 0f01 3fb7 4ea1 9237 3f82 b9b8
000003d0: 1a61 44b7 c1a6 1337 f3a2 2bb6 b8f8 f0b6
000003e0: 8f7f c337 04ae b9b7 884e f5b6 f6ac a837
000003f0: 43e4 72b8 b23b 13b7 9dc3 73b7 8cc6 32b8

exp_avg_sq f4 [128, 6]
3.5671096e-08 8.124379e-11 7.999532e-09 7.544156e-08 8.499829e-11 9.739838e-09 8.489655e-08 8.9189794e-11
8.8121945e-09 8.3891464e-08 9.0760024e-11 9.3112265e-09 1.4143058e-06 8.7141383e-10 1.5177223e-07 1.3554687e-06
8.9780405e-10 1.4741907e-07 1.1433474e-06 2.6105199e-10 3.0715686e-08 1.2263613e-06 2.7588384e-10 3.161601e-08
2.9264343e-06 1.1271526e-09 1.7537981e-07 2.7448543e-06 1.1643061e-09 1.7223603e-07 4.889619e-07 1.8101197e-10
2.4882166e-08 4.7418123e-07 1.8801533e-10 2.555907e-08 6.476537e-07 2.4815025e-10 4.1642817e-08 6.1955825e-07
2.5435723e-10 4.0231733e-08 4.029466e-07 2.334583e-10 5.5305136e-08 3.9860672e-07 2.4077895e-10 5.217383e-08
2.688964e-06 1.2527706e-09 2.3034585e-07 2.6665598e-06 1.2933254e-09 2.2861302e-07 4.527708e-08 2.5676052e-09
4.9144995e-07 4.194342e-08 2.5837343e-09 4.5191803e-07 1.9414144e-06 6.7454364e-10 8.7915005e-08 1.8449731e-06
7.025034e-10 8.679763e-08 1.6717575e-08 8.5898644e-10 1.5481042e-07 1.86053e-08 8.686419e-10 1.4840373e-07
7.126485e-08 1.3639712e-10 3.459851e-08 7.085564e-08 1.3776374e-10 3.1983074e-08 4.582706e-06 1.1381368e-09
1.2152869e-07 4.2865945e-06 1.1949901e-09 1.2392901e-07 5.423125e-06 1.6863478e-09 2.525993e-07 5.1952748e-06
1.7295868e-09 2.490353e-07 8.166127e-07 1.7195903e-10 2.0332639e-08 8.5142915e-07 1.7938723e-10 2.0338584e-08
4.9336062e-08 1.7523583e-09 4.7442458e-07 4.29645e-08 1.7631074e-09 4.346846e-07 2.0790823e-08 7.3616335e-11
7.574499e-09 1.976304e-08 7.3499574e-11 7.2645365e-09 1.6020804e-08 3.4684672e-11 6.7686097e-09 1.9197177e-08
3.517251e-11 6.658787e-09 4.2143373e-07 1.314544e-10 2.0759652e-08 4.6175825e-07 1.3622986e-10 2.291513e-08
1.2070873e-06 4.973207e-10 1.0836051e-07 1.1521124e-06 5.084259e-10 1.0684905e-07 3.904363e-08 1.069593e-09
2.4746183e-07 4.051902e-08 1.0770574e-09 2.2890816e-07 2.542458e-08 1.5938595e-10 4.3664734e-08 2.6973666e-08
1.5950072e-10 3.9321865e-08 2.9968278e-06 6.8772454e-10 9.568057e-08 3.0366152e-06 7.084623e-10 9.669748e-08
1.6736616e-08 3.0080882e-10 7.3696405e-08 2.3121277e-08 3.0451822e-10 6.997463e-08 1.3352084e-07 2.8243718e-10
4.4075872e-08 1.7140651e-07 2.840435e-10 4.4017927e-08 9.839798e-09 1.1471439e-11 2.7930889e-09 2.3891724e-08
1.194519e-11 3.0072205e-09 3.9675465e-06 2.5704359e-09 4.7746136e-07 3.686633e-06 2.6268563e-09 4.5956875e-07
6.370996e-08 1.6240641e-10 1.5534551e-08 6.035104e-08 1.6320006e-10 1.5358664e-08 4.397232e-06 1.4939066e-09
2.451108e-07 4.3128716e-06 1.5302437e-09 2.3312619e-07 7.6426625e-07 2.867152e-10 4.9375306e-08 7.4789835e-07
2.9722597e-10 4.877021e-08 4.9552963e-08 2.690087e-10 5.9532887e-08 6.2806556e-08 2.6895614e-10 5.620692e-08
5.9370304e-08 1.8750526e-09 4.4207275e-07 5.1473375e-08 1.8893442e-09 4.0279488e-07 7.611647e-08 2.0515194e-10
3.9266652e-08 7.2806344e-08 2.0651093e-10 3.536615e-08 5.121407e-08 4.4541584e-10 1.11987966e-07 1.4709612e-07
4.517686e-10 1.0811025e-07 1.4520501e-06 4.2620826e-10 5.5752807e-08 1.3523722e-06 4.4351273e-10 5.360776e-08
2.6222787e-07 1.10797205e-10 2.2777666e-08 2.6575873e-07 1.137788e-10 2.1239055e-08 2.356196e-06 9.026012e-10
1.5481265e-07 2.2848226e-06 9.2973346e-10 1.5494905e-07 6.106885e-07 8.7428614e-10 1.0284084e-07 7.038236e-07
8.975976e-10 1.0741114e-07 1.4292191e-08 4.878813e-11 9.7810045e-09 1.25603234e-08 4.8950146e-11 9.037376e-09
2.0249251e-08 1.5862651e-10 8.032667e-09 2.3673927e-08 1.5939372e-10 8.426935e-09 1.2413758e-08 3.173172e-11
3.6557413e-09 1.4104742e-08 3.1809878e-11 3.5354573e-09 4.2224165e-08 3.1762512e-10 5.1305214e-08 3.776041e-08
00000000: c934 1933 30a8 b22e 506e 0932 7002 a233
00000010: c9e9 ba2e 4354 2732 5f50 b633 6421 c42e
00000020: 7164 1732 d227 b433 5a95 c72e 35f7 1f32
00000030: 2dd3 bd35 4c88 6f30 d5f6 2234 8ded b535
00000040: 58c9 7630 3f4a 1e34 1e75 9935 cd83 8f2f
00000050: 41ec 0333 7499 a435 33ab 972f 2cca 0733
00000060: c263 4436 28ea 9a30 0950 3c34 3d34 3836
00000070: 6105 a030 e1ef 3834 3541 0335 5706 472f
00000080: 76bc d532 f992 fe34 9cb9 4e2f fd8c db32
00000090: 6cda 2d35 0b6c 882f c3da 3233 b84f 2635
000000a0: 99d5 8b2f 42cb 2c33 8f54 d834 5658 802f
000000b0: a488 6d33 1700 d634 a05e 842f bc15 6033
000000c0: 0d74 3436 f22d ac30 fc54 7734 26f3 3236
000000d0: d8c0 b130 ab78 7534 ad76 4233 ca71 3031
000000e0: 2fec 0335 4725 3433 898d 3131 249f f234
000000f0: 3f49 0236 ca6a 3930 c9cb bc33 cba0 f735
00000100: 481a 4130 8065 ba33 569a 8f32 cc1d 6c30
00000110: f739 2634 7dd1 9f32 3dc5 6e30 e858 1f34
00000120: 440a 9933 60f8 152f 7799 1433 4d29 9833
00000130: 0c79 172f c35d 0933 25c5 9936 a16c 9c30
00000140: 8d7d 0234 91d5 8f36 fa3c a430 5911 0534
00000150: 4af8 b536 17c5 e730 fc9c 8734 1253 ae36
00000160: 6db6 ed30 27b3 8534 3335 5b35 2a12 3d2f
00000170: f2a7 ae32 c48d 6435 043d 452f 05b5 ae32
00000180: 93e5 5333 a0d7 f030 6bb4 fe34 f887 3833
00000190: d451 f230 995e e934 8197 b232 50e2 a12e
000001a0: 0021 0232 62c3 a932 95a0 a12e 8a9b f931
000001b0: 1f9e 8932 788b 182e 5291 e831 0ae7 a432
000001c0: bab0 1a2e 4fcb e431 6941 e234 2089 102f
000001d0: f552 b232 92e7 f734 4cc9 152f e7d6 c432
000001e0: 3403 a235 d5b3 0830 d2b3 e833 48a2 9a35
000001f0: 4bc1 0b30 e374 e533 edb0 2733 f500 9330
00000200: e5da 8434 2207 2e33 9707 9430 ccc9 7534
00000210: 3e65 da32 283f 2f2f e289 3b33 b8b3 e732
00000220: 765f 2f2f d9e2 2833 1c1d 4936 500a 3d30
00000230: f378 cd33 a7c8 4b36 9abd 4230 00a8 cf33
00000240: 35c4 8f32 145f a52f 0743 9e33 3a9c c632
00000250: 2169 a72f f644 9633 ee5d 0f34 8045 9b2f
00000260: ef4d 3d33 dd0b 3834 9227 9c2f 390e 3d33
00000270: e40b 2932 c5ce 492d 8af0 3f31 753a cd32
00000280: 5a24 522d 95a7 4e31 f720 8536 96a3 3031
00000290: e52a 0035 df67 7736 2584 3431 a6ba f634
000002a0: ecd0 8833 5791 322f d770 8532 569a 8133
000002b0: bc70 332f 0fee 8332 ef8b 9336 2a52 cd30
000002c0: c697 8334 49b7 9036 aa50 d230 3d51 7a34
000002d0: fa27 4d35 949f 9d2f b910 5433 2fc3 4835
000002e0: d666 a32f 6a77 5133 0fd4 5433 9ce3 932f
000002f0: 1ab1 7f33 45e0 8633 36dc 932f 2968 7133
00000300: 57fe 7e33 46da 0031 0456 ed34 9313 5d33
00000310: b2d5 0131 b53f d834 7975 a333 2391 612f
00000320: 24a6 2833 b659 9c33 a90f 632f 7ee5 1733
00000330: 77f6 5b33 b5de f42f 097e f033 79f1 1d34
00000340: c75c f82f 3d2a e833 10e4 c235 7b4f ea2f
00000350: dc74 6f33 2883 b535 ded2 f32f 5b3e 6633
00000360: 53c8 8c34 48a5 f32e 9ea8 c332 9aad 8e34
00000370: c533 fa2e 2d71 b632 241f 1e36 ea1a 7830
00000380: 943a 2634 f454 1936 2d90 7f30 1260 2634
00000390: 32ee 2335 6b52 7030 5ad9 dc33 64ee 3c35
000003a0: d1ba 7630 e6a9 e633 b989 7532 8d92 562e
000003b0: 5009 2832 e3c8 5732 f748 572e cd42 1b32
000003c0: 93f0 ad32 6569 2e2f 0b00 0a32 845b cb32
000003d0: 5841 2f2f 0dc6 1032 4944 5532 be8e 0b2e
000003e0: 7b38 7b31 5051 7232 bde6 0b2e 6cf4 7231
000003f0: f659 3533 c39d ae2f ae5a 5c33 032e 2233

exp_avg f4 [128]
0.00018327264 0.00016643626 -0.00013500874 -5.2855397e-05 0.00014639748 -0.00015740795 -3.5546942e-05 1.9480169e-05
0.00016839428 -0.00042550307 0.00022993745 -0.0002410669 2.110367e-05 -0.00025005054 0.000121151155 -4.1609983e-05
-0.00013479455 0.00013727321 5.7171095e-05 2.6603486e-05 -9.257404e-05 -0.0002338499 -4.707278e-05 4.0536124e-06
-6.7320457e-06 3.370208e-05 2.0691949e-05 0.00020690767 0.0001949442 8.380579e-05 8.604589e-05 4.8232476e-05
-0.000201127 4.243017e-05 -0.000109768764 0.0001309085 9.4666175e-06 0.00010030334 0.0003492687 0.00010561143
0.00016346581 9.9635006e-05 0.00011743616 -0.00011512068 0.00011841823 6.168939e-05 -7.50346e-05 -1.7141927e-05
-0.0002609429 -4.268152e-05 2.1131835e-05 3.3578974e-05 4.223304e-05 -0.00022835018 1.8393246e-05 -6.320073e-05
7.109801e-05 -1.6849874e-05 0.0002528 -7.5845805e-05 0.00013216677 -0.00031876244 0.000126027 0.00021190416
0.0001921744 -0.0002296592 -1.5062096e-05 0.000114769784 0.00014262019 6.019591e-05 0.00015975075 1.5588126e-05
-8.529652e-05 -1.891292e-05 0.00021260939 -3.54573e-05 0.00017139045 0.00021226234 -0.00020933012 0.0001668009
0.00010865097 -5.298321e-05 -7.408819e-05 9.871372e-05 -4.7708585e-05 8.290069e-05 -3.1654152e-05 -5.3362273e-06
-0.00033428386 3.2555563e-05 4.9749633e-05 0.00017923325 6.830994e-05 -0.00035626587 1.4366357e-05 8.2499144e-05
0.0002128973 9.613798e-05 0.00015963065 0.00012269932 -2.7011803e-05 7.6354634e-05 0.00012367641 0.00015053153
-0.0001268061 0.00017704401 -1.2950491e-05 -8.759067e-06 -4.3009044e-05 -3.4869026e-05 -2.3880164e-05 -0.00012572556
0.00020606005 0.00019208752 -0.00013377 -1.8486675e-05 0.000106987514 6.8291214e-05 -9.699022e-05 -0.0001034802
-4.0878997e-05 7.732282e-06 7.639424e-06 -9.322049e-05 -0.000113062495 7.891578e-05 -0.00019780407 0.00011554684
00000000: e02c 4039 6585 2e39 2291 0db9 0db1 5db8
00000010: 4682 1939 e00d 25b9 3d18 15b8 5869 a337
00000020: ff92 3039 0e16 dfb9 5d1b 7139 e7c6 7cb9
00000030: c907 b137 3719 83b9 8812 fe38 6186 2eb8
00000040: a357 0db9 fff0 0f39 ffca 6f38 8d2a df37
00000050: 4f24 c2b8 9b35 75b9 0370 45b8 4404 8836
00000060: d5e3 e1b6 555b 0d38 9f93 ad37 5bf5 5839
00000070: ef69 4c39 e4c0 af38 8973 b438 3a4d 4a38
00000080: 9ee5 52b9 0cf7 3138 a833 e6b8 7c44 0939
00000090: d0d2 1e37 f259 d238 0d1e b739 b47b dd38
000000a0: 0568 2b39 23f3 d038 0f48 f638 f26c f1b8
000000b0: 4e57 f838 3d5f 8138 e55b 9db8 02cc 8fb7
000000c0: 2acf 88b9 ef04 33b8 4544 b137 26d7 0c38
000000d0: 6223 3138 4971 6fb9 324b 9a37 a28a 84b8
000000e0: 741a 9538 d458 8db7 3e8a 8439 680f 9fb8
000000f0: 3f96 0a39 921f a7b9 1d26 0439 9732 5e39
00000100: 6c82 4939 acd0 70b9 36b3 7cb7 8fb0 f038
00000110: 518c 1539 de7a 7c38 c482 2739 3fc3 8237
00000120: 38e1 b2b8 30a7 9eb7 e6ef 5e39 fcb7 14b8
00000130: 46b7 3339 bd92 5e39 a07f 5bb9 47e7 2e39
00000140: 8cdb e338 4a3a 5eb8 cb5f 9bb8 8604 cf38
00000150: b41a 48b8 f8da ad38 63c4 04b8 d80d b3b6
00000160: d242 afb9 458c 0838 43aa 5038 8ff0 3b39
00000170: 9f41 8f38 32c9 bab9 0907 7137 6403 ad38
00000180: 2f3d 5f39 af9d c938 8762 2739 d9a8 0039
00000190: 6897 e2b7 9520 a038 22af 0139 00d8 1d39
000001a0: 41f7 04b9 e4a4 3939 ef45 59b7 e8f3 12b7
000001b0: 9c64 34b8 5540 12b8 4352 c8b7 33d5 03b9
000001c0: d311 5839 1a6b 4939 9c44 0cb9 d513 9bb7
000001d0: 7c5e e038 9137 8f38 3a67 cbb8 8203 d9b8
000001e0: 7d75 2bb8 e6b9 0137 142b 0037 5f7f c3b8
000001f0: f71b edb8 967f a538 a069 4fb9 bd51 f238

exp_avg_sq f4 [128]
1.618393e-08 1.6483014e-08 1.6180934e-07 5.2648186e-08 2.0990723e-07 3.4253045e-08 4.5929966e-08 4.39554e-08
2.3354976e-07 4.6588133e-07 1.2656925e-07 1.5674917e-07 2.492292e-08 2.155727e-07 3.1300345e-07 3.38295e-08
3.1778248e-07 1.3255741e-08 6.4782695e-09 2.597731e-08 9.14479e-08 1.9414131e-07 2.8583713e-08 1.3114712e-07
5.509912e-08 5.2057565e-08 2.5043707e-09 4.7308347e-07 2.9387918e-08 2.7850612e-07 5.4125497e-08 4.79164e-08
3.405033e-07 3.72919e-08 8.3094406e-08 8.00417e-08 2.1024208e-08 1.6738699e-07 1.6340982e-07 8.83544e-09
2.8874169e-08 5.729622e-09 5.7454198e-08 2.1846445e-08 2.079814e-07 3.9234894e-08 2.9188174e-08 5.0616922e-08
1.5301579e-07 3.9205975e-08 1.4840819e-08 3.439176e-08 1.1738012e-07 6.881599e-08 1.644911e-07 7.0842916e-08
6.428625e-08 4.2477982e-08 8.764884e-08 2.4004407e-07 1.4951889e-08 2.0709405e-07 3.0341258e-07 6.474677e-08
8.721655e-08 1.0187683e-07 3.704306e-07 6.372162e-08 1.9104634e-07 5.7774184e-08 1.2303693e-07 1.7331004e-07
2.2153055e-08 4.0758753e-08 2.0407418e-08 1.0629694e-08 1.548865e-07 2.0695931e-07 1.7324327e-07 9.2340215e-08
1.00121426e-07 4.1100936e-08 1.9398083e-08 4.4290587e-08 1.5554175e-08 1.9564384e-08 4.808618e-08 5.5170677e-08
3.1723368e-07 5.5655647e-08 6.2608954e-08 3.9580826e-08 6.728151e-08 2.3086515e-07 5.0546117e-08 2.1230372e-08
3.2736068e-08 2.3315611e-07 2.4085875e-07 6.011336e-08 1.2517319e-08 2.0799833e-07 1.3751821e-07 2.1890623e-08
1.889913e-08 3.460938e-08 5.538878e-08 1.4873854e-07 4.7004384e-08 3.1203973e-07 3.6411308e-08 1.0088504e-07
1.6313929e-07 2.5020094e-07 3.345997e-08 9.270572e-08 8.507823e-08 8.156141e-08 2.8800683e-08 1.5291018e-07
1.7692764e-07 7.049182e-08 1.6344535e-08 3.2327996e-08 9.235034e-08 1.4092439e-07 1.6156808e-07 5.347712e-08
00000000: d704 8b32 8896 8d32 d0bd 2d34 4b1f 6233
00000010: dc62 6134 9f1d 1333 8844 4533 79c9 3c33
00000020: abc5 7a34 3e1e fa34 17e7 0734 e24e 2834
00000030: 1516 d632 2c78 6734 de0a a834 ee4b 1133
00000040: b19b aa34 5ebb 6332 7697 de31 b524 df32
00000050: 0462 c433 2875 5034 4088 f532 72d1 0c34
00000060: 20a6 6c33 e695 5f33 5b19 2c31 19fc fd34
00000070: b770 fc32 9785 9534 9d77 6833 a4cc 4d33
00000080: 6bce b634 e12a 2033 a271 b233 64e3 ab33
00000090: b998 b432 fcba 3334 c075 2f34 adca 1732
000000a0: f806 f832 4ade c431 8fc3 7633 d7a8 bb32
000000b0: 7e51 5f34 3983 2833 79b9 fa32 e565 5933
000000c0: a94c 2434 6d63 2833 9df6 7e32 24b6 1333
000000d0: 6712 fc33 fec7 9333 f89e 3034 4e22 9833
000000e0: bd0d 8a33 0971 3633 7639 bc33 68df 8034
000000f0: 8d6f 8032 945d 5e34 b5e4 a234 ea0a 8b33
00000100: ce4b bb33 61c7 da33 98df c634 55d7 8833
00000110: 6b22 4d34 6323 7833 221c 0434 1a17 3a34
00000120: 154b be32 b90e 2f33 634c af32 e39d 3632
00000130: e04e 2634 8b38 5e34 bf04 3a34 924c c633
00000140: 5602 d733 f586 3033 d6a0 a632 043a 3e33
00000150: fe9b 8532 890e a832 5087 4e33 cdf4 6c33
00000160: 4450 aa34 080a 6f33 a373 8633 94ff 2933
00000170: 677c 9033 bbe3 7734 0b18 5933 155e b632
00000180: b099 0c33 7759 7a34 604f 8134 ab17 8133
00000190: c00b 5732 2556 5f34 b8a8 1334 fd09 bc32
000001a0: a057 a232 6aa5 1433 9ce4 6d33 f0b4 1f34
000001b0: dee1 4933 6a86 a734 a862 1c33 23a6 d833
000001c0: 632b 2f34 5b53 8634 a0b5 0f33 8215 c733
000001d0: 40b4 b633 dc26 af33 5f65 f732 a12f 2434
000001e0: 80f9 3d34 4a61 9733 0366 8c32 02d9 0a33
000001f0: 2352 c633 0051 1734 7f7b 2d34 b7ae 6533
