results/Test2/Test2/Test2-90087.onnx (onnx, 71103 bytes, 7 tensors)

action_model._continuous_distribution.log_sigma f4 [1, 2]
-0.0061961445 -0.019880919
00000000: 0709 cbbb 4fdd a2bc

action_model._continuous_distribution.mu.bias f4 [2]
-0.01493684 0.017121568
00000000: a6b9 74bc 8842 8c3c

action_model._continuous_distribution.mu.weight f4 [2, 128]
-0.02149255 0.02312234 -0.0026181133 0.026637502 0.013821118 -0.02130546 0.0048763193 -0.0036349446
0.0020504924 -0.008019744 -0.03841896 0.021538185 -0.046744324 -0.0002807889 -0.016611 -0.014592699
0.00819154 -0.028509159 -0.046288647 -0.009131328 -0.041960437 0.004765894 0.0128116505 0.023410182
-0.041750994 0.027074894 -7.77776e-05 0.026237568 -0.03311385 0.042533636 -0.03813626 0.028885039
-0.021974634 0.020509293 -0.0022698287 -0.004442586 0.023969987 -0.027490428 -0.006843162 -0.007322949
0.00977449 -0.026960185 0.032455992 -0.025364367 0.03394441 -0.011523027 -0.033876285 -0.0026680275
0.012378488 0.06163139 -0.008379031 -0.00069146766 0.00017052075 -0.0007655335 -0.027643463 -0.026243947
-0.03455623 -0.00654064 0.022084514 -0.023659231 -0.042473353 -0.0022362384 -0.091401234 0.0023085002
-0.0018755278 -0.037293907 0.00029276233 0.036485277 0.013589284 -0.004515609 0.014561346 0.0034127964
-0.019744877 -0.04126777 -0.038513128 -0.03888583 0.021434112 -0.034809995 0.010684035 0.0137090925
0.009783754 -0.022485396 -0.041118324 -0.03230065 -0.013579586 -0.009759786 -0.029128749 0.00034179262
-0.022307968 0.01239238 -0.021302879 -0.021064997 -0.04023656 -0.032038312 0.01319949 -0.04819505
0.014426557 -0.013714761 -0.027359612 -0.04297796 -0.053842235 -0.019483447 0.006027841 0.031687513
-0.03965834 -0.016335143 -0.0012363419 0.020252006 0.0044477046 0.006657152 -0.0075926385 0.052509584
0.016252175 -0.004005783 -0.016366184 -0.0034738332 -0.036043227 0.012421087 0.011027483 0.01755032
0.009880571 0.028861903 0.007870657 -0.031192938 0.004707773 0.017854435 0.031299658 -0.039636977
0.0034435631 0.0111577995 -0.024465544 -0.00054148835 0.0038757466 0.021151677 0.0064921263 0.02867572
0.0069267224 0.009905625 0.011472964 0.015072289 -0.012622557 -0.027014213 0.010617685 0.033547405
-0.02406569 0.039991237 -0.026478149 0.033525966 0.0072368314 0.009632709 0.0017826294 -0.010507357
-0.010747743 -0.00998054 0.010892387 0.001522269 -0.006670028 -0.020282649 0.016485503 0.004173328
-0.030946482 -0.024973765 0.021320822 0.008280312 0.030467628 0.007837266 0.000272369 0.008571216
0.005300504 0.012717987 0.027299197 0.0016228879 -0.027705604 -0.0027104905 0.0028706659 -0.0052205594
-0.0107821 0.000526077 0.015577276 0.0019749466 -0.007986099 0.013087855 -0.034508068 0.024763763
-0.009049979 -0.022233855 0.02512798 0.004508095 -0.008170967 -0.0046995147 0.028530894 0.031132257
0.0014601698 -0.017178886 0.008067258 -0.026717603 0.040412117 0.0022527685 -0.018481102 0.0027436179
0.008426477 0.02078062 -0.030825885 0.017042577 0.029392714 -0.015538136 -0.024603268 0.0066200714
-0.02111737 0.018670931 0.016907705 0.018911552 0.015985673 -0.001987592 -0.012637583 0.023895927
-0.024922 -0.028288662 0.016972043 -0.04846794 0.031173313 -0.044640973 0.021381306 -0.0021818206
-0.0032625333 -0.0059899143 0.0059680818 -0.0050285263 0.028570198 -0.0070233066 -0.022995958 -0.01508486
0.014762373 -0.013797437 -0.008539105 -0.0072031417 0.0046838573 0.01108603 -0.0048704534 -0.033446625
-0.031399533 -0.024678914 -0.0093917595 0.021051072 0.014049368 0.0044903094 -0.027366716 -0.0021143965
0.00037867558 0.014303287 0.024340006 0.00034474357 -0.00016768761 0.05478252 0.011999478 0.014612205
00000000: 2511 b0bc 106b bd3c a794 2bbb e436 da3c
00000010: f871 623c ca88 aebc 88c9 9f3b 4038 6ebb
00000020: 8e61 063b 3f65 03bc 335d 1dbd d970 b03c
00000030: fa76 3fbd d936 93b9 cb13 88bc 3716 6fbc
00000040: cf35 063c 0a8c e9bc 2a99 3dbd 919b 15bc
00000050: b5de 2bbd 372b 9c3b f5e7 513c b6c6 bf3c
00000060: 1703 2bbd 2bcc dd3c 881c a3b8 2bf0 d63c
00000070: 63a2 07bd c037 2e3d c434 1cbd 51a0 ec3c
00000080: 2604 b4bc 1b03 a83c 68c1 14bb 1d93 91bb
00000090: b55c c43c 9b33 e1bc 9a3c e0bb 59f5 efbb
000000a0: 2f25 203c 9bdb dcbc 93f0 043d efc8 cfbc
000000b0: 4b09 0b3d 14cb 3cbc dcc1 0abd 13da 2ebb
000000c0: 24cf 4a3c 3271 7c3d 3448 09bc 9c43 35ba
000000d0: d1cd 3239 15ae 48ba 8b74 e2bc 8cfd d6bc
000000e0: d58a 0dbd dd52 d6bb 95ea b43c 01d1 c1bc
000000f0: 8af8 2dbd db8d 12bb 9230 bbbd 354a 173b
00000100: 45d4 f5ba 7fc1 18bd e57d 9939 9671 153d
00000110: 97a5 5e3c acf7 93bb b692 6e3c 39a9 5f3b
00000120: 02c0 a1bc 6508 29bd f1bf 1dbd c046 1fbd
00000130: 9796 af3c ed94 0ebd 170c 2f3c 1a9c 603c
00000140: 0a4c 203c 4b33 b8bc b06b 28bd b04d 04bd
00000150: e97c 5ebc 82e7 1fbc 6a9f eebc a132 b339
00000160: 33bf b6bc 6909 4b3c 6083 aebc 8090 acbc
00000170: 17cf 24bd 9b3a 03bd ac42 583c 2c68 45bd
00000180: 5e5d 6c3c e0b3 60bc 4421 e0bc a809 30bd
00000190: ad89 5cbd c09b 9fbc 3285 c53b c4ca 013d
000001a0: c970 22bd 47d1 85bc c00c a2ba 89e7 a53c
000001b0: 0dbe 913b 3d24 da3b abcb f8bb 4a14 573d
000001c0: 4823 853c f142 83bb 6012 86bc 40a9 63bb
000001d0: 10a2 13bd d181 4b3c 9eac 343c b0c5 8f3c
000001e0: 1ee2 213c cc6f ec3c eef3 003c 5588 ffbc
000001f0: aa43 9a3b 7743 923c 1234 003d 625a 22bd
00000200: 67ad 613b 34cf 363c f76b c8bc abf2 0dba
00000210: 3d00 7e3b 4846 ad3c e7bb d43b 58e9 ea3c
00000220: 8ff9 e23b 344b 223c 19f9 3b3c c3f1 763c
00000230: d7ce 4ebc e94c ddbc ccf5 2d3c 0169 093d
00000240: 6925 c5bc dacd 233d b4e8 d8bc 8652 093d
00000250: f122 ed3b 83d2 1d3c 1ea7 e93a 0d27 2cbc
00000260: 4d17 30bc 6b85 23bc fb75 323c df86 c73a
00000270: 4090 dabb cc27 a6bc 9b0c 873c 6ac0 883b
00000280: 7a83 fdbc c895 ccbc 01a9 ae3c 25aa 073c
00000290: 3f97 f93c e067 003c c0cc 8e39 496e 0c3c
000002a0: daaf ad3b 1b5f 503c 91a2 df3c 15b7 d43a
000002b0: ddf6 e2bc 7ca2 31bb c821 3c3b 3a11 abbb
000002c0: 68a7 30bc 6ee8 093a d537 7f3c 1b6e 013b
000002d0: 21d8 02bc 716e 563c 5558 0dbd 60dd ca3c
000002e0: 5d46 14bc c623 b6bc 32d9 cd3c a4b8 933b
000002f0: 85df 05bc 63fe 99bb 9fb9 e93c 1309 ff3c
00000300: 2b63 bf3a bcba 8cbc 882c 043c e0de dabc
00000310: 2d87 253d 2fa3 133b ae65 97bc 45ce 333b
00000320: 350f 0a3c 1e3c aa3c 9186 fcbc e09c 8b3c
00000330: fdc8 f03c aa93 7ebc cb8c c9bc 2fed d83b
00000340: 56fe acbc c8f3 983c 0782 8a3c 66ec 9a3c
00000350: 63f4 823c 4342 02bb dd0d 4fbc 64c1 c33c
00000360: 3929 ccbc a0bd e7bc f408 8b3c 5286 46bd
00000370: 2d5f ff3c 74d9 36bd d927 af3c e0fc 0ebb
00000380: 3ad0 55bb 0b47 c4bb e68f c33b 56c6 a4bb
00000390: 0c0c ea3c c423 e6bb 0562 bcbc 7d26 77bc
000003a0: e1dd 713c a50e 62bc 9ae7 0bbc 5508 ecbb
000003b0: 0b7b 993b 2ea2 353c 5398 9fbb 54ff 08bd
000003c0: cc9c 00bd 6f2b cabc e5df 19bc 4c73 ac3c
000003d0: 522f 663c 7223 933b 2a30 e0bc b091 0abb
000003e0: fa88 c639 5558 6a3c b164 c73c b3be b439
000003f0: 4dd5 2fb9 a363 603d 7599 443c 0868 6f3c

network_body._body_endoder.seq_layers.0.bias f4 [128]
-0.0072783004 0.01730742 0.03653894 -0.018885413 -0.0015861448 0.012919863 -0.018515214 0.025524018
-0.01790601 0.058727056 -0.077163525 0.06544172 0.06326981 0.0004087863 0.008570576 -0.007767437
-0.015116641 -0.0015898257 0.018580005 -0.03337637 -0.004325593 0.018630622 0.005934314 0.0024360823
-0.0076324763 -0.02765522 -0.05959692 -0.01098507 0.03552178 -0.0062091057 -0.014576488 0.028759306
0.008295548 0.030059129 -0.013182583 0.018436905 -0.067608595 0.040425513 0.0003903292 -0.0004825716
-3.88656e-05 -0.02063307 -0.020734373 0.004053 -0.03602647 -0.02427537 -0.002991012 -0.005738474
0.06739468 0.0025668778 -0.012446262 -0.02196439 -0.013080431 -0.030682364 0.065871604 -0.061865218
0.0048389602 -0.007755859 0.030011252 0.01491447 0.035311922 0.013928345 0.013721137 0.03830984
-0.00045869418 0.009922347 0.03314723 0.03896452 -0.06158233 -1.3268036e-05 -0.025305543 0.051697403
0.024651451 0.016987981 0.013973742 0.031461205 0.06429941 0.007946819 0.030100994 0.0057053114
0.066458516 -0.04299771 0.011330478 0.005156671 0.025081351 -0.032484207 0.052647192 -0.018004768
-0.02147009 -0.0057069305 -0.064903975 0.04024298 0.01512248 0.03668305 -0.02556524 -0.054739732
0.00034611853 -0.042236924 -0.009728633 0.0029442462 5.2450094e-05 0.027810866 0.004346596 0.024796255
-0.042134155 0.012763315 -0.02888679 0.07881449 0.002788755 0.048060562 0.044577457 0.038988642
-0.009597526 -0.0117466 0.06690517 0.031086607 0.014464133 0.017646225 -0.0056589 -0.011960404
-0.01540519 0.07663123 0.042384 0.01714372 -0.045740675 0.014030546 0.060322862 -0.026579486
00000000: cf7e eebb 4ac8 8d3c dba9 153d 95b5 9abc
00000010: 30e6 cfba d5ad 533c 38ad 97bc bf17 d13c
00000020: a0af 92bc c88b 703d e907 9ebd 4f06 863d
00000030: 9a93 813d 5e52 d639 9a6b 0c3c fc85 febb
00000040: caab 77bc b361 d0ba 1835 983c a9b5 08bd
00000050: b4bd 8dbb 3f9f 983c a274 c23b aea6 1f3b
00000060: da19 fabb 338d e2bc e61b 74bd b9fa 33bc
00000070: 497f 113d c175 cbbb 39d2 6ebc a398 eb3c
00000080: 0dea 073c 903e f63c c3fb 57bc fe08 973c
00000090: 6076 8abd 3995 253d 19a5 cc39 aa01 fdb9
000000a0: 9f03 23b8 af06 a9bc 22db a9bc 07cf 843b
000000b0: 7e90 13bd 24dd c6bc db04 44bb cf09 bcbb
000000c0: 3906 8a3d 1039 283b 68eb 4bbc aaee b3bc
000000d0: 4e4f 56bc 9559 fbbc b1e7 863d 6266 7dbd
000000e0: 2490 9e3b dc24 febb 28da f53c d25b 743c
000000f0: 3ca3 103d b733 643c 9fce 603c c7ea 1c3d
00000100: e47c f0b9 5791 223c 64c5 073d 4399 1f3d
00000110: c13d 7cbd c899 5eb7 924d cfbc a8c0 533d
00000120: d7f1 c93c 612a 8b3c 1ff2 643c 77dd 003d
00000130: 69af 833d 6033 023c 5c96 f63c 9ff3 ba3b
00000140: 671b 883d 5e1e 30bd 78a3 393c 4bf9 a83b
00000150: 6877 cd3c 290e 05bd 95a4 573d bc7e 93bc
00000160: 0be2 afbc 3401 bbbb 60ec 84bd d3d5 243d
00000170: 47c4 773c f740 163d 326e d1bc c536 60bd
00000180: 3e77 b539 a000 2dbd d864 1fbc 41f4 403b
00000190: dcfd 5b38 9dd3 e33c e46d 8e3b 8421 cb3c
000001a0: dd94 2cbd 391d 513c fda3 ecbc 7e69 a13d
000001b0: 8cc3 363b 27db 443d da96 363d 8eb2 1f3d
000001c0: f13e 1dbc d074 40bc 9405 893d 57a9 fe3c
000001d0: f9fa 6c3c d18e 903c 4b6e b9bb 92f5 43bc
000001e0: 0d66 7cbc d6f0 9c3d d89a 2d3d fd70 8c3c
000001f0: 935a 3bbd 60e0 653c 1b15 773d 39bd d9bc

network_body._body_endoder.seq_layers.0.weight f4 [128, 3]
0.7103686 0.24744676 0.22641225 -0.5663282 -0.4303112 -1.4761857 0.37177238 0.6840534
0.27022985 -0.45539907 -0.99550974 0.095035285 -0.42255655 0.30156025 0.19305085 -0.4176585
-0.8290669 -0.52491176 -0.4226413 0.007316569 -0.3676754 0.2448612 0.018991508 0.16943575
-0.12168114 0.6947427 -0.1377185 0.5180359 0.50128144 0.0013590377 0.9912077 0.55015737
-0.06275543 0.38414478 0.9999636 -0.13304748 0.74668384 -0.213336 0.21034843 -0.34138948
-0.32144594 0.33355716 0.20156133 1.2043387 0.43075493 -0.25789428 -0.14224055 -0.8313431
0.10998964 0.94341916 -1.2321051 -0.08887343 0.43383867 0.19430837 -0.06711066 -0.17768064
0.19213367 0.50560623 0.04346957 -0.101538904 -0.2525803 -1.2043688 0.061845697 0.95412725
0.30862385 0.11311243 -0.26499778 0.41326025 -0.019970227 -0.11271084 -0.2810855 0.2468052
-0.8865771 0.15435202 -0.19414799 -1.0479496 0.7158346 0.2422831 1.3260586 0.22391441
0.022389352 -0.7026835 0.030467216 0.35697177 -1.5794336 -0.8849917 -0.43780482 0.065289386
0.37289548 0.9812766 -0.0711092 -1.3283085 -0.81277925 -0.17563412 -0.047818705 1.1511555
0.024974544 -0.87691003 1.0236218 0.1446205 -0.38245592 0.738199 -0.2550749 -0.6954221
-0.54142374 -0.32242283 0.6774606 -0.6269655 1.1596698 0.9720375 0.46946722 0.64225674
-0.032675404 -0.4094422 -0.63861305 0.0526698 0.30405414 -0.58026403 0.56269467 -0.4299506
-0.022399737 0.107152775 -0.24729003 -1.7915 -0.11484961 -0.0029661695 -0.6905464 -0.30435345
0.706674 0.35198745 0.6458926 1.4887968 0.14704315 0.6002439 -0.015596465 -0.15306817
0.9403896 -0.7647541 -0.07923526 0.20257215 0.08368712 -0.08138677 -0.33034644 0.69151455
0.71178865 -0.20503071 -0.7293743 -0.347355 0.1397075 1.2841755 -0.31517535 0.57647055
0.16756354 -0.47592464 0.5791571 -0.63003683 -0.53493124 -0.2993085 -0.21432191 -0.76489854
-0.41324386 -0.10897873 0.491779 -0.646685 0.07949072 0.66340244 0.60295624 -0.046433095
0.033281755 0.8433702 0.10618302 -0.60697395 0.39537504 0.12984878 0.3422842 -0.8865036
-0.34135118 1.0929588 0.22631605 0.9870113 -0.49805638 -0.14737087 -1.0466475 0.9056953
0.13864279 -0.16406295 -0.5886091 0.063234694 -0.9912956 0.7745635 0.30924568 -0.11536321
-0.21120547 -0.63465756 0.15545808 -0.17997983 -0.027532503 -0.18392491 0.018580042 -0.5363192
0.03339872 0.31460255 -1.2383667 0.26423895 0.42249656 0.457523 -0.8040933 -0.3738544
0.48166886 0.3190911 -0.044666905 -0.79800504 -0.4331004 0.5190859 0.15529841 0.5715563
1.3448226 0.23963404 -0.27275145 -0.3754591 -0.43715382 -0.5746656 0.12222414 -0.0022243827
-0.34347188 -0.18031369 0.87179685 -0.122223504 0.80689555 -0.16942036 0.4189005 0.5524857
0.90537053 -0.4557597 -0.15448365 0.22883925 -0.4894379 -0.3646519 0.74999946 -0.15977027
0.81087524 -0.8554024 0.29869378 -0.5022515 0.08204463 -0.08739436 -0.108493716 -0.7646023
0.37688288 -0.33713484 -0.47927982 -0.058220316 0.5437929 -0.3075132 0.8243262 0.32829827
00000000: b7da 353f af62 7d3e 9dd8 673e e3fa 10bf
00000010: c051 dcbe a7f3 bcbf f358 be3e 201e 2f3f
00000020: 915b 8a3e 112a e9be bad9 7ebf dca1 c23d
00000030: 5559 d8be 1b66 9a3e 1faf 453e 56d7 d5be
00000040: ba3d 54bf 9e60 06bf 7164 d8be d4bf ef3b
00000050: f33f bcbe e5bc 7a3e 1494 9b3c 9180 2d3e
00000060: f633 f9bd a8da 313f 1406 0dbe 009e 043f
00000070: fb53 003f bd21 b23a cabf 7d3f 1dd7 0c3f
00000080: eb85 80bd a0ae c43e 9dfd 7f3f 993d 08be
00000090: ac26 3f3f c174 5abe 9465 573e 9aca aebe
000000a0: 9094 a4be 01c8 aa3e 1866 4e3e c527 9a3f
000000b0: e98b dc3e b80a 84be 82a7 11be e7d2 54bf
000000c0: 4042 e13d eb83 713f 9fb5 9dbf 4603 b6bd
000000d0: 1a20 de3e c6f8 463e 5071 89bd eaf1 35be
000000e0: b0be 443e 696f 013f 260d 323d a1f3 cfbd
000000f0: 3552 81be c228 9abf ea51 7d3d af41 743f
00000100: f203 9e3e 7da7 e73d caad 87be d996 d33e
00000110: 9a98 a3bc f1d4 e6bd 70ea 8fbe 81ba 7c3e
00000120: b8f6 62bf 750e 1e3e bbce 46be 3623 86bf
00000130: f040 373f 1019 783e 4abc a93f d249 653e
00000140: e069 b73c 11e3 33bf 6296 f93c 01c5 b63e
00000150: e12a cabf d18e 62bf f427 e0be 71b6 853d
00000160: 28ec be3e f134 7b3f b3a1 91bd 0306 aabf
00000170: 4d12 50bf 6ed9 33be 8cdd 43bd 1059 933f
00000180: 6a97 cc3c 2d7d 60bf 0a06 833f 6517 143e
00000190: 43d1 c3be 9cfa 3c3f 2d99 82be 2f07 32bf
000001a0: bf9a 0abf 9b14 a5be 0f6e 2d3f d080 20bf
000001b0: 0f70 943f 73d7 783f 025e f03e f06a 243f
000001c0: a5d6 05bd 68a2 d1be 257c 23bf 4abc 573d
000001d0: fcac 9b3e 2f8c 14bf c20c 103f 7c22 dcbe
000001e0: a77f b7bc ea72 db3d 9939 7dbe df4f e5bf
000001f0: 4636 ebbd 1164 42bb a6c7 30bf 37d4 9bbe
00000200: 96e8 343f b337 b43e 3859 253f e590 be3f
00000210: 7b92 163e 96a9 193f 5188 7fbc e7bd 1cbe
00000220: 5fbd 703f edc6 43bf 1946 a2bd 136f 4f3e
00000230: 2764 ab3d 1bae a6bd 2b23 a9be 1907 313f
00000240: c837 363f 92f3 51be 46b8 3abf 84d8 b1be
00000250: 7c0f 0f3e dd5f a43f aa5e a1be 9393 133f
00000260: c795 2b3e 65ac f3be a443 143f 184a 21bf
00000270: 41f1 08bf f73e 99be 3477 5bbe 64d0 43bf
00000280: b394 d3be 3e30 dfbd 75ca fb3e 268d 25bf
00000290: 08cc a23d bed4 293f 575b 1a3f a130 3ebd
000002a0: 7352 083d 1ce7 573f 7c76 d93d a562 1bbf
000002b0: 996e ca3e 14f7 043e e03f af3e e6f1 62bf
000002c0: 95c5 aebe 13e6 8b3f 65bf 673e c6ac 7c3f
000002d0: 3f01 ffbe 64e8 16be 8cf8 85bf a6db 673f
000002e0: 60f8 0d3e 1e00 28be 16af 16bf 3181 813d
000002f0: 8cc5 7dbf cb49 463f 7355 9e3e 8c43 ecbd
00000300: 3f46 58be eb78 22bf 6730 1f3e a24c 38be
00000310: d88b e1bc d056 3cbe 2c35 983c 374c 09bf
00000320: 19cd 083d 9613 a13e cd82 9ebf 544a 873e
00000330: 7851 d83e 7440 ea3e 0fd9 4dbf d869 bfbe
00000340: 4d9d f63e e95f a33e a5f4 36bd 0f4a 4cbf
00000350: 56bf ddbe d0e2 043f 8c06 1f3e 8451 123f
00000360: 2623 ac3f a062 753e 14a6 8bbe 2d3c c0be
00000370: a0d2 dfbe 491d 13bf a650 fa3d f3c6 11bb
00000380: 8cdb afbe 27a4 38be 142e 5f3f 5150 fabd
00000390: b590 4e3f 887c 2dbe 207a d63e b46f 0d3f
000003a0: 5dc6 673f 5659 e9be f630 1ebe d654 6a3e
000003b0: 9b97 fabe a7b3 babe f7ff 3f3f d19a 23be
000003c0: 8595 4f3f a7fb 5abf 64ee 983e 8e93 00bf
000003d0: 0407 a83d d0fb b2bd f431 debd fabc 43bf
000003e0: cbf6 c03e f09c acbe 2a64 f5be 6d78 6ebd
000003f0: 0336 0b3f 5f72 9dbe 0b07 533f b616 a83e

network_body._body_endoder.seq_layers.2.bias f4 [128]
0.040040895 0.0025348216 -0.0035720821 -0.0076888413 -0.003789158 0.016211664 -0.003152236 0.054438066
0.028851217 0.012844132 0.024435889 0.0006861355 0.047104266 -0.0036679339 0.043026052 0.012830143
-0.01710148 0.054305676 0.05195739 0.019017054 0.049728338 0.0101055065 -0.0040292717 -0.0093030045
0.0021315257 -0.01253536 0.013229269 -0.013402067 0.017897079 -0.0111738155 0.034922354 -0.0033936284
0.003012375 -0.010436183 0.012296571 0.020514194 0.0055199335 0.050996907 0.0033745298 0.009184193
-0.0045104814 0.02255646 0.009098232 0.012390468 -0.0727976 0.0049550124 0.018887987 -0.0082403645
-0.061269928 -0.010053795 0.007446123 0.00074960303 -0.0110992165 0.014207496 0.011421906 0.036494467
0.053974397 -0.010554125 0.007548221 0.06348821 0.043658275 -0.010422834 0.07511925 0.032363515
0.002698476 0.0003174534 0.018601067 -0.064365275 0.026837908 0.0041544377 -0.029662708 4.568749e-05
0.011085905 0.046061933 0.028740082 0.02239966 0.013325114 0.0012426258 -0.022244392 -0.013765801
-0.025383677 0.0221762 0.055559907 0.041705128 0.030535987 0.011248424 0.032305095 0.04262044
-0.00069142494 -0.049165234 0.009158712 -0.023397021 0.0065507684 0.022757623 0.0093813995 0.032658577
-0.018750899 -0.00047580458 0.030287385 0.02896354 0.06720429 -4.3246164e-06 -0.03905816 -0.06599209
0.059879877 0.011176017 -0.019152373 -0.043535464 0.03211639 0.016347943 -0.0030709316 -0.012531535
-0.012882802 -0.011939383 0.019485105 0.011907041 0.0071560172 -0.00047540446 -0.021528188 -0.015157103
-0.009510176 -0.006705621 0.011302238 0.022337914 -0.010574266 0.019949405 -0.0052714543 0.027667176
00000000: ec01 243d 401f 263b 9819 6abb adf2 fbbb
00000010: 8653 78bb 53ce 843c bf95 4ebb 73fa 5e3d
00000020: 6359 ec3c 3270 523c c62d c83c c6dd 333a
00000030: 67f0 403d b861 70bb 163c 303d 8535 523c
00000040: 6718 8cbc a16f 5e3d 46d1 543d a7c9 9b3c
00000050: f1af 4b3d 9191 253c fb07 84bb a16b 18bc
00000060: 11b1 0b3b 1c61 4dbc 93bf 583c 5894 5bbc
00000070: e59c 923c 6112 37bc be0a 0f3d a367 5ebb
00000080: 446b 453b 86fc 2abc 8f77 493c 620d a83c
00000090: 8fe0 b43b 22e2 503d 3727 5d3b 4c79 163c
000000a0: a9cc 93bb 53c8 b83c c010 153c 6401 4b3c
000000b0: e816 95bd a85d a23b fbba 9a3c 9802 07bc
000000c0: 2df6 7abd acb8 24bc 9bfe f33b 0281 443a
000000d0: 7dd9 35bc 8fc6 683c f222 3b3c 397b 153d
000000e0: 4214 5d3d 35eb 2cbc 1157 f73b 1b06 823d
000000f0: 05d3 323d 89c4 2abc 1fd8 993d 9b8f 043d
00000100: ead8 303b e06f a639 4461 983c f1d1 83bd
00000110: 2cdb db3c f321 883b 35ff f2bc 92a0 3f38
00000120: a8a1 353c 70ab 3c3d 5270 eb3c 7e7f b73c
00000130: 9451 5a3c 9adf a23a df39 b6bc f489 61bc
00000140: 6ef1 cfbc ddaa b53c c992 633d ffd2 2a3d
00000150: 9b26 fa3c 4f4b 383c 5952 043d c592 2e3d
00000160: be40 35ba 7c61 49bd 6c0e 163c 1cab bfbc
00000170: d4a7 d63b 326e ba3c 71b4 193c 00c5 053d
00000180: 7c9b 99bc 6975 f9b9 401d f83c f244 ed3c
00000190: 67a2 893d 2c1c 91b6 73fb 1fbd dc26 87bd
000001a0: 9a44 753d 9d1b 373c 70e5 9cbc 3e52 32bd
000001b0: 7a8c 033d 1fec 853c af41 49bb 1151 4dbc
000001c0: 6312 53bc 679d 43bc 3a9f 9f3c c015 433c
000001d0: 067d ea3b b53f f9b9 e25b b0bc 7f55 78bc
000001e0: 92d0 1bbc d3ba dbbb 062d 393c 00fe b63c
000001f0: b03f 2dbc ef6c a33c 2abc acbb 46a6 e23c

network_body._body_endoder.seq_layers.2.weight f4 [128, 128]
0.05103278 0.056483027 0.028942572 -0.051504612 -0.0077819927 0.109861925 -0.110780865 0.050274324
0.02687303 0.0093186395 0.22105289 0.08680107 0.15309706 0.0026654296 -0.068258815 0.06421651
0.026350835 0.017955786 0.011153367 -0.018693956 -0.03737931 0.13549364 -0.080498904 0.045270722
0.04448432 -0.038179003 0.11238899 -0.074783884 -0.09139169 0.1766784 0.030856246 0.006824695
-0.18366122 0.0009997537 0.047565322 -0.09654211 -0.042162184 0.07738054 -0.05600631 0.16534992
0.116530605 0.056973062 0.061319165 -0.032444436 -0.20487912 -0.0928109 0.09263411 1.3197046e-05
0.2138073 -0.038858965 0.04035195 -0.084534645 -0.0022652443 -0.064474374 0.05128272 0.12950766
-0.13401678 0.020514378 0.09855374 0.054679815 -0.01592087 0.0363525 0.08828916 0.04091323
0.10200993 0.01389728 0.10393294 -0.026838752 0.08109523 -0.1400701 -0.020610048 -0.011188882
0.09041577 -0.04753955 0.027458975 0.03258634 0.14644064 0.043760993 0.16729909 -0.03748981
-0.08707056 -0.06122028 -0.028610868 0.09183406 0.17804004 0.09935666 0.09671087 0.04679614
-0.12675466 -0.1560722 0.05355455 0.02658545 0.18030827 0.020570677 0.078518994 0.08272806
0.048900608 -0.1007007 0.019763965 0.18535456 -0.06774111 0.1608742 0.044350527 0.17915094
-0.14881736 0.085533164 -0.03554952 0.199719 0.09887644 0.2621877 0.13272819 0.09334415
-0.059696686 0.07361126 0.12632482 0.044793505 0.02988471 0.15705003 -0.06398049 -0.07052679
0.0413432 -0.041723832 0.00032419368 -0.033554364 0.072840825 0.03548846 0.1020651 -0.08972447
-0.12704597 -0.02943756 0.10120795 0.068080425 0.068693005 0.07052883 0.09514803 0.03797746
-0.1066075 -0.06243308 -0.03591691 -0.16748753 0.008911375 -0.0506521 0.033752017 -0.04755441
-0.14150429 -0.005206038 0.037096675 0.09097907 -0.090861484 -0.21100694 -0.013314649 -0.099855274
-0.05861522 0.16263792 0.025503175 -0.025232883 0.024721341 -0.0878746 -0.007086392 0.03956189
-0.19705145 -0.07958967 -0.006622986 0.12677288 0.054163426 0.051040336 0.011871352 -0.06362956
-0.011288542 0.073592484 0.10611698 -0.021322291 -0.09687602 0.013423471 0.01592843 0.15533294
0.029701887 -0.101489 -0.12863724 0.11238051 -0.016849115 -0.04468992 -0.07864113 -0.03384309
-0.049103554 -0.097285084 -0.027749645 0.04811014 -0.10982132 0.08049111 -0.07322142 -0.04508465
-0.07757202 0.018568859 0.020699656 -0.110532776 -0.14054602 -0.008385263 -0.07224998 0.014617322
0.034613 0.07452352 0.10935364 -0.10731423 0.1475993 -0.16447398 0.23565854 0.21362677
0.01866575 -0.097713865 -0.0083907405 0.07851257 -0.19940513 -0.12627727 -0.11419285 -0.0052846796
-0.0071680984 -0.1014616 0.019844444 -0.053875994 -0.06936044 0.045620963 0.05686525 -0.12087008
-0.08406175 0.11571466 0.1614091 0.04762366 0.13144457 0.049385037 -0.0379665 -0.022292124
-0.1619226 0.07519761 -0.11757518 -0.023352714 0.026113978 -0.22987472 0.0339945 -0.008405305
0.048613887 -0.0053581237 0.04012219 -0.009704863 -0.124972805 0.10970577 -0.07069142 0.19708288
0.17593604 -0.07832947 -0.011258013 -0.03866677 -0.18061909 -0.08173682 -0.045005545 0.123451434
00000000: c007 513d bf5a 673d f918 ed3c 80f6 52bd
00000010: 1600 ffbb 4aff e03d 14e1 e2bd 73ec 4d3d
00000020: d424 dc3c 35ad 183c b05b 623e c2c4 b13d
00000030: 7ac5 1c3e 7dae 2e3b 47cb 8bbd f283 833d
00000040: b5dd d73c 0318 933c 9dbc 363c 1124 99bc
00000050: 0c1b 19bd d8be 0a3e 9cdc a4bd cb6d 393d
00000060: 3135 363d 9661 1cbd 332c e63d 4b28 99bd
00000070: 912b bbbd 2feb 343e 3dc6 fc3c b1a1 df3b
00000080: b011 3cbe 2b0a 833a dbd3 423d dfb7 c5bd
00000090: 41b2 2cbd b079 9e3d df66 65bd 7d51 293e
000000a0: 99a7 ee3d 965c 693d ce29 7b3d 75e4 04bd
000000b0: d5cb 51be a413 bebd f4b6 bd3d e268 5d37
000000c0: 4df0 5a3e 942a 1fbd 1648 253d 8020 adbd
000000d0: 7e74 14bb 240b 84bd d40d 523d a89d 043e
000000e0: b23b 09be c50d a83c 8bd6 c93d f1f7 5f3d
000000f0: 7c6c 82bc 5ce6 143d f2d0 b43d a294 273d
00000100: 95ea d03d 6bb1 633c cbda d43d f1dc dbbc
00000110: 4215 a63d 896e 0fbe 67d6 a8bc 9351 37bc
00000120: e72b b93d d5b8 42bd a5f1 e03c 4179 053d
00000130: 89f4 153e ba3e 333d 7450 2b3e ea8e 19bd
00000140: 0d52 b2bd 1ec2 7abd 5761 eabc 7f13 bc3d
00000150: 2150 363e 817b cb3d 5910 c63d 4fad 3f3d
00000160: f9cb 01be 64d1 1fbe 045c 5b3d bbc9 d93c
00000170: bba2 383e d683 a83c 91ce a03d 546d a93d
00000180: 014c 483d 2b3c cebd 0ae8 a13c 96cd 3d3e
00000190: dabb 8abd 35bc 243e e6a8 353d 5873 373e
000001a0: 9463 18be 032c af3d 609c 11bd 2383 4c3e
000001b0: bb7f ca3d 773d 863e e6e9 073e 382b bf3d
000001c0: 8384 74bd 80c1 963d 4b5b 013e 6579 373d
000001d0: c8d0 f43c b9d1 203e 3408 83bd 5a70 90bd
000001e0: 7d57 293d 9ce6 2abd 8af8 a939 4d70 09bd
000001f0: 922d 953d 595c 113d 8207 d13d 77c1 b7bd
00000200: 5718 02be 0a27 f1bc 1d46 cf3d c06d 8b3d
00000210: ebae 8c3d 6b71 903d f8dc c23d 418e 1b3d
00000220: 0855 dabd d4b9 7fbd 9c1d 13bd da81 2bbe
00000230: 0401 123c 9478 4fbd 8e3f 0a3d 6ac8 42bd
00000240: 80e6 10be 6997 aabb aff2 173d 3c53 ba3d
00000250: 9615 babd 3412 58be b025 5abc ec80 ccbd
00000260: 8316 70bd 8e8a 263e 09ec d03c 31b5 cebc
00000270: 6984 ca3c 99f7 b3bd f734 e8bb a60b 223d
00000280: dbc7 49be e9ff a2bd a205 d9bb c0d0 013e
00000290: 78da 5d3d ac0f 513d 0f80 423c 3750 82bd
000002a0: 94f3 38bc a8b7 963d dc53 d93d 16ac aebc
000002b0: ef66 c6bd 1eee 5b3c 577c 823c 990f 1f3e
000002c0: 5f51 f33c 77d9 cfbd 7bb9 03be c127 e63d
000002d0: 2807 8abc c70c 37bd 9a0e a1bd 0d9f 0abd
000002e0: cf20 49bd 673d c7bd 3953 e3bc 230f 453d
000002f0: 00ea e0bd 86d8 a43d 1df5 95bd afaa 38bd
00000300: 14de 9ebd b81d 983c 5392 a93c 025f e2bd
00000310: 4ceb 0fbe 5862 09bc ccf7 93bd 7e7d 6f3c
00000320: 5cc6 0d3d ca9f 983d cdf4 df3d 90c7 dbbd
00000330: 4524 173e de6b 28be 7950 713e fac0 5a3e
00000340: eae8 983c 351e c8bd 5179 09bc 33cb a03d
00000350: dc30 4cbe d44e 01be f1dd e9bd 1b2b adbb
00000360: 5ee2 eabb 19cb cfbd d190 a23c 13ad 5cbd
00000370: d90c 8ebd 0cdd 3a3d 89eb 683d bc8a f7bd
00000380: 9128 acbd cffb ec3d 6d48 253e 0711 433d
00000390: 6899 063e f747 4a3d c382 1bbd f99d b6bc
000003a0: 0acf 25be 3401 9a3d 42cb f0bd 314e bfbc
000003b0: fbec d53c 4764 6bbe d13d 0b3d 68b6 09bc
000003c0: 5b1f 473d 3393 afbb 2a57 243d 2501 1fbc
000003d0: bef1 ffbd 6bad e03d aac6 90bd 18d0 493e
000003e0: 9428 343e 336b a0bd 8773 38bc 0c61 1ebd
000003f0: 36f4 38be a265 a7bd bc57 38bd 1bd4 fc3d
