results/Test2/Test2/Test2-109675.onnx (onnx, 71103 bytes, 7 tensors)

action_model._continuous_distribution.log_sigma f4 [1, 2]
000000 67 a4 06 bc a1 c1 4a bc
       -0.0082179075 -0.012375266

action_model._continuous_distribution.mu.bias f4 [2]
000000 3f 65 c5 bb b7 d7 ca ba
       -0.0060240324 -0.0015475665

action_model._continuous_distribution.mu.weight f4 [2, 128]
000000 01 e6 21 bc 0d cf 14 bd 83 a4 3a bc aa 13 d2 3c
       -0.009881497 -0.03633027 -0.011391762 0.025644142
000010 52 0d f9 3c f5 b1 8b 3d 46 42 35 3d d0 a7 1f bd
       0.03040186 0.06821052 0.044252656 -0.038978398
000020 04 88 d5 bc ce 02 49 3d 40 35 ca 3b bb 60 86 ba
       -0.026065834 0.04907494 0.0061708987 -0.0010252217
000030 38 30 19 3c 68 a5 5c 3c 0c 12 11 3d 1c d3 0d 3d
       0.009349875 0.01346717 0.0354176 0.034625158
000040 24 65 e1 3b 52 83 19 3d 89 43 62 bb 61 2a d7 3c
       0.006878512 0.037478752 -0.0034525117 0.026265325
000050 e7 aa cc 3b 66 93 09 3d e1 12 98 3b 30 45 85 3c
       0.006245959 0.033587836 0.0046409224 0.016268343
000060 d1 ab 42 3d 54 bd 92 3c c2 ea 39 3c 29 ba 40 bd
       0.04752714 0.017912544 0.0113474745 -0.047052536
000070 e3 e9 0a bd 76 5c 61 3c 6a a2 46 3c 18 a9 8d 3c
       -0.033914458 0.013754955 0.0121236835 0.017292544
000080 1a 3b 5a 3c 74 25 3c bb 68 6b 85 bb f7 ef e5 bc
       0.013319755 -0.0028708847 -0.0040716417 -0.028068526
000090 6c 44 47 bc 96 20 2b 3c fb 00 be bc 9b 1d e2 3c
       -0.012162309 0.010444781 -0.023193827 0.027602008
0000a0 81 d7 18 bb d1 a8 dd bc c5 3e dc 3c 63 d4 b3 bb
       -0.002332181 -0.027058037 0.0268854 -0.005487965
0000b0 25 eb 4e 3c 0c 41 63 bd 8f 4e 3e bb a8 8c a1 3c
       0.012629305 -0.055481955 -0.0029038524 0.01972039
0000c0 ee 53 07 bc a8 40 8e 3c bf 2d cc 3c b5 76 b3 3c
       -0.0082597565 0.017364815 0.024924157 0.02190719
0000d0 71 0d 35 bc 98 c3 56 3d 18 af 87 ba ab f3 54 3b
       -0.011050568 0.052432626 -0.0010351865 0.003249387
0000e0 69 65 ab 3c 10 75 bd 3b ad b2 34 3d 1f ef 1c 3d
       0.02092238 0.005781777 0.04411571 0.03831398
0000f0 b7 bc e1 3c e1 3c a5 39 63 62 c2 3b cc f0 66 3c
       0.027555807 0.0003151661 0.0059321388 0.014095496
000100 d5 f1 73 bc 6e 4a 46 bc 8c c8 e2 3b 8a fc b6 bc
       -0.0148892 -0.012102706 0.0069208797 -0.022337217
000110 6f 74 18 3d 89 77 ad bb 76 c4 85 bb 1e c0 0a 3d
       0.037220415 -0.0052937907 -0.004082258 0.033874623
000120 3b 95 60 3c a8 42 dc 3c 78 8b fb bc cc a8 1f 3d
       0.013707454 0.026887253 -0.030706152 0.038979337
000130 57 55 39 3b ac 26 0c 3d 7b cd 5a bb 37 5e ce 3b
       0.0028279626 0.034216568 -0.0033386636 0.0062978524
000140 44 5b 6d 3d 8e be e1 3c bd 0e 5d bc dd 49 21 bd
       0.057948366 0.027556684 -0.013492283 -0.039377082
000150 78 67 94 bc b1 63 af 3c 3e a8 b9 bb 1b 7a 95 3c
       -0.018115744 0.021409841 -0.005665808 0.018246701
000160 c5 e7 e7 3c f0 03 10 3d fa ad 97 3c a9 9b 03 3c
       0.028308759 0.035160005 0.018515576 0.008032718
000170 a9 4f e2 3a bf 71 bb bc 5c 68 b9 bc 05 5b 22 3c
       0.0017266172 -0.022881387 -0.02263277 0.009909396
000180 2a 00 bd bc 50 ac 99 3c d8 fc 1a bd f8 4c e0 bb
       -0.023071367 0.018758923 -0.037838787 -0.006845113
000190 b5 3e 6d 3c 5d 8a 92 bc 6f ef ac bb 84 f8 21 3c
       0.014480283 -0.017888242 -0.005277566 0.009885911
0001a0 62 57 fc 3c 45 1a 5e 3d c9 5f fe 3c 15 9f 18 3d
       0.030803386 0.05422427 0.031051533 0.037261087
0001b0 31 8a 4d 3c d5 6a 5a 3c 02 a6 f9 3c ad 1f 78 3d
       0.012545154 0.013331135 0.030474667 0.060577083
0001c0 b3 4e dd 3c bf 01 dd 3c 34 2c 33 3c 9c 51 04 3d
       0.027015066 0.026978372 0.010935832 0.03230439
0001d0 93 9c 0b 3d 26 e2 eb 3c 84 0a 61 3c 95 97 23 bd
       0.034084868 0.02879436 0.013735417 -0.03993948
0001e0 b1 db 19 3d fc 3f 39 3c 4f 93 5d 3b 32 bb b3 bc
       0.03756303 0.011306759 0.0033809727 -0.021939848
0001f0 5f 83 b2 3b 23 8b 06 3d 09 16 97 3b 92 35 47 3c
       0.0054477896 0.032847535 0.004610781 0.012158768
000200 e0 e5 96 bc d3 f6 61 bc 16 72 ee bc b6 b1 f0 3b
       -0.01842016 -0.013791758 -0.029107135 0.0073454035
000210 52 8f 95 bc 58 ca ad bb 1a 55 e6 bb b3 e4 5b 3c
       -0.018256817 -0.0053036623 -0.007029188 0.013421225
000220 1d e0 1e 3c d9 85 e3 bc f0 d1 a4 bc 86 49 97 bc
       0.009696987 -0.027773784 -0.020119637 -0.018467676
000230 aa 36 15 38 f9 89 3f ba 15 55 c4 bb 3a cc b4 3c
       3.5575278e-05 -0.00073066313 -0.005991588 0.022070039
000240 d8 7c ac bc d5 34 ad bc d4 5c 89 bc 27 e3 51 bc
       -0.021055624 -0.021143356 -0.016767897 -0.012810505
000250 d1 cb eb bc b1 8b c9 3c 79 f1 aa 3c 66 1b 1a bc
       -0.02878371 0.024602743 0.020867096 -0.009405946
000260 d5 e8 3b 3c e8 cb b7 3c 7d 56 2c ba 99 9b a4 bc
       0.011469086 0.022436097 -0.0006574167 -0.020093726
000270 21 90 1a bd c5 62 3b bd 88 a9 26 bd c2 be f2 bc
       -0.03773511 -0.04574849 -0.04068902 -0.029631976
000280 87 95 02 3c c2 ac 45 3c 5a 5a 8a 3c df 30 70 3c
       0.00797022 0.012065114 0.016888786 0.014660089
000290 f6 73 60 3b 4b 47 34 3b f1 de ad bc 5f cd 39 bc
       0.0034248806 0.0027508314 -0.02122447 -0.011340468
0002a0 c6 61 ea b9 9a d7 4b bc ce ac 98 bc c9 6f c6 bb
       -0.00044704805 -0.01244154 -0.018637087 -0.0060558063
0002b0 df be 9d 3b de 76 c0 bc 84 26 cd 3a 09 c0 0d bc
       0.0048140134 -0.02349418 0.0015651737 -0.008651742
0002c0 38 b6 b5 3c 4a 01 65 3c 2f 5c e9 3c d8 e3 bf 3c
       0.022181615 0.013977358 0.02848634 0.023424074
0002d0 ef 43 88 3c 07 48 57 bc dc 70 4d 3b 1b 9a 95 3c
       0.016633956 -0.013139731 0.0031347787 0.01826196
0002e0 4c 6d 41 3d 23 a7 79 bc cc 10 d9 3a 1e 02 bb 3b
       0.047223374 -0.015237602 0.0016560792 0.0057070395
0002f0 82 ad e9 3b 10 88 fe bc ca e9 88 3c 56 93 d6 ba
       0.0071312794 -0.031070739 0.016713042 -0.0016370814
000300 5d 61 8b 3c d8 31 c4 39 91 ad e9 3b 21 fc 1d 3c
       0.0170142 0.0003742117 0.0071312864 0.009642632
000310 e6 68 92 3b 5c 96 a2 bc f9 4e ae bb 4f 65 ad bb
       0.0044680713 -0.019847088 -0.005319473 -0.005291618
000320 f9 79 a3 3a 2c 06 ab bc 37 b9 20 bc 62 ce 98 3c
       0.0012472264 -0.020876966 -0.009809784 0.018653098
000330 60 4a 7f 3b 87 82 fa 3a 0f df 8c bc ab f1 33 3c
       0.0038954243 0.0019112387 -0.017196206 0.010982911
000340 92 14 d8 3c 06 48 fc 3b 86 f9 a4 bb 25 d0 ea 3b
       0.026376996 0.0076990156 -0.0050346283 0.007165926
000350 4d e8 81 3c 87 19 47 3c de 3f 1a 3c 84 ba e1 bc
       0.01585784 0.012152082 0.009414641 -0.027554758
000360 34 bd 4d 3c 75 40 bf bb 50 1c 1f 3c 0c a9 f5 3c
       0.012557317 -0.0058365413 0.00971134 0.029987834
000370 55 af 33 bc 93 83 16 bc a0 15 37 bd ff 8b 16 bb
       -0.010967095 -0.009186643 -0.044698358 -0.0022971628
000380 97 08 c7 bc 6c f1 0b 3d 36 fb ba 3c a4 50 78 bb
       -0.024296088 0.034165785 0.022824865 -0.0037889862
000390 6f 4d 39 3d ad 07 ab 3c 40 22 e7 bb 05 78 24 3d
       0.045239862 0.020877684 -0.0070536435 0.040153522
0003a0 38 2e 8f bc f5 df 69 bc 07 1f 9d 3c 69 ed a5 bb
       -0.017478094 -0.014274587 0.019179834 -0.005063702
0003b0 91 ad 79 bc c4 1a 88 3c 0f 10 7f bc 70 fc 5a bb
       -0.015239135 0.016614325 -0.0155677935 -0.0033414625
0003c0 71 c4 23 bd 14 90 1b bd 5a ae 41 bc 42 13 a2 3c
       -0.039982263 -0.0379792 -0.011821354 0.019784573
0003d0 57 92 e3 3b 94 59 df 3b a9 43 0c bb ca 48 06 bb
       0.0069449353 0.0068160985 -0.0021402633 -0.0020490163
0003e0 66 c5 c4 bc 4a 76 d0 bb 1a ba 6c bc 7e b9 e2 bb
       -0.024019908 -0.0063617574 -0.014448667 -0.006919085
0003f0 45 c0 a9 bc af a4 8d 3b 26 72 07 3c 66 7b 14 bc
       -0.020721564 0.0043226103 0.008266961 -0.009062624

network_body._body_endoder.seq_layers.0.bias f4 [128]
000000 d8 45 58 bb 3b 95 1f 3a fb af ac 3b 1e 48 16 bc
       -0.0033000614 0.0006087606 0.005270002 -0.0091724675
000010 3b 15 cd bb a1 69 2a 3a e4 71 da bb 90 d2 0e 3b
       -0.0062586344 0.0006500725 -0.006666409 0.0021792985
000020 33 76 dd bb d4 e9 0a 3d ec e3 4e bb 6b c9 c3 3b
       -0.006758475 0.033914402 -0.0031568957 0.0059749386
000030 14 9b c5 3b 0e 45 47 3d 62 a2 07 ba 56 75 7c 3b
       0.0060304496 0.04864984 -0.0005174038 0.0038522086
000040 8b c5 27 bb 09 f0 e6 3b cf a6 69 bb e3 93 8c bb
       -0.0025599923 0.0070476574 -0.0035652404 -0.0042900904
000050 e3 f8 a3 3c 9a b7 75 ba 0c 15 b3 bb 63 5c 0f bb
       0.02001614 -0.0009373367 -0.0054651555 -0.0021875135
000060 ea e6 1c 3c a8 d1 94 b9 57 75 0a bc ab 25 30 3c
       0.009576539 -0.00028384966 -0.008450828 0.010751168
000070 1f 37 a7 bb 2f fc 8d bb aa 3a dd 3a 49 2b 15 3b
       -0.0051030065 -0.004333041 0.0016878445 0.0022761396
000080 e9 aa 9e 3a 8e 93 97 3c e4 e8 ed 3c db 35 86 3c
       0.0012105379 0.018502977 0.029041715 0.016383102
000090 dd 2d 15 bc e2 35 47 3d d0 7a 93 3c 29 3c 2d 3b
       -0.009105173 0.04863537 0.018002898 0.0026433563
0000a0 51 cc 86 bc 4b 1d cb 3a d9 52 c5 bb 37 e2 23 bc
       -0.016454848 0.0015496401 -0.006021839 -0.010002664
0000b0 d9 2e 87 ba 32 de 0b bd f9 0f 7e bb 8e e3 3f 3a
       -0.0010313644 -0.03414745 -0.0038766845 0.000731998
0000c0 b9 fd 48 3a 4a 1e 1b 3d b5 ee 9b bb 29 41 d3 3c
       0.0007667202 0.037870683 -0.0047586807 0.025787907
0000d0 88 da cf 3b 5d 65 30 3b 4c 19 e6 bc 5f 5a 7d bb
       0.0063431896 0.0026915886 -0.028088234 -0.0038658602
0000e0 6d cd 5a 3d 46 45 04 bd 16 a9 84 bc 8f 34 0c bb
       0.053418566 -0.032292627 -0.016193908 -0.0021393632
0000f0 81 25 12 3c b0 72 8f bc 78 b0 2b bc 97 c4 a4 3b
       0.008920074 -0.017510742 -0.010479085 0.005028318
000100 17 07 03 bc 14 42 ed 3a 90 55 82 3c 50 b9 bc b9
       -0.007997296 0.0018101358 0.01590994 -0.00035996223
000110 66 90 13 bb 86 1c 10 3b a1 cc 20 3a 3b f4 ab 3a
       -0.0022516488 0.0021989658 0.00061340077 0.0013119051
000120 1a e7 95 3c f0 3c f4 3c 8a 5e 3d 3c 3a e5 14 3c
       0.018298674 0.029814214 0.011558184 0.009087855
000130 32 07 e7 3a 81 bd 31 3b 60 83 c8 3c 9f 22 f3 bb
       0.0017626046 0.002712101 0.024476707 -0.0074198986
000140 eb 97 25 bc 64 14 1c 3b 72 ec 42 bb ae 22 35 bb
       -0.010107021 0.0023815865 -0.0029742983 -0.002763908
000150 a9 28 71 3b a7 70 bc 3b 29 b1 f1 bb 08 dd 90 ba
       0.0036797917 0.005750734 -0.0073758555 -0.00110522
000160 b5 1c 9b bb 1b c2 6a 3c b3 b8 c7 3c 73 fe 1c bc
       -0.0047336468 0.014328505 0.024380064 -0.00958215
000170 3e ce 6c bb be d9 39 3d bd 7f 88 ba 2b 75 97 3c
       -0.0036133672 0.04537367 -0.0010414046 0.018488487
000180 ba 28 82 3a 27 9c 36 3b f6 87 32 3b 35 ab eb bb
       0.000993035 0.002786407 0.0027241684 -0.0071920403
000190 78 06 37 3d 7c 02 2c bb 5b b2 d5 ba c5 78 42 bc
       0.044683903 -0.0026246598 -0.0016303764 -0.011869614
0001a0 92 49 5a bc 0d a0 74 bb 69 3f f2 bc 4b 38 93 3c
       -0.013323205 -0.0037326843 -0.029571252 0.017971179
0001b0 b5 d3 17 3d 08 f3 c6 3b 8f d5 73 bc a6 1f 16 3a
       0.037067134 0.006071452 -0.014882459 0.0005726762
0001c0 ea f8 c2 bc 4a 8d 86 bb 5a ac 54 bb 88 34 9b 3b
       -0.023800332 -0.0041061984 -0.0032451362 0.004736487
0001d0 0b 89 5a 3c 36 06 ef 38 eb 0d a0 bb 4b 14 73 3b
       0.013338338 0.00011397565 -0.0048844717 0.0037090953
0001e0 37 8d b4 bb 95 3c 8b 3b 9c 19 30 39 5c ab 86 bb
       -0.005509998 0.0042491653 0.00016794208 -0.004109783
0001f0 72 87 d3 3b ee f2 d8 3b e5 73 b2 bb b8 34 0d 3d
       0.0064553553 0.0066207564 -0.0054459446 0.034474105

network_body._body_endoder.seq_layers.0.weight f4 [128, 3]
000000 18 40 39 be 33 2e 2a be d4 f8 cd 3e 44 d6 93 bd
       -0.18090856 -0.16619186 0.40228903 -0.07218602
000010 71 75 59 3f 24 8c f4 bd 07 04 e0 bc 9d 55 6b bf
       0.84944826 -0.11940792 -0.02734567 -0.9192751
000020 8d 50 04 bf f1 c4 a3 bf aa c7 06 bf a6 62 ab 3f
       -0.5168541 -1.2794477 -0.52648413 1.338948
000030 ee 34 89 bf 96 33 82 3e 94 dd 3e be 36 e1 3b bf
       -1.0719278 0.25429982 -0.18639213 -0.7339052
000040 2d ef 0a 3e b9 ab 2b bf 1b 40 9a bf db b4 ee be
       0.13567801 -0.670589 -1.2050813 -0.46622357
000050 bf 6f ad 3d a7 38 92 bf 0b 10 09 3d 04 61 be 3c
       0.084685795 -1.1423539 0.033462565 0.02323962
000060 6c 02 9a 3e 5a 1c df be a8 7f 1a bf 46 72 36 3f
       0.30079973 -0.43576318 -0.6035104 0.7126812
000070 fd e7 7d bc 27 87 16 3e da 40 b6 be f2 b5 e2 be
       -0.015497205 0.14699994 -0.35596353 -0.44279438
000080 63 bc 13 bf 1e 2e f5 be 86 36 71 3e 4e 09 a4 bc
       -0.5770933 -0.47886747 0.23555955 -0.020023968
000090 03 95 bd be 8e c6 2e be c0 5e cc bd 01 08 6a 3f
       -0.3702775 -0.1706793 -0.0997901 0.91418463
0000a0 e3 10 34 3f 50 76 6c be 0a 30 e6 be 71 e0 55 be
       0.7033827 -0.23092008 -0.44958526 -0.20886399
0000b0 c6 1e 87 bf ab f3 b5 3e 26 12 44 3e cb 5d c6 bd
       -1.0556266 0.35537466 0.19147548 -0.09685858
0000c0 27 49 2b 3f e7 e8 33 3f 6e f8 6b bf 42 e0 c7 be
       0.66908497 0.70277256 -0.9217595 -0.39038283
0000d0 55 cb bd be eb 9d 57 bf f2 ea e3 3d be ae 49 3f
       -0.37069193 -0.8422534 0.11128797 0.7878226
0000e0 34 ac 45 3f ae 7f ee bf c3 10 b4 be 6a 00 f7 be
       0.77215886 -1.8632715 -0.35169038 -0.48242503
0000f0 b8 99 c5 3d 57 f7 5f 3f dc 2a 03 bf ce 0c f4 be
       0.0964846 0.87486786 -0.51237273 -0.4766602
000100 98 1f 1b 3f 82 4c b7 be ed 07 76 bd 41 3f 26 3f
       0.60595083 -0.35800558 -0.060066152 0.6494027
000110 96 29 b8 bd c3 bd f2 be 1f c4 e3 be 5b 2e 53 3f
       -0.08992307 -0.47410402 -0.44485566 0.8249261
000120 81 08 b3 3e ee 91 86 3f 42 d0 7a 3f 88 ab c1 be
       0.34967425 1.0513284 0.97974026 -0.3782618
000130 f7 f0 19 3f 66 79 24 3f 41 92 8c 3e 8b 3b 8a be
       0.6013331 0.6424774 0.27455333 -0.26998553
000140 8b 09 78 3f 27 5e 8d 3e 7e 1a 34 3f 97 fe 1a 3f
       0.9688956 0.27610895 0.70352924 0.60544723
000150 b6 f4 3d be 35 49 05 3f 19 a0 35 3f 23 9e 9d be
       -0.18550381 0.5206483 0.70947415 -0.3078471
000160 9b b3 8e be 6e 1a ed be 90 2b bc bf 55 98 24 bf
       -0.27871403 -0.46309227 -1.4700794 -0.6429494
000170 8a df bb 3d 30 a5 91 bf 2d 34 27 bf e5 29 16 bc
       0.09173496 -1.1378536 -0.6531399 -0.009165262
000180 94 62 4b 3f 1c fe 52 3f 25 77 9d bf 47 7d 26 3f
       0.79447293 0.8241899 -1.2301985 0.6503491
000190 11 b3 53 3e 2d 1c 3e bf bc f1 90 3e 92 88 2d bf
       0.20673777 -0.7426174 0.2830943 -0.67786515
0001a0 96 84 4a bf 91 9b 8f 3e d6 91 14 3d 1a ac 04 bf
       -0.7910856 0.28048375 0.036271892 -0.51825106
0001b0 e4 c9 8f be bd 92 a9 3e d2 96 50 3f 26 a2 7d 3f
       -0.28083718 0.33119765 0.81480134 0.99075544
0001c0 b0 8c 9a 3e df 4a cc 3d d4 da 83 3e 21 95 e0 be
       0.3018546 0.09975218 0.2575289 -0.43863776
0001d0 d0 62 69 bf d7 6e 44 be 7d 92 87 bf 4a 4c 2b 3f
       -0.911664 -0.19182907 -1.059158 0.6691328
0001e0 46 9e 1f 3e ba b7 95 3f f7 0d 7c be 62 60 6b 3e
       0.1558772 1.1696694 -0.24614702 0.22985986
0001f0 a1 8a 0b bf 6a 9d c5 3f 58 88 26 bf 0f 83 87 bd
       -0.54508406 1.5438664 -0.65051794 -0.06616794
000200 ef ce a9 bc 81 cb 53 bd 5e 5b ef be f3 8a ec bd
       -0.020728556 -0.05170775 -0.46749395 -0.1154994
000210 f3 b5 00 be 37 8b 3c 3e 2f d1 88 be ce cc 68 3e
       -0.12569408 0.18412481 -0.26722094 0.22734377
000220 a0 30 37 bf 55 f5 dc 3d 98 f3 68 3c 3e d5 0c 3f
       -0.7155857 0.10788981 0.0142182335 0.5501288
000230 ef 48 2c 3f 2f 63 bc be bc a5 45 3f 8b 65 e9 3e
       0.6729879 -0.3679442 0.77206016 0.45585284
000240 7a d5 d1 3e fe 1b 35 3e fa 73 9a be 54 31 87 3f
       0.40983182 0.1768646 -0.30166608 1.0561929
000250 8b ce 23 bf a0 5a 6e 3f 6f 22 a1 be 78 dc 05 3f
       -0.63987035 0.9310703 -0.31471583 0.52289534
000260 7f 20 81 3c 26 a5 35 3f 66 6f 25 3f 5b 8c a8 be
       0.015762566 0.7095512 0.64623106 -0.32919583
000270 73 ed df bd c7 44 38 3f 20 ba 87 bf 7c f8 e6 bd
       -0.10933962 0.71979946 -1.0603676 -0.112778634
000280 39 36 f9 3d cc da 06 bf d4 dd 68 3e 56 fa c3 bd
       0.12168545 -0.5267761 0.2274087 -0.09569232
000290 6f 2d 98 3e 3b a3 c4 bf db 87 ef be 15 e9 54 bc
       0.29722163 -1.5362314 -0.46783337 -0.012995024
0002a0 ff fd 94 3f 68 db 0e 3f e7 f1 77 bf 19 76 47 3e
       1.1640013 0.5580354 -0.9685349 0.19478644
0002b0 4d a3 35 bf fa 6f e5 3d 8f 91 c8 3e e8 d6 96 3e
       -0.709523 0.112029985 0.39173552 0.29460835
0002c0 cb 7b 67 3f e8 98 d7 be 7f dd b8 be 9d 2b b4 3f
       0.9042327 -0.42108846 -0.36106488 1.407581
0002d0 28 b0 07 3f 9a 9e 08 3f 9f 79 25 3f c5 e4 b4 3e
       0.5300317 0.53367007 0.64638704 0.35330787
0002e0 1b 97 4c bf f3 1f 41 bf 2c e2 2e 3e 8a 6d c6 3f
       -0.7991807 -0.75439376 0.17078465 1.5502179
0002f0 e0 11 c8 3e 8c 15 67 bf 8a 0a fe bc 2c 28 2b be
       0.39076138 -0.9026725 -0.031010885 -0.16714543
000300 90 4c 41 be 0a 24 a2 be ed 01 06 bd 57 0b 07 bf
       -0.18876863 -0.3166812 -0.03271668 -0.5275168
000310 cd 6a ce 3e c8 a8 71 bf 30 d3 20 3f 1b 18 2f 3f
       0.40315858 -0.94398165 0.62822247 0.6839616
000320 48 53 40 3d b0 d2 34 bf ce 3d 2f bf 8f 91 1f 3d
       0.046954423 -0.70633984 -0.6845368 0.038957175
000330 fb 0b 0b bf 84 18 0f bf 71 7d a7 bf 44 0a bf be
       -0.54315156 -0.5589678 -1.3085157 -0.3731252
000340 a9 60 cf 3e fe 11 7e be 00 bf 3a bd 0c 69 f1 3d
       0.40503433 -0.24811551 -0.045592308 0.11787614
000350 76 0e 13 3e c6 39 af 3e 2a 0a ad 3d 92 ab 76 3d
       0.14360985 0.34223765 0.08449204 0.060222216
000360 7d b3 dc 3d b3 a5 03 3f 56 09 51 be a6 84 73 3e
       0.10776422 0.5142471 -0.20413718 0.2378107
000370 b4 88 d7 bd 89 58 73 bf 16 22 8f 3e fa dd 83 3e
       -0.10524121 -0.9505697 0.27955693 0.25755292
000380 7f ee b5 be d3 58 03 bf ef 23 d8 be 4b e3 3f 3f
       -0.3553352 -0.5130741 -0.42214915 0.74956197
000390 b0 07 62 be 6b e0 07 3f da 7b 61 bf d6 b4 16 bf
       -0.22073245 0.5307681 -0.8807961 -0.58869684
0003a0 a9 1b 31 3d db a8 64 3e 6a c2 26 3f 5f 8f c3 be
       0.04323927 0.22330038 0.651404 -0.3819532
0003b0 df d8 86 be 61 59 f7 3e 1d 6b 41 3f cf 96 9a 3e
       -0.26337335 0.48310378 0.75554067 0.30193183
0003c0 a9 d8 53 be 71 da 13 3f f3 af a2 be 4d 0f 76 bf
       -0.20688118 0.5775519 -0.31774864 -0.961171
0003d0 81 5a c3 be 65 50 25 3f d5 86 ce be fc 82 08 be
       -0.38154987 0.645758 -0.40337244 -0.13331217
0003e0 f3 79 09 bf 61 d3 23 3f 2d cb 24 3d ba 77 c7 be
       -0.53701705 0.63994414 0.040232826 -0.38958532
0003f0 1e c3 2d bd dc b9 f3 3e ab 2d ef 3e 76 8d 00 bf
       -0.042422406 0.47602737 0.4671453 -0.5021585

network_body._body_endoder.seq_layers.2.bias f4 [128]
000000 d4 cd 19 3c 47 c5 9e 3b f3 fc 83 3b 84 89 62 3c
       0.009387452 0.0048452946 0.0040279566 0.013826732
000010 07 fd bb 3b e6 fb d3 3b 9b 29 17 bc 33 cb 83 3b
       0.0057369503 0.0064692376 -0.009226228 0.004022026
000020 cc 62 84 3b e4 ec 27 3b 15 6d 84 b9 b7 6c d8 3a
       0.004040098 0.0025623376 -0.00025258274 0.0016511892
000030 35 00 1a bc 20 53 08 bc cc 1c 33 3b be 37 6e bb
       -0.009399463 -0.0083206 0.0027330397 -0.0036349143
000040 91 eb a9 3a fe 0f d0 39 6b ab 13 3b 10 20 20 bb
       0.0012963881 0.00039684767 0.0022532593 -0.0024433173
000050 37 20 cd 3a be 20 79 3c 07 46 39 bb 42 84 25 bc
       0.001564986 0.01520556 -0.00282705 -0.0101023335
000060 f8 f1 b7 bb 7b 50 96 bb d6 6d 8d bb f5 eb d5 3b
       -0.0056135617 -0.0045872307 -0.004316072 0.0065283724
000070 a4 3f 36 3c 36 f6 3c 3b 27 b3 01 3c 80 4e b6 ba
       0.011123572 0.0028833277 0.007916248 -0.0013908893
000080 de a9 b4 bb b5 0c 07 ba 54 b7 1c ba 91 42 49 3c
       -0.005513414 -0.0005151735 -0.0005978246 0.012283937
000090 72 0e 91 3c 7d b6 b2 bb 1f 17 62 3c e1 70 82 3b
       0.017707083 -0.005453883 0.013799458 0.0039807414
0000a0 01 af 09 bb 5a ae 88 3c 84 d3 9b 3b df e0 7f 3b
       -0.0021008851 0.0166847 0.0047554392 0.0039043946
0000b0 a1 38 98 bb f6 ca bd 3b 0d d5 ca 3b 0a c0 1a bc
       -0.0046454226 0.005792017 0.0061899484 -0.0094452
0000c0 6d 7b 67 3b 9f 1f e5 bb d4 35 9d bb b7 76 52 3c
       0.003532137 -0.006992295 -0.0047976766 0.012845687
0000d0 4e 51 cd 3a de 5d 5c 3c 82 aa e1 ba cb c4 ca 3c
       0.001566449 0.013450114 -0.0017216953 0.024752041
0000e0 ea b1 a6 3b 8e 7b 24 3c b7 7e a1 bb 24 50 c5 39
       0.005087127 0.010039223 -0.0049284357 0.00037634477
0000f0 f6 fb 88 3b ef 08 26 ba 85 9a 26 bb 8a c2 ac ba
       0.0041804267 -0.00063337287 -0.002542169 -0.0013180536
000100 a8 1a 5a 3c 29 56 23 3c 72 31 ce bb 10 81 9b 3b
       0.013312019 0.009969273 -0.0062925154 0.00474561
000110 ad 2b 0e 3c ea 5a fb 3a d5 9d 53 3a eb e4 0a bc
       0.008677405 0.0019176875 0.000807253 -0.00847743
000120 98 43 1e bc 00 7d 11 bb a1 45 c8 3b b6 7e f1 bb
       -0.00965967 -0.002219975 0.006111816 -0.0073698414
000130 5e 51 f9 bb b8 95 f3 bb 94 b3 01 3c 27 93 49 bc
       -0.0076085767 -0.0074336194 0.00791635 -0.01230315
000140 8c a9 1e 3c f0 8d 82 bb 84 47 bc 3b 59 8e 55 3b
       0.009683978 -0.0039842054 0.00574583 0.0032586067
000150 65 1f 47 3b 8e c5 79 3b c6 e4 3b bc ee 22 0e bc
       0.0030383703 0.0038112137 -0.011468118 -0.00867532
000160 71 f0 13 bc f0 03 74 3b 01 cc f2 bb 92 79 4c bb
       -0.009029494 0.0037233792 -0.007409573 -0.0031200391
000170 20 11 41 39 3f 95 41 3c 53 3b 41 3c f5 c0 bd bb
       0.00018412294 0.011815368 0.011793929 -0.0057908245
000180 1a 74 1e 3c e9 fa 99 3b 45 39 a4 3c 72 83 97 3a
       0.009671235 0.0046991003 0.02004684 0.001155956
000190 03 32 fa ba cc 96 49 bb 9e 96 56 3b 82 22 39 bb
       -0.0019088391 -0.0030760048 0.0032743583 -0.0028249328
0001a0 b1 4a d0 3b 68 8b 99 bb c7 35 c9 bb 3a 53 3e 3b
       0.00635656 -0.004685808 -0.006140444 0.0029041306
0001b0 6a 8f 22 ba a8 ba 93 3a d1 ae cd bb 13 b1 a3 ba
       -0.000620118 0.0011270838 -0.0062769433 -0.0012488685
0001c0 a9 41 ab ba 01 f9 38 ba e1 77 7d ba 38 75 5b bb
       -0.0013065833 -0.00070561474 -0.00096690474 -0.0033486616
0001d0 4a 43 6b bb 10 f1 51 bb 93 80 a2 bb ab bf 62 3c
       -0.0035898262 -0.0032034554 -0.004959175 0.0138396425
0001e0 73 ed f4 bb 7f ab e3 39 dc fb 4e 39 dc 94 88 3b
       -0.007474595 0.00043424589 0.00019739516 0.004168136
0001f0 9e 5c c1 3a 60 8b 12 3a 6a 44 a8 3a fe ac 86 bb
       0.0014752334 0.00055902265 0.0012837772 -0.0041099777

network_body._body_endoder.seq_layers.2.weight f4 [128, 128]
000000 5d 26 89 3d fe 19 a5 bd c1 4d 84 bd 06 a1 6c 3c
       0.0669677 -0.08061598 -0.06460143 0.014442688
000010 25 c9 cf 3d 48 79 55 bd 91 05 19 be 5b 24 a0 3d
       0.10145787 -0.052117616 -0.1494353 0.07819434
000020 04 84 78 be d9 3a 86 3a 4c 25 db 3d 72 22 dc 3d
       -0.2426911 0.0010240927 0.10700473 0.107487574
000030 cd 11 02 be f9 b1 26 3d 75 79 37 bd 96 09 53 bc
       -0.12702103 0.04069707 -0.044793565 -0.012880703
000040 d8 37 09 3e 5e 8f 2e be ad 7d d7 3d 76 fa f2 3d
       0.13400209 -0.17046878 0.10522018 0.11864178
000050 6d e2 17 be 83 90 24 be db 26 d9 3c e5 7b 94 3d
       -0.14832468 -0.16070752 0.026507786 0.072501935
000060 a2 e7 80 bd b0 6c b1 3d db 11 f8 3c e5 8a cf 3d
       -0.062941805 0.086633086 0.030281952 0.10133914
000070 2f 9b dc bc 9a 99 84 3c 00 6f 97 bd 2c 25 28 bd
       -0.026929466 0.016186524 -0.073942184 -0.041051075
000080 27 18 48 be 00 8b 02 be a9 40 0b be 25 65 8d 3d
       -0.19540463 -0.12748337 -0.13598885 0.069040574
000090 b7 51 aa 3d bb 5e b0 3d 69 a4 47 3d b5 09 6a bc
       0.08316367 0.086118184 0.048740778 -0.014284541
0000a0 6a 30 09 3d 17 ad 01 3e 8a 4d 7b bd 31 19 38 3d
       0.033493437 0.12663685 -0.061353244 0.0449459
0000b0 3e 77 30 bd 37 c5 1b 3e c3 3d ba 3d 20 e0 fe 3c
       -0.04308247 0.1521195 0.09093811 0.03111273
0000c0 d4 28 82 bc 72 b9 f0 bd a0 e3 8f bd 9e 2d e3 bc
       -0.015888609 -0.11754121 -0.07025838 -0.027731713
0000d0 95 c4 29 3e 81 10 30 3d d2 47 d7 3d 8b 18 83 bc
       0.16578896 0.04298449 0.105117455 -0.016002914
0000e0 d6 b4 c3 bd cb 24 9d 3c 74 ec 9d be b4 8f 0e 3d
       -0.09555976 0.019182583 -0.30844462 0.034805015
0000f0 63 8d 48 be 4a 5b 8a 3d d8 6c 07 3e f0 f5 44 bd
       -0.19585185 0.06755693 0.13225114 -0.048086107
000100 45 21 62 bd e2 ec e7 3d bf 67 b7 3d eb f5 00 3e
       -0.05520751 0.11324479 0.08955335 0.1259381
000110 88 ae ed 3d 28 89 0e bd 48 e3 25 be 9b 67 40 be
       0.11605555 -0.03479877 -0.16199982 -0.18789522
000120 63 81 e1 bd 58 19 9a bd d2 14 db 3d 50 43 17 bd
       -0.11011007 -0.07524365 0.106973305 -0.03692943
000130 e4 8c 23 3e 11 47 24 be 21 ab 12 be 74 c6 02 3e
       0.15971714 -0.16042735 -0.14323093 0.12771016
000140 bb 33 cb 3d c3 25 1d 3e f1 29 29 bc 0b 60 6b bd
       0.09921976 0.15346436 -0.010324941 -0.05746464
000150 e7 bc f3 bc 57 04 27 3e 4b 95 5d be 63 2b 83 3d
       -0.029753162 0.1631025 -0.21638982 0.0640476
000160 e7 2f 31 be 03 50 a1 bd 5f 92 09 3d 2d 37 90 3d
       -0.1730343 -0.07876589 0.033586856 0.07041774
000170 13 d1 95 be 39 ac 9b bd c6 71 7d 3d 0c 27 82 3d
       -0.29261073 -0.07601208 0.06187608 0.06355104
000180 bc 29 9a bc 73 c4 ac bd 7b 60 42 bc 9b 55 20 be
       -0.018818729 -0.08435907 -0.011863823 -0.15657656
000190 15 ef b7 bb 6e 88 c7 bc 53 5c d2 3c e1 4b 26 bd
       -0.0056132176 -0.024357047 0.02567879 -0.040599708
0001a0 37 66 c1 3d e0 8b c6 3c a0 f2 e6 bd 9a ba 57 bd
       0.09443324 0.02423662 -0.11276746 -0.05266819
0001b0 f6 65 29 bd 19 1c 42 3e 11 65 1b bd 5d b7 0c bd
       -0.041357003 0.18956031 -0.03793818 -0.034354556
0001c0 7d a0 3d 3d 4c 6c 05 3d df 15 ed 3c 81 92 9d 3d
       0.04629563 0.032573983 0.028941093 0.07693959
0001d0 7a fd 93 bd 15 02 cf 3c 8f e7 7a bb e6 e7 3e bd
       -0.07226081 0.025269547 -0.0038284992 -0.046607874
0001e0 23 a5 ac 3d 36 34 c6 bd cd 03 ce bc 76 82 44 3d
       0.08429935 -0.09677927 -0.025148297 0.04797598
0001f0 1c cf 05 3c 4b 58 94 bd 64 8c 1b bd 93 6c 12 bd
       0.0081670545 -0.07243403 -0.037975684 -0.035748076
000200 07 83 e4 bd 8e 4b 66 3b 68 62 0b 3e 00 6e 4b 3e
       -0.11157804 0.003514025 0.13611758 0.1986618
000210 32 12 b3 bd ba 73 56 3c e7 02 18 3e 48 87 26 3c
       -0.08743705 0.013089115 0.14844857 0.0101640895
000220 4e b0 b9 bd b0 93 5e bd dc db 19 be 9a 01 7c 3d
       -0.090668306 -0.054340065 -0.15025276 0.061524965
000230 3d d8 b3 3c b5 6f 2d bd 79 fd 3e bc cb da 0a bd
       0.021953696 -0.04234286 -0.011657112 -0.033900063
000240 2c 77 c6 3d a2 94 bc 3c e0 dd 5c 3d 84 fd 26 be
       0.09690699 0.023020092 0.053922534 -0.16307646
000250 06 69 9b 3d be ab dc bc d0 64 2f 3d 62 d7 17 bb
       0.07588391 -0.026937362 0.04282075 -0.002316915
000260 ba 31 34 3d 6e 70 d6 3d 72 d6 14 3e e1 51 6d be
       0.043992735 0.10470663 0.1453493 -0.23175766
000270 a3 f8 ca 3c 67 c8 33 bd ba 19 ce 3d e1 bd f2 3d
       0.024776762 -0.04389229 0.10063501 0.11852623
000280 68 da dc 3b 57 c9 1b be 81 cb 36 be ac d5 03 bb
       0.0067399032 -0.15213524 -0.17851068 -0.0020116372
000290 50 f7 6c bd df 39 4b 3d 98 fc 1b bd 96 85 b2 3d
       -0.057853043 0.049615737 -0.03808269 0.08716886
0002a0 17 92 97 bc 2a d1 bf 3d 16 cd 5a be 16 6e f1 3c
       -0.018502278 0.09366067 -0.21367297 0.029471438
0002b0 4e 3f 5a bc 2b 37 69 3d c7 89 44 3d cf 62 92 bc
       -0.013320757 0.056937378 0.047982957 -0.017869381
0002c0 fa de 36 3d 84 68 b2 bc 1e e8 ae 3c d1 79 80 bc
       0.04464624 -0.021778353 0.021350916 -0.015683087
0002d0 2e 14 56 3c bb c0 03 be 5e e6 65 bc f7 4f 02 be
       0.013066335 -0.1286649 -0.014031975 -0.12725817
0002e0 4d b8 84 bd 3c 25 00 3d 48 35 3f 3d 69 da 85 bd
       -0.06480465 0.03128551 0.046681672 -0.06535799
0002f0 b9 d2 d7 bd 4e 50 9c bc e0 b4 bb bd ca 5c d9 3c
       -0.10538239 -0.019081261 -0.091653585 0.026533503
000300 d3 f1 9a 3d 09 26 eb bd af 11 e2 3c 1a 32 f0 bc
       0.075656556 -0.11481864 0.027596323 -0.029320765
000310 8a d1 1a be a7 a3 f7 3d 1d 66 a1 bd 76 12 43 3a
       -0.15118995 0.12091761 -0.07880805 0.00074414106
000320 f9 cf 0a be a6 49 7f 3c 7c d5 79 3d 6a ed 10 3d
       -0.13555898 0.015581524 0.06099461 0.035382666
000330 86 b6 ae bc 94 68 67 bc 92 6a d1 bd e9 e9 33 3d
       -0.021327268 -0.014124054 -0.10225405 0.043924246
000340 92 51 ee 3c 6e 93 15 3b 75 93 0a 3d c6 3e e8 3d
       0.02909163 0.002282347 0.033832032 0.11340098
000350 0f a5 2a bd a2 83 f5 bd 08 57 22 3e 0f 33 9c bc
       -0.04166132 -0.119879976 0.15853512 -0.019067315
000360 a0 d7 2f 3d 64 62 5a 3d 89 53 44 be 8c d0 36 3d
       0.042930245 0.05331649 -0.19172491 0.04463248
000370 f0 cb eb bd d3 00 0e bd ab 27 4e 3d 38 ae d9 bc
       -0.11513507 -0.034668755 0.0503308 -0.026572332
000380 21 46 66 bc c2 1c 5b bc c7 86 a1 bc 0f bd 25 bd
       -0.014054806 -0.013373556 -0.019717587 -0.040463503
000390 bd 49 63 3c 2e 09 49 3d 32 34 81 3d c0 4b 29 bc
       0.013872561 0.04908102 0.063087836 -0.010333002
0003a0 5e 09 90 ba 65 d4 98 bb c7 aa 98 bc 61 09 00 bd
       -0.001098912 -0.0046639913 -0.01863612 -0.031258944
0003b0 82 75 8e 3d 2f 1e f8 bc 91 69 60 3d c2 88 14 be
       0.069560066 -0.03028783 0.054788176 -0.14505294
0003c0 51 ba b0 bd dd d0 a2 3d e2 20 52 3d 43 78 a7 bc
       -0.08629287 0.07949994 0.05130089 -0.020443087
0003d0 43 31 6b 3d 93 20 0c bc c6 5f ae 3d 5a 7d d3 3c
       0.057420027 -0.008552688 0.08514361 0.025816608
0003e0 84 eb d0 bc 49 ab c6 bd 69 71 c2 3d c5 04 0a bb
       -0.025502928 -0.09700639 0.094942875 -0.0021059972
0003f0 0f 45 75 3d 5c 9d cf 3c d3 12 90 3c 2d fa cf bc
       0.059880313 0.02534359 0.017587101 -0.025387848
