results/Test2/Test2/Test2-332577.onnx (onnx, 71103 bytes, 7 tensors)

action_model._continuous_distribution.log_sigma f4 [1, 2]
00000000: 49a4 87bd 7b83 cbbd
-0.06623132 -0.09937187

action_model._continuous_distribution.mu.bias f4 [2]
00000000: a526 9fbc 9a5f 26bb
-0.019427607 -0.0025386573

action_model._continuous_distribution.mu.weight f4 [2, 128]
00000000: 0c0f 583c 5470 613d aff6 713d 656e 013d
00000010: b530 9a3d 540e 6ebd da9e 55bd 0e8c a4bd
00000020: 9315 233d 58d0 553c 563b ab3c c127 843d
00000030: 9c42 c83c f320 8f3d 037b ad3c de6b 9fbb
00000040: 23aa 2e3d c197 913c 1c29 24bd fddd 05bd
00000050: bb41 a4bc 4cb6 573d 0b61 623d 131a 003d
00000060: 6b26 65bd 37e8 043c f06c 853c bbed 3cbc
00000070: 282e f93c beea 8cbd f24f 503b 5ad5 dbbb
00000080: 906a d83d 21f6 863a ad09 3a3d 8552 5c3d
00000090: f2e2 24bd fe38 3cbd adf8 5abc 6414 d83b
000000a0: 26e4 883c 0f61 98bd 7052 a63d d6a4 9e3b
000000b0: 71af 8c3d 8d33 37bd 9abc 1fbd 923a ebbc
000000c0: a24a 94bc 083a fbbc 0b76 613d bcc9 4bbb
000000d0: 0277 0c3b 2f99 e13c 39d0 ffbc 2455 013b
000000e0: bde9 313d 6427 843d dcee 84bd 95de 2fba
000000f0: 4e28 943c a285 0bbb 4802 353d b130 4f3b
00000100: c37a ba3b a3ea 75bd 7d33 053d e350 58bc
00000110: 855a 323b 4d90 a63c b4cf 023d 3557 3ebc
00000120: 3b98 d3bd d421 22bb a5e1 923d 5eb4 bc3c
00000130: d3d2 39bd ceea b53c d57b c73c 0e0e 5b3d
00000140: b04a 02bc d7c0 55bc 220c 373d 2c2d ddbc
00000150: f73b 57bc 10d0 9ebd 5c2c 18bd 2d10 a53d
00000160: 5ade 8a3d a2e7 553d 0e58 813c 5d1f e53a
00000170: 431b 0ebc a20a 6abb 11b5 333b 0772 313d
00000180: 9835 603d 0b8a 5abc 9a66 913c c2c6 473c
00000190: 540d a2bc ab37 a03b 609f 1b3d 8420 433d
000001a0: b0c6 223d e5a3 6a3d 69cb 5d3d 388f 713d
000001b0: c2ae 63bd e664 953d 30c5 a9bb 8796 b0bc
000001c0: a831 05bd e11a 803d b581 613b b3ff a73c
000001d0: 2c14 823a 1945 debc 81bf 943c e7c3 093d
000001e0: 353c 623d e545 37bd 13f3 423c edad 21bc
000001f0: 63aa 963c 9c95 8e3d 1472 703d 1793 7ebc
00000200: d91b 1b3d 8564 bdb9 1daa 743c 3bfc 03bd
00000210: 5849 803c b4cc 0e3d d37e 49bd c6a4 1fbc
00000220: 39f9 a33c 49c8 21b9 661d 21bc b728 e23b
00000230: 7d01 f73b e3b2 ffbc 3468 cbbb 78bb e3bc
00000240: 24f9 bfba a289 d43c 0d30 58bd cff0 1a3d
00000250: 6827 fcbc c7a2 93bc 45a4 6e3c b8e0 4b3b
00000260: 9f02 81ba c190 3bbc 55b9 203c 2bc1 673c
00000270: ae70 ce3c 977a 833d 5f7f 90bc 90e1 3bbc
00000280: 6601 d93b d254 9abc d29a fab9 be33 453c
00000290: 133b 113c 0516 c1bc e497 86bb 4a7a d23c
000002a0: 7ff3 313c 76c4 06ba 9d43 223d 1afc 3d3d
000002b0: b523 233c 729e 64bc 03db fa3a 1acb 143d
000002c0: 7fea 2b3d 1a24 ffbc 7e08 c63c 60c1 603d
000002d0: 6005 923a 6cd9 a0ba 6271 f73c 435c c8bc
000002e0: 442a 2d3c ffe3 443d d9a3 6bbd dba1 ee3c
000002f0: dbb8 e1bc 974f a13c 0bd2 02bc aec6 8ebc
00000300: 13a2 d0bb 5abd f2bc a3d0 0a3d 4fcd 2e3c
00000310: f536 b53b c8fc 0f3d 68db 34bb 741b ef3c
00000320: 1360 87bc d460 c63a 3602 833d e539 1c3d
00000330: 3df3 863d 163e 4c3b c8e6 b5bb 614e 983b
00000340: b92a 83bd 87bb 0fb9 1056 183d 5480 b4bc
00000350: 19da 2cbc b036 0cbd 9433 57bd 7a7e 943d
00000360: b0b6 48bc de89 ce3b e349 ffbc 64e8 3a3d
00000370: 1c49 b1b9 62e4 bb3b d1e9 b03c 6a1e 82bc
00000380: 20e3 55ba 3efd 2bbd 7d9d d73b 1b14 7c3d
00000390: 0015 1b3d 8b51 97bc f8a3 45bc 43d3 19bc
000003a0: 885f 0f3c 8cf6 ed39 cb8e f73c 655e 92bc
000003b0: ed27 32bd be09 8eba 43f9 6ebd ca04 283d
000003c0: ab4c e23b 6d79 88b9 6b03 e03b 0f59 493c
000003d0: e42d 16bd fd83 54bc 855a 573c 8f58 38bc
000003e0: 2f60 f73c 5218 223c eccb fc3c 576a 213b
000003f0: 2565 d73c b60a fa3c ae5d 83bc bd16 893b
0.013187181 0.055038765 0.059073146 0.03159942 0.075288214 -0.058119133 -0.052153446 -0.08034526
0.039815497 0.013050161 0.020902317 0.06452895 0.024445824 0.069887064 0.02117682 -0.0048651537
0.042642724 0.017772557 -0.040078267 -0.032682408 -0.020050874 0.052664086 0.05526833 0.031274866
-0.05594484 0.008112005 0.016287297 -0.011531289 0.030417517 -0.06880711 0.0031785932 -0.006708783
0.105672 0.0010296741 0.045419384 0.053789634 -0.040255494 -0.04595279 -0.013364953 0.0065942276
0.016710352 -0.074403875 0.081211925 0.0048414273 0.068694 -0.044726897 -0.038998224 -0.028714452
-0.018101994 -0.03066732 0.055044215 -0.0031095585 0.002143324 0.027538864 -0.031227218 0.0019734586
0.0434358 0.06452826 -0.06490871 -0.00067088875 0.018085625 -0.0021289368 0.04419163 0.0031614716
0.005690904 -0.06003822 0.032519806 -0.013202879 0.0027214598 0.02033248 0.031936362 -0.011617471
-0.1033177 -0.0024739401 0.071719445 0.023035225 -0.045367073 0.02220669 0.02435104 0.0534802
-0.007952377 -0.013046465 0.044689305 -0.026999079 -0.013136855 -0.077545285 -0.03715168 0.08059726
0.067806914 0.052222855 0.015789058 0.001748066 -0.008673492 -0.0035711904 0.0027421156 0.043321636
0.05473861 -0.013338576 0.01774912 0.012193384 -0.019781746 0.0048894486 0.03799379 0.04763843
0.039740264 0.05728521 0.054149065 0.058974475 -0.055586584 0.072946355 -0.0051809773 -0.021556152
-0.03251806 0.06255127 0.0034409587 0.02050767 0.0009924225 -0.027132558 0.018157722 0.033634093
0.0552332 -0.04474439 0.011898774 -0.009868127 0.018391794 0.069621295 0.058702543 -0.015537999
0.037868354 -0.00036123782 0.014933136 -0.032222968 0.015659973 0.03486319 -0.049193215 -0.009743875
0.0200163 -0.00015428769 -0.009833669 0.0069018262 0.007538019 -0.03121323 -0.0062074903 -0.027799353
-0.0014646393 0.025944535 -0.0527802 0.03782731 -0.03078051 -0.018021954 0.014565532 0.0031109285
-0.00098427 -0.011448086 0.009809812 0.014145176 0.025200214 0.064198665 -0.01763886 -0.0114673525
0.006622481 -0.018839274 -0.00047799066 0.012036262 0.008864182 -0.02357007 -0.0041074622 0.025693078
0.010861277 -0.00051409693 0.039615262 0.046383 0.009957244 -0.013953792 0.0019138757 0.036326505
0.04197168 -0.031145144 0.024173971 0.054871917 0.0011140518 -0.0012271828 0.030205432 -0.024458056
0.010569159 0.048068997 -0.057529304 0.029129913 -0.027553966 0.019691272 -0.007984648 -0.017428722
-0.006366977 -0.029631305 0.033890378 0.010669067 0.005530233 0.03515318 -0.0027596597 0.029187895
-0.016525304 0.0015135058 0.06396906 0.03814115 0.06589363 0.0031164936 -0.005551193 0.0046480154
-0.06404633 -0.00013707402 0.03719145 -0.022033848 -0.010550045 -0.03423184 -0.052539423 0.07250686
-0.012250587 0.006303056 -0.031163162 0.04563178 -0.00033814542 0.0057340125 0.021595867 -0.015883643
-0.00081591494 -0.041989557 0.0065800534 0.06154261 0.037861824 -0.0184715 -0.012063019 -0.009388748
0.008750804 0.00045387854 0.030219456 -0.017867276 -0.043495107 -0.0010836644 -0.058343183 0.041020192
0.006906112 -0.0002603041 0.006836345 0.0122893 -0.03666486 -0.012970922 0.01314414 -0.011251583
0.030197231 0.009893494 0.030858956 0.0024630034 0.026293347 0.030522685 -0.01603588 0.004183619

network_body._body_endoder.seq_layers.0.bias f4 [128]
00000000: e6da b73c 9083 f13d e9ee 633b d01f a23d
00000010: cd99 92bc cd34 ddbb 7696 223e 7500 133e
00000020: 785b 213d 3967 e33b 9566 913d 451d f3bc
00000030: 1d2c c4bc 4912 a3bc 403a fbbb ba3d 3e3c
00000040: f786 313b fc5d 853d 4fa7 9dbc 7d2c 1e3b
00000050: 3c41 493c e033 a7ba e82f b4bb 3e6f f7ba
00000060: 1b61 ffbc 54bc 7f3b bc9e 1e3e 97ec 033c
00000070: e9f5 943b 2fd4 d6bd 1135 27bd f8a5 ba3b
00000080: 28c5 0f3b a1d0 8f3c 33e7 803c 6871 3abc
00000090: eff5 5bbc 85e3 a6bb e362 7abd 194b 623b
000000a0: 77a0 debb e816 82bc e9c2 cebc bac8 a43d
000000b0: 21a8 48bd 6eb8 ccbc aacc 78bc bdee 863d
000000c0: 12b8 a13a bff2 dd3d e5e1 4e3d 995a 10bc
000000d0: e964 67bc e22d 3fbb ccd0 29bc 86b0 26bc
000000e0: 9728 9a3d 6fa9 403c 3cc7 2bbc b41d fe3c
000000f0: acdb a73d 1486 513c 2eac 063d 4c6a 28bc
00000100: 6348 07bc 469c 90bc 5b78 243d 8e24 96ba
00000110: 8c7c 8dbb a678 aa3d bfe5 1b3e 2fcc b73d
00000120: 1f8a 14bc 1f8f 02bd b3ef 7bbc b30e cf3d
00000130: 0a8f e23d d226 a63d 8e30 d63d f84c 84bc
00000140: 72d9 f33b 8909 af3c 1f7d 1abb e5ff ac3c
00000150: 2e05 9c3c cb2c 68bc e01f f5bc 5101 e53b
00000160: 69a7 94bd 3697 b4ba 26b7 963c 7a92 bb3d
00000170: 7aae 033d 837c 483a c9cf 5d3d c1b1 183c
00000180: e02a 46bd 2ac7 283d 3e7f 373c 62eb 83bc
00000190: 0117 f2bc ac04 1c3d 1f43 a73c 7311 d8bc
000001a0: 351a a63c 87f7 8cba 5911 60bb 030e e23d
000001b0: 8435 053d 0d6e 853c ec53 00bd 8dff cbbc
000001c0: 3500 cb3d 56e8 923b df45 0d3c b582 8d39
000001d0: 3720 82bc 469b 9ebd d0f0 0c3d adf8 32bd
000001e0: 0d27 0a3d 0258 583d 1fa9 04bc 3489 4b3d
000001f0: 01b5 573c c6d8 5bbb e431 c33d 1d03 0bbd
0.022443246 0.11792672 0.0034779853 0.07916224 -0.017895604 -0.006750679 0.15877709 0.14355643
0.039393872 0.0069397953 0.07099644 -0.029677043 -0.023946816 -0.01990618 -0.007666856 0.011611396
0.0027088502 0.06512067 -0.019244818 0.0024135404 0.0122836195 -0.0012756549 -0.005498875 -0.0018877757
-0.031174233 0.0039022164 0.1549024 0.008052013 0.0045459163 -0.104896896 -0.040822092 0.0056960545
0.0021937583 0.017555537 0.015735244 -0.011379577 -0.013425334 -0.0050930404 -0.061129462 0.0034529625
-0.0067940312 -0.015880063 -0.025239425 0.08046098 -0.048988465 -0.024990287 -0.015185514 0.065885045
0.0012338182 0.10837316 0.0505084 -0.008810663 -0.01412318 -0.0029171635 -0.010364722 -0.010173922
0.07527273 0.011759146 -0.010484513 0.031020023 0.08196196 0.012788314 0.032879047 -0.010279249
-0.008257004 -0.017652642 0.040153842 -0.0011454986 -0.0043178257 0.08323793 0.1522436 0.08974492
-0.009066134 -0.031874772 -0.015376973 0.101102255 0.11062439 0.08112873 0.1045848 -0.016149983
0.007441693 0.021366851 -0.0023573113 0.021118114 0.019045439 -0.014170836 -0.029922426 0.0069886823
-0.072584935 -0.0013777975 0.018397879 0.091587976 0.032148816 0.0007647948 0.054153237 0.009319724
-0.048380733 0.041205563 0.0111997705 -0.01610345 -0.029551985 0.038090393 0.020417748 -0.026375508
0.020276168 -0.0010754921 -0.0034190028 0.11037829 0.03252174 0.016287828 -0.031330034 -0.02490213
0.09912149 0.004483263 0.008622616 0.00026991 -0.015884502 -0.0774446 0.034409344 -0.043694187
0.033728648 0.052818306 -0.008096962 0.049691394 0.013165713 -0.0033545955 0.09531 -0.033938516

network_body._body_endoder.seq_layers.0.weight f4 [128, 3]
00000000: 495b 52bf 1bb1 dd3e f35b 973e b66f 4c3f
00000010: c114 6b3d 1650 f2be 71c3 e8be 31cf d13e
00000020: f46d 453f bf28 323f d83b 06bf 0de3 2c3e
00000030: edb5 cbbe f246 8fbd bee9 eb3e 2778 da3e
00000040: fd0d 47bf 453a 0ebe 2de0 4b3f ca62 333f
00000050: 2d99 113f 2e1c 383f 27de 963e 3bb5 973e
00000060: 8e2d f73e 7c0b 61bf 3e5e 1c3e 2dd3 6dbf
00000070: c87c e3bc d97a 913e df9f 033f 4444 b23d
00000080: 75d4 a83f 339c 68bf 9fc9 9f3b 964e 01bf
00000090: ff47 0dbf f33d 373f 5712 50bf 6147 ab3e
000000a0: fa56 4c3e 028d eb3e 2e1b 75bf e739 aabf
000000b0: 4b7c 3fbf fde9 f8bc c3a2 543f fae6 22bf
000000c0: ea7b 0ebe db84 73bd b345 c1bf 3a76 b53d
000000d0: b077 943e 3c26 133f 80bd 483e f582 363d
000000e0: e627 4d3f 7149 dbbd d1cd 94bc f426 a7bd
000000f0: cd35 8ebe a8ab 96bf 638e 093f dcaa 5cbe
00000100: e7a3 fabe 4e9d 82bf 326d 003c d34d d63e
00000110: c298 18be 3636 8bbd 71e4 3b3f 9e8d d03e
00000120: 1311 04bf 9b47 b73f 88b4 97be 587a 08bf
00000130: 1cee 513f f1de 833f 4353 883f 0ec8 37bf
00000140: 4399 24bd efe8 15be b994 223f dce7 233d
00000150: c6b2 dc3e fa64 38bd d368 bdbd 038c 943e
00000160: c168 e8be cafa d03e b848 953e fcf1 643f
00000170: 83f3 8e3e 4209 4abf 7c09 573f 4a80 9cbe
00000180: 3399 2fbf 0636 18bf 1056 533e ba03 3b3d
00000190: cb65 53be d456 163f b56e 36bd 19a3 b53e
000001a0: caeb 953e 97be e7bd 03af e33e dd1f d33c
000001b0: f5e4 b83e e2a3 a6bb 5722 43bc 6a4c f03d
000001c0: 2991 17bf e73a 9ebd 0239 a73e 935c 783e
000001d0: 3ef8 9bbe 132b 56bd c15b e7be ebff 22bf
000001e0: e06a 5dbf 6086 243f 73b3 663f 808d 3fbd
000001f0: 6f70 d7be 464e da3e 9c48 f1be 93f7 a3bf
00000200: a6af 173f 19ab 213f ae72 b3be cf96 ab3f
00000210: da9d c03d 4023 d0be af82 643e a159 9bbe
00000220: 4d09 1abf c0fa b9bd cda9 20bf 80c1 30bd
00000230: 15c5 153f 1887 163f 82c9 623f 6416 a7be
00000240: be5c 65be 6a96 7dbe 7c04 07bf e408 413f
00000250: c8c4 c2be 8872 4a3f a2db e4bb 5c12 89bf
00000260: bc50 b53f aae5 ecbe 9c66 e8be c267 07bf
00000270: fca8 35be cb79 d93d dc48 e63e 6809 b53e
00000280: 90d1 fa3e 0987 303f 62f6 55be 002d a9bf
00000290: a5e3 8dbe 40da 29be 8527 b7bd 35f5 5d3f
000002a0: fa48 fd3e c2dd 503f 84f6 3a3e 684f 54bf
000002b0: 6ff0 a8be 1c4b 983e 2982 84be abe8 2fbf
000002c0: f3be bebd 8708 033f f4af 70bf e313 5abe
000002d0: 3690 143f 9cdb 213f 78de eb3d 18fe e1bd
000002e0: 8d8f a7be 8f2c c7be 1ea9 9a3e 5bd7 733d
000002f0: 1214 34bf 70b7 c3bd 6c57 d9be 999f 63bf
00000300: 51e4 06bf f53d 01be 911b 193f 3d06 fbbe
00000310: 53a0 273e ae76 47bc 298d 063f d6eb b9be
00000320: e41b 93be 1163 9bbe 54e1 2e3f 0ad3 24bf
00000330: 0994 973e 62fc 31be c0cd 3f3f 35a6 b03e
00000340: 66c9 cabd e0d3 d5bf f75a 6d3f 76a7 89be
00000350: 907d 263e ce45 4b3f 1c86 a8bd 7a3f 04bf
00000360: a73d 99bf d585 143f 0d5d e73e 7db1 debc
00000370: 5a95 40be f95b 55bb 951b 4ebf 67c5 813e
00000380: ac40 913f a657 333f b430 05be 862a 10bf
00000390: 83ec 823f 8ce7 4fbf b753 3fbf 4e4c 443f
000003a0: 54e3 a93e d3b9 65bf 2287 163f 151b 96bd
000003b0: eaef 273f 7827 90bd 9f66 3a3f 7701 2cbf
000003c0: 9bd8 3abf 499e 40bf 3da0 e33e 9a51 91bf
000003d0: 67b4 21bf 73db 8d3f 3dd8 fdbd cdcb bf3e
000003e0: 4606 62be c008 873e 49d5 03be d5f3 a63f
000003f0: 258f b43c dc22 c2bd d021 77bf fd4c 36be
-0.8217054 0.43299183 0.2956234 0.7985796 0.05739284 -0.47326726 -0.4546161 0.40978387
0.771209 0.69593424 -0.52435064 0.16883488 -0.39787236 -0.069959536 0.4607677 0.42669794
-0.7775572 -0.13889416 0.7963894 0.70072615 0.5687435 0.71918 0.29466364 0.29630455
0.48276943 -0.8790815 0.15270326 -0.92900354 -0.027769461 0.28414038 0.5141582 0.08704427
1.3189837 -0.9086334 0.00487633 -0.5051054 -0.5518798 0.715789 -0.81277984 0.33452895
0.19955054 0.46006018 -0.957446 -1.329892 -0.7479903 -0.030385012 0.83060855 -0.6363369
-0.13914457 -0.059452873 -1.5099396 0.088604406 0.28997564 0.57480216 0.19603539 0.044558484
0.80139005 -0.10707367 -0.018164547 -0.081617266 -0.27775422 -1.1771135 0.5373289 -0.21549553
-0.48953173 -1.0204256 0.007838534 0.4185625 -0.14902022 -0.06797449 0.7339545 0.40733045
-0.51588553 1.4318727 -0.29629922 -0.5331168 0.8200395 1.0302411 1.065041 -0.71789634
-0.040185224 -0.14639638 0.6350818 0.04001604 0.43105143 -0.045018174 -0.09248509 0.2901307
-0.4539242 0.40816337 0.29157043 0.8943174 0.2792016 -0.78920376 0.83998847 -0.30566627
-0.6859314 -0.59457433 0.20638299 0.04565785 -0.206443 0.5872624 -0.044539172 0.35475996
0.29281455 -0.11315649 0.4446946 0.02577203 0.3611218 -0.0050854543 -0.011910043 0.11733325
-0.5920587 -0.077260785 0.3266068 0.24254064 -0.3046283 -0.052287173 -0.4518719 -0.6367175
-0.86491203 0.6426754 0.9011757 -0.046765804 -0.42077968 0.42637843 -0.4712571 -1.2809929
0.59252393 0.631517 -0.3504843 1.3405398 0.09405108 -0.40651894 0.22315477 -0.3034182
-0.6017044 -0.0908103 -0.62759095 -0.043153286 0.5850385 0.58799887 0.88588727 -0.3263427
-0.2239866 -0.2476441 -0.5274122 0.7540419 -0.38040757 0.7908101 -0.00698419 -1.0708728
1.4165263 -0.4626897 -0.45390785 -0.52892697 -0.17740244 0.10618933 0.44977462 0.3535874
0.48988008 0.6895605 -0.20894769 -1.3216858 -0.27712741 -0.16587162 -0.089430846 0.8670228
0.4946974 0.81588376 0.18258101 -0.82933664 -0.32995936 0.29744804 -0.25880554 -0.687144
-0.093137644 0.51184887 -0.94018483 -0.21296649 0.5803255 0.6322572 0.11517042 -0.11034793
-0.32726708 -0.38901183 0.3020715 0.05953155 -0.70343125 -0.09556472 -0.4244951 -0.889154
-0.52692133 -0.12621291 0.5980769 -0.49028197 0.16369753 -0.012174292 0.52559143 -0.3631274
-0.28732216 -0.3034902 0.68312573 -0.6438452 0.2960513 -0.17381433 0.74923325 0.34501806
-0.09901695 -1.6705284 0.92716926 -0.26885575 0.16258836 0.7940339 -0.08228704 -0.5165936
-1.197194 0.5801671 0.4518818 -0.027184242 -0.18806973 -0.003255604 -0.80510837 0.2534592
1.1347861 0.70055616 -0.1300686 -0.56314886 1.0228428 -0.8121269 -0.74737114 0.7667893
0.3318125 -0.8973667 0.58799946 -0.07329384 0.65600455 -0.07038778 0.7281284 -0.67189735
-0.72986764 -0.75241524 0.4445819 -1.1353028 -0.631659 1.1082596 -0.1239476 0.37460175
-0.22072706 0.26373863 -0.1287433 1.3043162 0.022040913 -0.09479305 -0.9653597 -0.17802806

network_body._body_endoder.seq_layers.2.bias f4 [128]
00000000: 2d52 50bc a39d b23b 8569 f33c 18fe a3bb
00000010: ab75 483c 8f64 203d 5fb0 093d e406 2a3d
00000020: 3803 0e3c cb54 d3bc 73e4 fbbb 364c dc3b
00000030: 8b23 94bc d505 db3c ae2d 29bc 92aa ae3b
00000040: 2c8c aa3b e76a 28bb 2a8d 673d cc17 2f3d
00000050: fcad 323c 01aa acbb 92ea aa3c 1ae0 51bc
00000060: 1ee6 333d 69f6 51bb c38c cfbc 17ef a3b8
00000070: 97c8 ffbb d357 b93c c23e 0a3c 4ece cc3b
00000080: 54c6 113d 8ec9 0d3c 3f32 20bc f6ed e43b
00000090: a2bc 283c 114b 703c 81a9 1a3c e8e0 8fbb
000000a0: a4f7 a0bb fcf2 003d 96f6 263d 1109 6fbb
000000b0: 1e92 843c 5426 bd3c 5824 fc3c d02f 3d3c
000000c0: 2c43 b23c 4f04 c03c 030b cb3c c27d 6c39
000000d0: cff5 9bbb b849 21bc 5d68 a43c 7473 7b3b
000000e0: b912 91bc e199 e83c 9687 4a3d 3e83 9a3b
000000f0: 598a ccbb 53fc c5ba e098 4cbc 9143 4ebb
00000100: 3856 83bb 8fbe ed3c 7925 1fbc 4a6a e93b
00000110: 3f24 42bb 67b0 02bc 33a6 c6bc 89e9 8c3b
00000120: 765a 233d f19c 0c3c 2242 f03c cad0 1abc
00000130: e028 fe3c a3f6 12bc 386d 84bc c26c 0e3c
00000140: 869e 723c db7b 773c 353d 123b 1dd7 7d3c
00000150: eaec 8c3c b2f0 4a3d 26c2 463d d110 2d3d
00000160: cf61 993c 677a 9f3c 9cc2 7dba 58e9 ad3b
00000170: 555f 4b3c ae6f ff3b 7631 89bb 5f58 cbbb
00000180: 0f3c 7f3c 0f19 e53c 1a53 9cbc 0363 8c3b
00000190: c048 803b 9af1 a93a cf59 853b 4129 d0ba
000001a0: b052 d9bb d0fc f93b c9b0 a5ba a9e4 793a
000001b0: 10fc ee3c c0be e03c bac4 e93c 2165 c43c
000001c0: 64c7 3a3c e191 b13c 9e9a ffbb f3ea 9fbc
000001d0: 97db 0c3d dccd 563c 8f5e 47bc 0e2d 6bbc
000001e0: 44e2 693c 26d5 1b3d 3b95 fbba abc8 423c
000001f0: 3b87 29bc ba89 423c 94b7 28bc df84 583c
-0.012714905 0.0054509207 0.029713402 -0.0050046556 0.0122350855 0.0391584 0.033615466 0.041510478
0.00866776 -0.025797268 -0.0076871454 0.0067229522 -0.018083354 0.02673618 -0.010325832 0.005330392
0.005204698 -0.0025698484 0.05653111 0.042747304 0.010905739 -0.0052692895 0.020863805 -0.012809778
0.04392063 -0.003203774 -0.025335675 -7.8169796e-05 -0.0078058946 0.022624886 0.008437814 0.0062501794
0.03558953 0.008654011 -0.009777605 0.006986375 0.01029888 0.014666335 0.009439827 -0.0043908246
-0.0049123336 0.031481728 0.040762506 -0.003647391 0.016182955 0.023089565 0.030779049 0.011547044
0.021760546 0.023439554 0.024785524 0.00022553562 -0.0047595273 -0.009844236 0.020069296 0.0038368376
-0.017709123 0.028393688 0.04944571 0.0047153523 -0.0062420783 -0.0015105106 -0.01248762 -0.0031473378
-0.004008081 0.02902153 -0.009713524 0.0071232663 -0.0029623655 -0.007976628 -0.024249172 0.0043003005
0.039881192 0.00858234 0.02932841 -0.009449193 0.03102535 -0.008969936 -0.01616536 0.008692922
0.014808303 0.015105213 0.0022314314 0.0154931815 0.017202813 0.04954595 0.048524998 0.042252365
0.018723397 0.019467546 -0.0009680183 0.0053073578 0.012412866 0.0077952957 -0.0041868044 -0.006205603
0.015578284 0.02796605 -0.019082595 0.004284264 0.0039149225 0.001296568 0.004069544 -0.0015881435
-0.0066321716 0.0076290146 -0.0012641187 0.0009532669 0.029172927 0.027434707 0.02853619 0.023974003
0.0114000775 0.021676006 -0.007800414 -0.019521212 0.034389105 0.013110604 -0.012168541 -0.014354004
0.014275137 0.03804507 -0.0019194254 0.011888663 -0.010347183 0.011873657 -0.010297675 0.013215273

network_body._body_endoder.seq_layers.2.weight f4 [128, 128]
00000000: f7a6 02bd 36e5 a23d 3c82 61bc ea3e 70bd
00000010: 7dda 763c def2 813c 526d 243e f92c c63c
00000020: 6847 593d a655 c8bd d30c 043e 873a 0d3d
00000030: d32d 26bd 8ecc a7bd 06c6 9dbd 425e 043d
00000040: e247 45be 3467 a23d db7c 913d 898f 293d
00000050: abe6 b13b 058e 513c cfe8 ea3c 7744 95bb
00000060: e2cb bbbc 62b9 203e 5a5c 843d 514e 7dbd
00000070: 1a2b 093d 0d4e a8bc 50cd bf3d da41 c4bc
00000080: e6cd 6a3d efa8 2bbd b1db 273e 420f fe3c
00000090: b0f1 a13b 31fc 41bc b145 e33d f8dc 003e
000000a0: ae4b d13c 86dc c73d 8825 4ebd a0eb bc3d
000000b0: 5c7d 363d ecc4 ca3b 10bf d3bd 78e1 5e3e
000000c0: 6403 90bc ae0f 793d 1739 ab3d f647 a3bc
000000d0: 62c8 903d 268e 90bd a4b6 a93d 6a21 c63d
000000e0: ed2c a43d 0fee e3bd 6e3c 6fbb 4262 5e3d
000000f0: e451 f53d 50c1 85bd 725d 2f3c 7729 16bc
00000100: ae7a 253d fe33 8f3d 53f6 84bd d233 d63d
00000110: ebf7 1b3e 817f cf3d 3eae 973c 4f5f d73d
00000120: 718e c43d edee e4bc 61ce 1b3e c6f7 a03d
00000130: 355a 063d 88ec 1539 2be8 11be b630 0f3d
00000140: 4a59 623d 0354 dbbc aa9e e7bd 18ca 24be
00000150: d3e4 fbbb 9780 22bd b37b 873d 843c b5bd
00000160: ea66 6cbd 7d6d b5bd f5ad 0f3e 5dfe 8c3d
00000170: 18ad 1fbd 45c2 8cbd 51f6 fb3d dc40 b7bc
00000180: 3fbe 03bd a5ee 4a3d 37e0 c6bd 8105 5abc
00000190: 4312 e03c 486b 91bd f29d f5bc 5d33 b9bc
000001a0: 4e5d 68bd ede4 e1bd 73db 893c bc00 253e
000001b0: c6fc f63c 2c08 c7bc 05c1 92bd c64d 0d3e
000001c0: f359 f2bd 0b29 cfbd 7203 213e fac8 55bc
000001d0: f6bc 493d 0c86 583d fb80 a33d e8b5 843d
000001e0: 809e 763c ed8b 423e 4ef7 503d 56ad 853c
000001f0: ea10 7fbd ba89 e2bc f6d1 663d c1d5 653d
00000200: 841c c73c 72ec a63b 520c 8cbd 1f76 afbd
00000210: f7a9 fbbd 881b f33b dc62 cebe c418 db3c
00000220: 69a1 2cbd 6902 14bd a951 a03d f8f9 c43b
00000230: 1aee cc3d 7b08 62bd ef50 f2bd 84e4 99bc
00000240: de18 8dbc 734c 6bbd e475 9e3d 894d b13d
00000250: 83d6 c33d f941 15be fb75 e0bb 3c59 88bb
00000260: 07f0 f03d 4a99 293e a17b d9bb 0f8b 173d
00000270: 4f54 3ebd 0ad7 66bd d18a d1bd d04b 4bbd
00000280: 7b71 533d 93c4 00bd 38a7 ef3c d791 39bd
00000290: 8311 3bbe d690 683d ea89 133e 85c8 763d
000002a0: 1f7c 323c 3458 f43d 90ad 15be 65fd 51bd
000002b0: 8d11 60bd 40f6 0e3b 15de b73d 44bb 63be
000002c0: 54c1 d23d a491 69be d2a9 37bd 1ab9 68bd
000002d0: d15f 46bd 63da 87bd 0836 8e3d cc28 a1bc
000002e0: 09bd 503c c35b 343e 2834 31be 1772 0dbe
000002f0: 5c86 c4bd d3e8 17bd 8d5b d83d 7d7d 51bd
00000300: 3311 a6bd f54f 35bd 9797 14bd 7aa1 a1bc
00000310: 6171 cd3d 9590 163d f2c1 093e 649e a93a
00000320: 8004 f4bd 6ae6 65bd 992a 85bd 3b91 aebc
00000330: 9d70 3abe 2ebd 5cbe 1f03 6dbd 47d6 bdbd
00000340: 86be 17be 2b33 aabc b48c 39bd b626 e33d
00000350: 3bf9 f63c 9aca 32be a20c c1bd c380 f5bd
00000360: 6487 babd b7b4 b5bd c6b6 753c 720f 00be
00000370: 6551 4bbe 6970 bb3d b633 8bbc 1e7d 2dbe
00000380: ecb9 903d bd3c 483c dad9 8e3c 83d5 bdbb
00000390: 726d 8abc 01eb b33d 4c08 4f3c 1d56 1b3e
000003a0: dcc0 913d 02a0 37be 2b41 8b3b 429f 90bd
000003b0: 7b17 323d 5071 10be 8b6a f0bb e4fd d3bd
000003c0: 47bf 73bd a18c 3abc 9ed1 97bd a2e0 01bd
000003d0: d08a 53bc e564 793c b8e7 aabd 579d 13be
000003e0: 38ae afbc 0e2a 063e b00a 623d aee2 8a3c
000003f0: 14bb 883d 26ce ed3d ade3 78bd f6c5 f5bc
-0.03189751 0.07953875 -0.01376396 -0.05865375 0.01506674 0.015862878 0.16057327 0.024191367
0.053046614 -0.09781961 0.12895517 0.034479644 -0.040571045 -0.081933126 -0.077037856 0.032316454
-0.19265702 0.07929841 0.071038924 0.04139665 0.005429109 0.012790208 0.028675465 -0.004555281
-0.022924367 0.15695718 0.06462927 -0.061842266 0.03348837 -0.02054503 0.09365332 -0.023957182
0.057325266 -0.041909155 0.163924 0.031013135 0.0049421415 -0.011839912 0.11097277 0.12584293
0.025548782 0.097588584 -0.05032876 0.092246294 0.044553146 0.0061880257 -0.10339177 0.21765697
-0.017579742 0.06080597 0.083604984 -0.019931775 0.0706947 -0.07058363 0.08286789 0.09674342
0.080163814 -0.111293904 -0.0036504525 0.054292925 0.1197851 -0.06531012 0.010703431 -0.009165159
0.0404002 0.069923386 -0.06492295 0.10459103 0.15231292 0.10131741 0.018515702 0.105162255
0.09597481 -0.02794596 0.15215446 0.07859759 0.032800872 0.00014297862 -0.14248721 0.034958564
0.055260934 -0.026773458 -0.1130956 -0.16092718 -0.00768719 -0.039673414 0.06615391 -0.08849433
-0.057715334 -0.08858774 0.14031203 0.068844534 -0.038983434 -0.068729915 0.123028405 -0.022369795
-0.032163855 0.049543995 -0.09710734 -0.013306976 0.027352458 -0.071005404 -0.02998254 -0.0226075
-0.056729607 -0.11029992 0.016828274 0.16113561 0.030149829 -0.024295889 -0.07165722 0.137992
-0.11833563 -0.1011525 0.1572397 -0.013048405 0.049252473 0.052862212 0.079835854 0.06480008
0.015052438 0.1899869 0.051017098 0.016318005 -0.06227199 -0.027653564 0.056352578 0.056112055
0.02430559 0.0050941044 -0.068382874 -0.08567452 -0.122882776 0.0074190535 -0.403098 0.026745208
-0.04214612 -0.03613511 0.078280754 0.006011244 0.10006352 -0.05518387 -0.11831843 -0.018785723
-0.017223772 -0.057445955 0.077373296 0.08657367 0.09562399 -0.14575948 -0.006850002 -0.004161028
0.117645316 0.16562381 -0.006637052 0.03699785 -0.04646712 -0.05635742 -0.10231555 -0.049632847
0.051621895 -0.031437468 0.02925454 -0.0453051 -0.18268399 0.05677875 0.14408079 0.060249824
0.010893851 0.11930886 -0.1461699 -0.051267046 -0.054704238 0.0021814257 0.08977906 -0.22239405
0.10290781 -0.22809464 -0.044839688 -0.05681715 -0.04843122 -0.06633451 0.069438994 -0.019672774
0.012740382 0.1761313 -0.17305052 -0.13813053 -0.095959395 -0.037087273 0.10564337 -0.051145066
-0.08108749 -0.044265706 -0.03627738 -0.019730318 0.10031391 0.036758978 0.1345289 0.0012940881
-0.11914921 -0.056127943 -0.065022655 -0.021309486 -0.18207021 -0.21556541 -0.057864305 -0.09269386
-0.14818773 -0.020776352 -0.0453002 0.11091368 0.03014814 -0.17460099 -0.09426238 -0.1198745
-0.09107855 -0.08872359 0.01499719 -0.12505892 -0.19855268 0.091523 -0.016992431 -0.1694226
0.07066712 0.012221512 0.017437864 -0.005793275 -0.01689789 0.08785058 0.0126362555 0.15169568
0.07116863 -0.17932132 0.004249712 -0.07061626 0.043479424 -0.14105725 -0.0073369197 -0.1035116
-0.05950859 -0.011386068 -0.07413028 -0.031708367 -0.012911513 0.015221809 -0.08344978 -0.14415489
-0.021445379 0.1310198 0.055185974 0.016953792 0.06676307 0.11611585 -0.060764004 -0.030001622
