results/Test2/Test2/Test2-175792.onnx (onnx, 71103 bytes, 7 tensors)

action_model._continuous_distribution.log_sigma f4 [1, 2]
000000 a6 99 1b bd bd 81 0b bd
       -0.037988327 -0.034059275

action_model._continuous_distribution.mu.bias f4 [2]
000000 31 26 28 3d bb 4d f1 3c
       0.041052047 0.02945601

action_model._continuous_distribution.mu.weight f4 [2, 128]
000000 95 51 84 bc 79 04 ed 3a 3a 17 91 3c 5d 86 61 bc
       -0.016152183 0.0018082998 0.01771127 -0.013764945
000010 f3 88 dd 3c b3 73 f2 3c d2 82 12 3c 02 55 06 bb
       0.027042842 0.029596185 0.008942323 -0.0020497446
000020 4a 9b d3 bb 52 ee bf 3c 60 cb 8e 3c 66 dd bf 3b
       -0.006457721 0.02342907 0.017430961 0.00585525
000030 2c d8 6a bd b7 af 08 3b f2 ad bd 3c f1 78 11 bd
       -0.057335064 0.0020856687 0.023154233 -0.03551573
000040 b8 70 81 3d 8f 75 99 bc e8 ae 07 bc 67 59 ff bc
       0.063203275 -0.018732814 -0.008281447 -0.03117056
000050 06 f4 ab 3d e5 ce 42 3c 6b d1 1b 3c 83 fb bb 3c
       0.08396153 0.011890148 0.009510378 0.022947079
000060 8d 70 16 3d 0e d7 3d 3d 98 58 78 bc 2b 75 3f bd
       0.03672843 0.04634767 -0.015157841 -0.0467426
000070 b5 49 f8 3b 2c 5d 00 bc 1e 8d 15 bd 20 27 13 3c
       0.007577146 -0.007834714 -0.036511533 0.008981496
000080 3d 5a 34 bc d9 9a 8c bc 98 0f 0a 3c 96 f4 ae 3c
       -0.011007843 -0.01716368 0.008426569 0.021356862
000090 6a 48 df 3b e8 78 0a bd 12 da 0b 3c 20 2d 0e bd
       0.0068140524 -0.03380671 0.008535879 -0.034711003
0000a0 e9 96 41 bd d1 09 31 bc 41 55 01 bd cd c5 13 bd
       -0.04726306 -0.010805563 -0.031575445 -0.03607731
0000b0 00 d3 93 ba 22 6e 15 bb 54 11 5c 3c ef 25 bb 3c
       -0.0011278093 -0.002280124 0.013431866 0.022845237
0000c0 eb a3 70 bb aa 16 4b 3b 84 de 96 ba f6 94 8b bc
       -0.0036718796 0.003098885 -0.0011510407 -0.017038804
0000d0 e6 e2 55 bd 2e 5b b2 bc af e7 51 3c b8 9b 96 bd
       -0.05221834 -0.021771993 0.012811585 -0.0735392
0000e0 87 e7 71 bc a5 52 4b 3c c4 56 2e bd 73 ef 4f bd
       -0.014764673 0.012409841 -0.042563215 -0.050765466
0000f0 f5 f2 f8 3c 13 88 1c 3b 70 f1 f9 3b 0c ec f3 bc
       0.030389288 0.0023884817 0.0076276585 -0.029775642
000100 23 d9 0b bc 40 43 b5 3b 28 0a e9 bc cd dc 96 bc
       -0.008535656 0.0055316985 -0.028447226 -0.018415833
000110 38 b9 cd bb a4 a2 aa bc 61 4c da bb c9 30 6a bc
       -0.0062781833 -0.020829506 -0.006661937 -0.014293858
000120 38 0b c8 3b 31 cc 40 3c 92 8c 4b 3c 48 5f 28 3c
       0.006104853 0.011767433 0.012423651 0.010276623
000130 6c 2a 84 3c 07 d2 e1 bc e2 d2 0c bd 39 5a 8c 3d
       0.01613351 -0.02756597 -0.0343808 0.06853146
000140 90 53 42 3d 78 44 37 bd c1 5b 02 3d bd 5f 7f bd
       0.047442973 -0.04474303 0.031825785 -0.062347163
000150 c5 93 53 3d eb 15 a6 3c 12 93 5e 3c fb 84 a3 bc
       0.051654596 0.020274123 0.013584869 -0.019960871
000160 42 9c 80 3d 4e 88 c9 3c 0e 93 42 bd 4c 9a 70 3c
       0.06279804 0.024601128 -0.047503524 0.014685225
000170 28 22 d7 3b 0f ab f8 3c 01 21 91 bc c2 4c 58 3c
       0.006565351 0.030355005 -0.017715933 0.013201894
000180 58 05 1e bd 3a 1b 14 bd 09 0e a2 3c be 13 d8 3c
       -0.038579315 -0.036158778 0.019782083 0.026376601
000190 77 10 35 3b 81 4b ba bb f7 69 86 3c 76 58 3c bd
       0.0027628222 -0.0056852703 0.01640795 -0.0459828
0001a0 e4 7c 22 3d c1 d4 36 bb b0 22 15 3d d2 b2 0d bc
       0.039669886 -0.0027897807 0.036410034 -0.008648591
0001b0 27 a0 9b bc 4f d4 76 bd ab ba 5a 3d dd cc 34 3b
       -0.018997265 -0.060261067 0.053400677 0.0027587928
0001c0 9f 90 b6 bc 0a 6b d4 3c b1 80 a5 3b 11 1a 6e 3b
       -0.022285758 0.025929946 0.0050507416 0.0036331455
0001d0 8e 1c c1 3c b9 f6 e8 bc b1 28 fc bc bb 6c 92 3c
       0.023573186 -0.028437959 -0.030781122 0.017874112
0001e0 1b 9c bf bc c8 39 50 3b 4b 6a 90 bd e6 70 c0 3c
       -0.023389867 0.0031772722 -0.07051524 0.023491334
0001f0 01 a3 71 3c 30 dd 8b bb b2 b3 c7 3b 46 40 00 3c
       0.014748336 -0.004268311 0.0060944194 0.007827824
000200 19 76 d2 bc a5 22 24 3d 3a e3 46 bc c3 dd 40 3c
       -0.025691079 0.040072102 -0.012139136 0.011771622
000210 b1 de e3 bc b2 33 f5 bc 8e 02 75 3c f3 0d 4e bd
       -0.027816148 -0.029931877 0.014954222 -0.05030627
000220 a1 a8 8f bc dc 18 16 3d 06 41 71 3d ec ec cf bc
       -0.017536463 0.0366448 0.0588999 -0.025381528
000230 f8 db 37 3c 0a 5b 67 3c 6f f5 cd bc 94 27 1f bd
       0.011221878 0.0141208265 -0.025141446 -0.038856104
000240 97 7c a4 bc 2d 3b 7d 3c ca 89 12 bc 51 74 c7 bc
       -0.02007894 0.015456003 -0.008943984 -0.024347456
000250 5f 9f 97 bb 88 6f 90 3c 6c b3 33 3c e4 6e 15 bc
       -0.004627153 0.017631307 0.0109680705 -0.009120677
000260 66 a3 2c bc e9 7c 5f 3c cf e3 08 3d 11 3c 2e bd
       -0.010537004 0.013640621 0.03342038 -0.042537753
000270 3c 3c 05 3c e4 57 2e 3d 11 5c 6c 3c d6 c1 a2 bc
       0.008132037 0.042564288 0.014426247 -0.019867819
000280 39 da cc bd 00 b1 b5 3b 0e 24 ed 3b 00 18 8a 3c
       -0.1000256 0.0055447817 0.007236964 0.016857147
000290 04 c1 fe 3c ad 0b 9c 3b 14 0b 29 3c ab 73 05 3d
       0.031097896 0.004762134 0.010317583 0.032581013
0002a0 22 2e 69 3b dd 29 b0 bc 1b 89 c6 bc b4 3c 9f 3b
       0.0035580476 -0.021504337 -0.024235299 0.0048595313
0002b0 0b 79 c9 3a 53 2c 9f bc b7 05 d5 3b bb 43 12 bc
       0.0015371157 -0.019430315 0.0065009254 -0.008927281
0002c0 c3 92 67 3c b3 db 6e 3d 64 f5 44 bc 2b 97 89 3c
       0.014134112 0.05831499 -0.012021396 0.016795715
0002d0 86 12 ea 3b 6e 4e d7 3c ac 43 c7 bc 93 ad 23 bc
       0.0071433214 0.026282515 -0.02432426 -0.009990114
0002e0 b2 dd 4c bd 28 7d 32 bc 92 f8 18 bd ff f4 45 3d
       -0.050016113 -0.010894097 -0.03734643 0.04832935
0002f0 3e 60 2b bc fd 68 c9 bc be da 81 3c a7 1f eb 3c
       -0.010459958 -0.024586195 0.015851375 0.028701616
000300 b3 ab 6a bc 6f d5 aa 3c fb 12 95 bc f7 ac 48 3c
       -0.014323163 0.020853726 -0.018197527 0.012248269
000310 33 1f 01 bd c6 69 a1 3d a1 b5 60 3b 21 aa cf 3c
       -0.031523895 0.07881503 0.0034287947 0.025349678
000320 03 46 ae 3c 6e 95 b0 bb 9a ac f5 3b 74 4a b3 bb
       0.021273619 -0.005388907 0.0074973824 -0.005471522
000330 32 52 cc 3c ef 94 0e bd 25 34 03 3d 7b 1c 08 3c
       0.024941538 -0.034810003 0.03203215 0.0083075715
000340 6e dd b0 bc a0 47 17 3d dc 0c 31 bc 61 0f 72 3c
       -0.02158996 0.03693354 -0.010806289 0.014774174
000350 e7 c1 05 bc ad f4 20 bd 50 01 44 3d 9a 19 3e bd
       -0.008163906 -0.03929584 0.047852814 -0.046411134
000360 51 7e 23 bc 6a d2 9c 3c 98 10 0a 3d 84 c6 e0 3c
       -0.009978847 0.019143302 0.03370723 0.02743841
000370 4c 78 c3 bc 56 9a 4e 3d 54 fd d5 bb f3 7a 35 3c
       -0.023861073 0.050440155 -0.006530443 0.011076677
000380 b4 c0 80 3c ed b7 f4 3c 65 b4 e4 ba c5 94 90 bc
       0.015716888 0.029872859 -0.0017448781 -0.017649064
000390 c7 eb c7 3c c2 08 a5 bc 5a 30 36 bc 2a 93 f2 3c
       0.02440442 -0.020145778 -0.011119926 0.029611189
0003a0 15 b7 b9 3c c7 21 4c 3d 33 b9 a0 3c e9 7c 71 bc
       0.022670308 0.0498369 0.01961956 -0.014739254
0003b0 86 59 bc 3a d4 a9 98 3b a7 4f 61 3b 64 b5 15 3d
       0.0014369942 0.004658917 0.0034379752 0.03654994
0003c0 1a 67 6d bd f4 bd 09 bc 00 a5 45 3c d1 84 95 3b
       -0.057959653 -0.008407105 0.012063265 0.004562952
0003d0 26 e5 6a 3b 6e b2 a7 bc f3 ac 6c 3d f1 bf 83 3b
       0.003584215 -0.020470824 0.057782125 0.004020684
0003e0 f0 ad 2d bb 8c ae 46 3b 32 b7 3d bd 15 25 11 bd
       -0.002650138 0.003031644 -0.046317287 -0.035435755
0003f0 8b 70 db 3c 66 10 6e bc 29 93 94 3c da ff dc 3c
       0.026787063 -0.014530277 0.018136578 0.026977468

network_body._body_endoder.seq_layers.0.bias f4 [128]
000000 79 af 05 bd f6 8b cc 3b d1 e9 08 3d da 58 41 bd
       -0.032638047 0.0062422706 0.03342611 -0.047203876
000010 7b cf 83 3d e9 28 a1 bc 70 34 af 3c 0c dd fa 3c
       0.06436058 -0.019672828 0.021387309 0.030622981
000020 0c 87 cc 3b b1 8a c8 3c d8 67 df 3c 09 21 42 bd
       0.006241685 0.024480196 0.027271196 -0.047394786
000030 0d b4 11 bb 58 b5 6f 3c c5 8d ad 3b 19 00 89 3d
       -0.0022232563 0.014630638 0.0052964413 0.06689472
000040 b6 b2 e8 3c 86 cb 30 3d 97 14 80 3c d4 cf f9 bc
       0.028405529 0.043162845 0.015634818 -0.030494608
000050 1f 96 58 3b 8f d5 1a bd 06 70 ae bb 0c 8a 9d 3d
       0.0033048464 -0.03780132 -0.005323413 0.07692346
000060 db ad 38 3d 55 2c 72 3d 90 76 b0 3d 53 91 e0 bc
       0.045087676 0.05912431 0.08616364 -0.027413046
000070 30 c8 01 3d af 27 b5 3c 89 d5 45 bd 66 82 df bd
       0.031685054 0.02211365 -0.048299346 -0.109135434
000080 9b e9 77 3c d4 bd 9b 3b 44 2c da bc 7b f6 8a bc
       0.0151313795 0.004752854 -0.026632436 -0.016963234
000090 2b 01 0c bd 2a df 4a 3a 06 6c 40 3d 41 d5 8d 3a
       -0.0341808 0.00077389425 0.04697802 0.0010821001
0000a0 7f f7 91 3d b3 9a f0 3c b9 52 88 3d a5 40 2f bc
       0.07127284 0.029370641 0.06656403 -0.010696565
0000b0 78 94 d0 bb 73 fa d0 bb 9e 9d 99 3c 8b bf f2 bc
       -0.006365355 -0.006377512 0.018751916 -0.02963235
0000c0 4c 12 3b bd 76 04 a4 3a 87 14 07 3d 9c f1 b6 3c
       -0.045671746 0.0012513536 0.03297856 0.022332005
0000d0 f9 62 82 bb f8 ea 37 3d f3 0f df bc 8e d9 3f 3d
       -0.0039790836 0.044901818 -0.027229285 0.046838336
0000e0 f5 68 d6 3c 4b 8a f1 b8 fe ae 9e 3d 7a 93 88 bc
       0.026173094 -0.000115175346 0.07748221 -0.016671885
0000f0 0e c0 0d 3c 93 cc af bc 1f 37 1e bb c1 c0 e4 ba
       0.008651746 -0.021459853 -0.0024141741 -0.0017452465
000100 4a 41 2b bc 66 94 14 bd 4b 7e c5 bc ee 32 20 3b
       -0.010452578 -0.036274336 -0.024108073 0.002444442
000110 ea 15 04 3d 33 2f 6f bd d8 19 bf bc dc 5a 52 3d
       0.03224746 -0.058394622 -0.023327753 0.05135618
000120 fc ac 10 3d 8a 9a 72 3c 6d be cc 3c 25 1a 09 bd
       0.03532122 0.014807353 0.024993146 -0.0334722
000130 cf 04 22 bd 6b 5a 00 3c d3 44 21 3d e6 43 31 bd
       -0.039555367 0.007834057 0.039372277 -0.043277644
000140 50 2f 9b 3d 74 fa 68 3c 88 18 f1 bc 40 67 a1 3d
       0.075773835 0.014219869 -0.029430643 0.078810215
000150 2f 30 bd bb df 24 46 bd b6 49 18 3d e7 8c 10 3d
       -0.005773566 -0.048375007 0.03717967 0.035290625
000160 cf 7a 3e bc ab fa ad 3c 38 8f b4 bc 1b 31 96 3c
       -0.01162596 0.021237692 -0.022040948 0.018333962
000170 9f 61 fa 3c ad 50 38 3d 40 0b 6a 3b 86 d3 21 3d
       0.030564127 0.044998813 0.0035712272 0.039508365
000180 61 b7 5d 3d 29 e1 5b bd 87 9d 30 3b 07 97 37 3d
       0.054129962 -0.053681526 0.0026949362 0.044821765
000190 e6 16 9c 3c a8 d8 c0 bb 6c 21 6f bd d0 8a 71 3d
       0.019053888 -0.0058852024 -0.058381483 0.058970273
0001a0 5e d9 2d bc 0c 6f 06 3d 41 e9 95 bc d4 d5 b1 3c
       -0.010610906 0.032820746 -0.0182997 0.021708407
0001b0 ac ad eb bb 7a e4 46 3d 34 28 94 bc 8e 44 6d 3c
       -0.007192334 0.048557736 -0.018085577 0.014481677
0001c0 2c c4 d9 bc 2b 12 72 3c d6 c9 04 3d c8 f0 ec 3c
       -0.0265828 0.014774839 0.03241905 0.028923407
0001d0 14 0b 92 bc 10 ac 19 3d 52 7b 88 3c 9d 2d a4 3d
       -0.017827548 0.037517607 0.016660366 0.080165125
0001e0 be 76 05 3d 3b 20 c0 3b 87 e9 32 3c 9a 63 b1 3d
       0.032583944 0.005863217 0.010919935 0.086615756
0001f0 70 53 a9 3c 4f ac ac 3d bf 8d 50 3d a6 05 03 3d
       0.020669669 0.08431303 0.05091643 0.03198781

network_body._body_endoder.seq_layers.0.weight f4 [128, 3]
000000 f0 99 0e bf ef d7 a0 be fb a1 f8 3e 86 af 0b 3f
       -0.5570364 -0.31414744 0.4856108 0.545647
000010 6e 4d d9 3d 25 84 9f 3f d0 81 26 3f 96 61 53 3e
       0.10610472 1.2462202 0.6504183 0.20642695
000020 db 66 34 3f 70 d9 50 3e 13 54 d6 3e 9f 42 ce be
       0.70469445 0.20395446 0.4186102 -0.40285203
000030 9d 45 03 3f 5d cf 27 bf 9d e9 83 3f fb e8 f6 be
       0.51278096 -0.65550786 1.0305668 -0.48224625
000040 11 80 2c 3f 28 2b 44 3e d1 43 2c be a1 b1 00 3f
       0.67382914 0.19157088 -0.16822745 0.5027104
000050 95 8d c2 3e 19 2a 04 3f d1 72 b5 3d dc db be be
       0.37998644 0.51626736 0.0885979 -0.37277114
000060 c4 27 d6 3e d6 66 ef 3d 40 0b d7 3d 9d a1 8e be
       0.41827214 0.11689536 0.10500193 -0.27857676
000070 8f a0 17 bf ee 0b 4e bf 92 db d0 be f5 23 50 bf
       -0.5922937 -0.80486953 -0.4079252 -0.81304866
000080 14 15 e4 3e ed 9f 60 3e 41 85 03 3e 35 b3 fc be
       0.4454733 0.21936007 0.12843801 -0.49355474
000090 97 2c 30 3f 98 58 a6 bc 91 21 19 3e 48 4f 3d bd
       0.6881804 -0.020305917 0.14954211 -0.046218187
0000a0 cb b0 04 3f e2 1d 8a bf ea f5 17 bf a1 6f 58 bf
       0.51832265 -1.079037 -0.5935961 -0.8454533
0000b0 ed 1a 38 bf 93 da fc 3e 1a d5 29 3f ae d7 a4 bd
       -0.71916085 0.4938551 0.6634079 -0.0804895
0000c0 9c dd e3 bd 74 fd d8 be e5 51 53 3f 5b 12 4a be
       -0.11126253 -0.4238087 0.82546836 -0.19733565
0000d0 b3 75 84 bf 68 04 e5 3f 5e e3 a6 bd ab b4 cb be
       -1.0348419 1.789197 -0.081488356 -0.39786276
0000e0 53 97 a6 3e 69 be 32 3f 46 a9 8d be 0b bf 9b be
       0.32537326 0.6982179 -0.27668208 -0.30419192
0000f0 d2 5d 2c bf b8 49 32 bf df 0b 1f 3f 8c f2 fe 3e
       -0.6733066 -0.69643736 0.6212749 0.49794424
000100 ef 98 13 be 03 09 07 3f 27 8e 13 3e 5f 6a 9a 3e
       -0.14413808 0.52748126 0.14409696 0.3015928
000110 dd a8 eb bd b8 2b 79 3f 2d 72 59 bf 5b c1 9c bf
       -0.115068175 0.97332335 -0.84939843 -1.2246507
000120 62 02 93 3f c7 df d9 be 4e 51 66 bf 30 c8 1a be
       1.1485102 -0.4255354 -0.8996781 -0.15115428
000130 4a a4 3b bf 0e 71 07 3e fd 24 4f 3f a6 05 f2 3e
       -0.7329756 0.1322672 0.80915815 0.47269934
000140 1c 4c 31 bf f5 fe 4f bf c6 49 5e be 35 3e 94 3f
       -0.6925676 -0.8124841 -0.2170783 1.1581484
000150 b1 f4 6b be e6 d7 47 be db 9c 35 be c8 65 82 3e
       -0.23042561 -0.19515952 -0.17735617 0.25468278
000160 3d c7 36 3f 25 7b 69 3d 42 e1 0f 3c 38 b2 a6 3e
       0.71397763 0.057002205 0.008781733 0.32557845
000170 af 40 ac be d3 1f d0 3e 7c 83 d9 3e 60 b2 1d ba
       -0.336431 0.4064928 0.42483127 -0.00060156547
000180 49 92 59 bf 76 4e 0e be 63 5c a1 3e c2 3b d5 be
       -0.8498884 -0.13897118 0.31515798 -0.41647154
000190 cc 82 80 3f 22 0b e0 be d0 1a 84 be e7 3f eb 3c
       1.0039916 -0.43758494 -0.25801706 0.028716994
0001a0 8f a3 79 3f ba 4d 05 3d db 2c 30 3f 6b 38 c6 3e
       0.97515196 0.03254483 0.68818444 0.38714918
0001b0 12 56 d9 be c0 65 45 bf f5 d1 f5 3d 51 a9 1c be
       -0.4244848 -0.77108383 0.12002937 -0.15298964
0001c0 38 c0 c0 be 6d 87 83 be 1c 46 17 3e 1f 5b 44 3e
       -0.3764665 -0.2568926 0.14772838 0.19175385
0001d0 b4 a3 6c 3e 4e 61 ee be e2 ca a3 3e 29 d8 b5 3e
       0.23109323 -0.46558613 0.31990725 0.3551648
0001e0 af 44 92 bc f3 ab 26 bf b3 4d 8a bc e5 49 10 be
       -0.017855017 -0.65106124 -0.016882753 -0.14090689
0001f0 41 9b 22 be 15 d5 2d 3e b7 d2 a6 3e b4 cc 74 3d
       -0.15879537 0.16975816 0.32582638 0.059765533
000200 ec 06 4c 3f 2b e3 98 3e 59 b4 ee 3e 96 2c 0f 3f
       0.7969806 0.29860815 0.4662197 0.5592741
000210 42 e2 e9 bd e0 f9 73 3d 77 4d 29 3f 53 67 d6 3e
       -0.114201084 0.05956447 0.66133827 0.41875705
000220 68 f0 64 be 9b 20 a9 be be 3b eb be c0 b2 cc be
       -0.22357333 -0.33032688 -0.45944017 -0.39980125
000230 3d 20 87 3d 7b c2 10 3f 77 92 9c 3e 9b ea 95 bc
       0.06597946 0.56546754 0.30580494 -0.018300345
000240 d4 16 2c bf 10 c1 9c be ef d7 eb 3e 54 56 db bd
       -0.6722233 -0.30616045 0.46063182 -0.10709825
000250 98 99 d4 be 13 40 bb 3e e3 35 83 bb 85 ff 89 3e
       -0.41523433 0.36572322 -0.0040042265 0.26952758
000260 a2 52 23 3f a6 1a d8 bd b9 f3 1f 3d e4 33 82 3e
       0.6379796 -0.10551958 0.03905079 0.25430214
000270 16 a8 db be e8 ec de bd 4e 01 68 3d 92 ef a1 3f
       -0.42901677 -0.1088503 0.05664187 1.2651236
000280 18 71 77 be 6c e8 7a bf c2 af 45 bf ae 1c 06 bf
       -0.24164236 -0.980109 -0.7722131 -0.5238751
000290 f1 62 0a bf ba 1c b7 bd 08 fe 32 bf d5 83 81 3e
       -0.5405722 -0.08941026 -0.6991887 0.25295892
0002a0 46 25 0f bf b4 ba f0 3e ab 17 1c 3f 61 d3 1f bf
       -0.5591625 0.47017443 0.60973614 -0.62431914
0002b0 56 11 96 be 4d 58 75 be 38 10 34 3f 15 7d 2c bf
       -0.293101 -0.23959465 0.7033725 -0.6737836
0002c0 88 aa d1 be aa 3d b8 be 99 ec 8b be 11 ef d3 be
       -0.40950418 -0.35984546 -0.27328947 -0.4139333
0002d0 ed 3b 96 bc d6 bd 8d 3e e6 10 86 3f c9 8d 5f 3e
       -0.018339122 0.27683896 1.0473907 0.2183143
0002e0 38 7b 83 bf 3e c1 fc 3d d3 00 1b bf df 7d c1 3e
       -1.0271978 0.123415455 -0.6054813 0.37791345
0002f0 70 c4 38 bf 26 7a d7 3e 87 a8 3a 3e 5f 2b d2 bc
       -0.7217474 0.4208538 0.1822835 -0.025655447
000300 fb 9e b5 bf fa e7 3c 3e c2 00 ef 3e 8c 6c 45 3f
       -1.4189142 0.18447867 0.46680266 0.77118754
000310 9c 71 d0 3e 8c 62 39 3e 8a 02 b7 be 5c a6 de bd
       0.40711677 0.18103999 -0.35744125 -0.10871574
000320 68 80 c4 be 32 68 2e 3f ac 52 53 3f 6b 8b fa 3e
       -0.38379216 0.6812774 0.8254802 0.48934492
000330 ea 8e 46 be 59 5f a1 3e d8 8f 16 bd e7 7a 0e 3f
       -0.19390455 0.31518057 -0.036758274 0.55656284
000340 c3 7f c3 bd 3a bd 59 be cd a9 4e be a0 06 db 3e
       -0.09545853 -0.2126359 -0.20181961 0.42778492
000350 0f 44 9a be c7 aa 4a bf b4 f6 0a 3e 6e ac e0 be
       -0.3013005 -0.79166836 0.13570672 -0.43881553
000360 25 7d 3c be d9 29 08 3d c0 f5 90 3d 56 b4 7f be
       -0.18407114 0.033243034 0.07078123 -0.24971136
000370 37 c6 4b be b6 40 7e bf 88 58 a0 3e f0 b3 d8 be
       -0.19899832 -0.9931749 0.31317544 -0.4232478
000380 59 84 df be 9f 93 08 bf 8f ee 64 be 85 f3 35 be
       -0.4365566 -0.5335025 -0.22356628 -0.17768677
000390 3e f8 e2 3e d4 cf 12 3f c9 31 19 3f 2a 2b 8d be
       0.4433002 0.5734837 0.5984159 -0.27571994
0003a0 8a 40 7f bf c1 79 82 bf 66 0b 6c 3f cd 64 93 3e
       -0.99707854 -1.0193406 0.9220489 0.28787842
0003b0 20 9b 8f 3e 33 91 c9 3e 28 e7 41 3f cf 79 22 3f
       0.28048038 0.3936859 0.7574334 0.63467115
0003c0 a8 84 39 3f f3 45 00 bf 23 28 83 3e cb ef 75 3e
       0.7246804 -0.50106734 0.2561656 0.24017255
0003d0 c2 6c 12 bf 0d d1 16 bf dc 54 2d 3f 10 9e 67 be
       -0.571972 -0.58912736 0.6770761 -0.2261889
0003e0 64 ef 8e 3e 5c a7 39 3e 94 44 bf be f5 f9 2c 3a
       0.27917016 0.18130249 -0.37357008 0.0006598526
0003f0 d5 22 3c bf 04 c4 99 3f 5c d7 52 bf 78 b5 0c bb
       -0.7349065 1.2012944 -0.8235986 -0.0021470468

network_body._body_endoder.seq_layers.2.bias f4 [128]
000000 b1 48 fe bc f9 6e c1 3c a4 a5 27 3a 96 0a f7 bb
       -0.031040521 0.023612486 0.0006395227 -0.0075391037
000010 c1 45 f4 3c 47 70 66 3d 21 ba 0d 3d d3 6a 39 bd
       0.029818418 0.05625942 0.034601334 -0.04526789
000020 f7 02 06 bd c9 cb 17 3d cd aa 81 3d a3 d2 c4 bb
       -0.03271767 0.03705958 0.06331406 -0.006006555
000030 73 1b 8e bc 71 29 7f 3c 3c c1 b1 3c c3 c1 b7 bd
       -0.017347073 0.015573845 0.021698587 -0.08972504
000040 ae b8 da 3d 0d 2d c5 bb a6 9a e6 bc 80 26 24 bd
       0.10679756 -0.0060173334 -0.028149914 -0.04007578
000050 b2 07 bc 3d d3 2f 50 3d c1 ce 4c 3d 71 6a 8c 3c
       0.09181155 0.05082686 0.050001863 0.017140599
000060 3c 7b b2 3d 83 a1 2c 3d a2 24 f3 3c 57 df 8e bd
       0.08714911 0.042146217 0.029680554 -0.069761924
000070 ef bf eb 3c 91 a3 64 3d d4 17 57 bc 81 93 9c 3b
       0.028778045 0.05582005 -0.01312824 0.004778326
000080 27 de 4b 3b ee 1f e1 bc 95 17 fc 3c 5c 6f fe 3c
       0.0031107755 -0.027481046 0.030772964 0.03105896
000090 ac 66 4e 3d d7 72 87 bd a8 ec 07 3d 10 4d f2 3b
       0.050390884 -0.06613701 0.033184677 0.0073944405
0000a0 73 93 14 bd 91 ca f9 bc 22 c2 84 bd d1 df 95 bd
       -0.03627343 -0.030492099 -0.064823404 -0.0731808
0000b0 22 3f 57 3c 6d bd a3 bc e3 42 2b 3d 50 79 56 3d
       0.013137611 -0.019987786 0.041811835 0.052361786
0000c0 08 30 dc 3b 15 36 44 3d da c0 86 bc 09 cd 6c bd
       0.006719593 0.04790314 -0.01644938 -0.057812724
0000d0 20 a2 ba bc 0c e5 96 3a 38 1a df bb 9b be 6d bd
       -0.022782385 0.0011512353 -0.0068085454 -0.058043104
0000e0 b8 a7 31 bd 5c 4d 32 3d a4 17 6a bd da 9e 00 3d
       -0.04337284 0.043530807 -0.05715145 0.031401493
0000f0 b6 58 11 3d 51 43 87 bc 4e 21 00 3d 88 4b 75 ba
       0.035484992 -0.016511591 0.03128176 -0.00093572633
000100 26 e1 14 bd a4 80 4c 3d 31 d6 f3 bc 9f cd 75 bd
       -0.03634753 0.04992737 -0.02976522 -0.06001055
000110 4e 02 ca bb f4 95 0e 3d e8 49 e6 bb 38 17 a2 3b
       -0.0061648255 0.034810975 -0.0070278533 0.0049466155
000120 8b a6 01 3d c3 f2 fe 3b cd af 37 3d 76 47 2e 3d
       0.03165297 0.0077804043 0.04484539 0.04254862
000130 16 fb 16 3d 6a 8c 3b bd 99 6b b4 bb e1 49 d1 3d
       0.036860548 -0.045788206 -0.0055059907 0.102191694
000140 c3 36 c9 3d 37 53 81 3c 1c 5f 73 3d b0 74 01 bc
       0.09824898 0.01578675 0.059416875 -0.007901356
000150 cf df b8 3c 0e ae bb 3c ae 2b 07 3d 66 8a ce bc
       0.022567658 0.022910144 0.03300064 -0.025212478
000160 f0 d7 81 3d 28 e2 2a 3d 49 f0 00 bc cc 01 26 3d
       0.06340015 0.041719586 -0.007869788 0.040529057
000170 74 85 41 bc 8b e5 79 3d ec d1 08 bd b7 5e 2f 3d
       -0.011811603 0.061009925 -0.033403322 0.042814936
000180 ce 20 7f bc 65 d7 1b 3c 72 49 cd 3d 38 f7 51 3d
       -0.015571786 0.009511803 0.10023774 0.051261157
000190 49 4e 16 3d 9d 03 b4 bc 45 a8 4c 3d 50 02 30 bc
       0.036695752 -0.02197438 0.04996516 -0.010742739
0001a0 2a 32 dc 3c 83 d9 23 3d 42 e2 b5 3d 20 98 ef bc
       0.026879389 0.040002357 0.08881046 -0.029247344
0001b0 50 2b d7 bc b2 b2 4f bd e4 ec 2f 3d 2f 40 bf 3c
       -0.02626577 -0.050707527 0.042950526 0.023346035
0001c0 a3 e4 88 3b dd 96 74 3c 88 97 19 3d 40 3e 25 3d
       0.0041776462 0.014928547 0.037498027 0.04034257
0001d0 73 39 ae 3c f4 7d 1c bd e8 b6 28 3d dd 51 18 3d
       0.021267628 -0.038206056 0.041190058 0.037187446
0001e0 b2 70 fd bc 99 61 eb 3c 52 39 be bd fa 1c 61 3d
       -0.030937526 0.028733062 -0.09288277 0.054959275
0001f0 0c cb ff 3c 81 4c f5 bc 35 55 29 3d 46 64 fb 3c
       0.03122475 -0.029943706 0.041341025 0.030687463

network_body._body_endoder.seq_layers.2.weight f4 [128, 128]
000000 a9 a7 9e 3d 19 15 97 3d 4d 28 93 bd e5 8a e7 3d
       0.077468224 0.07377071 -0.07185421 0.11305789
000010 07 a6 b3 bc 10 f5 0b 3e 36 3f 60 bd 5a 2e 6a be
       -0.021929754 0.13667703 -0.054747783 -0.22869244
000020 85 0f 3a 3e e7 51 28 be c9 e2 8f 3d 4e 4a 98 3c
       0.18169983 -0.16437493 0.07025678 0.018590119
000030 6b a5 c9 bd 68 9f 61 3d 08 a5 4c bd c3 b9 ee 3c
       -0.09846004 0.055083662 -0.049962074 0.029141312
000040 b0 34 a2 3c d3 56 2a be 2c 2c c8 bd 88 45 02 3e
       0.019800514 -0.16634683 -0.0977405 0.12721837
000050 a0 a3 f5 bd df 80 eb bc dc c4 cb 3d 9d 5d b4 3c
       -0.119940996 -0.028747974 0.09949657 0.022017295
000060 46 13 bf bd 5a ba cc 3d b7 49 c3 3c 42 6e 17 bd
       -0.09329848 0.09996481 0.02383886 -0.036970384
000070 92 df 1a 3d da 59 e1 bc 2f f1 3b be df a2 42 be
       0.03781087 -0.027508665 -0.18353723 -0.19007443
000080 6b 39 5b 3e a4 30 e6 3d 8d ed 12 3e 59 78 a2 bd
       0.21408622 0.11239746 0.14348431 -0.07933111
000090 59 0f 9a 3d 73 67 e0 bc 8e 46 81 3e 74 8e 3e be
       0.075224586 -0.027393078 0.2524914 -0.18609029
0000a0 82 72 82 bd 6b 63 4b 3d d1 06 d1 3d d2 68 e5 bd
       -0.06369497 0.04965536 0.10206378 -0.112016335
0000b0 30 3a da bc bf 2e e4 3d 62 84 bc 3c 68 40 45 bd
       -0.026639074 0.111417286 0.023012344 -0.048157126
0000c0 8a fa 6a bd 97 c8 ec bc f5 16 13 bc fc 19 ba bc
       -0.05736784 -0.028904242 -0.008977641 -0.022717468
0000d0 96 9b 5c 3d f2 2c 59 bd b5 81 42 3d 31 6e 55 bc
       0.053859316 -0.05302138 0.04748698 -0.01302676
0000e0 bf f4 a4 bd e7 82 30 3e 17 10 a9 3a 6f d9 08 3c
       -0.08054494 0.17237435 0.0012898472 0.008352621
0000f0 7a e1 bc 3d 56 08 d0 3d 89 9e 00 ba fd 24 4b 3c
       0.09222694 0.1015784 -0.0004906436 0.012398955
000100 f6 d9 4e 3d 0b ab a9 bd 27 5c 0f 3c 27 7a 73 3d
       0.050500832 -0.08284577 0.008749998 0.059442665
000110 f8 f8 03 3d b3 28 80 3d f0 1a 39 bd 02 8e 87 bd
       0.032219857 0.06257763 -0.045191705 -0.06618883
000120 fa 2f 9e bc f5 62 32 3d 00 b0 2d bd f6 ef 83 3d
       -0.019309986 0.043551404 -0.042404175 0.06442253
000130 a5 d3 1b 3e dc 73 e0 3d 56 f8 00 3c db a1 75 3e
       0.15217455 0.109595984 0.007871708 0.23987524
000140 ef 7d 6d 3d 5d 96 fb bd a7 7c 29 3d 43 6c 39 3d
       0.057981428 -0.12284539 0.041378643 0.045269262
000150 77 14 dc 3d 1f 9c 86 3d 01 58 07 bd bc 1e e7 bd
       0.10746091 0.065727465 -0.03304291 -0.11285159
000160 b3 05 36 3e a2 80 26 bd 54 0a 0f 3d cf 1c ae 3d
       0.17775612 -0.040650018 0.03492196 0.085015886
000170 66 98 26 3e 12 9c c2 bc b5 dc 67 3d 25 24 0c bd
       0.16269073 -0.02375606 0.056606967 -0.034214158
000180 1d cf 0f 3e 75 8e e1 3c a8 2e d0 3c 6e 1b 8c ba
       0.14043851 0.02753375 0.025412872 -0.0010689327
000190 42 8b 64 3b d1 1d 0b bd ed 1a 83 3c 3c 4b 5b 3e
       0.0034873043 -0.033963982 0.01600405 0.21415418
0001a0 17 19 86 3d be 72 04 bd f5 52 59 3d ec 18 8e 3d
       0.06547754 -0.03233599 0.05305763 0.06938347
0001b0 75 44 26 be 04 de c0 bc e9 c7 d6 bd e6 2b 99 bc
       -0.16237052 -0.023543365 -0.104873486 -0.01869769
0001c0 b5 00 34 3e 86 25 e3 bb bc 11 02 be ff d3 2e be
       0.17578395 -0.0069319634 -0.12702078 -0.17073058
0001d0 2c 0e 2f 3d 7c e3 5d 3d 7c f1 08 be 19 b0 83 3b
       0.042738125 0.054172024 -0.13373369 0.004018795
0001e0 00 dd 44 bd 2c c0 25 3e 03 b5 fb bd 35 fe 2b 3e
       -0.048062325 0.16186589 -0.122903846 0.16796191
0001f0 3e b2 e7 bd 8d ba ae bc c2 e1 fb 3c 5f cd 26 bc
       -0.11313294 -0.021329189 0.030747298 -0.0101808
000200 52 4f ba bc f2 4f c3 bd 2e 55 22 bd 77 c7 92 bd
       -0.022742901 -0.09536733 -0.039632015 -0.07166951
000210 a1 e8 9d bc 61 1c fa bd fc 7a 02 3d 8d 7f a6 bd
       -0.019275965 -0.12212444 0.03185557 -0.08129797
000220 0c 6d 07 3e 13 20 32 be 1e 50 a2 bc b2 7a e8 3d
       0.13225192 -0.17395048 -0.019813593 0.11351527
000230 d9 6e 2d 3e eb 5d 19 be f1 2d d5 bd eb 33 52 bd
       0.16936816 -0.14977233 -0.10409153 -0.051319044
000240 51 4b c8 3d 7c 56 1f be b6 69 49 3d 85 47 23 3e
       0.097799905 -0.15560335 0.04917308 0.15945251
000250 ab 0f 4f 3d ee 6d e9 bd 18 f2 1f 3d 29 35 5a 3d
       0.05055205 -0.113979205 0.039049238 0.053273354
000260 54 da fc bc 08 63 d1 bd be e1 c0 3d 41 23 01 3d
       -0.030865826 -0.10223967 0.09418057 0.03152776
000270 4a e5 08 bd 15 1a 79 bd 2f 5d 58 bb 53 5f 64 bd
       -0.033421792 -0.06081589 -0.0033014526 -0.05575497
000280 4c da a0 bc 15 62 5f 3d 48 61 a2 bc 3a b2 5e bd
       -0.019635342 0.054536898 -0.019821778 -0.05436919
000290 85 a7 5e bb ad 19 06 3e fb 3e 67 3e f6 0f 20 be
       -0.003397436 0.13095732 0.22582619 -0.15631089
0002a0 f2 f6 0d 3e e3 e8 19 3d fa 87 f2 3d eb fd 4e be
       0.13863733 0.037575614 0.11842342 -0.2021405
0002b0 02 08 1d be 57 2d b8 bc 8a ff 18 3e e3 cf 62 3d
       -0.15335086 -0.022482557 0.1494123 0.055374037
0002c0 89 59 38 be 5a 3a 8f bd 18 35 8e bd 9d f0 3f bd
       -0.18002905 -0.069935516 -0.069437206 -0.046860326
0002d0 41 22 82 3e 4e 5b 06 3e ac b6 c8 bd e8 20 21 3d
       0.2541676 0.13120767 -0.09800467 0.039338022
0002e0 48 f4 48 3e 85 a2 ba 3d 7d b5 d4 bc 81 c3 1e 3c
       0.19624436 0.091130294 -0.025965447 0.009690166
0002f0 91 6d 50 bd 2a ad 70 3d a5 ff 2c 3e 41 b3 84 3d
       -0.05088574 0.058758892 0.16894396 0.064795025
000300 bc 63 74 3d 07 42 c7 3c 7f 6d f2 bd a3 51 c8 bd
       0.059665427 0.024323476 -0.11837291 -0.09781196
000310 e5 63 c0 3d b0 63 32 bd 10 99 81 3d 09 f4 6e 3c
       0.09394053 -0.0435521 0.063280225 0.01458455
000320 1a 76 4a bc 7c 5f 18 3c eb 7b 59 3e e7 20 ff bc
       -0.012357259 0.009300109 0.21238677 -0.031143619
000330 81 01 e3 bd 42 74 c5 3d 38 a8 e4 bd 9b 05 e7 3b
       -0.11084271 0.09641315 -0.11164898 0.007050229
000340 fd 7f e1 bc 10 c6 57 3d 62 2b 31 be a2 8f ce bc
       -0.02752685 0.05267912 -0.17301705 -0.025214974
000350 50 a9 a7 3b f0 9f c0 bd 63 2f 30 3d aa 69 60 3e
       0.005116619 -0.09405506 0.04301394 0.21915308
000360 4c 1c c4 bd 07 a7 03 3d b6 9d 69 3d 7a e6 94 38
       -0.0957571 0.03214171 0.05703517 7.1001195e-05
000370 c8 16 53 3d ff 32 20 bd a9 29 51 bd 72 cd a3 3d
       0.051535398 -0.039111134 -0.05106512 0.0799817
000380 26 bb d9 bd 28 1c 17 bd 1a f2 21 bc 80 82 23 3c
       -0.10631399 -0.036892086 -0.009884382 0.009979844
000390 b2 44 19 3d db 29 8a 3c 3e 0b 22 3e 1b 50 d5 bc
       0.03741903 0.016865661 0.15824601 -0.026039174
0003a0 b0 51 cd 3d ab 5c c9 bd 75 9e 03 3e 58 4c f9 3c
       0.10025346 -0.09832128 0.12853415 0.030431911
0003b0 54 0b 09 3e 50 bd ba 3c f6 dd 24 3e 36 bb cf ba
       0.13383228 0.02279535 0.16100296 -0.001584864
0003c0 85 e7 68 bc 23 bb 2e be 17 df 37 bd e1 a7 a2 bd
       -0.014215355 -0.17063574 -0.04489049 -0.079421766
0003d0 67 ac 9d 3d 28 1d 53 3c a3 0a 1e be 14 05 24 bd
       0.07698899 0.012885369 -0.15433745 -0.040043905
0003e0 11 68 bd 3d cc e4 87 bd ac df de 3d 6e 2f 30 3d
       0.09248365 -0.066354364 0.10882506 0.043013982
0003f0 80 a7 a4 bd 18 99 3a 3c 98 88 5a bd 76 7a c5 bd
       -0.080397606 0.011389039 -0.053352922 -0.09642498
