results/Test2/Test2/Test2-175792.pt (torch, 429983 bytes, 36 tensors)

network_body._body_endoder.seq_layers.0.weight f4 [128, 3]
-0.5570364 -0.31414744 0.4856108 0.545647 0.10610472 1.2462202 0.6504183 0.20642695
0.70469445 0.20395446 0.4186102 -0.40285203 0.51278096 -0.65550786 1.0305668 -0.48224625
0.67382914 0.19157088 -0.16822745 0.5027104 0.37998644 0.51626736 0.0885979 -0.37277114
0.41827214 0.11689536 0.10500193 -0.27857676 -0.5922937 -0.80486953 -0.4079252 -0.81304866
0.4454733 0.21936007 0.12843801 -0.49355474 0.6881804 -0.020305917 0.14954211 -0.046218187
0.51832265 -1.079037 -0.5935961 -0.8454533 -0.71916085 0.4938551 0.6634079 -0.0804895
-0.11126253 -0.4238087 0.82546836 -0.19733565 -1.0348419 1.789197 -0.081488356 -0.39786276
0.32537326 0.6982179 -0.27668208 -0.30419192 -0.6733066 -0.69643736 0.6212749 0.49794424
-0.14413808 0.52748126 0.14409696 0.3015928 -0.115068175 0.97332335 -0.84939843 -1.2246507
1.1485102 -0.4255354 -0.8996781 -0.15115428 -0.7329756 0.1322672 0.80915815 0.47269934
-0.6925676 -0.8124841 -0.2170783 1.1581484 -0.23042561 -0.19515952 -0.17735617 0.25468278
0.71397763 0.057002205 0.008781733 0.32557845 -0.336431 0.4064928 0.42483127 -0.00060156547
-0.8498884 -0.13897118 0.31515798 -0.41647154 1.0039916 -0.43758494 -0.25801706 0.028716994
0.97515196 0.03254483 0.68818444 0.38714918 -0.4244848 -0.77108383 0.12002937 -0.15298964
-0.3764665 -0.2568926 0.14772838 0.19175385 0.23109323 -0.46558613 0.31990725 0.3551648
-0.017855017 -0.65106124 -0.016882753 -0.14090689 -0.15879537 0.16975816 0.32582638 0.059765533
0.7969806 0.29860815 0.4662197 0.5592741 -0.114201084 0.05956447 0.66133827 0.41875705
-0.22357333 -0.33032688 -0.45944017 -0.39980125 0.06597946 0.56546754 0.30580494 -0.018300345
-0.6722233 -0.30616045 0.46063182 -0.10709825 -0.41523433 0.36572322 -0.0040042265 0.26952758
0.6379796 -0.10551958 0.03905079 0.25430214 -0.42901677 -0.1088503 0.05664187 1.2651236
-0.24164236 -0.980109 -0.7722131 -0.5238751 -0.5405722 -0.08941026 -0.6991887 0.25295892
-0.5591625 0.47017443 0.60973614 -0.62431914 -0.293101 -0.23959465 0.7033725 -0.6737836
-0.40950418 -0.35984546 -0.27328947 -0.4139333 -0.018339122 0.27683896 1.0473907 0.2183143
-1.0271978 0.123415455 -0.6054813 0.37791345 -0.7217474 0.4208538 0.1822835 -0.025655447
-1.4189142 0.18447867 0.46680266 0.77118754 0.40711677 0.18103999 -0.35744125 -0.10871574
-0.38379216 0.6812774 0.8254802 0.48934492 -0.19390455 0.31518057 -0.036758274 0.55656284
-0.09545853 -0.2126359 -0.20181961 0.42778492 -0.3013005 -0.79166836 0.13570672 -0.43881553
-0.18407114 0.033243034 0.07078123 -0.24971136 -0.19899832 -0.9931749 0.31317544 -0.4232478
-0.4365566 -0.5335025 -0.22356628 -0.17768677 0.4433002 0.5734837 0.5984159 -0.27571994
-0.99707854 -1.0193406 0.9220489 0.28787842 0.28048038 0.3936859 0.7574334 0.63467115
0.7246804 -0.50106734 0.2561656 0.24017255 -0.571972 -0.58912736 0.6770761 -0.2261889
0.27917016 0.18130249 -0.37357008 0.0006598526 -0.7349065 1.2012944 -0.8235986 -0.0021470468
00000000: f099 0ebf efd7 a0be fba1 f83e 86af 0b3f
00000010: 6e4d d93d 2584 9f3f d081 263f 9661 533e
00000020: db66 343f 70d9 503e 1354 d63e 9f42 cebe
00000030: 9d45 033f 5dcf 27bf 9de9 833f fbe8 f6be
00000040: 1180 2c3f 282b 443e d143 2cbe a1b1 003f
00000050: 958d c23e 192a 043f d172 b53d dcdb bebe
00000060: c427 d63e d666 ef3d 400b d73d 9da1 8ebe
00000070: 8fa0 17bf ee0b 4ebf 92db d0be f523 50bf
00000080: 1415 e43e ed9f 603e 4185 033e 35b3 fcbe
00000090: 972c 303f 9858 a6bc 9121 193e 484f 3dbd
000000a0: cbb0 043f e21d 8abf eaf5 17bf a16f 58bf
000000b0: ed1a 38bf 93da fc3e 1ad5 293f aed7 a4bd
000000c0: 9cdd e3bd 74fd d8be e551 533f 5b12 4abe
000000d0: b375 84bf 6804 e53f 5ee3 a6bd abb4 cbbe
000000e0: 5397 a63e 69be 323f 46a9 8dbe 0bbf 9bbe
000000f0: d25d 2cbf b849 32bf df0b 1f3f 8cf2 fe3e
00000100: ef98 13be 0309 073f 278e 133e 5f6a 9a3e
00000110: dda8 ebbd b82b 793f 2d72 59bf 5bc1 9cbf
00000120: 6202 933f c7df d9be 4e51 66bf 30c8 1abe
00000130: 4aa4 3bbf 0e71 073e fd24 4f3f a605 f23e
00000140: 1c4c 31bf f5fe 4fbf c649 5ebe 353e 943f
00000150: b1f4 6bbe e6d7 47be db9c 35be c865 823e
00000160: 3dc7 363f 257b 693d 42e1 0f3c 38b2 a63e
00000170: af40 acbe d31f d03e 7c83 d93e 60b2 1dba
00000180: 4992 59bf 764e 0ebe 635c a13e c23b d5be
00000190: cc82 803f 220b e0be d01a 84be e73f eb3c
000001a0: 8fa3 793f ba4d 053d db2c 303f 6b38 c63e
000001b0: 1256 d9be c065 45bf f5d1 f53d 51a9 1cbe
000001c0: 38c0 c0be 6d87 83be 1c46 173e 1f5b 443e
000001d0: b4a3 6c3e 4e61 eebe e2ca a33e 29d8 b53e
000001e0: af44 92bc f3ab 26bf b34d 8abc e549 10be
000001f0: 419b 22be 15d5 2d3e b7d2 a63e b4cc 743d
00000200: ec06 4c3f 2be3 983e 59b4 ee3e 962c 0f3f
00000210: 42e2 e9bd e0f9 733d 774d 293f 5367 d63e
00000220: 68f0 64be 9b20 a9be be3b ebbe c0b2 ccbe
00000230: 3d20 873d 7bc2 103f 7792 9c3e 9bea 95bc
00000240: d416 2cbf 10c1 9cbe efd7 eb3e 5456 dbbd
00000250: 9899 d4be 1340 bb3e e335 83bb 85ff 893e
00000260: a252 233f a61a d8bd b9f3 1f3d e433 823e
00000270: 16a8 dbbe e8ec debd 4e01 683d 92ef a13f
00000280: 1871 77be 6ce8 7abf c2af 45bf ae1c 06bf
00000290: f162 0abf ba1c b7bd 08fe 32bf d583 813e
000002a0: 4625 0fbf b4ba f03e ab17 1c3f 61d3 1fbf
000002b0: 5611 96be 4d58 75be 3810 343f 157d 2cbf
000002c0: 88aa d1be aa3d b8be 99ec 8bbe 11ef d3be
000002d0: ed3b 96bc d6bd 8d3e e610 863f c98d 5f3e
000002e0: 387b 83bf 3ec1 fc3d d300 1bbf df7d c13e
000002f0: 70c4 38bf 267a d73e 87a8 3a3e 5f2b d2bc
00000300: fb9e b5bf fae7 3c3e c200 ef3e 8c6c 453f
00000310: 9c71 d03e 8c62 393e 8a02 b7be 5ca6 debd
00000320: 6880 c4be 3268 2e3f ac52 533f 6b8b fa3e
00000330: ea8e 46be 595f a13e d88f 16bd e77a 0e3f
00000340: c37f c3bd 3abd 59be cda9 4ebe a006 db3e
00000350: 0f44 9abe c7aa 4abf b4f6 0a3e 6eac e0be
00000360: 257d 3cbe d929 083d c0f5 903d 56b4 7fbe
00000370: 37c6 4bbe b640 7ebf 8858 a03e f0b3 d8be
00000380: 5984 dfbe 9f93 08bf 8fee 64be 85f3 35be
00000390: 3ef8 e23e d4cf 123f c931 193f 2a2b 8dbe
000003a0: 8a40 7fbf c179 82bf 660b 6c3f cd64 933e
000003b0: 209b 8f3e 3391 c93e 28e7 413f cf79 223f
000003c0: a884 393f f345 00bf 2328 833e cbef 753e
000003d0: c26c 12bf 0dd1 16bf dc54 2d3f 109e 67be
000003e0: 64ef 8e3e 5ca7 393e 9444 bfbe f5f9 2c3a
000003f0: d522 3cbf 04c4 993f 5cd7 52bf 78b5 0cbb

network_body._body_endoder.seq_layers.0.bias f4 [128]
-0.032638047 0.0062422706 0.03342611 -0.047203876 0.06436058 -0.019672828 0.021387309 0.030622981
0.006241685 0.024480196 0.027271196 -0.047394786 -0.0022232563 0.014630638 0.0052964413 0.06689472
0.028405529 0.043162845 0.015634818 -0.030494608 0.0033048464 -0.03780132 -0.005323413 0.07692346
0.045087676 0.05912431 0.08616364 -0.027413046 0.031685054 0.02211365 -0.048299346 -0.109135434
0.0151313795 0.004752854 -0.026632436 -0.016963234 -0.0341808 0.00077389425 0.04697802 0.0010821001
0.07127284 0.029370641 0.06656403 -0.010696565 -0.006365355 -0.006377512 0.018751916 -0.02963235
-0.045671746 0.0012513536 0.03297856 0.022332005 -0.0039790836 0.044901818 -0.027229285 0.046838336
0.026173094 -0.000115175346 0.07748221 -0.016671885 0.008651746 -0.021459853 -0.0024141741 -0.0017452465
-0.010452578 -0.036274336 -0.024108073 0.002444442 0.03224746 -0.058394622 -0.023327753 0.05135618
0.03532122 0.014807353 0.024993146 -0.0334722 -0.039555367 0.007834057 0.039372277 -0.043277644
0.075773835 0.014219869 -0.029430643 0.078810215 -0.005773566 -0.048375007 0.03717967 0.035290625
-0.01162596 0.021237692 -0.022040948 0.018333962 0.030564127 0.044998813 0.0035712272 0.039508365
0.054129962 -0.053681526 0.0026949362 0.044821765 0.019053888 -0.0058852024 -0.058381483 0.058970273
-0.010610906 0.032820746 -0.0182997 0.021708407 -0.007192334 0.048557736 -0.018085577 0.014481677
-0.0265828 0.014774839 0.03241905 0.028923407 -0.017827548 0.037517607 0.016660366 0.080165125
0.032583944 0.005863217 0.010919935 0.086615756 0.020669669 0.08431303 0.05091643 0.03198781
00000000: 79af 05bd f68b cc3b d1e9 083d da58 41bd
00000010: 7bcf 833d e928 a1bc 7034 af3c 0cdd fa3c
00000020: 0c87 cc3b b18a c83c d867 df3c 0921 42bd
00000030: 0db4 11bb 58b5 6f3c c58d ad3b 1900 893d
00000040: b6b2 e83c 86cb 303d 9714 803c d4cf f9bc
00000050: 1f96 583b 8fd5 1abd 0670 aebb 0c8a 9d3d
00000060: dbad 383d 552c 723d 9076 b03d 5391 e0bc
00000070: 30c8 013d af27 b53c 89d5 45bd 6682 dfbd
00000080: 9be9 773c d4bd 9b3b 442c dabc 7bf6 8abc
00000090: 2b01 0cbd 2adf 4a3a 066c 403d 41d5 8d3a
000000a0: 7ff7 913d b39a f03c b952 883d a540 2fbc
000000b0: 7894 d0bb 73fa d0bb 9e9d 993c 8bbf f2bc
000000c0: 4c12 3bbd 7604 a43a 8714 073d 9cf1 b63c
000000d0: f962 82bb f8ea 373d f30f dfbc 8ed9 3f3d
000000e0: f568 d63c 4b8a f1b8 feae 9e3d 7a93 88bc
000000f0: 0ec0 0d3c 93cc afbc 1f37 1ebb c1c0 e4ba
00000100: 4a41 2bbc 6694 14bd 4b7e c5bc ee32 203b
00000110: ea15 043d 332f 6fbd d819 bfbc dc5a 523d
00000120: fcac 103d 8a9a 723c 6dbe cc3c 251a 09bd
00000130: cf04 22bd 6b5a 003c d344 213d e643 31bd
00000140: 502f 9b3d 74fa 683c 8818 f1bc 4067 a13d
00000150: 2f30 bdbb df24 46bd b649 183d e78c 103d
00000160: cf7a 3ebc abfa ad3c 388f b4bc 1b31 963c
00000170: 9f61 fa3c ad50 383d 400b 6a3b 86d3 213d
00000180: 61b7 5d3d 29e1 5bbd 879d 303b 0797 373d
00000190: e616 9c3c a8d8 c0bb 6c21 6fbd d08a 713d
000001a0: 5ed9 2dbc 0c6f 063d 41e9 95bc d4d5 b13c
000001b0: acad ebbb 7ae4 463d 3428 94bc 8e44 6d3c
000001c0: 2cc4 d9bc 2b12 723c d6c9 043d c8f0 ec3c
000001d0: 140b 92bc 10ac 193d 527b 883c 9d2d a43d
000001e0: be76 053d 3b20 c03b 87e9 323c 9a63 b13d
000001f0: 7053 a93c 4fac ac3d bf8d 503d a605 033d

network_body._body_endoder.seq_layers.2.weight f4 [128, 128]
0.077468224 0.07377071 -0.07185421 0.11305789 -0.021929754 0.13667703 -0.054747783 -0.22869244
0.18169983 -0.16437493 0.07025678 0.018590119 -0.09846004 0.055083662 -0.049962074 0.029141312
0.019800514 -0.16634683 -0.0977405 0.12721837 -0.119940996 -0.028747974 0.09949657 0.022017295
-0.09329848 0.09996481 0.02383886 -0.036970384 0.03781087 -0.027508665 -0.18353723 -0.19007443
0.21408622 0.11239746 0.14348431 -0.07933111 0.075224586 -0.027393078 0.2524914 -0.18609029
-0.06369497 0.04965536 0.10206378 -0.112016335 -0.026639074 0.111417286 0.023012344 -0.048157126
-0.05736784 -0.028904242 -0.008977641 -0.022717468 0.053859316 -0.05302138 0.04748698 -0.01302676
-0.08054494 0.17237435 0.0012898472 0.008352621 0.09222694 0.1015784 -0.0004906436 0.012398955
0.050500832 -0.08284577 0.008749998 0.059442665 0.032219857 0.06257763 -0.045191705 -0.06618883
-0.019309986 0.043551404 -0.042404175 0.06442253 0.15217455 0.109595984 0.007871708 0.23987524
0.057981428 -0.12284539 0.041378643 0.045269262 0.10746091 0.065727465 -0.03304291 -0.11285159
0.17775612 -0.040650018 0.03492196 0.085015886 0.16269073 -0.02375606 0.056606967 -0.034214158
0.14043851 0.02753375 0.025412872 -0.0010689327 0.0034873043 -0.033963982 0.01600405 0.21415418
0.06547754 -0.03233599 0.05305763 0.06938347 -0.16237052 -0.023543365 -0.104873486 -0.01869769
0.17578395 -0.0069319634 -0.12702078 -0.17073058 0.042738125 0.054172024 -0.13373369 0.004018795
-0.048062325 0.16186589 -0.122903846 0.16796191 -0.11313294 -0.021329189 0.030747298 -0.0101808
-0.022742901 -0.09536733 -0.039632015 -0.07166951 -0.019275965 -0.12212444 0.03185557 -0.08129797
0.13225192 -0.17395048 -0.019813593 0.11351527 0.16936816 -0.14977233 -0.10409153 -0.051319044
0.097799905 -0.15560335 0.04917308 0.15945251 0.05055205 -0.113979205 0.039049238 0.053273354
-0.030865826 -0.10223967 0.09418057 0.03152776 -0.033421792 -0.06081589 -0.0033014526 -0.05575497
-0.019635342 0.054536898 -0.019821778 -0.05436919 -0.003397436 0.13095732 0.22582619 -0.15631089
0.13863733 0.037575614 0.11842342 -0.2021405 -0.15335086 -0.022482557 0.1494123 0.055374037
-0.18002905 -0.069935516 -0.069437206 -0.046860326 0.2541676 0.13120767 -0.09800467 0.039338022
0.19624436 0.091130294 -0.025965447 0.009690166 -0.05088574 0.058758892 0.16894396 0.064795025
0.059665427 0.024323476 -0.11837291 -0.09781196 0.09394053 -0.0435521 0.063280225 0.01458455
-0.012357259 0.009300109 0.21238677 -0.031143619 -0.11084271 0.09641315 -0.11164898 0.007050229
-0.02752685 0.05267912 -0.17301705 -0.025214974 0.005116619 -0.09405506 0.04301394 0.21915308
-0.0957571 0.03214171 0.05703517 7.1001195e-05 0.051535398 -0.039111134 -0.05106512 0.0799817
-0.10631399 -0.036892086 -0.009884382 0.009979844 0.03741903 0.016865661 0.15824601 -0.026039174
0.10025346 -0.09832128 0.12853415 0.030431911 0.13383228 0.02279535 0.16100296 -0.001584864
-0.014215355 -0.17063574 -0.04489049 -0.079421766 0.07698899 0.012885369 -0.15433745 -0.040043905
0.09248365 -0.066354364 0.10882506 0.043013982 -0.080397606 0.011389039 -0.053352922 -0.09642498
00000000: a9a7 9e3d 1915 973d 4d28 93bd e58a e73d
00000010: 07a6 b3bc 10f5 0b3e 363f 60bd 5a2e 6abe
00000020: 850f 3a3e e751 28be c9e2 8f3d 4e4a 983c
00000030: 6ba5 c9bd 689f 613d 08a5 4cbd c3b9 ee3c
00000040: b034 a23c d356 2abe 2c2c c8bd 8845 023e
00000050: a0a3 f5bd df80 ebbc dcc4 cb3d 9d5d b43c
00000060: 4613 bfbd 5aba cc3d b749 c33c 426e 17bd
00000070: 92df 1a3d da59 e1bc 2ff1 3bbe dfa2 42be
00000080: 6b39 5b3e a430 e63d 8ded 123e 5978 a2bd
00000090: 590f 9a3d 7367 e0bc 8e46 813e 748e 3ebe
000000a0: 8272 82bd 6b63 4b3d d106 d13d d268 e5bd
000000b0: 303a dabc bf2e e43d 6284 bc3c 6840 45bd
000000c0: 8afa 6abd 97c8 ecbc f516 13bc fc19 babc
000000d0: 969b 5c3d f22c 59bd b581 423d 316e 55bc
000000e0: bff4 a4bd e782 303e 1710 a93a 6fd9 083c
000000f0: 7ae1 bc3d 5608 d03d 899e 00ba fd24 4b3c
00000100: f6d9 4e3d 0bab a9bd 275c 0f3c 277a 733d
00000110: f8f8 033d b328 803d f01a 39bd 028e 87bd
00000120: fa2f 9ebc f562 323d 00b0 2dbd f6ef 833d
00000130: a5d3 1b3e dc73 e03d 56f8 003c dba1 753e
00000140: ef7d 6d3d 5d96 fbbd a77c 293d 436c 393d
00000150: 7714 dc3d 1f9c 863d 0158 07bd bc1e e7bd
00000160: b305 363e a280 26bd 540a 0f3d cf1c ae3d
00000170: 6698 263e 129c c2bc b5dc 673d 2524 0cbd
00000180: 1dcf 0f3e 758e e13c a82e d03c 6e1b 8cba
00000190: 428b 643b d11d 0bbd ed1a 833c 3c4b 5b3e
000001a0: 1719 863d be72 04bd f552 593d ec18 8e3d
000001b0: 7544 26be 04de c0bc e9c7 d6bd e62b 99bc
000001c0: b500 343e 8625 e3bb bc11 02be ffd3 2ebe
000001d0: 2c0e 2f3d 7ce3 5d3d 7cf1 08be 19b0 833b
000001e0: 00dd 44bd 2cc0 253e 03b5 fbbd 35fe 2b3e
000001f0: 3eb2 e7bd 8dba aebc c2e1 fb3c 5fcd 26bc
00000200: 524f babc f24f c3bd 2e55 22bd 77c7 92bd
00000210: a1e8 9dbc 611c fabd fc7a 023d 8d7f a6bd
00000220: 0c6d 073e 1320 32be 1e50 a2bc b27a e83d
00000230: d96e 2d3e eb5d 19be f12d d5bd eb33 52bd
00000240: 514b c83d 7c56 1fbe b669 493d 8547 233e
00000250: ab0f 4f3d ee6d e9bd 18f2 1f3d 2935 5a3d
00000260: 54da fcbc 0863 d1bd bee1 c03d 4123 013d
00000270: 4ae5 08bd 151a 79bd 2f5d 58bb 535f 64bd
00000280: 4cda a0bc 1562 5f3d 4861 a2bc 3ab2 5ebd
00000290: 85a7 5ebb ad19 063e fb3e 673e f60f 20be
000002a0: f2f6 0d3e e3e8 193d fa87 f23d ebfd 4ebe
000002b0: 0208 1dbe 572d b8bc 8aff 183e e3cf 623d
000002c0: 8959 38be 5a3a 8fbd 1835 8ebd 9df0 3fbd
000002d0: 4122 823e 4e5b 063e acb6 c8bd e820 213d
000002e0: 48f4 483e 85a2 ba3d 7db5 d4bc 81c3 1e3c
000002f0: 916d 50bd 2aad 703d a5ff 2c3e 41b3 843d
00000300: bc63 743d 0742 c73c 7f6d f2bd a351 c8bd
00000310: e563 c03d b063 32bd 1099 813d 09f4 6e3c
00000320: 1a76 4abc 7c5f 183c eb7b 593e e720 ffbc
00000330: 8101 e3bd 4274 c53d 38a8 e4bd 9b05 e73b
00000340: fd7f e1bc 10c6 573d 622b 31be a28f cebc
00000350: 50a9 a73b f09f c0bd 632f 303d aa69 603e
00000360: 4c1c c4bd 07a7 033d b69d 693d 7ae6 9438
00000370: c816 533d ff32 20bd a929 51bd 72cd a33d
00000380: 26bb d9bd 281c 17bd 1af2 21bc 8082 233c
00000390: b244 193d db29 8a3c 3e0b 223e 1b50 d5bc
000003a0: b051 cd3d ab5c c9bd 759e 033e 584c f93c
000003b0: 540b 093e 50bd ba3c f6dd 243e 36bb cfba
000003c0: 85e7 68bc 23bb 2ebe 17df 37bd e1a7 a2bd
000003d0: 67ac 9d3d 281d 533c a30a 1ebe 1405 24bd
000003e0: 1168 bd3d cce4 87bd acdf de3d 6e2f 303d
000003f0: 80a7 a4bd 1899 3a3c 9888 5abd 767a c5bd

network_body._body_endoder.seq_layers.2.bias f4 [128]
-0.031040521 0.023612486 0.0006395227 -0.0075391037 0.029818418 0.05625942 0.034601334 -0.04526789
-0.03271767 0.03705958 0.06331406 -0.006006555 -0.017347073 0.015573845 0.021698587 -0.08972504
0.10679756 -0.0060173334 -0.028149914 -0.04007578 0.09181155 0.05082686 0.050001863 0.017140599
0.08714911 0.042146217 0.029680554 -0.069761924 0.028778045 0.05582005 -0.01312824 0.004778326
0.0031107755 -0.027481046 0.030772964 0.03105896 0.050390884 -0.06613701 0.033184677 0.0073944405
-0.03627343 -0.030492099 -0.064823404 -0.0731808 0.013137611 -0.019987786 0.041811835 0.052361786
0.006719593 0.04790314 -0.01644938 -0.057812724 -0.022782385 0.0011512353 -0.0068085454 -0.058043104
-0.04337284 0.043530807 -0.05715145 0.031401493 0.035484992 -0.016511591 0.03128176 -0.00093572633
-0.03634753 0.04992737 -0.02976522 -0.06001055 -0.0061648255 0.034810975 -0.0070278533 0.0049466155
0.03165297 0.0077804043 0.04484539 0.04254862 0.036860548 -0.045788206 -0.0055059907 0.102191694
0.09824898 0.01578675 0.059416875 -0.007901356 0.022567658 0.022910144 0.03300064 -0.025212478
0.06340015 0.041719586 -0.007869788 0.040529057 -0.011811603 0.061009925 -0.033403322 0.042814936
-0.015571786 0.009511803 0.10023774 0.051261157 0.036695752 -0.02197438 0.04996516 -0.010742739
0.026879389 0.040002357 0.08881046 -0.029247344 -0.02626577 -0.050707527 0.042950526 0.023346035
0.0041776462 0.014928547 0.037498027 0.04034257 0.021267628 -0.038206056 0.041190058 0.037187446
-0.030937526 0.028733062 -0.09288277 0.054959275 0.03122475 -0.029943706 0.041341025 0.030687463
00000000: b148 febc f96e c13c a4a5 273a 960a f7bb
00000010: c145 f43c 4770 663d 21ba 0d3d d36a 39bd
00000020: f702 06bd c9cb 173d cdaa 813d a3d2 c4bb
00000030: 731b 8ebc 7129 7f3c 3cc1 b13c c3c1 b7bd
00000040: aeb8 da3d 0d2d c5bb a69a e6bc 8026 24bd
00000050: b207 bc3d d32f 503d c1ce 4c3d 716a 8c3c
00000060: 3c7b b23d 83a1 2c3d a224 f33c 57df 8ebd
00000070: efbf eb3c 91a3 643d d417 57bc 8193 9c3b
00000080: 27de 4b3b ee1f e1bc 9517 fc3c 5c6f fe3c
00000090: ac66 4e3d d772 87bd a8ec 073d 104d f23b
000000a0: 7393 14bd 91ca f9bc 22c2 84bd d1df 95bd
000000b0: 223f 573c 6dbd a3bc e342 2b3d 5079 563d
000000c0: 0830 dc3b 1536 443d dac0 86bc 09cd 6cbd
000000d0: 20a2 babc 0ce5 963a 381a dfbb 9bbe 6dbd
000000e0: b8a7 31bd 5c4d 323d a417 6abd da9e 003d
000000f0: b658 113d 5143 87bc 4e21 003d 884b 75ba
00000100: 26e1 14bd a480 4c3d 31d6 f3bc 9fcd 75bd
00000110: 4e02 cabb f495 0e3d e849 e6bb 3817 a23b
00000120: 8ba6 013d c3f2 fe3b cdaf 373d 7647 2e3d
00000130: 16fb 163d 6a8c 3bbd 996b b4bb e149 d13d
00000140: c336 c93d 3753 813c 1c5f 733d b074 01bc
00000150: cfdf b83c 0eae bb3c ae2b 073d 668a cebc
00000160: f0d7 813d 28e2 2a3d 49f0 00bc cc01 263d
00000170: 7485 41bc 8be5 793d ecd1 08bd b75e 2f3d
00000180: ce20 7fbc 65d7 1b3c 7249 cd3d 38f7 513d
00000190: 494e 163d 9d03 b4bc 45a8 4c3d 5002 30bc
000001a0: 2a32 dc3c 83d9 233d 42e2 b53d 2098 efbc
000001b0: 502b d7bc b2b2 4fbd e4ec 2f3d 2f40 bf3c
000001c0: a3e4 883b dd96 743c 8897 193d 403e 253d
000001d0: 7339 ae3c f47d 1cbd e8b6 283d dd51 183d
000001e0: b270 fdbc 9961 eb3c 5239 bebd fa1c 613d
000001f0: 0ccb ff3c 814c f5bc 3555 293d 4664 fb3c

action_model._continuous_distribution.log_sigma f4 [1, 2]
-0.037988327 -0.034059275
00000000: a699 1bbd bd81 0bbd

action_model._continuous_distribution.mu.weight f4 [2, 128]
-0.016152183 0.0018082998 0.01771127 -0.013764945 0.027042842 0.029596185 0.008942323 -0.0020497446
-0.006457721 0.02342907 0.017430961 0.00585525 -0.057335064 0.0020856687 0.023154233 -0.03551573
0.063203275 -0.018732814 -0.008281447 -0.03117056 0.08396153 0.011890148 0.009510378 0.022947079
0.03672843 0.04634767 -0.015157841 -0.0467426 0.007577146 -0.007834714 -0.036511533 0.008981496
-0.011007843 -0.01716368 0.008426569 0.021356862 0.0068140524 -0.03380671 0.008535879 -0.034711003
-0.04726306 -0.010805563 -0.031575445 -0.03607731 -0.0011278093 -0.002280124 0.013431866 0.022845237
-0.0036718796 0.003098885 -0.0011510407 -0.017038804 -0.05221834 -0.021771993 0.012811585 -0.0735392
-0.014764673 0.012409841 -0.042563215 -0.050765466 0.030389288 0.0023884817 0.0076276585 -0.029775642
-0.008535656 0.0055316985 -0.028447226 -0.018415833 -0.0062781833 -0.020829506 -0.006661937 -0.014293858
0.006104853 0.011767433 0.012423651 0.010276623 0.01613351 -0.02756597 -0.0343808 0.06853146
0.047442973 -0.04474303 0.031825785 -0.062347163 0.051654596 0.020274123 0.013584869 -0.019960871
0.06279804 0.024601128 -0.047503524 0.014685225 0.006565351 0.030355005 -0.017715933 0.013201894
-0.038579315 -0.036158778 0.019782083 0.026376601 0.0027628222 -0.0056852703 0.01640795 -0.0459828
0.039669886 -0.0027897807 0.036410034 -0.008648591 -0.018997265 -0.060261067 0.053400677 0.0027587928
-0.022285758 0.025929946 0.0050507416 0.0036331455 0.023573186 -0.028437959 -0.030781122 0.017874112
-0.023389867 0.0031772722 -0.07051524 0.023491334 0.014748336 -0.004268311 0.0060944194 0.007827824
-0.025691079 0.040072102 -0.012139136 0.011771622 -0.027816148 -0.029931877 0.014954222 -0.05030627
-0.017536463 0.0366448 0.0588999 -0.025381528 0.011221878 0.0141208265 -0.025141446 -0.038856104
-0.02007894 0.015456003 -0.008943984 -0.024347456 -0.004627153 0.017631307 0.0109680705 -0.009120677
-0.010537004 0.013640621 0.03342038 -0.042537753 0.008132037 0.042564288 0.014426247 -0.019867819
-0.1000256 0.0055447817 0.007236964 0.016857147 0.031097896 0.004762134 0.010317583 0.032581013
0.0035580476 -0.021504337 -0.024235299 0.0048595313 0.0015371157 -0.019430315 0.0065009254 -0.008927281
0.014134112 0.05831499 -0.012021396 0.016795715 0.0071433214 0.026282515 -0.02432426 -0.009990114
-0.050016113 -0.010894097 -0.03734643 0.04832935 -0.010459958 -0.024586195 0.015851375 0.028701616
-0.014323163 0.020853726 -0.018197527 0.012248269 -0.031523895 0.07881503 0.0034287947 0.025349678
0.021273619 -0.005388907 0.0074973824 -0.005471522 0.024941538 -0.034810003 0.03203215 0.0083075715
-0.02158996 0.03693354 -0.010806289 0.014774174 -0.008163906 -0.03929584 0.047852814 -0.046411134
-0.009978847 0.019143302 0.03370723 0.02743841 -0.023861073 0.050440155 -0.006530443 0.011076677
0.015716888 0.029872859 -0.0017448781 -0.017649064 0.02440442 -0.020145778 -0.011119926 0.029611189
0.022670308 0.0498369 0.01961956 -0.014739254 0.0014369942 0.004658917 0.0034379752 0.03654994
-0.057959653 -0.008407105 0.012063265 0.004562952 0.003584215 -0.020470824 0.057782125 0.004020684
-0.002650138 0.003031644 -0.046317287 -0.035435755 0.026787063 -0.014530277 0.018136578 0.026977468
00000000: 9551 84bc 7904 ed3a 3a17 913c 5d86 61bc
00000010: f388 dd3c b373 f23c d282 123c 0255 06bb
00000020: 4a9b d3bb 52ee bf3c 60cb 8e3c 66dd bf3b
00000030: 2cd8 6abd b7af 083b f2ad bd3c f178 11bd
00000040: b870 813d 8f75 99bc e8ae 07bc 6759 ffbc
00000050: 06f4 ab3d e5ce 423c 6bd1 1b3c 83fb bb3c
00000060: 8d70 163d 0ed7 3d3d 9858 78bc 2b75 3fbd
00000070: b549 f83b 2c5d 00bc 1e8d 15bd 2027 133c
00000080: 3d5a 34bc d99a 8cbc 980f 0a3c 96f4 ae3c
00000090: 6a48 df3b e878 0abd 12da 0b3c 202d 0ebd
000000a0: e996 41bd d109 31bc 4155 01bd cdc5 13bd
000000b0: 00d3 93ba 226e 15bb 5411 5c3c ef25 bb3c
000000c0: eba3 70bb aa16 4b3b 84de 96ba f694 8bbc
000000d0: e6e2 55bd 2e5b b2bc afe7 513c b89b 96bd
000000e0: 87e7 71bc a552 4b3c c456 2ebd 73ef 4fbd
000000f0: f5f2 f83c 1388 1c3b 70f1 f93b 0cec f3bc
00000100: 23d9 0bbc 4043 b53b 280a e9bc cddc 96bc
00000110: 38b9 cdbb a4a2 aabc 614c dabb c930 6abc
00000120: 380b c83b 31cc 403c 928c 4b3c 485f 283c
00000130: 6c2a 843c 07d2 e1bc e2d2 0cbd 395a 8c3d
00000140: 9053 423d 7844 37bd c15b 023d bd5f 7fbd
00000150: c593 533d eb15 a63c 1293 5e3c fb84 a3bc
00000160: 429c 803d 4e88 c93c 0e93 42bd 4c9a 703c
00000170: 2822 d73b 0fab f83c 0121 91bc c24c 583c
00000180: 5805 1ebd 3a1b 14bd 090e a23c be13 d83c
00000190: 7710 353b 814b babb f769 863c 7658 3cbd
000001a0: e47c 223d c1d4 36bb b022 153d d2b2 0dbc
000001b0: 27a0 9bbc 4fd4 76bd abba 5a3d ddcc 343b
000001c0: 9f90 b6bc 0a6b d43c b180 a53b 111a 6e3b
000001d0: 8e1c c13c b9f6 e8bc b128 fcbc bb6c 923c
000001e0: 1b9c bfbc c839 503b 4b6a 90bd e670 c03c
000001f0: 01a3 713c 30dd 8bbb b2b3 c73b 4640 003c
00000200: 1976 d2bc a522 243d 3ae3 46bc c3dd 403c
00000210: b1de e3bc b233 f5bc 8e02 753c f30d 4ebd
00000220: a1a8 8fbc dc18 163d 0641 713d ecec cfbc
00000230: f8db 373c 0a5b 673c 6ff5 cdbc 9427 1fbd
00000240: 977c a4bc 2d3b 7d3c ca89 12bc 5174 c7bc
00000250: 5f9f 97bb 886f 903c 6cb3 333c e46e 15bc
00000260: 66a3 2cbc e97c 5f3c cfe3 083d 113c 2ebd
00000270: 3c3c 053c e457 2e3d 115c 6c3c d6c1 a2bc
00000280: 39da ccbd 00b1 b53b 0e24 ed3b 0018 8a3c
00000290: 04c1 fe3c ad0b 9c3b 140b 293c ab73 053d
000002a0: 222e 693b dd29 b0bc 1b89 c6bc b43c 9f3b
000002b0: 0b79 c93a 532c 9fbc b705 d53b bb43 12bc
000002c0: c392 673c b3db 6e3d 64f5 44bc 2b97 893c
000002d0: 8612 ea3b 6e4e d73c ac43 c7bc 93ad 23bc
000002e0: b2dd 4cbd 287d 32bc 92f8 18bd fff4 453d
000002f0: 3e60 2bbc fd68 c9bc beda 813c a71f eb3c
00000300: b3ab 6abc 6fd5 aa3c fb12 95bc f7ac 483c
00000310: 331f 01bd c669 a13d a1b5 603b 21aa cf3c
00000320: 0346 ae3c 6e95 b0bb 9aac f53b 744a b3bb
00000330: 3252 cc3c ef94 0ebd 2534 033d 7b1c 083c
00000340: 6edd b0bc a047 173d dc0c 31bc 610f 723c
00000350: e7c1 05bc adf4 20bd 5001 443d 9a19 3ebd
00000360: 517e 23bc 6ad2 9c3c 9810 0a3d 84c6 e03c
00000370: 4c78 c3bc 569a 4e3d 54fd d5bb f37a 353c
00000380: b4c0 803c edb7 f43c 65b4 e4ba c594 90bc
00000390: c7eb c73c c208 a5bc 5a30 36bc 2a93 f23c
000003a0: 15b7 b93c c721 4c3d 33b9 a03c e97c 71bc
000003b0: 8659 bc3a d4a9 983b a74f 613b 64b5 153d
000003c0: 1a67 6dbd f4bd 09bc 00a5 453c d184 953b
000003d0: 26e5 6a3b 6eb2 a7bc f3ac 6c3d f1bf 833b
000003e0: f0ad 2dbb 8cae 463b 32b7 3dbd 1525 11bd
000003f0: 8b70 db3c 6610 6ebc 2993 943c daff dc3c

action_model._continuous_distribution.mu.bias f4 [2]
0.041052047 0.02945601
00000000: 3126 283d bb4d f13c

exp_avg f4 [128, 3]
0.00017689924 5.8776186e-06 -0.00016015707 0.00032076184 1.3369784e-05 -0.00021542856 0.00012603664 7.884823e-06
-5.0697887e-05 -0.00018829912 3.0291267e-06 8.1295395e-05 0.00041577348 1.2764462e-05 -0.00027054295 0.00021792522
1.2409172e-06 -5.8013644e-05 -7.728142e-05 -1.6437602e-06 1.3608838e-05 -0.00041844865 1.7087246e-05 0.0002137831
1.7591521e-05 5.147621e-07 4.6114915e-06 6.404421e-05 -3.8473418e-06 -0.0001222717 5.3014566e-05 5.822564e-06
-8.993321e-05 -0.00016266329 6.6197526e-07 7.0270755e-05 -0.00041915898 1.0834696e-05 0.0002012173 0.00025683214
-7.837862e-06 -6.195186e-05 -5.932644e-05 -5.4942507e-06 4.7304726e-05 -0.000119673954 4.3310647e-06 7.617319e-05
-2.1245236e-05 3.8482235e-06 3.0739147e-06 -0.00015426952 1.285973e-05 -6.1140716e-05 8.434068e-05 9.73869e-07
-3.3916433e-05 -0.0004535578 1.2174123e-05 0.0002222732 -1.956874e-05 9.886848e-08 -7.676803e-06 -1.835663e-05
9.2802975e-06 1.5009647e-05 6.6291022e-06 -8.6626517e-07 -1.1688454e-05 0.0004165901 -6.7993083e-06 -0.00015205701
-7.876057e-05 5.670375e-06 0.00011133754 -0.00014000021 -3.367479e-06 3.0630574e-05 -5.037055e-05 2.5415352e-06
5.2103584e-05 0.00010486982 5.158013e-06 -3.4537326e-05 4.3383432e-05 -4.398109e-06 -2.9923502e-05 -9.765781e-05
2.437892e-06 6.2595565e-05 4.426624e-05 -2.9180967e-06 3.750482e-05 -0.00013492919 2.4976628e-06 8.459001e-05
-0.00013494704 1.1160676e-06 2.7981912e-05 7.276894e-05 -1.8074016e-06 2.3033666e-05 0.00018414464 5.0211975e-06
-0.000115558534 -6.9844673e-06 5.2579044e-06 -6.198675e-05 0.00014865887 3.3093843e-07 -0.00010707721 8.0876045e-05
-3.3473398e-06 -7.419863e-05 5.980201e-05 1.4922861e-06 -4.6863326e-05 -1.6923594e-05 7.956382e-06 -6.50882e-05
5.3479172e-05 -4.6009886e-06 -5.8279038e-05 -0.00014964073 -1.9110407e-06 2.149664e-05 5.7612546e-05 9.427352e-06
-8.641183e-05 1.6866597e-05 5.6600156e-06 -4.7569778e-05 3.7019363e-05 2.0121183e-06 -5.9890703e-05 -0.00021895982
6.007501e-06 0.00010275677 -0.00019600522 -5.4868106e-06 7.755433e-05 -0.0003428482 7.4037566e-06 0.00020820249
0.00011546478 4.7596754e-06 -0.00014061746 8.931706e-05 6.6368966e-06 -0.00011317891 0.00010329833 7.5235907e-06
-0.00010751247 -0.0001515938 -3.2806013e-06 6.588922e-05 0.000122004174 3.2202784e-06 -4.836274e-05 0.00010483456
2.7732158e-06 1.09120465e-05 8.425471e-05 7.1593746e-08 -3.448805e-05 -2.2297403e-05 3.4018746e-07 -3.927443e-05
-9.305815e-05 -5.0823047e-07 -6.729271e-06 -5.6202272e-05 -4.9543775e-07 1.342971e-05 0.00012495324 -9.0000265e-07
-6.0878097e-05 -6.1105566e-05 -1.9398135e-06 2.0113474e-05 -6.742691e-05 6.2399636e-06 -5.4887067e-05 3.7855203e-05
1.6491737e-06 -4.15577e-05 5.1638828e-05 1.8781668e-07 1.2431264e-05 -0.00015793406 5.1144725e-06 0.000109627916
4.974468e-05 1.7468668e-06 -6.2411076e-05 -0.00043134886 8.0425525e-06 0.00024807465 4.820657e-06 -2.2555132e-06
1.3641587e-06 -0.0003321119 9.146254e-06 0.00021036295 -0.000102738224 -6.3867583e-06 1.7719154e-05 -0.00020776308
2.0449195e-06 0.00010778086 6.557689e-05 -1.9369145e-06 -1.5407351e-05 -5.828294e-05 1.6267306e-06 1.3409523e-05
-0.00017949911 -2.3755855e-07 -1.30440885e-05 0.0001445258 -3.0586752e-06 -1.1902162e-05 5.8061218e-05 -7.0445104e-08
1.3389573e-05 -0.000112869246 -3.6734525e-06 5.636027e-05 0.00020128244 7.880386e-06 -0.00012457988 0.00020141686
-9.547169e-06 -0.00012432454 -0.00011887642 7.119916e-07 6.679359e-05 0.00031821692 1.2313742e-05 -0.00020473333
-3.9312014e-05 1.4528216e-06 3.1062973e-05 0.00015146632 -2.9323344e-06 -3.939839e-05 -0.0006072897 1.5451844e-05
0.0003237553 1.3661811e-05 4.1981234e-06 1.3354269e-05 -1.8521736e-05 -3.1968722e-07 -3.685994e-05 6.3286054e-05
00000000: 077e 3939 5c38 c536 d6ef 27b9 ed2b a839
00000010: c94e 6037 aae4 61b9 b428 0439 0f49 0437
00000020: 71a4 54b8 2972 45b9 0048 4b36 227d aa38
00000030: 2cfc d939 f226 5637 a9d7 8db9 db82 6439
00000040: 978d a635 ad53 73b8 2512 a2b8 2c9f dcb5
00000050: 8451 6437 3a63 dbb9 9556 8f37 f72a 6039
00000060: 8191 9337 2f2e 0a35 69bc 9a36 794f 8638
00000070: 6a18 81b6 0f36 00b9 f55b 5e38 725f c336
00000080: 869a bcb8 9890 2ab9 98b2 3135 535e 9338
00000090: 91c2 dbb9 aac6 3537 dcfd 5239 6da7 8639
000000a0: 5c7f 03b7 27ec 81b8 48d5 78b8 415b b8b6
000000b0: 1069 4638 77f9 fab8 9053 9136 2cbf 9f38
000000c0: cc37 b2b7 fd1f 8136 7449 4e36 69c3 21b9
000000d0: 1fc0 5737 ac38 80b8 0fe0 b038 e2b5 8235
000000e0: 7e41 0eb8 7fcb edb9 763f 4c37 0212 6939
000000f0: 8d27 a4b7 8651 d433 9ecb 00b7 90fc 99b7
00000100: 93b2 1b37 f1d1 7b37 8e6f de36 4a89 68b5
00000110: 8719 44b7 c769 da39 9d25 e4b6 7e71 1fb9
00000120: 422c a5b8 2644 be36 e37d e938 05cd 12b9
00000130: d9fc 61b6 5479 0038 f744 53b8 3e8f 2a36
00000140: cc89 5a38 8eed db38 ff12 ad36 2cdc 10b8
00000150: 9bf6 3538 7893 93b6 3b04 fbb7 a3cd ccb8
00000160: aa9a 2336 bd45 8338 83aa 3938 85d4 43b6
00000170: 7e4e 1d38 c77b 0db9 859d 2736 ea65 b138
00000180: 9280 0db9 cacb 9535 b3ba ea37 879b 9838
00000190: d995 f2b5 6c38 c137 f316 4139 c27b a836
000001a0: 0458 f2b8 1e5c eab6 0e6d b036 e2fe 81b8
000001b0: 50e1 1b39 d5ab b134 a48e e0b8 ff9b a938
000001c0: dca2 60b6 169b 9bb8 ebd3 7a38 8f4a c835
000001d0: 1d8f 44b8 24f7 8db7 677c 0537 f67f 88b8
000001e0: d34e 6038 3162 9ab6 a470 74b8 e1e8 1cb9
000001f0: 6e3f 00b6 af53 b437 00a5 7138 2b2a 1e37
00000200: ff37 b5b8 be7c 8d37 2aeb bd36 a985 47b8
00000210: 3d45 1b38 ee07 0736 2733 7bb8 9498 65b9
00000220: 0a94 c936 1f7f d738 c086 4db9 581b b8b6
00000230: aaa4 a238 4ec0 b3b9 c96d f836 ee50 5a39
00000240: af25 f238 4db5 9f36 b672 13b9 bb4f bb38
00000250: 82b2 de36 775a edb8 dea1 d838 2773 fc36
00000260: 5178 e1b8 27f5 1eb9 4d28 5cb6 012e 8a38
00000270: 7edc ff38 f61b 5836 19d9 4ab8 a0da db38
00000280: 7c1b 3a36 e212 3737 e7b1 b038 14bf 9933
00000290: 43a7 10b8 4f0b bbb7 02a3 b634 99ba 24b8
000002a0: 3728 c3b8 556d 08b5 ffcb e1b6 bbba 6bb8
000002b0: 39fe 04b5 2a50 6137 e105 0339 b697 71b5
000002c0: 5c57 7fb8 cd25 80b8 be2d 02b6 5bb9 a837
000002d0: 8c67 8db8 e160 d136 8a36 66b8 b7c6 1e38
000002e0: 2d59 dd35 3e4e 2eb8 c596 5838 a8aa 4934
000002f0: df8f 5037 1a9b 25b9 fc9c ab36 0ae8 e538
00000300: f2a4 5038 e375 ea35 b1e2 82b8 aa26 e2b9
00000310: 80ee 0637 0410 8239 21c1 a136 6c5d 17b6
00000320: 2318 b735 4e1f aeb9 dd72 1937 e094 5c39
00000330: 2a75 d7b8 d64d d6b6 98a3 9437 fada 59b9
00000340: 733b 0936 6908 e238 5386 8938 f0fb 01b6
00000350: 093f 81b7 d574 74b8 0a56 da35 76f9 6037
00000360: ed37 3cb9 9913 7fb4 efd7 5ab7 d98b 1739
00000370: a443 4db6 66af 47b7 c286 7338 9b47 97b3
00000380: c7a3 6037 37b4 ecb8 6f85 76b6 6164 6c38
00000390: 580f 5339 0036 0437 a8a1 02b9 6d33 5339
000003a0: c72c 20b7 1d5d 02b9 4b4d f9b8 b11f 3f35
000003b0: 8913 8c38 5ad6 a639 1f97 4e37 afad 56b9
000003c0: f4e2 24b8 92fe c235 9d49 0238 eed2 1e39
000003d0: 1fc9 44b6 b33f 25b8 8632 1fba 959e 8137
000003e0: b3bd a939 0835 6537 9bdd 8c36 260c 6037
000003f0: 205f 9bb7 7aa1 abb4 0f9a 1ab8 71b8 8438

exp_avg_sq f4 [128, 3]
1.2740213e-06 4.8135923e-10 1.2241532e-07 3.2986233e-07 1.8081121e-10 6.89881e-08 1.647179e-07 1.3644313e-10
5.1213892e-08 5.740088e-07 3.9112288e-10 8.44689e-08 2.2836447e-07 2.0534315e-10 7.728686e-08 1.8767607e-06
4.4341067e-10 9.215534e-08 4.1501312e-07 1.0211705e-10 2.3273138e-08 5.8021766e-07 5.637184e-10 8.306567e-08
1.2803002e-07 5.566047e-11 1.6987087e-08 2.6870964e-06 9.0780894e-10 1.6058623e-07 1.8863145e-07 7.97307e-11
2.3303835e-08 1.4696124e-07 2.7398095e-10 2.7106108e-08 5.4450027e-07 5.2114785e-10 8.830325e-08 8.1971325e-07
4.2217266e-10 1.1947698e-07 2.1966089e-06 3.931618e-10 9.143293e-08 1.01933274e-07 1.01359254e-10 1.5116088e-08
2.9554738e-07 1.7121558e-10 4.4723805e-08 6.240163e-07 4.3949214e-10 1.3305578e-07 9.967955e-07 2.0665891e-10
4.3158725e-08 2.7084323e-07 3.5461423e-10 5.2704e-08 1.2494745e-07 4.7635566e-11 1.618004e-08 1.136983e-06
7.930903e-10 1.8543018e-07 2.0778599e-07 1.0841083e-10 3.0631615e-08 8.6715846e-07 1.1175301e-09 1.6270897e-07
3.7224723e-07 3.2353117e-10 7.885612e-08 7.2074505e-07 5.016889e-10 7.4490565e-08 9.200731e-08 8.2928504e-11
1.4469297e-08 8.981395e-07 3.3949715e-10 9.169064e-08 1.2355182e-06 4.1432846e-10 7.9335564e-08 3.7679285e-08
2.2418995e-11 5.7000165e-09 3.3177304e-07 2.5924266e-10 2.9085015e-08 4.2254626e-08 5.9825346e-11 7.0581994e-09
6.0481483e-07 1.0638343e-10 3.191921e-08 2.1831665e-06 5.1617327e-10 1.1299469e-07 7.7187497e-07 1.7826463e-10
4.3666223e-08 1.0936436e-07 4.4845624e-11 1.4198071e-08 1.0114029e-06 2.8265582e-10 7.237237e-08 8.562285e-07
1.7584004e-10 2.8449522e-08 5.1791375e-08 3.447862e-11 8.9145e-09 8.437951e-07 3.1107755e-10 8.004696e-08
3.93227e-07 4.7631904e-10 7.593635e-08 2.8855808e-07 1.0917308e-10 1.979923e-08 1.1043902e-07 8.4574646e-11
2.2629912e-08 2.2468828e-07 1.2658145e-10 3.7440774e-08 2.0787136e-08 9.071453e-12 2.732676e-09 8.19769e-08
1.13188126e-10 1.601084e-08 3.840389e-06 1.1133913e-09 2.4753345e-07 2.421321e-07 2.9519748e-10 3.9103877e-08
5.3871247e-07 1.9281658e-10 6.1921746e-08 5.9309866e-07 1.8528211e-10 5.5109446e-08 5.591265e-07 2.4778576e-10
6.947946e-08 8.0332416e-07 2.2606848e-10 6.765168e-08 4.3945974e-07 6.825069e-11 1.1116664e-08 8.611654e-07
7.1839157e-10 1.5292548e-07 1.8708351e-06 4.901625e-10 1.0045095e-07 4.865375e-07 2.6075014e-10 3.9070407e-08
1.6976585e-06 4.3966414e-10 7.671243e-08 1.0904204e-06 1.9018556e-10 4.2979536e-08 2.0192388e-07 2.5114696e-10
3.668571e-08 3.0805435e-07 1.1367105e-10 2.9459216e-08 4.3868607e-07 1.256357e-10 4.494582e-08 1.4610166e-07
5.5117133e-11 1.9750152e-08 3.9678145e-07 6.843222e-11 2.1855346e-08 1.5145933e-07 9.273023e-11 2.5965772e-08
2.6721257e-06 8.9033897e-10 2.1023304e-07 3.302469e-07 4.1263468e-10 5.871422e-08 6.4722946e-07 1.9630347e-10
4.5506795e-08 5.5501675e-07 4.497111e-10 8.216982e-08 1.851057e-06 4.91701e-10 9.547348e-08 1.850489e-07
2.2956578e-10 2.7546418e-08 4.4354516e-07 1.5114163e-10 2.7381247e-08 1.261733e-07 6.8721195e-11 1.0793484e-08
1.5216755e-06 4.6393564e-10 8.5447475e-08 7.890442e-07 5.091374e-10 1.2843215e-07 2.2055902e-07 1.6667075e-10
4.3412328e-08 1.13160056e-07 4.792184e-11 9.314228e-09 4.1930676e-07 2.721883e-10 8.323562e-08 8.477863e-07
3.6477274e-10 6.2306356e-08 2.580456e-07 1.615959e-10 3.7394052e-08 6.25407e-07 4.0975454e-10 1.4809503e-07
5.8598584e-08 3.6014206e-11 9.294931e-09 4.3681896e-07 3.0713126e-10 7.833304e-08 1.9825143e-06 1.6210815e-09
2.9891257e-07 2.3150898e-08 7.128082e-11 5.653716e-09 7.305467e-07 2.0905631e-10 6.2529445e-08 4.736709e-07
00000000: 0aff aa35 a550 0430 4471 0334 ef17 b134
00000010: d5cd 462f 9c26 9433 50dd 3034 5405 162f
00000020: 45f6 5b33 9615 1a35 a705 d72f 4565 b533
00000030: 5934 7534 f5c6 612f e7f8 a533 02e5 fb35
00000040: 81c4 f32f efe6 c533 f8ce de34 ca8e e02e
00000050: 2cea c732 41c0 1b35 28f4 1a30 d661 b233
00000060: a078 0934 1ecc 742e 00eb 9132 f753 3436
00000070: 6089 7930 9b6d 2c34 9e8a 4a34 6554 af2e
00000080: ad2d c832 66cc 1d34 649f 962f f6d6 e832
00000090: c629 1235 8540 0f30 3aa1 bd33 440a 5c35
000000a0: 8517 e82f 9549 0034 7469 1336 9b24 d82f
000000b0: c959 c433 69e6 da33 30e4 de2e a1d8 8132
000000c0: b9ab 9e34 e740 3c2f 5816 4033 1382 2735
000000d0: 059d f12f 18de 0e34 a2c9 8535 5039 632f
000000e0: 855d 3933 6968 9134 84f3 c22f a95c 6233
000000f0: 4b29 0634 e180 512e 49fc 8a32 709a 9835
00000100: c500 5a30 a91a 4734 c71b 5f34 df65 ee2e
00000110: d18f 0333 adc6 6835 9897 9930 1ab5 2e34
00000120: 45d9 c734 f7dc b12f 9c57 a933 3979 4135
00000130: 38e7 0930 9ff7 9f33 8e95 c533 995c b62e
00000140: a494 7832 ad17 7135 faa3 ba2f 76e7 c433
00000150: 15d4 a535 8cc7 e32f 305f aa33 d0d4 2133
00000160: 1733 c52d e0d9 c331 8a1e b234 2985 8e2f
00000170: a0d6 f932 747b 3533 ad8e 832e 9484 f231
00000180: 8f5a 2235 8cf0 e92e 8b17 0933 8482 1236
00000190: 77e2 0d30 7da7 f233 d832 4f35 0801 442f
000001a0: 858b 3b33 b1db ea33 af3b 452e c7eb 7332
000001b0: 8abf 8735 4564 9b2f 226b 9b33 93d7 6535
000001c0: 9256 412f 2961 f432 3871 5e33 7aa3 172e
000001d0: 6326 1932 2881 6235 4604 ab2f 48e6 ab33
000001e0: b51c d334 f9ed 0230 7312 a333 1feb 9a34
000001f0: fb12 f02e f812 aa32 7e2a ed33 4bfb b92e
00000200: b463 c232 d841 7134 832d 0b2f 91ce 2033
00000210: 658f b232 3196 1f2d bfc9 3b31 470b b033
00000220: 40e7 f82e 3688 8932 b1dc 8036 f905 9930
00000230: bde4 8434 62fe 8134 5a49 a22f 2bf3 2733
00000240: 0a9c 1035 0b01 542f d7f9 8433 6e35 1f35
00000250: 47b8 4b2f 7ab1 6c33 e116 1635 bf38 882f
00000260: bd34 9533 04a4 5735 9f90 782f e847 9133
00000270: e3ee eb34 b915 962e 9bfb 3e32 d62a 6735
00000280: 5078 4530 d633 2434 6819 fb35 1fbc 0630
00000290: 7eb7 d733 9a9a 0235 5259 8f2f 5ece 2733
000002a0: 1adb e335 3ab5 f12f 1bbd a433 8f5a 9235
000002b0: 7a1c 512f 8098 3833 6ad0 5834 cb11 8a2f
000002c0: 5d90 1d33 ab62 a534 1df7 f92e 800d fd32
000002d0: 8e84 eb34 4e23 0a2f 740a 4133 1ee0 1c34
000002e0: 6068 722e 0ba7 a932 3a05 d534 ea7b 962e
000002f0: 6abc bb32 d3a0 2234 7bea cb2e 560b df32
00000300: c552 3336 09bc 7430 6bbc 6134 ca4c b134
00000310: 2bd9 e22f f82c 7c33 45bd 2d35 84d6 572f
00000320: 4073 4333 76fc 1435 363b f72f 5675 b033
00000330: d671 f835 6228 0730 1a07 cd33 dbb1 4634
00000340: 0669 7c2f 379f ec32 6220 ee34 962e 262f
00000350: 0034 eb32 417a 0734 981e 972e 3f6e 3932
00000360: 5f3c cc35 230d ff2f 3f7f b733 b4ce 5335
00000370: 5cf3 0b30 29e7 0934 cdd2 6c34 a541 372f
00000380: 5c74 3a33 6602 f333 32c3 522e 6804 2032
00000390: 151d e134 19a3 952f 44bf b233 6e93 6335
000003a0: 3389 c82f 48cd 8533 8489 8a34 34ad 312f
000003b0: 329b 2033 a4e1 2735 d343 e12f 0d04 1f34
000003c0: d3ad 7b33 6464 1e2e 8aaf 1f32 f183 ea34
000003d0: e2d8 a82f 0b38 a833 560b 0536 bccc de30
000003e0: 3b7a a034 5ddd c632 89bf 9c2e 9d42 c231
000003f0: c91a 4435 1fdc 652f ed47 8633 d54c fe34

exp_avg f4 [128]
-7.285975e-05 -0.00017881974 -0.000108725086 -4.031016e-05 -0.00017147626 -2.0415795e-05 2.0904201e-05 -0.00022919454
-6.96196e-06 5.3513166e-05 -7.514138e-05 -8.610973e-06 -0.00014614982 0.00010542916 7.081953e-05 -5.868333e-05
-5.491244e-05 -0.00016430105 -1.75037e-05 -0.00016403076 -2.0843725e-06 -0.00012697912 1.1975382e-05 9.077841e-05
-7.632847e-05 4.2116764e-05 -3.4696288e-05 -6.835048e-05 5.9239897e-05 -3.2795524e-05 3.5479694e-05 -3.3933702e-05
-9.24561e-06 1.6630735e-05 -6.318577e-05 -6.275016e-05 -4.400524e-06 4.707675e-05 -1.8593439e-05 -0.00010124004
6.185297e-05 3.078533e-05 -0.00012242584 -7.4608964e-05 -2.6876645e-05 -8.010148e-05 6.8932546e-05 -0.000100516154
-5.4773725e-05 -8.363089e-05 -9.367491e-05 4.077685e-05 -4.4423214e-05 -3.734548e-05 1.0558836e-07 -3.1381549e-06
2.6108958e-06 7.0745073e-06 1.1755867e-05 2.5588943e-05 -7.1660776e-05 -2.0956093e-05 -8.842e-06 -6.8691406e-05
-2.5832842e-05 -0.000108699554 3.396762e-05 -0.00012402415 8.465022e-05 -2.8029606e-05 2.7436781e-05 -1.9628005e-05
8.845526e-06 4.0195268e-05 1.6417341e-06 5.13987e-05 -0.00010706282 0.00013043282 -1.00751495e-05 -0.00016477123
-2.062619e-05 4.048453e-05 -0.00020872573 -5.663953e-05 4.8339593e-06 -9.8720644e-05 7.789401e-05 -0.0001427284
1.3303599e-05 -7.291561e-05 2.8059458e-05 -4.070745e-05 -0.00013765613 5.2999243e-05 -7.9659425e-05 3.8022477e-05
7.908747e-05 -1.7838262e-05 -4.210822e-05 3.0988627e-05 -0.00011845041 3.2453267e-05 -3.195895e-05 -0.000109797475
4.4936147e-05 3.6917903e-05 6.815027e-05 -6.6235436e-05 3.1328073e-05 -2.378324e-05 9.34502e-06 -8.9437905e-05
5.1225384e-06 6.831935e-05 3.5749003e-05 -2.3604794e-06 -3.7376965e-05 -1.0799369e-05 1.1275161e-05 -0.00010012132
9.012095e-06 -0.00016711779 -5.5811415e-05 -9.679947e-05 0.00011814633 -2.9673685e-05 1.7933802e-05 7.662059e-06
00000000: 48cc 98b8 8f81 3bb9 5603 e4b8 b412 29b8
00000010: 4fce 33b9 9642 abb7 6e5b af37 f153 70b9
00000020: c89a e9b6 5373 6038 3995 9db8 d977 10b7
00000030: cb3f 19b9 d919 dd38 f284 9438 bf22 76b8
00000040: c951 66b8 3a48 2cb9 e9d4 92b7 acff 2bb9
00000050: 3fe1 0bb6 b325 05b9 e0e9 4837 4a60 be38
00000060: 8912 a0b8 88a6 3038 db86 11b8 6257 8fb8
00000070: 5b78 7838 ed8d 09b8 08d0 1438 0954 0eb8
00000080: 981d 1bb7 3b82 8b37 9a82 84b8 bc98 83b8
00000090: 37a8 93b6 4774 4538 1bf9 9bb7 d550 d4b8
000000a0: 0fb7 8138 7f1f 0138 705f 00b9 6277 9cb8
000000b0: 2875 e1b7 28fc a7b8 e18f 9038 33cc d2b8
000000c0: d7bc 65b8 fe62 afb8 5673 c4b8 cf07 2b38
000000d0: 1053 3ab8 67a3 1cb8 d1bf e233 1799 52b6
000000e0: d936 2f36 8e61 ed36 103b 4537 d6a7 d637
000000f0: 9648 96b8 deca afb7 1a58 14b7 6b0e 90b8
00000100: 9bb3 d8b7 a1f5 e3b8 7478 0e38 7b0c 02b9
00000110: 3e86 b138 1f21 ebb7 0a28 e637 d2a6 a4b7
00000120: 3f67 1437 5797 2838 8e59 dc35 ef94 5738
00000130: ea86 e0b8 cbc4 0839 7008 29b7 71c6 2cb9
00000140: 6806 adb7 efcd 2938 63dd 5ab9 3b90 6db8
00000150: 6533 a236 3e08 cfb8 075b a338 5da9 15b9
00000160: 8632 5f37 45ea 98b8 3a61 eb37 4bbd 2ab8
00000170: c957 10b9 814b 5e38 d40e a7b8 537a 1f38
00000180: c3db a538 60a3 95b7 5b9d 30b8 c9f9 0138
00000190: 9468 f8b8 6e1e 0838 a90b 06b8 1243 e6b8
000001a0: d279 3c38 4cd8 1a38 e6eb 8e38 e1e7 8ab8
000001b0: 4366 0338 1e82 c7b7 8ec8 1c37 9c90 bbb8
000001c0: 45e2 ab36 ac46 8f38 33f1 1538 ba68 1eb6
000001d0: 36c5 1cb8 f02e 35b7 732a 3d37 39f8 d1b8
000001e0: a732 1737 573c 2fb9 0d17 6ab8 d200 cbb8
000001f0: 54c5 f738 c1eb f8b7 8c70 9637 4b8c 0037

exp_avg_sq f4 [128]
8.640328e-08 3.266275e-08 2.4656796e-08 7.051857e-08 3.7056047e-08 8.1393146e-08 1.8892575e-08 1.01616635e-07
1.003194e-08 1.6472072e-07 1.4425518e-08 4.9424944e-08 9.391438e-08 7.62728e-08 7.251126e-08 1.8268231e-08
3.1146584e-08 7.9210984e-08 3.7903355e-08 6.390751e-08 8.5844505e-09 1.4307098e-07 1.9524313e-08 2.0130821e-07
5.8282662e-08 9.088946e-08 1.4926533e-08 6.091433e-08 7.5401154e-08 4.0460506e-09 4.7037243e-08 1.0779487e-08
1.9715738e-08 9.349613e-08 3.2678546e-08 8.085791e-09 5.173104e-08 3.2266524e-08 6.2104104e-09 5.599188e-08
8.6060446e-08 1.9892589e-08 1.524897e-08 2.2805837e-08 1.6324339e-09 2.0420392e-08 2.0158178e-07 5.3213903e-08
3.4670933e-08 3.3699806e-08 4.4697693e-08 4.139543e-08 1.2685568e-08 1.2942581e-07 8.989627e-08 4.7342926e-08
7.99533e-08 3.4909288e-08 4.5225555e-08 2.0575955e-08 2.303289e-08 9.938273e-09 1.27564395e-08 1.6717198e-08
1.6037896e-07 7.435067e-08 3.5720085e-08 8.1051724e-08 8.987514e-08 4.1365716e-08 2.76638e-08 1.2491189e-08
8.478934e-08 9.165895e-08 3.0019322e-08 8.74543e-09 4.92023e-08 6.593112e-08 2.9114105e-08 7.406212e-08
6.4916725e-09 5.537506e-08 2.921115e-07 1.2849752e-08 3.7867135e-08 5.469172e-08 1.2881199e-07 5.6148863e-08
2.5303644e-08 1.3203048e-07 5.325105e-08 3.150826e-08 3.516574e-08 1.5113801e-07 4.2828248e-08 2.7565621e-08
2.5442857e-08 5.927321e-08 6.9395236e-09 2.1498115e-08 2.0541261e-08 2.3256703e-08 2.7173037e-08 1.0200447e-07
1.9758108e-08 5.5729583e-08 2.996576e-08 4.868536e-08 1.0592525e-08 3.7798786e-09 1.0389209e-08 1.0602477e-07
1.1731033e-07 5.6748792e-08 5.468877e-08 6.1348416e-08 2.457853e-08 5.3717123e-08 5.9517294e-08 1.7402362e-08
1.17349714e-07 2.7221176e-08 2.0774083e-08 3.949473e-08 1.16565346e-07 3.921409e-08 2.1838266e-08 2.5891355e-08
00000000: b58c b933 1349 0c33 decc d332 fe6f 9733
00000010: 8e27 1f33 5bca ae33 3649 a232 5638 da33
00000020: f058 2c32 16de 3034 19d4 7732 4d47 5433
00000030: faad c933 6acb a333 7db7 9b33 44ec 9c32
00000040: 08c6 0533 b31a aa33 2ecb 2233 863d 8933
00000050: d07a 1332 0d9f 1934 6bb6 a732 2e27 5834
00000060: 7752 7a33 022f c333 cb37 8032 02d0 8233
00000070: 39ec a133 7005 8b31 ff05 4a33 af30 3932
00000080: 5e5b a932 0bc8 c833 715a 0c33 afe9 0a32
00000090: e12e 5e33 6b95 0a33 5963 d531 b97b 7033
000000a0: 3bd0 b833 44e0 aa32 d7fc 8232 91e6 c332
000000b0: 295c e030 eb68 af32 6172 5834 4e8d 6433
000000c0: 18e9 1433 54bd 1033 a2f9 3f33 c2ca 3133
000000d0: b8ef 5932 4cf8 0a34 ff0c c133 1956 4b33
000000e0: cbb2 ab33 2bef 1533 063e 4233 01bf b032
000000f0: dcd9 c532 fdbc 2a32 6a27 5b32 8299 8f32
00000100: a234 2c34 b7aa 9f33 a66a 1933 a80e ae33
00000110: 6101 c133 16aa 3133 57a1 ed32 d598 5632
00000120: 6f15 b633 0ad6 c433 98ee 0033 cf3e 1632
00000130: 8052 5333 0496 8d33 9816 fa32 150c 9f33
00000140: 5b0d df31 86d5 6d33 80d3 9c34 cfc1 5c32
00000150: 5ba3 2233 2fe6 6a33 924f 0a34 5428 7133
00000160: 4d5b d932 43c4 0d34 26b6 6433 b353 0733
00000170: 2409 1733 8048 2234 28f2 3733 71c9 ec32
00000180: 6f8d da32 9593 7e33 b270 ee31 dbaa b832
00000190: b672 b032 08c6 c732 246a e932 8d0d db33
000001a0: 8ab8 a932 535b 6f33 b4b3 0033 1f1a 5133
000001b0: 6bfa 3532 2ae0 8131 397c 3232 bcaf e333
000001c0: 09ec fb33 f5bb 7333 f0e2 6a33 a6be 8333
000001d0: c220 d332 9ab6 6633 f59f 7f33 337c 9532
000001e0: b001 fc33 00d4 e932 b172 b232 eaa0 2933
000001f0: 7a52 fa33 596c 2833 db96 bb32 b167 de32
