results/Test2/Test2/Test2-48279.pt (torch, 439135 bytes, 36 tensors)

network_body._body_endoder.seq_layers.0.weight f4 [128, 6]
00000000: f912 a73e a824 6cbd d8d1 98be 56be 56be
00000010: 56d4 20bc 69da 3fbe 7244 bcbe 051b c0be
00000020: d0eb 2bbf 69cf 18bf 667b bd3d 090d 883e
00000030: 11fc 893e a45d b03e dee3 af3e 4108 94bf
00000040: 4038 7abf 1b6d f83d daa6 8d3c ec9d 00bf
00000050: bbc0 953e 100f 753d 42b4 cf3e 2b09 dd3d
00000060: 1250 bdbe 3577 8bbd 41ca 833e 4845 0e3e
00000070: c956 3ebf 3893 273e e6f8 a3bf 9673 64be
00000080: 3d32 c93e ff43 b83e 5814 3a3e bab6 473f
00000090: e74c 4dbf 90f9 c03e f2c1 663e b76e 99be
000000a0: 3a72 e8be 2ce3 f2bb fe57 c2be a2f6 2abf
000000b0: 9725 39be 112a b93d 55f9 1c3f a17b a73d
000000c0: 64e8 a5bd 3568 e4be ea37 483d dd08 383e
000000d0: 6738 5b3e 0ba9 9ebd e19b 8bbe 2c03 f3bd
000000e0: c090 dc3a 1360 00be a014 05bf 960b 3e3e
000000f0: b751 c8be 81c1 9cbe 29dc 463d 50c6 b5bd
00000100: 2704 f93e f0fb 72bf b43b 95be 987c 07bc
00000110: 9b22 d63e 8fdb 073f 526c d0be 8728 02be
00000120: e5fd cd3d 8104 cdbe 83ad 933e 33bb fdbd
00000130: c566 2e3f c27a ec3d 5088 98be 9f37 98be
00000140: ea89 583f c5af 30bf 8d42 e7be b95a 83bd
00000150: a85a 92be bb84 09bf 6923 a1bd 6118 cc3e
00000160: b1ed f43e 1daa 83be 9314 863e d24c 163a
00000170: 971a 0bbd b779 e33e 9c1c 0fbf 49e4 df3e
00000180: cf82 aa3e c6cd fa3e 1ca6 903e 997d ecbd
00000190: 3ea2 92bd 5b95 073f f432 493f 9397 353f
000001a0: 29bb b7be 2468 883e c9d5 85be 1880 713e
000001b0: f4ed 2f3e 0ff6 113f 5ea2 8d3e 6e34 79be
000001c0: 16eb 893e b887 1d3e d810 f6be 0187 24bd
000001d0: 0a37 103f 5f94 8bbe 3d61 24be 3acc b8be
000001e0: 97a6 babe a5b4 2b3f 0f08 633e a7fc 913e
000001f0: b90a 9d3d eaf7 07be 98d6 97be f3bc db3e
00000200: 7ffb 9bbd 234c 6bbf a539 943e 02dc 643e
00000210: 7c31 af3b 9edf 38bd 4bc9 d43d a666 9fbd
00000220: b7ed 113f f4c2 99be 87ac b2bd 9b8c 41be
00000230: 79af 5bbf 11fe 9bbb 77a1 ea3e 5ef9 d43e
00000240: eaed 0c3e 8c1e f53e a659 f93d ef86 b63d
00000250: b35d e63d 30db 153e a8c9 d1bd 294d 83be
00000260: abd1 d13e 689e ecbe 3c04 1d3f 3242 863e
00000270: 7bd3 5c3e c598 803f 8982 753e 3a06 cdbe
00000280: 7bd6 c83d 9021 fbbd 87f3 23bf 9309 ccbe
00000290: b0f8 60be 0f77 0dbf 57dd f23e 5b9c 14bf
000002a0: 562a b53e 7063 2dbe ec2e 893e 3812 29bc
000002b0: 1f15 5d3f 783c c0be 1f10 233f 8c9d 573e
000002c0: 81fc e0be 6bc8 d73e ce8e 213b 9165 933e
000002d0: 6275 4fbf 1db4 d1bd 734b 69be 3e9b b7be
000002e0: 75d0 0dbe 1938 f53d 01e9 2bbc aa5e 043f
000002f0: 1466 983e c692 133f 5590 e9be f483 f53e
00000300: 243c cdbe 745b a0be cbb8 afba a8c3 9e3e
00000310: 5d47 6a3e 2af1 52bf 4a2b 8b3e 0b7d 5e3e
00000320: c306 fa3e 22ce 9ebe 87e4 01bf 2541 083f
00000330: 203d 71be adf5 3dbf f254 a8be 5bd3 84be
00000340: b8cd 543e 2920 0d3e 763e b4bc fa91 e83d
00000350: e56b f4be eb75 b1be 16af f23d ca85 e53d
00000360: 83d2 3ebe 2f0c afbe 0056 6b3e d735 41be
00000370: 818d 61be 15c8 323c 2d75 643e c94e 9ebc
00000380: 7da8 5fbe 35af 1f3e 0d12 c03e 0b3e 92bf
00000390: e349 32bd 8f91 12bf 71fd 56bf c25d 9f3d
000003a0: 768a 2f3e 4752 413e 04bc 40be 0195 65be
000003b0: 277a b93e 44e9 39be e06c b2be eb52 81be
000003c0: 3d51 543f 283c 74bf bdcf 583d 0070 423e
000003d0: 4de4 5bbe 8f9e 90be 417f 283e ebbb 8dbd
000003e0: f0e4 883d adb8 b43d 99a0 ac3d 995c 9e3e
000003f0: 78ce bd3e 1a67 d03e 8fb8 2a3e cf57 b7bd
0.32631662 -0.057652146 -0.29847598 -0.20971045 -0.00981625 -0.1873566 -0.3677097 -0.37520614
-0.67156696 -0.5969148 0.09252052 0.26572445 0.26950124 0.34446442 0.34353536 -1.1565019
-0.9774208 0.12130185 0.017291475 -0.5024097 0.29248604 0.059828818 0.40567213 0.10792764
-0.3697515 -0.06809846 0.25740245 0.13893616 -0.74351174 0.16364753 -1.2810333 -0.22309718
0.3929614 0.35989377 0.18171823 0.78013194 -0.8019547 0.376904 0.22534922 -0.2996728
-0.45399648 -0.007412335 -0.37957758 -0.6678258 -0.18080746 0.09041227 0.6131795 0.08177877
-0.081009656 -0.44610754 0.04888145 0.17972131 0.21408235 -0.07747086 -0.27267364 -0.11865839
0.0016827807 -0.1253665 -0.51984596 0.18559107 -0.39124843 -0.30616382 0.048549805 -0.08875716
0.4863598 -0.94915676 -0.29147112 -0.008269452 0.41823277 0.53069395 -0.40707642 -0.12710772
0.10058192 -0.400425 0.28843316 -0.12389221 0.68125564 0.11546852 -0.29791498 -0.29729936
0.8458544 -0.69018203 -0.45167962 -0.06413788 -0.2858479 -0.53718156 -0.07868082 0.3986235
0.47837594 -0.25715724 0.26187572 0.0005733493 -0.033960905 0.444288 -0.5590303 0.43728855
0.33302924 0.48985118 0.2825173 -0.11547393 -0.071598515 0.52962273 0.78593373 0.7093441
-0.3588498 0.26641953 -0.26139668 0.2358402 0.17180616 0.5701608 0.2766294 -0.24336407
0.2693717 0.15383804 -0.48059726 -0.040167812 0.5633398 -0.27261636 -0.16052718 -0.36093313
-0.36455223 0.67072517 0.22171043 0.2851307 0.07668061 -0.13278165 -0.2965591 0.42917594
-0.076163284 -0.9191305 0.2895023 0.22349551 0.005346475 -0.045135133 0.10389956 -0.077832505
0.5700335 -0.3003155 -0.08724313 -0.18901293 -0.85814625 -0.0047605117 0.45826313 0.41596502
0.13762632 0.47874868 0.12175302 0.08912455 0.112483405 0.14634395 -0.10243541 -0.25644806
0.40980276 -0.46214604 0.61334586 0.26222378 0.21565048 1.0046622 0.23975576 -0.40043813
0.09806534 -0.12262261 -0.6404347 -0.39851055 -0.21969867 -0.55259794 0.47434494 -0.5805108
0.35383862 -0.16932464 0.2679361 -0.010319285 0.86360353 -0.37546134 0.63696474 0.21056193
-0.43942645 0.42145094 0.0024651769 0.28788427 -0.81038487 -0.10239432 -0.22782688 -0.35860628
-0.13849051 0.119735904 -0.010492564 0.51706946 0.2976538 0.57645833 -0.4561793 0.47952235
-0.40084946 -0.31319773 -0.0013406513 0.3100865 0.22878785 -0.8239924 0.27181464 0.21727388
0.48833284 -0.31016642 -0.5073933 0.532244 -0.23558474 -0.74202996 -0.32877308 -0.259425
0.207816 0.137818 -0.02200244 0.11355968 -0.47738567 -0.34660277 0.11849801 0.11207159
-0.18634991 -0.34188983 0.22982025 -0.18868195 -0.22026636 0.010911961 0.22310324 -0.019324677
-0.21841617 0.1559418 0.37513772 -1.1425184 -0.043527495 -0.57253355 -0.8398047 0.07781555
0.17142662 0.18879043 -0.18821722 -0.22420122 0.36226007 -0.1815539 -0.3484869 -0.25258574
0.8293646 -0.9540429 0.05293249 0.18988037 -0.21473809 -0.2824597 0.16454794 -0.06920608
0.06684291 0.088242866 0.08429069 0.3093002 0.37071586 0.4070366 0.16671966 -0.08952295

network_body._body_endoder.seq_layers.0.bias f4 [128]
00000000: 4c6f d9ba 51e8 533b fc97 95bb 7019 8eb9
00000010: a584 6ebb 7d59 83bb 4f29 d738 8f74 c13b
00000020: dc4c 80bb 62be 1cbb 60a1 4b3b 4ee1 b3bb
00000030: adbc 48b8 fb4f d5ba d844 24bb 5141 753b
00000040: 8467 baba 635f 9ebb 924a 503b 6373 07bb
00000050: fa43 71bb 3443 53ba 7bb4 8ebb fa49 14b9
00000060: 7a24 f33a 03e9 353a 49cc d6bb 85e3 4e3b
00000070: e577 113a d154 b03b b040 2e3b 5b98 203b
00000080: 0a03 88bb fdbe 3dbb 54e4 98ba e971 26bb
00000090: 39f9 b53a dda2 c7ba f73b 59ba 4b1d 18ba
000000a0: 8905 2f3b 0725 c6ba 1726 22bb fe7c 323b
000000b0: 87bd b7ba 3647 8a39 c8c3 2e3a 4197 0c3a
000000c0: 55dc a53a b671 583b 925d 92bb 5980 81bb
000000d0: 22c4 8d38 2f3a f839 ae68 843b 5317 07bb
000000e0: 7c44 76bb 217e 3bbb 543b 1cbb b403 a138
000000f0: 9503 c43b 86f2 7e3a 4f98 1c3a 30fd ccb8
00000100: 85ef 683b 59e7 9a3a fe78 5abb 3b4b 87b8
00000110: 2214 c43a df78 ec3a 7ad6 45bb 38c4 0b3b
00000120: 4a9d 01bb 5ca2 bc3b bacb d03a 60aa b5bb
00000130: 9e71 203b b86f 203b 70eb 303b a1e0 a0bb
00000140: ad06 483a 8b3c 1dbc 7c8f dcba 43fd 853b
00000150: a066 683b d334 62bb f8d2 34bb 2edc c9bb
00000160: 817f 04bb 235c b5bb ad15 ee3a 5e60 803a
00000170: 533a ba3a 1b8f 56ba 27ef c6b7 8de5 083b
00000180: b0e1 2c3b c293 57ba c09a 2b3a 6ddb 4139
00000190: 1e67 b5ba 3f1a be39 9a83 8fbb 017b 7b3b
000001a0: cfe5 23bb 37e4 c73a 02e4 5a3b 45c4 94ba
000001b0: 1fc2 793a be0e 6b3b a97e f03b b44b 86ba
000001c0: 5b4b 5439 2aed feb9 6d67 dc3b 42f6 87ba
000001d0: 3512 af3a 15e0 2cbb a5b4 603b d6a5 65bb
000001e0: c33d adba af34 c33a a816 c7ba 584c 1cbb
000001f0: b12d be3a 804b e13b b4aa 523b 14b0 7abb
-0.0016588955 0.0032334516 -0.004565237 -0.00027103303 -0.003639498 -0.0040084706 0.00010259693 0.0059037874
-0.0039154124 -0.0023917188 0.0031071529 -0.005489505 -4.7859434e-05 -0.0016274446 -0.0025065448 0.0037422965
-0.0014221524 -0.0048331483 0.0031782729 -0.002066814 -0.0036814199 -0.0008059025 -0.004355011 -0.00014141938
0.00185503 0.00069393235 -0.0065551144 0.0031568718 0.0005549177 0.0053812047 0.002658885 0.0024504873
-0.004150753 -0.002895295 -0.0011664727 -0.0025397486 0.0013883478 -0.0015231032 -0.00082868285 -0.0005802705
0.002670618 -0.0015117236 -0.0024741942 0.0027235146 -0.0014018276 0.00026374467 0.0006666747 0.0005363115
0.0012654165 0.0033026761 -0.004466721 -0.003952068 6.7599365e-05 0.00047345596 0.004040799 -0.0020613268
-0.003757744 -0.0028609114 -0.0023839073 7.677768e-05 0.0059818723 0.000972547 0.00059736235 -9.774638e-05
0.0035543155 0.0011818215 -0.0033336277 -6.4513144e-05 0.0014959613 0.0018041393 -0.0030187652 0.0021326672
-0.001977759 0.0057566594 0.0015929856 -0.005543992 0.0024481784 0.0024480652 0.00269958 -0.0049095904
0.00076303893 -0.009596954 -0.001682743 0.004089029 0.003546156 -0.003451635 -0.0027591567 -0.0061602807
-0.00202176 -0.005534665 0.0018164419 0.0009794345 0.0014208056 -0.00081847765 -2.3714803e-05 0.0020888776
0.0026379637 -0.0008223617 0.0006546192 0.00018487657 -0.0013839935 0.0003625918 -0.004379702 0.0038372877
-0.0025008803 0.0015250508 0.0033400063 -0.0011349997 0.00095275225 0.0035866941 0.007339318 -0.001024595
0.00020245968 -0.00048623356 0.0067261965 -0.0010373073 0.0013356867 -0.002637868 0.003428736 -0.0035041473
-0.0013217259 0.001489302 -0.0015189247 -0.0023849215 0.0014509467 0.0068754554 0.0032145204 -0.0038251923

network_body._body_endoder.seq_layers.2.weight f4 [128, 128]
00000000: 7db5 943d 9cb9 533e 0090 27be ed14 c63d
00000010: db20 a3bc 217c 263d 3295 20bd e22e 12bd
00000020: d69c 1ebe ac52 44be 629c f13c e94c c93d
00000030: 2aa3 983d 6b82 22bc 785b 17bd 4545 c93c
00000040: 96bb 80bd ba97 ea3d 9753 5c3d 7c0c f6bc
00000050: dd3d a93c ba9c f73c 8a79 8e3d 3f6c 9d3c
00000060: 19fd d7bd aa59 2fbd 1a60 f3bd 5a35 0fbe
00000070: 8c4e 50bd 08e3 c23d fddf 343d 6e4a 4abd
00000080: f587 883d a5a1 5c3d d78f 99bd 7884 5ebd
00000090: c376 9f3b b561 433e 19cf 6cbd ed71 b73d
000000a0: 04ac 1cbe e625 34bc 6bd7 d83d 5b41 9ebd
000000b0: 0a58 b33d 1068 19bd d5d7 d43d 6d69 033e
000000c0: 093f 8fbc 1c12 aebd e71d 0dbe 501f a33c
000000d0: d7f4 d13c b24d 293d 6c56 fb3c bf26 053e
000000e0: b816 90ba 20c5 70bd facf ad3c da46 a1bb
000000f0: 9698 043c 7815 b83d d697 bc3c 45e7 0e3e
00000100: 0de1 893d 6a51 583d af8f 373e 6bee 6e3d
00000110: 0433 85bc 2464 3fba 4840 c5bc 582f ed3d
00000120: 64cb 7d3d 9f6d e73d 4981 063d 74a2 813b
00000130: 32e5 b83b 89d4 73bd 2333 893d ba95 efb9
00000140: a476 cebd 68fd 313d 913a e2bc 0107 05bc
00000150: 1432 f83d 2210 01bd 1fba 2f3e 918c 2fbd
00000160: 32c3 e43c 2208 1d3c 3f64 4ebd 38d2 8c3d
00000170: 3d04 ce3d 01f8 70be 57a6 29bc 161c 043e
00000180: f34c afbc 3d84 303e abf0 a53c f441 c0bd
00000190: f640 5a3d 7fd0 21be 3118 853d 9439 a4bc
000001a0: d31c 513d 8a15 b13e 1ed9 62bc 89f8 203e
000001b0: d670 5c3d bd2a bfbd 51a2 1abe 5fc5 183d
000001c0: 35d6 333c 2c26 cabc a846 6c3d 06e3 e53c
000001d0: 5cca 533d 5540 e83d b592 843d bd7a 54bd
000001e0: 9de1 663c d5ed 7cbd c45f 47bd b1e5 da3b
000001f0: e74d 793d ff39 053e f4e4 90be 783c 013e
00000200: a5a9 f63d 3bd5 873d 1f1d a2bd 6471 c13b
00000210: d81a c7bd 305a e03d 39d6 813b bc16 1a3e
00000220: 50ae 003d 0b23 48bd 1c0a 1abe 6db2 9f3d
00000230: ee43 bfbc 48b4 393e 7a60 debc d193 51bd
00000240: e250 4f3c 3761 aebd c832 36be 8084 2dbe
00000250: cc1c 87bd 03d6 bebc 3e0e aebd 5ed6 323c
00000260: 1f09 e3bc f524 583e 8358 88bc 1a52 f7bc
00000270: afa9 003d 2a11 ccbd 77ba f73b 80b8 5f3d
00000280: 710c 7abd 78de 97bd 0bdc e33d 7713 123e
00000290: 248d 97bd 3028 963d 9440 22bd 66f3 43bd
000002a0: d2aa 74bd 807a bc3d 03ab 263e cbba c4bd
000002b0: 0b43 de3c 8c29 163d 5d71 f9bd 4ff5 c53d
000002c0: 687a 013e 52a7 a03b 655f 95bc ce72 b83d
000002d0: f491 09bb 379e 19bd 3773 4a3b c208 773d
000002e0: f194 073c 8c3f 403c 9b3a 8bbd 8811 d53c
000002f0: f668 1b3e ab9f a3bc 53d1 64bc 52dc 60bc
00000300: 837b 7abe 3f01 783c c36a e93d 46c2 16be
00000310: b337 f0ba 33b2 843d 4405 09bd ae36 033e
00000320: f601 4dbd 6f00 a5bd 55bc 9b3d 669b 1c3d
00000330: 8a6e 0a3e ce1f d63c bff0 393d 390e d6bd
00000340: 950e dfbd 9c31 0dbe 2774 043d 168e c1bd
00000350: 9132 043d 3650 d43d 726b d938 b88c 463d
00000360: abb7 25bd bdaa 98bd 8542 10bd 1a99 7bbc
00000370: d7a6 1e3e 4cf2 70bd d56a 2d3d 28ae 44bd
00000380: 400d 03be c357 62bd 9598 cfbd b643 2cbd
00000390: fdce 1fbd 58c1 fa3c d0bc b53b 50be 22bd
000003a0: ee45 1d3d 35a1 243d 6f5a 1d3e 4ead b83d
000003b0: 87c8 febd 1ade ff3d dffa b3bd aaac 93bd
000003c0: a0a4 633d 7ac4 1dbb c02d d5bd 42ec 68bd
000003d0: 47a1 2abe cb3f dabc 3abf 823d 3d38 cbbb
000003e0: 26d8 913d 39a7 9f3d f368 423c f834 8abc
000003f0: 2970 1bbd da54 b9bc 9ff1 713d a508 cebc
0.07261179 0.20676273 -0.16363525 0.0967196 -0.019913128 0.040645722 -0.039204784 -0.035689242
-0.15489516 -0.19172162 0.029493514 0.098291226 0.07452996 -0.009918789 -0.036952466 0.024569163
-0.06285779 0.11454721 0.053790655 -0.03003525 0.020659382 0.0302261 0.069567755 0.019216655
-0.105463214 -0.04281012 -0.11883564 -0.13985196 -0.050856158 0.09515959 0.044158924 -0.049387388
0.06666557 0.053865094 -0.074981384 -0.05432555 0.0048664524 0.19080241 -0.05781469 0.089572765
-0.15299994 -0.010995364 0.10587963 -0.07727309 0.087570265 -0.037452757 0.10392729 0.12833185
-0.017486112 -0.08499548 -0.13780938 0.019912392 0.025629444 0.04133386 0.030680858 0.13003062
-0.0010993099 -0.058781743 0.021217335 -0.0049217762 0.00809302 0.0898847 0.02302162 0.1395541
0.06732378 0.052812018 0.17925905 0.05833284 -0.016259678 -0.0007300994 -0.024078503 0.11581296
0.061961547 0.113002054 0.03283814 0.0039561335 0.0056425566 -0.05952886 0.06699207 -0.00045697187
-0.10081223 0.043454558 -0.027615817 -0.008119346 0.12118927 -0.031509526 0.17160843 -0.042858664
0.027925108 0.009584459 -0.05038857 0.068760335 0.10059402 -0.23532106 -0.0103546 0.12901339
-0.021398997 0.17237945 0.020256361 -0.093875796 0.053284608 -0.15802191 0.06498755 -0.020046987
0.05105288 0.34586746 -0.01384571 0.15719809 0.053818546 -0.093343236 -0.15100981 0.037297603
0.010976364 -0.024676405 0.05768457 0.028062355 0.051706657 0.11340395 0.06473295 -0.051874865
0.014091876 -0.06175025 -0.048675314 0.0066802134 0.06086531 0.13010405 -0.28299677 0.12620723
0.12044076 0.06632467 -0.07915711 0.00590341 -0.09721917 0.10954702 0.003962305 0.15047735
0.031416237 -0.048861545 -0.15042919 0.07797704 -0.023347821 0.18135178 -0.027145613 -0.05116636
0.012653561 -0.08514636 -0.17792809 -0.16945076 -0.065972894 -0.023295408 -0.0849881 0.010915367
-0.02771431 0.21107848 -0.016643768 -0.030190516 0.031411823 -0.09964211 0.00756007 0.054619312
-0.06104702 -0.074154794 0.11125954 0.14265238 -0.07399967 0.07331884 -0.039612368 -0.047839545
-0.05973322 0.092030525 0.16276173 -0.096059404 0.027131578 0.036660716 -0.121798255 0.096659295
0.1264435 0.0049027586 -0.018233964 0.09006272 -0.0020991536 -0.0375044 0.0030891427 0.060311086
0.0082752565 0.011733901 -0.067982875 0.026009336 0.15176758 -0.019973597 -0.013965922 -0.013724403
-0.24461178 0.015137016 0.11397316 -0.14722547 -0.0018327147 0.06479301 -0.033452287 0.12813827
-0.0500507 -0.08056723 0.07604281 0.038234137 0.1351873 0.026138213 0.04539561 -0.104519315
-0.10891453 -0.13788456 0.032337334 -0.09450929 0.032274786 0.103668615 0.000103673796 0.048474044
-0.040458363 -0.07454441 -0.035219688 -0.0153563265 0.15493332 -0.058824822 0.04233821 -0.04801765
-0.12798023 -0.055259477 -0.101365246 -0.04205676 -0.03901576 0.030609772 0.00554619 -0.039732277
0.03839677 0.0401928 0.15366529 0.0901743 -0.12440591 0.124935344 -0.08788084 -0.072106674
0.05557692 -0.0024073408 -0.10409117 -0.056865938 -0.16663085 -0.026641747 0.0638413 -0.0062017725
0.07121305 0.07795567 0.011865842 -0.01687096 -0.03794876 -0.022623468 0.05906832 -0.025150606

network_body._body_endoder.seq_layers.2.bias f4 [128]
00000000: cf6d af3a f03d 85ba 72ed 323b ecdb f93a
00000010: 3ea8 1abb 3de0 5c3b 45e9 c6ba 84e8 0c3b
00000020: 3008 793a 244c 52bb d477 daba 7271 9fbb
00000030: 0db0 163b cc62 1439 11a9 e03a 1262 4dbb
00000040: 656b 29bb e3d2 e93a 2d3e 153b e649 ebba
00000050: a707 55b9 7e81 6dba d33a adba 67e7 2bba
00000060: d6b6 923b 00b9 0cb9 b9d6 abbb 0d1d 2cbb
00000070: 8c28 813b d387 893a 8ed1 393b eef8 313a
00000080: 2325 f5ba 36d4 7939 1884 d9b8 ecd7 f7b9
00000090: e7ad a83b 4ef4 d5b9 4cac f7ba d9a4 43ba
000000a0: f60c fbbb 50f3 0c3b d1af fb3a 1899 853b
000000b0: 250e f9ba a84a 523b 7a85 83ba 0f04 43bb
000000c0: da9f 30bb 82b6 01bb 6958 513b eeeb 0c3c
000000d0: 107b 0e3b 65b5 57bb e364 58bb 9fcd a9bb
000000e0: 6826 d5bb 3855 36bb d655 acbb a693 b63b
000000f0: 4cb9 46b9 6ca0 adba a32b 00b9 7b2e 96ba
00000100: c3eb 4fbb a506 75ba 1d68 80ba f7b5 763b
00000110: e89f 21bc c324 5ebb 6869 55bb f323 7fba
00000120: a15c 95ba f45a 60ba 07c1 293a 8df4 7839
00000130: 7fd7 f5b9 8075 b2bb 7ab0 a9ba 9238 51bb
00000140: d1da 033b c035 6bb9 590f 003b 0211 4f3b
00000150: 2b2f 313b b3af 8bb8 164b 3b3b 621f 3f3a
00000160: cd86 34bb 8f0f 0e3a fad0 57ba 5ad9 84bb
00000170: 2b2f c8b9 7183 4c3b be5a ec3a 7326 ff3a
00000180: 12df d6bb 5ab0 b538 9a7b 193b 740a 043b
00000190: d969 c4ba fd05 853a 3678 5dbb 40a3 14ba
000001a0: d0cd 67bb 0c80 8fba 64fb 67b9 3a9c 20bb
000001b0: d7cf 38bb 7eb9 4638 4d17 653a a40c 37bb
000001c0: f3cf ac39 081e b83b 5c56 d3ba d67f 503a
000001d0: 9000 20bb 2214 363b 3c03 cc3a 6e18 1fb9
000001e0: e5e1 63ba b291 993a 610c 673a 2a75 53ba
000001f0: a77c c63a e804 dfba 8c0e ab39 8137 daba
0.0013384166 -0.0010165554 0.0027302173 0.0019062734 -0.0023598815 0.0033702992 -0.0015175721 0.0021500895
0.0009499816 -0.003208884 -0.0016667792 -0.0048658187 0.0022993118 0.00014151185 0.001714023 -0.0031338972
-0.0025851366 0.0017839338 0.0022772655 -0.0017951101 -0.00020316114 -0.00090601284 -0.0013216384 -0.0006557614
0.004477362 -0.00013420358 -0.005244103 -0.0026262433 0.003941601 0.0010492749 0.0028353664 0.00067891076
-0.0018703084 0.00023825545 -0.00010371971 -0.00047272386 0.005147684 -0.00040808547 -0.0018895953 -0.0007463224
-0.007661457 0.002150733 0.0019202178 0.004077088 -0.0019001408 0.0032087956 -0.0010034286 -0.0029757058
-0.0026950748 -0.001979262 0.0031943566 0.008601172 0.0021740831 -0.0032914516 -0.0033019118 -0.0051819826
-0.0065048225 -0.002782179 -0.005259256 0.0055718003 -0.0001895178 -0.0013246662 -0.00012223287 -0.0011457944
-0.0031726218 -0.00093469984 -0.0009796653 0.003764508 -0.009864785 -0.0033896423 -0.0032564048 -0.0009732835
-0.0011395403 -0.0008558475 0.00064756017 0.00023742225 -0.000468906 -0.005446136 -0.0012946271 -0.0031924588
0.0020119438 -0.0002243137 0.0019540398 0.003159583 0.002703617 -6.660763e-05 0.002857869 0.0007290748
-0.0027546168 0.00054191885 -0.0008232739 -0.0040542306 -0.00038182116 0.0031206275 0.0018032414 0.0019466415
-0.006557354 8.6636006e-05 0.002341962 0.0020147832 -0.0014985158 0.0010148879 -0.0033793575 -0.0005670078
-0.0035370477 -0.0010948195 -0.00022123527 -0.002450718 -0.0028200054 4.737963e-05 0.0008739129 -0.0027931118
0.0003296133 0.0056188144 -0.001612376 0.00079536194 -0.0024414398 0.0027782996 0.0015564929 -0.00015172522
-0.00086930237 0.0011716394 0.0008813795 -0.000806647 0.001514335 -0.0017015012 0.000326265 -0.0016648622

action_model._continuous_distribution.log_sigma f4 [1, 2]
00000000: ff11 913c 0e15 483c
0.017708777 0.012212051

action_model._continuous_distribution.mu.weight f4 [2, 128]
00000000: 1053 193c f617 1cbc b072 343c 1cfa b63c
00000010: 7561 81bc 5533 6c3c 215e 19bd 0f6a 4b3c
00000020: 661a 873a 17e7 e2bc 1719 9cbc 5f6a 03bd
00000030: 8466 7e3c 59dc 5cbc 9fa0 14bc 6ccc 3f39
00000040: c856 33bd 6dff d33b 2ce5 c63c c709 25bd
00000050: a9a7 e2bb 686b 9f3b 5cb2 00ba ac42 5a3c
00000060: a59a 3c3d 9df6 cebb e760 7abb 642a bb3c
00000070: 48df 533c ec16 053d 6811 a13c 1835 ce3c
00000080: 75b4 40bc 4928 d53c ad41 aebb 422f 493b
00000090: f7f0 0a3b 803e 2fbc 2ec1 f1bc a4b4 14bd
000000a0: b87c 88bc a5b6 053c f3d9 9c3c 2b76 26bc
000000b0: 344b debc 47eb fe3c be87 2ebc 2bba 17bd
000000c0: 4d53 dbbc b6d1 ddbb a491 2d3d 4014 cc3b
000000d0: 6834 45bb 20f0 bbbc 761b 95bc 4e95 57bb
000000e0: a683 19bd 10a6 383c b674 83bc dfe2 93bc
000000f0: a978 25bc cc39 a7bc 187b 843c 109c e13b
00000100: e13c 393c aa3a 6dbc 5633 813c 25fc 79bc
00000110: 63c1 18b9 6f17 aebb 06a1 4cbc 7ab1 80bb
00000120: 4414 8bbc 5496 dfbb a08c 4dbc fd19 8e3b
00000130: f611 2fbc 7e30 27bc d46b 2e3c 15c2 363a
00000140: a600 a83c 0615 95ba 8bda c03c 582e 793b
00000150: 22ff 803c 0ba9 943c df12 d93c 27bf 583b
00000160: 9220 c5bc 1937 6f3b b85d 24bc 55a9 c8bc
00000170: 4b19 b5bb 5474 18b9 6999 07bb 7838 b63a
00000180: c0c8 fcbc 4ce0 b8bc 588d 023c 955f f13b
00000190: db41 5bbc c0c1 44bb 22fb 3ebc 918a 82bc
000001a0: 915a b23c e948 87bc 7676 80bb a8ad 1cbc
000001b0: 9177 babb 6c40 a53c d7ec 7eb9 2aa7 8bba
000001c0: b3df 67bb 34aa cb3c 2884 313b 6ca2 b2b9
000001d0: 5b8f 453c 0294 eabb 9e91 c9bb 1e80 0e3c
000001e0: de4a babc a749 433b 7666 483d 3b97 a23a
000001f0: ac0d 253c 23a8 d6ba 5a01 f3bb 1132 7cbb
00000200: 7847 9abc 966e d13b fff8 95bb 17d6 583c
00000210: 3d98 e13b c93f 9aba 4142 7bbb 3922 c6bc
00000220: 5b2d adbc 4020 a43a 73e0 0e3d aefd 183c
00000230: 6677 d2bb 4750 26bd 1005 0dbc 7c33 963c
00000240: 7a37 b3bc a821 243c 1a1c f3ba 7d38 033d
00000250: 3860 ed3c 18de debc c464 f03b cb2f 263c
00000260: 9d1c bcbc d46e 6f3a 3c45 153c 39b9 eb3b
00000270: 0615 e5bc 3cd7 d43c 6c2b 94bb bfc1 acba
00000280: 0522 2e3c 1059 e4bc b7b4 35bc ac20 1c3c
00000290: d4d9 643a 1d65 873c 2abb 283a 9296 a93c
000002a0: 9a11 833b 1fee 35bc 300f 50bd dbd4 dbbc
000002b0: 43af ac3c b0b0 d4bc 6b1c 4d3c 0688 e1bc
000002c0: 359e 803b 3bf7 0dbb cdba d9bc 458f e83c
000002d0: f1b0 86bc 3a0f 3ebc 5e1a 443a e1cb f33b
000002e0: 621d 923b 763f 823b 3622 113b d959 a3bc
000002f0: 56fb 87bc ecd6 0fbc a976 163c 46ba 8bbb
00000300: 59bc 81bc 4f24 d93b dacd 983b 8fc0 04bc
00000310: 49cd 2f3a 0a83 9bbb 317f dfbc f98c 413c
00000320: d357 51bc 24d8 29bc 8ffa 143b 3e60 373b
00000330: 0482 883c cb3c 85bb a3c7 973b 44f5 2abc
00000340: 4c1c 0dbd 9fe4 15bd 8a4f 463a d263 c03b
00000350: 04e9 353c 24b2 50bc f789 04bd cf34 d9bc
00000360: fba6 d3bc 2376 ca3c b6a4 96bb c9a2 cbba
00000370: de4d d73c 0c4b 8dbb fec7 d8bb 4057 f1bb
00000380: 5e27 debb 716a 3abb 6eba c3bc 7e05 173d
00000390: 40a5 f53a ccef 37bd b654 333c 3d9a b53c
000003a0: ed39 15bd bf53 163d 6c6a bc3b 6f48 0cbc
000003b0: 3c75 26bb 67bc 1d3d ada6 edbc 366f 5eb9
000003c0: b47c 97bc e739 113c dcfd 043d 4ccf 3bbc
000003d0: d20a 30bd 43d0 7abc 6602 dbbc 63b0 323b
000003e0: cba4 ad3c fed0 313d 9c4a 493c 53f3 a73c
000003f0: dc54 e83b c181 debc a040 bebc a172 1cbc
0.009358183 -0.009527197 0.011013672 0.022336058 -0.015793541 0.014416535 -0.037443284 0.012415423
0.001030755 -0.027698083 -0.019054933 -0.032083865 0.015527371 -0.013480269 -0.009071498 0.00018291333
-0.043783933 0.006469658 0.0242792 -0.040292528 -0.0069169593 0.0048650987 -0.000490939 0.01332156
0.046045918 -0.0063160197 -0.003820473 0.022847362 0.012931652 0.032492563 0.01966162 0.025171801
-0.011761774 0.026020186 -0.0053178878 0.0030698334 0.0021200755 -0.0106960535 -0.02951106 -0.036305085
-0.016661033 0.008161222 0.019146895 -0.010160009 -0.027135469 0.031118048 -0.010652481 -0.037042778
-0.02677312 -0.0067693843 0.04237522 0.006228 -0.003009105 -0.022941649 -0.018201571 -0.003289539
-0.037479065 0.011270061 -0.016046863 -0.018052517 -0.010099568 -0.020413302 0.016171977 0.006885059
0.011306019 -0.014479319 0.01577155 -0.01525787 -0.00014567892 -0.005312852 -0.012489563 -0.003927407
-0.016977437 -0.0068233404 -0.012545735 0.004336594 -0.010685435 -0.0102044325 0.010645825 0.00069716695
0.020508122 -0.0011374063 0.02354171 0.0038022008 0.015746657 0.018147012 0.026498256 0.003307292
-0.024063382 0.0036501347 -0.01003211 -0.024494806 -0.005526697 -0.00014539185 -0.0020690805 0.0013902327
-0.030857444 -0.02256789 0.007968269 0.0073661306 -0.0133824 -0.003002271 -0.011656554 -0.015935214
0.021771701 -0.016514258 -0.0039203716 -0.009562887 -0.005690523 0.02017232 -0.00024311557 -0.0010654677
-0.0035381138 0.024861433 0.0027086828 -0.0003407182 0.012058104 -0.007158757 -0.006151392 0.008697538
-0.022740778 0.002979854 0.04892584 0.0012404689 0.01007406 -0.0016377013 -0.0074159326 -0.003848199
-0.018832907 0.0063913567 -0.004576802 0.013234637 0.0068846033 -0.0011768277 -0.003833905 -0.02418624
-0.021139791 0.0012521818 0.03488202 0.009337826 -0.006422925 -0.040603902 -0.008607164 0.018335097
-0.02187704 0.01001779 -0.0018547804 0.032036293 0.028976545 -0.027205512 0.007336231 0.010143231
-0.022962863 0.0009133641 0.009110745 0.007193711 -0.027964126 0.025981538 -0.004521778 -0.00131803
0.010628228 -0.0278745 -0.011090449 0.009529274 0.00087299687 0.016527707 0.0006436581 0.02070168
0.003999901 -0.011104136 -0.050795734 -0.026834896 0.021079665 -0.025963157 0.012518982 -0.027530681
0.0039251097 -0.0021662253 -0.026578331 0.028388629 -0.016441794 -0.01160031 0.00074807357 0.0074400757
0.004459069 0.0039748503 0.0022145635 -0.019940304 -0.016599339 -0.008779269 0.009183564 -0.004264149
-0.015836881 0.006626643 0.0046632113 -0.00810255 0.000670631 -0.0047458457 -0.02728233 0.011813396
-0.012777287 -0.010366473 0.0022732352 0.0027980949 0.016663559 -0.004066085 0.004631953 -0.010434452
-0.034450814 -0.036594983 0.0007564953 0.0058712745 0.011102919 -0.012737785 -0.032358136 -0.026514439
-0.025836458 0.024714535 -0.004597272 -0.0015536185 0.026282247 -0.004311925 -0.006615638 -0.0073651373
-0.0067795953 -0.0028444792 -0.023892608 0.036870472 0.0018741265 -0.044906422 0.01094549 0.022168273
-0.036432195 0.03670096 0.005749991 -0.008562191 -0.0025399467 0.038509753 -0.029010141 -0.00021212999
-0.01849208 0.008863903 0.03246866 -0.011462998 -0.04297907 -0.0153084425 -0.026734542 0.002726578
0.021196743 0.0434122 0.012285855 0.020501768 0.007090194 -0.02716148 -0.023224175 -0.009548814

action_model._continuous_distribution.mu.bias f4 [2]
00000000: c0c7 273b 1cb2 cbb9
0.0025601238 -0.0003885188

exp_avg f4 [128, 6]
00000000: 8b96 fc39 cd1a 8abb 2aef 1d3a d4d6 f5b8
00000010: 0000 0000 04b7 3838 3e07 023a e986 13ba
00000020: 7cac 09ba a6b5 9f39 0000 0000 04ac cdb9
00000030: 7476 183a e3a9 8f35 0456 3438 78d0 083a
00000040: 0000 0000 1e52 85b8 6939 243a 9930 b33b
00000050: aac4 2fba 7138 183a 0000 0000 7669 11ba
00000060: e2d2 863a 5eda 1abc 8356 06ba 67bd 9439
00000070: 0000 0000 f270 48ba 899c 1bb8 1ad7 19bc
00000080: 8927 9d39 b17b b0b8 0000 0000 fbca 8738
00000090: 84ec a7ba 1ef9 39b6 0761 11b9 5e80 21ba
000000a0: 0000 0000 497a 3eb9 59eb 21b9 5b4e 8bbb
000000b0: 1655 f939 97c7 31b9 0000 0000 8158 b839
000000c0: efd9 83b9 cfad 933b c614 3039 6f7a c639
000000d0: 0000 0000 61b5 a139 23f1 34b8 97b3 023c
000000e0: b4dd 47ba a7a4 11b8 0000 0000 518f 45ba
000000f0: cc4d 603a 44af 05bc 8399 c5b9 94f7 35b8
00000100: 0000 0000 0235 5738 431e 3d3a 8a3b febc
00000110: 8516 3f3a 9572 8fb8 0000 0000 bd43 9639
00000120: eb50 623a 858c 4e3c add4 dab8 60ac f339
00000130: 0000 0000 424c b6b9 dd22 33ba f4cc e73b
00000140: a621 fab9 63b1 31ba 0000 0000 5dd3 2bba
00000150: 4548 c0b9 6d28 08bb e1a0 64b9 b211 bcb6
00000160: 0000 0000 a1f4 7637 d32d 1f39 fbab 78bb
00000170: 9c5d cc38 cc97 b0b6 0000 0000 5e0b b838
00000180: f3b3 973a 4cae 8435 5a56 05b9 1bbc 5c3a
00000190: 0000 0000 688b fbb8 3fb2 fdb6 0832 cbb3
000001a0: 4513 6db7 e038 8137 0000 0000 f1a0 5db7
000001b0: 9a10 62ba 33b0 0eb7 ba03 723a 95e1 a739
000001c0: 0000 0000 4320 823a 528d 4339 20fa f6bb
000001d0: ab87 96ba 0711 9638 0000 0000 5633 54ba
000001e0: cbc7 4aba 3363 d2b5 f9d0 28ba 5859 ffb9
000001f0: 0000 0000 fa6f 07ba 31cf f73a f14e b136
00000200: 9cc4 bcba fd2b 003a 0000 0000 7f95 c6ba
00000210: 09c1 5eba 7dfb efb9 c7e5 3d38 7ee1 9cb9
00000220: 0000 0000 e74c 2339 b184 b2b9 c69d cfbb
00000230: e03f 25ba 9bea 4ab6 0000 0000 0b36 30b8
00000240: 016f 0fb9 b0d3 5236 5dd5 9ab5 80e5 cdb9
00000250: 0000 0000 8209 abb8 7f68 deb8 9690 4dbb
00000260: 3e36 9a39 63d0 92b9 0000 0000 fda5 6a38
00000270: 2d7c ef39 c660 7e35 a2df efb8 3260 8039
00000280: 0000 0000 87f8 ffb8 69c8 7cb9 a461 f83b
00000290: cf8a e239 77d3 3eb9 0000 0000 de7e 1539
000002a0: 8ccf 4ab9 decd 2f3c 359e 17b8 d11f 6437
000002b0: 0000 0000 8a2c 45b7 4f0c 71b7 0584 8335
000002c0: e3f3 2bb9 609b f1b8 0000 0000 084a 2cb9
000002d0: 8ca8 72b9 544b 57bc 12c5 2a3a eae7 c9b9
000002e0: 0000 0000 ca65 ab39 a7ce 6cba 533e 2cb6
000002f0: 67cb 30b8 5f9c f6b9 0000 0000 86bf 4c36
00000300: 249c 80ba 496e 9b3c 8b4d a3b9 ddfc ae39
00000310: 0000 0000 8a4b 0438 09d8 8739 f1c3 6b34
00000320: 72ea 30b9 0d26 6c39 0000 0000 acd1 69b8
00000330: f863 b1b9 cb81 babb a073 9839 e724 8ab9
00000340: 0000 0000 f467 3839 7e92 5ab9 efbc ceb4
00000350: 7947 a437 7c0f 08b9 0000 0000 d924 da37
00000360: 1a9d e239 7380 70bb cfa3 233a b3bb 2139
00000370: 0000 0000 f2ac ac39 95ff 2b39 a1de 79ba
00000380: 55ad 3639 23c2 bcb8 0000 0000 cc17 eb37
00000390: 4b3f 0bb9 7da9 3cbc 1824 dc39 7349 dcb9
000003a0: 0000 0000 a358 11b8 8a8c 1aba 8652 50bc
000003b0: f1d1 b63a 6f8c 06ba 0000 0000 532f 5a3a
000003c0: bc8f b8b8 9603 353c 0634 ba38 e31a 23b9
000003d0: 0000 0000 2a0f 9eb8 680e 11b9 f8ca 26bb
000003e0: 251f 183a 5c28 77b9 0000 0000 1495 9039
000003f0: b01f c3b6 8ab9 70b2 d523 04b7 274c 1436
0.0004817735 -0.0042146207 0.0006024713 -0.00011722525 0.0 4.4039465e-05 0.00049601856 -0.0005627708
-0.00052518374 0.00030462182 0.0 -0.0003922881 0.0005815991 1.0703774e-06 4.2995453e-05 0.00052190525
0.0 -6.35723e-05 0.00062646583 0.00546844 -0.00067050254 0.000580675 0.0 -0.0005547026
0.0010286237 -0.009451477 -0.00051245856 0.00028369876 0.0 -0.00076462247 -3.7100664e-05 -0.009389663
0.0002997483 -8.415373e-05 0.0 6.47511e-05 -0.0012811576 -2.7712153e-06 -0.00013864423 -0.0006160791
0.0 -0.00018165367 -0.0001544183 -0.004251284 0.00047556375 -0.00016954388 0.0 0.00035161155
-0.0002514864 0.0045068036 0.00016792407 0.00037856723 0.0 0.0003084345 -4.313992e-05 0.007977388
-0.0007624284 -3.472404e-05 0.0 -0.00075363094 0.00085565145 -0.008159462 -0.00037689143 -4.3384338e-05
0.0 5.1309362e-05 0.0007214287 -0.03103425 0.00072894274 -6.840114e-05 0.0 0.00028660698
0.00086332735 0.012606745 -0.00010434664 0.00046477 0.0 -0.00034770562 -0.0006833503 0.007073993
-0.00047708786 -0.0006778447 0.0 -0.0006554628 -0.0003667494 -0.0020776049 -0.00021803706 -5.6048966e-06
0.0 1.47197e-05 0.00015180492 -0.0037944305 9.744914e-05 -5.26288e-06 0.0 8.775921e-05
0.0011574015 9.885493e-07 -0.00012716037 0.0008420364 0.0 -0.00011994579 -7.560738e-06 -9.462025e-08
-1.4130787e-05 1.5404483e-05 0.0 -1.3210099e-05 -0.00086236896 -8.504884e-06 0.00092321227 0.00032020794
0.0 0.0009927828 0.00018649295 -0.0075371414 -0.0011484524 7.155729e-05 0.0 -0.0008094808
-0.000773546 -1.567509e-06 -0.0006439831 -0.00048703956 0.0 -0.0005166527 0.0018906352 5.284201e-06
-0.0014401856 0.0004889367 0.0 -0.0015150754 -0.00084973924 -0.00045773006 4.527511e-05 -0.00029922643
0.0 0.0001557354 -0.00034049668 -0.0063359467 -0.00063037686 -3.0236904e-06 0.0 -4.2012e-05
-0.00013678895 3.1415657e-06 -1.1535991e-06 -0.00039271638 0.0 -8.1556864e-05 -0.00010605249 -0.0031366698
0.00029413583 -0.0002800255 0.0 5.5944536e-05 0.0004567815 9.47632e-07 -0.00011438063 0.00024485734
0.0 -0.00012205639 -0.00024107251 0.007579999 0.000432095 -0.00018198589 0.0 0.00014257009
-0.00019341538 0.010730235 -3.6148547e-05 1.3597267e-05 0.0 -1.1752485e-05 -1.4367585e-05 9.798683e-07
-0.00016398686 -0.00011520716 0.0 -0.00016430777 -0.00023141707 -0.013140518 0.0006514351 -0.00038510497
0.0 0.000326915 -0.0009033479 -2.5666275e-06 -4.2151103e-05 -0.00047037282 0.0 3.050985e-06
-0.0009812159 0.018973486 -0.00031147557 0.00033376264 0.0 3.1541604e-05 0.00025910165 2.1957364e-07
-0.00016872006 0.00022520889 0.0 -5.57468e-05 -0.00033834553 -0.005691742 0.00029077847 -0.00026348906
0.0 0.00017586333 -0.00020844673 -3.8507957e-07 1.9583606e-05 -0.00012975739 0.0 2.6004784e-05
0.0004322313 -0.0036697655 0.0006242366 0.0001542408 0.0 0.0003293525 0.00016403043 -0.00095317705
0.00017421444 -9.000699e-05 0.0 2.8025264e-05 -0.00013279651 -0.0115150185 0.00041988562 -0.00042016394
0.0 -3.4653243e-05 -0.0005895576 -0.012714988 0.0013948065 -0.00051326206 0.0 0.0008323092
-8.800576e-05 0.011048218 8.878861e-05 -0.00015554907 0.0 -7.5368516e-05 -0.00013833644 -0.0025450569
0.0005802981 -0.0002357079 0.0 0.00027576892 -5.815142e-06 -1.4012025e-08 -7.876156e-06 2.2098045e-06

exp_avg_sq f4 [128, 6]
00000000: 6432 fb36 8b52 bc3d fd6d 0637 5236 8c34
00000010: 0000 0000 35b2 9334 b06f 3136 d507 bb3b
00000020: bb89 da35 1dd9 5135 0000 0000 7dcb 6c35
00000030: a109 7337 b123 dd36 6ee8 3737 9a30 a036
00000040: 0000 0000 c8b7 2937 30c4 3937 63c4 323d
00000050: 123f 0837 5f24 4d36 0000 0000 e90e 1e37
00000060: be51 4337 b616 193d 4371 e136 d05a 4c36
00000070: 0000 0000 6cbb 9536 f6a7 8f36 d43b a93c
00000080: 3398 eb35 96bd 6035 0000 0000 691a 9f35
00000090: 379c ba36 bf69 7836 a3de 7836 5ab1 db35
000000a0: 0000 0000 fb3c 6036 3098 9c36 b163 983b
000000b0: 8bc1 8a36 dfe7 b635 0000 0000 729b 9c36
000000c0: 4d53 e137 a00e e03c e332 0f37 302c 2437
000000d0: 0000 0000 0728 8e36 4692 0c37 e28a e13b
000000e0: f1d7 5437 38ce 1536 0000 0000 1a51 7c37
000000f0: f27f fa36 6a0c fe3c 4f46 ab36 6582 f935
00000100: 0000 0000 3389 fd35 619b 2137 fd9e a33d
00000110: c973 8e36 9d4f 3b36 0000 0000 7747 fd35
00000120: 7158 8237 78e4 463d ae7f af37 1ce8 6936
00000130: 0000 0000 ba22 e237 1aa6 8a37 dc05 df3c
00000140: 4b42 5237 eaf0 a536 0000 0000 b8b5 3a37
00000150: 4d57 8737 3d53 223c d1c2 ab36 1576 c336
00000160: 0000 0000 be88 2b36 b4a4 9e35 83c9 1b3c
00000170: 64b8 7735 0ad1 be33 0000 0000 6642 8b35
00000180: e68e 5336 740b 1d34 d3fa 4936 d8bc 4135
00000190: 0000 0000 7f1d 4b36 d6b1 2030 1e17 2930
000001a0: cf16 e830 ccf3 0031 0000 0000 646c 1831
000001b0: 8ef1 2a36 12e5 3c33 723d 0737 c0ba 9035
000001c0: 0000 0000 6b47 0e37 4d5a f636 eff9 c03c
000001d0: 199a 3a37 8e24 ab35 0000 0000 ca18 0d37
000001e0: 7471 5737 0c82 bd32 3c95 ae37 0e65 5136
000001f0: 0000 0000 b95d b237 685e 9237 c7f8 9a36
00000200: 9f4c 8837 62ac 9836 0000 0000 0fe7 8737
00000210: d5a1 4e38 2450 9c3c 1c56 0238 2b64 8637
00000220: 0000 0000 0ef4 9c37 69cc d237 22a4 e23d
00000230: 6db0 6937 1925 cd36 0000 0000 a162 b135
00000240: 7dc5 0d35 7a83 0b32 8e89 be35 d4ff 7a34
00000250: 0000 0000 f29a cb35 d2e0 d536 1a85 893c
00000260: 5b26 4a36 58d3 3136 0000 0000 728e 0e37
00000270: 97c9 a835 0a3b e12f 2801 ac35 023f a934
00000280: 0000 0000 c52e ac35 3bff bb37 926d 153d
00000290: 622f 9237 ab93 e036 0000 0000 4db6 2737
000002a0: 9fd1 a036 35d4 d53c 8b6e 3336 3cee e435
000002b0: 0000 0000 465e a536 910c df32 c58d 0434
000002c0: 87a7 4d33 d5b1 8233 0000 0000 8ae9 9e33
000002d0: a61d 9136 8ad5 153d 00d4 3536 5484 1835
000002e0: 0000 0000 036f 2136 f7ac 6636 7259 ea32
000002f0: 1ab1 8736 3eaf 4935 0000 0000 40af 8836
00000300: 65d0 ed37 507d 2e3e 3875 6e37 8ac4 d936
00000310: 0000 0000 983e 1c37 2aee 0337 c69a 9138
00000320: a9b9 2137 4e72 2536 0000 0000 6093 1a37
00000330: 499a 8237 1d64 103b 6d0b 3137 7715 aa36
00000340: 0000 0000 74e0 dd36 5637 9934 2d16 ca33
00000350: 349f 7d32 f481 d433 0000 0000 5b7d f531
00000360: 5fdf 2c37 dc0e f63c e4c8 e236 30cf 7136
00000370: 0000 0000 010d 0d37 3514 4135 0936 ff3b
00000380: f09d 7f35 5f69 0333 0000 0000 1870 5933
00000390: 3800 6938 cccf 8e3d 4a84 1f37 7fba b637
000003a0: 0000 0000 37ef 5c37 ca3c 1837 3475 b13d
000003b0: f95a 6337 d238 6b35 0000 0000 4908 a237
000003c0: 61fa 7936 a375 1d3d 5cf6 9636 a50c 5735
000003d0: 0000 0000 0d9d 9f36 a030 eb36 bfa1 263d
000003e0: bdd8 0837 bd98 9535 0000 0000 e68e 0737
000003f0: 5c3a e22e 3105 ba2c 6572 cb2d fbdc 9e2f
7.486249e-06 0.09195431 8.012631e-06 2.6116555e-07 0.0 2.7510546e-07 2.6440066e-06 0.0057077208
1.628235e-06 7.817451e-07 0.0 8.8212965e-07 1.4486171e-05 6.5904683e-06 1.0961767e-05 4.7740295e-06
0.0 1.0115975e-05 1.1072538e-05 0.04364432 8.120916e-06 3.0568551e-06 0.0 9.421005e-06
1.1641938e-05 0.037375174 6.718708e-06 3.0451229e-06 0.0 4.462365e-06 4.2812853e-06 0.020658411
1.755316e-06 8.3722387e-07 0.0 1.185411e-06 5.5614178e-06 3.7016432e-06 3.7084471e-06 1.6368388e-06
0.0 3.3414096e-06 4.6668792e-06 0.004650556 4.135252e-06 1.362754e-06 0.0 4.6672585e-06
2.686088e-05 0.027350724 8.535312e-06 9.78545e-06 0.0 4.2365896e-06 8.378707e-06 0.006883011
1.26864625e-05 2.2322765e-06 0.0 1.5039253e-05 7.4654754e-06 0.031011779 5.104382e-06 1.8589895e-06
0.0 1.8889899e-06 9.632525e-06 0.07989309 4.245409e-06 2.7911512e-06 0.0 1.8870768e-06
1.5538391e-05 0.04855773 2.0921081e-05 3.485481e-06 0.0 2.695747e-05 1.6528229e-05 0.027224474
1.253241e-05 4.9454293e-06 0.0 1.1128774e-05 1.6133907e-05 0.009907541 5.1188767e-06 5.8251994e-06
0.0 2.556058e-06 1.1819852e-06 0.009508493 9.2282994e-07 8.8855884e-08 0.0 1.0375632e-06
3.1524628e-06 1.4625931e-07 3.0097333e-06 7.2172907e-07 0.0 3.0266526e-06 5.846038e-10 6.1514693e-10
1.6886704e-09 1.8765034e-09 0.0 2.2180524e-09 2.5472577e-06 4.39805e-08 8.060933e-06 1.0783187e-06
0.0 8.480488e-06 7.3418837e-06 0.023556678 1.1122343e-05 1.2751132e-06 0.0 8.410027e-06
1.2841414e-05 2.2061634e-08 2.0811909e-05 3.1202248e-06 0.0 2.1262897e-05 1.7448518e-05 4.618519e-06
1.6248143e-05 4.550021e-06 0.0 1.620085e-05 4.9264945e-05 0.019081183 3.107461e-05 1.602069e-05
0.0 1.8710296e-05 2.5129137e-05 0.11066462 1.392896e-05 6.113795e-06 0.0 1.3216232e-06
5.2813976e-07 8.120759e-09 1.4196137e-06 2.3376134e-07 0.0 1.5169774e-06 6.374067e-06 0.0167871
3.0122671e-06 2.6498074e-06 0.0 8.497025e-06 1.2575646e-06 4.096921e-10 1.2815335e-06 3.1524547e-07
0.0 1.282861e-06 2.2410988e-05 0.036481448 1.742662e-05 6.692911e-06 0.0 9.996421e-06
4.7927747e-06 0.026102165 2.6737423e-06 1.7056659e-06 0.0 4.928358e-06 2.5966331e-08 1.2345033e-07
4.7882647e-08 6.085944e-08 0.0 7.399929e-08 4.3247883e-06 0.0365806 2.7094502e-06 5.6816975e-07
0.0 2.4055487e-06 3.437335e-06 2.728186e-08 4.043931e-06 7.5133346e-07 0.0 4.0735176e-06
2.8349643e-05 0.1703999 1.4213198e-05 6.489984e-06 0.0 9.312898e-06 7.86366e-06 6.9429676e-05
9.639575e-06 2.465345e-06 0.0 9.213429e-06 1.5569052e-05 0.0022032328 1.0552682e-05 5.0688936e-06
0.0 6.612443e-06 2.8538733e-07 9.410392e-08 1.4762737e-08 9.8956576e-08 0.0 7.1446897e-09
1.03040065e-05 0.030036382 6.7587116e-06 3.6032397e-06 0.0 8.407283e-06 7.192751e-07 0.007788424
9.522473e-07 3.059665e-08 0.0 5.06262e-08 5.5551733e-05 0.06973228 9.5079395e-06 2.1782935e-05
0.0 1.3168718e-05 9.07406e-06 0.08664933 1.3551436e-05 8.7627006e-07 0.0 1.9315763e-05
3.724963e-06 0.038442265 4.4990284e-06 8.011214e-07 0.0 4.7568524e-06 7.0092065e-06 0.040681597
8.156695e-06 1.1145818e-06 0.0 8.079898e-06 1.0287657e-10 5.2870143e-12 2.312923e-11 2.889705e-10

exp_avg f4 [128]
00000000: 0f75 6836 16d9 bbb7 d7fd 7435 8aab 37b8
00000010: c8de d4b7 2b01 0838 b06a 2238 7b33 50b7
00000020: 3b25 4537 c50f 6cb7 dd52 9cb8 745e 7737
00000030: 79f1 86b8 4e9e 0a37 3ac6 9437 d7fc 1437
00000040: a4e6 40b7 a37b c135 36c6 c838 3770 9db7
00000050: 5101 8137 1d8a b6b8 7cdc 7837 870c 74b7
00000060: daf2 1db8 9b1e 1fb6 2101 04b7 c9d2 8a37
00000070: 245a 5cb6 7221 67b7 01eb e237 07a9 c737
00000080: ac61 1d38 685b 0537 1795 7037 7667 bc36
00000090: c818 da35 2c6d cdb6 9e89 d637 6b6e 4738
000000a0: c243 a8b7 9e7f 9b37 c67d f134 8ee9 a636
000000b0: bfab e336 6503 a1b6 e948 51b6 2a3c 5738
000000c0: 46ff abb7 00b9 20b7 06e3 31b7 e756 6737
000000d0: 6342 a2b7 c1ed 0438 7e78 8fb8 3e39 b9b6
000000e0: 984b 3a38 b770 f7b7 4922 5fb8 07c5 e037
000000f0: b15b 8b37 067e b7b7 ed21 9db7 e0b4 80b8
00000100: cbde 75b7 74a7 01b7 6f63 3bb3 aade 99b7
00000110: 1e5e aeb6 87b4 ed34 19f6 93b5 6de5 fcb7
00000120: 2e49 ba35 9c54 f4b7 059a 37b8 89ed 4237
00000130: baaa 3037 dd1b ce36 8f5e b835 5ade dc37
00000140: 5b36 1635 f1b3 9a36 1da9 da37 ec5d 23b7
00000150: 6946 afb7 b912 b7b7 2779 a436 370b 1137
00000160: 3a86 78b7 c735 3bb8 7e84 19b8 b15d 1837
00000170: e5f1 a0b7 482f fab7 7217 1e37 10b5 c8b7
00000180: 84e8 2b35 f655 cfb6 f42c 2738 5924 9d36
00000190: f252 22b8 bfc5 d8b7 0b09 26b6 2672 5cb8
000001a0: 409a 2cb8 b7a2 0b37 b621 64b5 952b 0fb8
000001b0: a7c2 3236 985a a4b7 69a6 fab6 e969 0138
000001c0: 3351 3438 2c28 20b7 4411 9db7 8a3e b537
000001d0: 7f0d c837 8358 4338 2bf6 25b7 0932 6f38
000001e0: 0a48 edb7 bb2b 50b8 39e3 3238 1971 8d37
000001f0: 850f 1437 0dfd 8f37 c28f ac38 2a80 f3b5
3.463883e-06 -2.2393226e-05 9.126647e-07 -4.3790358e-05 -2.537611e-05 3.2426015e-05 3.872317e-05 -1.2409752e-05
1.1750783e-05 -1.4070368e-05 -7.454094e-05 1.4744339e-05 -6.434596e-05 8.262299e-06 1.7735281e-05 8.880356e-06
-1.1497792e-05 1.4415604e-06 9.573663e-05 -1.8768113e-05 1.5378611e-05 -8.704162e-05 1.4833287e-05 -1.454645e-05
-3.765789e-05 -2.371066e-06 -7.868076e-06 1.6549036e-05 -3.2835023e-06 -1.377646e-05 2.7050732e-05 2.3801358e-05
3.752268e-05 7.9487e-06 1.4339827e-05 5.614881e-06 1.6249478e-06 -6.1221854e-06 2.5574871e-05 4.7548132e-05
-2.0058713e-05 1.8536866e-05 4.498126e-07 4.974375e-06 6.785121e-06 -4.798569e-06 -3.1185866e-06 5.1316027e-05
-2.050366e-05 -9.579817e-06 -1.060288e-05 1.37889065e-05 -1.9342819e-05 3.1692678e-05 -6.841215e-05 -5.5200935e-06
4.4416258e-05 -2.9497181e-05 -5.3199274e-05 2.6794629e-05 1.6612788e-05 -2.1873984e-05 -1.8731656e-05 -6.137206e-05
-1.4655011e-05 -7.727987e-06 -4.3629765e-08 -1.8342707e-05 -5.196561e-06 4.427604e-07 -1.1023977e-06 -3.0147576e-05
1.3879378e-06 -2.9126466e-05 -4.3774042e-05 1.1618607e-05 1.0530168e-05 6.142522e-06 1.3736588e-06 2.6329584e-05
5.595845e-07 4.6105056e-06 2.6066375e-05 -9.737425e-06 -2.0894413e-05 -2.1824018e-05 4.901685e-06 8.645285e-06
-1.4813204e-05 -4.463436e-05 -3.6601436e-05 9.08172e-06 -1.9186127e-05 -2.982434e-05 9.422993e-06 -2.3926172e-05
6.404082e-07 -6.179088e-06 3.985777e-05 4.683196e-06 -3.870106e-05 -2.584129e-05 -2.4741191e-06 -5.2558396e-05
-4.1151652e-05 8.322931e-06 -8.4985675e-07 -3.4134446e-05 2.663737e-06 -1.959251e-05 -7.4699533e-06 3.0854633e-05
4.2990967e-05 -9.546096e-06 -1.8723898e-05 2.1606003e-05 2.3848143e-05 4.6574056e-05 -9.892082e-06 5.702864e-05
-2.8286147e-05 -4.963179e-05 4.2650125e-05 1.6861175e-05 8.825101e-06 1.7164764e-05 8.228376e-05 -1.8142212e-06

exp_avg_sq f4 [128]
00000000: 8ca1 c12f 2434 f52f acc8 f331 e246 bb31
00000010: 07f1 8831 de24 8a30 a90b 8831 b510 d931
00000020: 3533 0f31 e4f9 4f32 bc82 0831 7b30 be30
00000030: 5aff 9432 951b 2632 2141 c930 814c 1430
00000040: c2d2 8631 ee8f 122d 05e0 0c32 a108 1d32
00000050: f38a dc32 4035 9732 8f0f b431 5afa 2030
00000060: bef2 ce30 6559 4731 b6f5 a030 4ee2 3c31
00000070: 36bb eb30 4c17 2e2f e8e6 8b30 65e5 9331
00000080: ebca 4931 6a3d 2731 d5ad f930 4dea 0d2f
00000090: 0f51 cc31 264e d82e 7c6a 9e31 30be af31
000000a0: c00e eb30 ad49 2931 e158 a72b e033 bd2e
000000b0: e9cb 1631 22db 9230 f06a 0f31 7380 8d31
000000c0: cf4c 8230 fba3 4d2e 2ba1 bc30 6f0b a230
000000d0: 5cdb 2a30 5b1e a532 f7df cc30 7c91 e22f
000000e0: d02f 1631 cca8 ac31 51b6 8432 6ff4 5a31
000000f0: 0256 2130 c0a4 4030 85e8 d631 a95f 2432
00000100: f434 c230 d5a0 cd30 57e8 f72f 67e7 a731
00000110: 86dd b632 6126 bd30 06ab 1331 ae20 ca31
00000120: 4931 192c ca3c 4130 0677 2430 99db 1a30
00000130: bd84 0532 4c24 ae31 bdd1 f72f f03d 9f31
00000140: 38e2 a82a 637b 2b2e 3c6e 7d30 db15 e731
00000150: 5d19 fd31 dbfe a831 ed8f 2331 8d74 5a2f
00000160: e9c3 3131 8209 0f31 35ee 0332 deca 8231
00000170: f0fe 0330 e6c8 de32 ffe7 db2f 03a4 9f31
00000180: 7802 e530 99b2 fa2f e7a6 d931 2dfc 3330
00000190: 9df0 b931 d0ae 9730 a18c 152f 40e5 4531
000001a0: de8b 7131 26b6 9f30 8b86 6b2b 4f8b 4d31
000001b0: 24e0 6c30 7238 892f 15fb 732e 1085 8e31
000001c0: cf55 3131 edd7 612f 4e0c 2530 84ac 9130
000001d0: 38c4 bf30 c8b3 fc30 fcdb b32d c5e6 6631
000001e0: 6f68 b531 57d0 5733 7d39 c432 d742 d231
000001f0: cf47 7a31 2379 7c30 995e 4d32 f4fa b22c
3.5221281e-10 4.4602289e-10 7.0950446e-09 5.4504747e-09 3.9855226e-09 1.00513e-09 3.9594465e-09 6.3174306e-09
2.0838347e-09 1.2105804e-08 1.9864919e-09 1.3838098e-09 1.7345588e-08 9.668743e-09 1.4643186e-09 5.3950805e-10
3.9238737e-09 8.331098e-12 8.200009e-09 9.140565e-09 2.5674558e-08 1.7602929e-08 5.2404583e-09 5.856343e-10
1.5057464e-09 2.9009126e-09 1.1711367e-09 2.748624e-09 1.7151709e-09 1.5833485e-10 1.0179209e-09 4.304342e-09
2.9364695e-09 2.4336608e-09 1.816654e-09 1.2907116e-10 5.9463967e-09 9.836425e-11 4.610511e-09 5.114792e-09
1.7102693e-09 2.4634617e-09 1.1890733e-12 8.60394e-11 2.1943782e-09 1.0685179e-09 2.0870026e-09 4.118243e-09
9.480575e-10 4.6757247e-11 1.3724607e-09 1.1790301e-09 6.215737e-10 1.9222332e-08 1.4906608e-09 4.1212533e-10
2.185505e-09 5.025049e-09 1.544973e-08 3.186212e-09 5.8693683e-10 7.0083317e-10 6.254654e-09 9.567807e-09
1.4130408e-09 1.4961424e-09 4.5094126e-10 4.886647e-09 2.1288326e-08 1.3762468e-09 2.148853e-09 5.882689e-09
2.1769966e-12 7.029938e-10 5.9831995e-10 5.633694e-10 7.7718e-09 5.068193e-09 4.5078066e-10 4.6345505e-09
2.9999766e-13 3.8990488e-11 9.2197516e-10 6.7254695e-09 7.3661526e-09 4.9184172e-09 2.3801434e-09 1.9868392e-10
2.5868252e-09 2.0814643e-09 7.679366e-09 3.8065613e-09 4.801981e-10 2.593556e-08 4.000071e-10 4.646155e-09
1.6662645e-09 4.5601636e-10 6.334506e-09 6.5478184e-10 5.411563e-09 1.1036381e-09 1.3601432e-10 2.8797587e-09
3.514962e-09 1.1620542e-09 8.367549e-13 2.9910614e-09 8.6174823e-10 2.4960262e-10 5.547481e-11 4.1478714e-09
2.5805666e-09 2.0540343e-10 6.0044136e-10 1.059917e-09 1.3952848e-09 1.838651e-09 2.0447637e-11 3.3600582e-09
5.279666e-09 5.0248072e-08 2.2843546e-08 6.119403e-09 3.6420607e-09 9.184921e-10 1.19540795e-08 5.0869257e-12
